DQN_LunarLander_ep200.pth (torch, 279252 bytes, 6 tensors)

fc1.weight f4 [256, 8]
000000 0c 8e dc bb b7 6e 06 bf 98 f0 51 be 7a e9 40 be
       -0.0067308005 -0.5251269 -0.20501935 -0.18839064
000010 f8 3e 67 be 9d 0f 9e 3b c2 fa 5c 3e 85 29 2d 3e
       -0.22582614 0.0048236386 0.21580032 0.1691037
000020 a2 f2 e5 3b de 09 81 3e 8c b4 63 3e 07 fb b3 3e
       0.0070174495 0.2520284 0.22236842 0.35152456
000030 e7 60 0d 3c d0 e0 dd be 65 b1 85 bc 3b 78 81 be
       0.00862906 -0.4333558 -0.01631994 -0.2528704
000040 84 c4 68 be 3a bc 8d 3e c8 70 80 3e 17 2f 25 3d
       -0.22731215 0.27682668 0.25086045 0.04032811
000050 e7 6a 7a 3e 96 d0 9e be f6 9e c0 3e c9 58 0f 3d
       0.24454843 -0.31018513 0.37621278 0.03499678
000060 ab 36 b2 3e c9 16 73 be f9 31 41 3e f5 01 14 bb
       0.34807333 -0.2373916 0.1886672 -0.0022584174
000070 20 47 e8 bd af 1e cd be 36 52 a0 3e ba 9d ca 3e
       -0.11341691 -0.40062472 0.31312722 0.3957346
000080 08 e9 18 be 6c 27 e3 be 0d ac 27 be fc 72 ea be
       -0.14932644 -0.44366014 -0.16374226 -0.4579085
000090 05 c7 b6 bb 61 03 d7 3e 14 cf 5b bd a7 ce 01 be
       -0.005577924 0.41994765 -0.053664282 -0.12676488
0000a0 da 75 5c 3e 12 88 31 3e 04 f7 64 3e c4 38 8b 3e
       0.21529332 0.17337063 0.22359854 0.27191746
0000b0 a6 f4 01 bf e1 45 ac bd 79 27 39 3c 91 a6 dc bd
       -0.5076393 -0.08411766 0.011300915 -0.107739575
0000c0 a2 33 b2 be c2 df 2b 3e 0f a3 b3 be 24 59 83 3d
       -0.34805018 0.16784576 -0.3508534 0.064134866
0000d0 a9 7c e4 bd 0e e7 86 3e 3a 5a 82 3e 12 b5 80 3e
       -0.111565895 0.26348156 0.25459462 0.25138146
0000e0 d2 5e a4 3e 9d f1 45 3e e5 da b2 3e 9f 83 fe 3d
       0.32103592 0.1933045 0.34932628 0.124274485
0000f0 69 9f 9f bd b3 34 9f 3e 0b 69 13 be b3 64 a7 3e
       -0.07794077 0.31094894 -0.1439554 0.32694015
000100 e8 33 38 be f2 3d e0 be 43 71 86 3e ab 85 b1 bd
       -0.1798855 -0.4379726 0.26258287 -0.08668073
000110 f7 3b 55 be cc 60 c5 be aa cf 7f 3e 98 26 61 bd
       -0.20823656 -0.38550413 0.24981561 -0.054968446
000120 52 ad cf bd fa 57 d8 3d 56 31 8f be f1 cb 98 bd
       -0.1014048 0.10563655 -0.27967328 -0.07460774
000130 48 0b c3 3e 3e 26 f1 3d a7 fa d5 bd 94 70 55 3e
       0.38094544 0.11774872 -0.10448199 0.20843726
000140 a2 96 96 be 40 2a 4c bc 59 03 70 3c 82 eb ec bd
       -0.294118 -0.012461245 0.014649236 -0.11568357
000150 14 06 e6 3d 83 92 89 3e 8b e1 87 3e a5 38 fa 3d
       0.11231628 0.26869592 0.26539263 0.12217835
000160 85 a9 c9 bd 28 df aa be 4a 14 6d be 79 66 04 be
       -0.098467864 -0.3337338 -0.23152271 -0.12929715
000170 3e 73 22 3e 0b 38 c4 3e b9 94 5f be 96 a7 93 3e
       0.15864274 0.38324007 -0.21834077 0.28838795
000180 d4 aa d4 3d 5c b7 bc 3e d9 c6 55 3e e5 17 5e 3e
       0.103841454 0.36858642 0.20876636 0.21688803
000190 ef a2 db 3e 07 bd ce 3e 00 3a e6 3d d0 d6 15 bd
       0.42897746 0.4037859 0.11241531 -0.036581814
0001a0 5c e8 3e 3e 48 c4 79 be 7d 8b 14 be f4 ea a1 be
       0.18643326 -0.24391282 -0.14506336 -0.31624568
0001b0 cb d4 a8 3d 7b b6 c2 bd 85 70 4b be 8f 32 09 be
       0.08243712 -0.09507462 -0.19867142 -0.13398193
0001c0 c8 0c a5 be f8 b3 27 bf 7b 91 0c 3d a8 73 d8 be
       -0.32236314 -0.65508986 0.03431843 -0.4227574
0001d0 05 04 5c 3e 98 d4 cf be af d1 10 be 7f 7e c5 3e
       0.21485908 -0.40591884 -0.14142488 0.3857307
0001e0 2c d2 a2 3e 7a 1f c2 3d 58 8a 5e 3d 82 46 0f 3c
       0.31800973 0.0947866 0.054331154 0.008744838
0001f0 6c e5 9e be f0 84 94 be 5e a4 91 3d 3d af af bb
       -0.3103441 -0.29007673 0.07111429 -0.005361466
000200 4d 5b 2f 3e 90 14 bb be 6f 77 76 3e 51 7d 15 3e
       0.17124672 -0.36539125 0.24068998 0.14598586
000210 54 ae 03 be 4d a5 db be 3b 4e 90 3e 98 4c b0 be
       -0.1285947 -0.42899552 0.28184685 -0.34433436
000220 d0 aa d1 bd 7d 55 18 3e 6f b6 e3 3d 16 ad e2 3c
       -0.10237658 0.14876361 0.11118781 0.027670424
000230 5e 08 a4 be 35 03 c6 be 0c 76 b1 bd 03 5a 89 be
       -0.32037634 -0.38674322 -0.08665094 -0.26826486
000240 00 a9 e3 3d af 51 53 3e 8e b0 3d be 0c 12 bc 3e
       0.111162186 0.20636629 -0.18524382 0.3673252
000250 3e 15 e7 3e c4 7d f3 3e 57 93 63 be 3a 56 47 be
       0.45133394 0.4755689 -0.22224174 -0.19466487
000260 22 54 64 bd 81 b7 df 3d 07 d3 6c be ec 17 81 be
       -0.055744298 0.109236725 -0.23127376 -0.25213563
000270 1a 42 ab 3d 1f 10 67 3e fd e1 09 be 5f c3 b2 3e
       0.08362217 0.22564743 -0.13465114 0.3491468
000280 cf cb 15 bc c1 96 cb bd 86 56 29 be c5 5a 85 3e
       -0.00914283 -0.099408634 -0.16536912 0.26045814
000290 76 29 a0 3e e8 c8 05 3f db ed 9e 3d fa 57 c1 be
       0.31281632 0.52259684 0.07760211 -0.37762433
0002a0 e4 67 87 3e 86 df 0a be c5 f7 9a be 6a ae 1e 3e
       0.2644645 -0.1356183 -0.30267158 0.15496221
0002b0 77 ab e1 3e 2f a2 df 3e 53 b3 97 3e e3 42 3c 3e
       0.4407613 0.43678424 0.29629 0.1838489
0002c0 76 01 8f 3e 4c 0d fa be 9d 12 14 be 38 60 cf bd
       0.27930802 -0.4883827 -0.14460225 -0.10125774
0002d0 2d 1b d7 be 07 a6 31 3c f0 83 5f 3c df 7c 20 3e
       -0.4201292 0.010842807 0.013642296 0.15672635
0002e0 ea ca 97 bb 9b 44 dd be 6e 32 db 3c c2 2a c4 bc
       -0.0046323435 -0.43216404 0.026757445 -0.02394617
0002f0 29 48 d1 3e 77 22 2d 3e 3c 34 96 bd ad d9 47 3d
       0.40875366 0.16907679 -0.07334182 0.048791576
000300 4d d5 42 be 5d 88 e1 3d 86 b2 62 3e c7 8e 8c be
       -0.1902668 0.11012337 0.22138414 -0.2745268
000310 f6 f5 ec be 50 9d c0 bd f9 da 04 3e 4f 0e 40 be
       -0.46281403 -0.09405005 0.12974156 -0.18755458
000320 e4 b2 ed bd 94 ce a6 be 57 1a 8d be 83 ff aa 3d
       -0.11606386 -0.32579482 -0.27559158 0.08349516
000330 cd d2 e4 3e 68 a7 31 3e 7d 41 51 be 69 30 7a be
       0.44692078 0.17349017 -0.20435138 -0.2443253
000340 be 15 6f 3e cf 16 a4 3e 7a 71 4a 3d 70 37 92 3d
       0.23348138 0.32048652 0.049424626 0.0713948
000350 74 d2 83 3e 6e 35 b6 3e 7e f7 b1 bd 1c 4a 59 3e
       0.257465 0.3558764 -0.086897835 0.21219677
000360 3d ac 35 3e 80 c2 73 3e 37 f0 d3 3e c2 58 68 3e
       0.17741485 0.23804665 0.41394207 0.22690108
000370 6c 29 8c be ec 13 84 3e 3d 4b 5b 3d c5 71 9a 3e
       -0.27375352 0.2579645 0.05353855 0.30164924
000380 bb c5 9d 3e 0d a5 88 3e 0b 70 69 be ac b1 ee be
       0.3081492 0.26688424 -0.22796647 -0.46619928
000390 e0 6e 9c 3e df a9 89 be f3 15 da be a7 ab 9b be
       0.3055334 -0.26887414 -0.4259487 -0.30404398
0003a0 c6 dd aa 3e 6d c9 95 be 58 e4 d1 3e 0f 00 cc 3c
       0.33372325 -0.29255238 0.40994525 0.024902372
0003b0 d6 1a 63 3b 00 6a 79 be c4 1e 8b 3a 51 a0 5a be
       0.0034653447 -0.24356842 0.0010614027 -0.21350218
0003c0 08 3e 80 3d 5c e5 8f be 8e 33 fa 3d c7 31 98 3b
       0.062618315 -0.28104675 0.122168645 0.004644606
0003d0 c7 24 d0 3e 42 35 e4 3e 14 91 a7 3e 93 05 91 3e
       0.4065306 0.44571882 0.32727873 0.28324565
0003e0 10 a0 ff bd 03 be a3 bd 8f 35 57 3d c5 8d 39 3d
       -0.124817014 -0.07995226 0.05254131 0.045301218
0003f0 c1 ed 2f 3d 65 5d fa 3e ee 20 b6 3e 91 66 95 be
       0.04295135 0.4889938 0.35571998 -0.29179814

fc1.bias f4 [256]
000000 ed d8 34 3e db c5 1c 3e d0 9a 7e 3e 68 d0 57 3d
       0.17660876 0.15309851 0.24863744 0.052688986
000010 66 b4 43 3e f2 86 85 3d 31 c8 6d 3c 99 d8 34 be
       0.19111785 0.065198794 0.014513061 -0.1766075
000020 7d 3a dd 3d 51 24 d7 bd 20 0b fb bd 19 be 80 bd
       0.108021714 -0.10504974 -0.12257981 -0.06286258
000030 52 86 e8 bd 45 0b ab 3e 16 40 5a be 22 d3 cc bd
       -0.113537446 0.33407035 -0.2131351 -0.10001208
000040 3b 95 1a 3d 0c 4d 15 be 9f c0 63 3e 6e 3c 82 3e
       0.037739974 -0.14580172 0.22241448 0.2543673
000050 c2 d0 8a 3e dd 78 9e 3e 23 61 b8 3d d1 7e 9f bd
       0.27112395 0.30951586 0.09002902 -0.0778786
000060 80 ae e3 3d aa 1f f5 bd 55 8a 2c be 6d 45 5a 3d
       0.111172676 -0.1196893 -0.16849644 0.053288866
000070 01 f0 e4 bd eb cc 2d bd 92 b2 e6 3d 78 25 dd 3d
       -0.111785896 -0.042431753 0.11264528 0.10798162
000080 78 b2 16 bd d3 c3 2e bd 69 f5 d4 bd b1 6e a4 3c
       -0.036791295 -0.04266722 -0.10398371 0.020072313
000090 60 c5 66 be 4f 88 ce bd 04 3e 0d bd 01 0f 9e 3e
       -0.2253623 -0.100845926 -0.03448297 0.30870822
0000a0 eb d0 26 3d 89 34 66 bc 39 bd a8 3c f1 7d fc bd
       0.040726583 -0.014050611 0.02059804 -0.12328709
0000b0 c3 c2 36 be 96 d2 50 be ce b7 83 be c4 d2 24 bd
       -0.17847733 -0.20392832 -0.2572617 -0.040240064
0000c0 e3 be 43 be 30 2d 65 3e f3 31 31 3e 89 bb d9 3c
       -0.19115786 0.22380519 0.1730421 0.026578682
0000d0 65 16 52 be fd 0b 1f be ad 9e dd 3d c0 73 a5 3c
       -0.20516355 -0.15531917 0.10821281 0.020196795
0000e0 77 f7 66 3d 83 bd fa bd 3b 77 d7 bd 87 df 28 be
       0.056388345 -0.12243178 -0.10520788 -0.16491519
0000f0 a3 77 3b be 3d 23 96 be c5 bb 5d bd b2 ec 0e be
       -0.18307357 -0.2932376 -0.05413415 -0.1395748
000100 f0 88 51 be ef 2c 95 bd 62 04 34 3e e9 db ec bd
       -0.20462394 -0.07283961 0.17579797 -0.11565382
000110 e4 5f 86 be ff 36 69 3e 01 15 01 be a4 4a 86 bd
       -0.26245034 0.22774886 -0.12605669 -0.06557205
000120 54 d4 08 be d2 6e ab 3c ba 8c 8a 3d 69 dd 47 3e
       -0.13362247 0.020926867 0.06765123 0.19518055
000130 84 36 25 3d ad 78 29 be 44 ff 2c 3e 67 57 bd bd
       0.040335193 -0.1654994 0.16894251 -0.09245186
000140 34 94 bf 3d ca 94 a9 3e 90 1c 90 be 82 73 02 3c
       0.093544394 0.3312133 -0.2814679 0.0079621095
000150 e3 2a a2 3d a2 a6 31 be 1d 07 6e 3d 18 d4 3a be
       0.07918336 -0.17348722 0.058112253 -0.1824497
000160 f6 72 63 bc db 62 c9 bd b2 ad 96 3c dd c4 ab bd
       -0.013882389 -0.09833308 0.018393371 -0.08387158
000170 45 4e 0f 3e 46 a6 a9 3c ec f4 85 3e b0 41 ab 3d
       0.13994701 0.020709168 0.26163423 0.08362138
000180 8d 79 41 3e bc 24 6f be 8f 59 86 be 0a 21 49 3e
       0.18894024 -0.23353857 -0.26240203 0.1964151
000190 88 bc 8a be 52 b8 b8 3e 43 50 24 be 20 dd bb 3c
       -0.27096963 0.36078125 -0.16046242 0.022932589
0001a0 4f d7 45 be fb 00 56 3d 4a 9b 8c 3e 60 c6 56 bd
       -0.19320415 0.05224703 0.27462226 -0.05243528
0001b0 6d 02 f6 3d 35 7d 67 3e 1a d0 93 3e bc 9a ae 3d
       0.120121814 0.22606356 0.28869706 0.08525607
0001c0 66 a4 26 3e 4e f4 76 be 64 ea cf 3d b3 17 36 3e
       0.1627365 -0.24116632 0.10152128 0.17782478
0001d0 78 ae a7 3d 2b 29 2d be 97 b4 05 3e 1e 72 fa 3d
       0.08187574 -0.16910236 0.13057171 0.122287974
0001e0 38 0c ad 3e 56 23 84 3d 51 a8 1f 3e 2e 90 85 be
       0.33798385 0.06452052 0.15591551 -0.26086563
0001f0 cf bf 6b 3e cd 0a cd bd 75 44 23 be b8 b0 10 be
       0.23022388 -0.10011826 -0.15944083 -0.14129913
000200 48 93 1c be 1c 40 1e 3e ed 57 d5 3e c8 af a3 3c
       -0.15290558 0.15454143 0.41668645 0.01998128
000210 ed 54 b6 bd 0e 9b dd bc fb 5b 73 3d 24 4a 6f be
       -0.08902917 -0.027051475 0.05941389 -0.23368126
000220 ce 7d 90 bd f7 bd 7d be 7b 30 7d 3e ce 93 28 be
       -0.07055245 -0.24779497 0.24725525 -0.16462633
000230 2e b5 95 3e 81 20 6c be d2 09 86 3d fd 63 0b 3e
       0.29239792 -0.23059274 0.06544842 0.13612361
000240 47 63 0a 3e 89 9f 70 be ef fb 38 3e 32 4f c3 3e
       0.13514434 -0.23498358 0.18064855 0.3814636
000250 fc e5 eb 3c 41 c0 09 be 92 34 f1 bc a4 17 94 3d
       0.028796189 -0.13452245 -0.029444013 0.072310716
000260 47 0f 39 3e 71 2a 3a 3e 77 06 30 3d 5d de 67 3e
       0.18072234 0.18180253 0.042974915 0.22643419
000270 c6 c1 88 bc b2 0e c2 3d 18 69 3c be ff cb df 3d
       -0.01669396 0.09475459 -0.18399465 0.10927581
000280 ab 50 25 bd 96 65 48 3c 4f 8a 9f 3e 80 69 8a 3e
       -0.040360134 0.012231251 0.3116021 0.27033615
000290 fa c2 6e be c8 bc 96 bd 42 96 b0 3e 73 d0 e7 3d
       -0.23316565 -0.07360226 0.34489638 0.113190554
0002a0 29 fe 92 be a3 f5 97 be 46 64 7a bd b9 a9 77 be
       -0.28709534 -0.29679593 -0.061130784 -0.24185838
0002b0 81 b2 37 3e 36 29 f7 3d 92 b6 3f 3e f2 8e 13 3e
       0.17939188 0.12068407 0.18721989 0.14409998
0002c0 cd 23 6b 3d fc 0c e1 bd d7 63 66 bc 60 a4 4c 3e
       0.05740719 -0.10988805 -0.01406189 0.19984579
0002d0 cd 66 d3 bd 08 ef 17 be 2d 23 69 3e 84 40 14 3e
       -0.10322342 -0.14837277 0.22767325 0.14477736
0002e0 fd c0 37 bd 87 f4 83 3d de 6b 92 be 0d d8 16 be
       -0.044861782 0.06443124 -0.2859792 -0.14730854
0002f0 fc 26 b7 3e 7f c9 e5 bd c6 60 9d 3c ca 5c 72 3d
       0.3577193 -0.11220073 0.019211184 0.05917052
000300 ec a2 e4 3e fa 3a 20 be 6c 30 56 be cd a0 3c 3e
       0.4465555 -0.15647498 -0.20916909 0.18420716
000310 85 cf 99 3e 58 8a 1f 3e 37 e6 31 be 89 b6 02 3e
       0.30041137 0.15580118 -0.17372976 0.12764944
000320 60 7d 67 be 7f 3f 85 3e 39 36 d8 3e df ba a3 bb
       -0.2260642 0.26025006 0.4222887 -0.004996642
000330 de 12 65 be e7 e0 0c 3e 9d 56 0c bd 80 e7 48 3e
       -0.22370479 0.13757668 -0.03426229 0.1961956
000340 9b 4b f8 bc ae 25 be 3e 2a 1b d0 3d 83 04 25 bc
       -0.030309489 0.37138122 0.10161431 -0.010071876
000350 7b b1 61 bc 72 87 db 3c bb 5a 65 be 9c 44 04 be
       -0.013775225 0.026797984 -0.22397892 -0.12916797
000360 57 ba 88 3d 38 55 f6 3a b8 20 9a 3d 4c 24 25 be
       0.066761665 0.0018793708 0.07525772 -0.16127127
000370 02 c6 d2 3c d5 8b b0 3e 00 e5 8d bd 45 ab 5d bd
       0.025729183 0.34481683 -0.06928444 -0.054118413
000380 cd 42 c0 3e ee 42 2a bd f1 1b 37 3e 50 da b4 bd
       0.37550965 -0.041567735 0.17881753 -0.08830702
000390 aa 95 a0 bc de fd 07 3e 1b 7f 22 3e 12 e4 60 3e
       -0.019602615 0.13280436 0.158688 0.21962002
0003a0 80 db 99 3e d9 35 92 3e 0f ca af 3c 7b a0 f5 bd
       0.30050278 0.28556708 0.021458654 -0.119935
0003b0 2a 02 5e 3e 2d df 27 bd 1a b1 3e bc 72 7e b0 3e
       0.21680513 -0.04098432 -0.011638904 0.3447147
0003c0 b6 6e 83 3c 8b 37 38 3d 9f 8e 45 3e b5 b2 dd bd
       0.016044002 0.044974845 0.19292687 -0.10825101
0003d0 fa 37 85 bd 5e 3d 91 be f5 a4 a3 3e 03 3b 59 bd
       -0.06504817 -0.28367132 0.3196179 -0.053034794
0003e0 d5 00 58 3e ea 3a 8d 3e b1 fb 51 3d 78 6a 95 bd
       0.21094067 0.2758401 0.051265422 -0.07295698
0003f0 82 8b b9 bd 39 9f 99 3e ef ac 45 ba bd 75 31 3e
       -0.09059812 0.3000429 -0.0007540723 0.1733007

fc2.weight f4 [256, 256]
000000 d9 42 a1 bd 45 ed 93 bd de 59 a1 3b de 79 b2 bd
       -0.07874078 -0.0722299 0.004924043 -0.087146506
000010 52 98 ad 3d 4b 4c 82 bc 47 aa 2d be 57 7a 72 3d
       0.084763184 -0.01590552 -0.16959487 0.059198704
000020 c5 9b 9d bc fd 8a 07 bc 8a a8 6f bd f8 4e 90 bc
       -0.019239316 -0.0082728835 -0.05851034 -0.01761578
000030 fb bc 49 be d0 7c 81 3d 2d 83 bc bd 81 79 2b bd
       -0.19700997 0.06322634 -0.09204707 -0.041863922
000040 9f 04 8d bd f0 c9 a9 bd 97 20 73 be 6c 03 20 3d
       -0.06885647 -0.0829047 -0.23742901 0.039065763
000050 3d c9 15 be bf 95 1c bd 21 91 c7 bd 5d 0c a7 bb
       -0.14627548 -0.038228747 -0.09744478 -0.0050979094
000060 bb 04 0d 3c ed b2 8b 3d 06 50 68 be 33 35 06 bc
       0.008607085 0.06821237 -0.22686777 -0.008191395
000070 94 0d b9 3d 2b f3 1f 3d df 26 be bd 9e be 65 3d
       0.09035793 0.039050262 -0.09284758 0.05608999
000080 13 25 9f bd c1 bb c1 bd 90 03 8b 3c af e4 29 bd
       -0.07770743 -0.09459639 0.016969472 -0.041477855
000090 88 c1 f9 bd c4 16 e8 3c 1f de b8 3d 5c 1f da 3c
       -0.12195116 0.028331168 0.09026741 0.026626281
0000a0 7e c0 d7 3d af 44 19 be 96 9d 8f bd 13 0a 9b bc
       0.10534762 -0.14967607 -0.07012479 -0.018925702
0000b0 80 ef 9d bd ec 30 ef bc 02 e6 f7 bd e9 d0 2c be
       -0.077116966 -0.029198132 -0.121044174 -0.16876568
0000c0 0b d2 9d ba af 86 2f 3d 56 ef e2 bd fc ca c3 3d
       -0.0012040747 0.042853054 -0.11080806 0.095602006
0000d0 0a 48 86 bd 84 51 60 3c 39 b4 e8 3c 59 ad 0c 3e
       -0.06556709 0.01369131 0.02840625 0.13738002
0000e0 ed 22 1b be 69 5d 6d be 7f b8 06 bd c3 27 7b 3d
       -0.15150042 -0.23180164 -0.032890793 0.061317217
0000f0 70 58 f0 bc fd 9a 66 bd 76 c2 00 be 9e 0a 93 bc
       -0.029339045 -0.056300152 -0.12574181 -0.017949399
000100 c6 2b 8c bd b1 59 b1 bc 08 4b 33 be fc db 0a be
       -0.068442866 -0.021649214 -0.17509091 -0.1356048
000110 5f d6 5b 3d 7f be 8a bd 0f 99 15 bc 4a 7b cc bc
       0.053671237 -0.067746155 -0.00913073 -0.024961133
000120 e3 02 13 bd 72 a2 11 3d 0f f9 40 bd b5 2e 8b 3c
       -0.035891425 0.03555531 -0.04711252 0.016990045
000130 0a 72 f8 bd 69 f7 c9 bc 17 4d fa bc de 8e e4 3c
       -0.12131126 -0.024654107 -0.030554337 0.027900156
000140 8e 34 8d 3b 1b ca c8 bd d6 9b 98 bc 8d 5e 41 bd
       0.0043092435 -0.098041736 -0.018628996 -0.04720931
000150 bd 6f 23 bd 19 ed 01 be f6 36 cb 3c 31 a5 e3 bc
       -0.039901484 -0.12688102 0.02480648 -0.02778873
000160 58 9c a2 bd fd 2e 89 bc f0 c0 3c bd 78 98 06 be
       -0.079399765 -0.016746039 -0.046082437 -0.131441
000170 49 20 11 bd e4 1a 35 bd d8 3b 46 bd 35 7c ff bd
       -0.03543118 -0.044215098 -0.048396915 -0.124748625
000180 a5 39 b7 3d d5 08 37 3d eb 3d 55 bd 46 31 1b bc
       0.08946542 0.044686157 -0.052061003 -0.009472197
000190 6c 9c a8 bc 9b 68 0f be 42 88 45 bd 48 b6 5d bc
       -0.0205824 -0.14004748 -0.04822565 -0.013532229
0001a0 ae fa 94 bd 4d dc c9 bd 37 e7 bb bd d3 8d d2 bd
       -0.07274376 -0.09856472 -0.0917496 -0.10280957
0001b0 ef 62 3a bd a8 60 c5 bc cf ab b1 3d 0a 7d 69 bd
       -0.045504507 -0.02409394 0.08675348 -0.057004012
0001c0 36 6f 3a bd 5e bb e3 bc f6 02 cc bd 8d f9 71 bc
       -0.045516215 -0.027799305 -0.09961502 -0.01476897
0001d0 70 45 9f bb 56 d1 c0 bc 9f c6 02 bd f8 b8 28 3d
       -0.0048605725 -0.02353732 -0.0319277 0.041192025
0001e0 4f 41 da 3d 26 52 21 bd 30 4f 4a 3d bc 4b ea 3c
       0.10656988 -0.039384983 0.049391925 0.028600566
0001f0 e5 e4 a2 bd 58 45 46 be 25 3e ad bd 97 3b e2 bd
       -0.079538144 -0.1936239 -0.08459119 -0.11046522
000200 f3 d8 29 3c b3 b4 2c 3e fe f8 a5 bd 52 01 08 be
       0.010366666 0.16865806 -0.08104132 -0.13281754
000210 ee 02 bc 3c b2 37 0c be 40 85 84 bd bc de dc bd
       0.022950616 -0.13693121 -0.06470728 -0.10784671
000220 dd b0 e2 bd bb 20 bd 3c ea f8 f2 3c 3c 07 3a be
       -0.1106889 0.023086896 0.029659707 -0.18166822
000230 10 2c 93 3d eb 8c 36 bd 36 3d 7c 3d 96 89 4b be
       0.07186139 -0.044567984 0.061581813 -0.19876704
000240 d9 fe 9d 3d 96 1e 45 3d 28 06 27 bd 5b fe f7 3d
       0.07714624 0.048124872 -0.040777355 0.12109061
000250 c3 b9 e5 bd 8e 5c 92 bd e4 08 29 be b9 87 84 3e
       -0.11217072 -0.0714656 -0.16507298 0.25884798
000260 3d 55 03 3d f3 4a a3 3c eb 5b b7 bd 7b ca 27 bd
       0.03206371 0.0199332 -0.08953079 -0.040964585
000270 96 6c 3a 3e 4c 35 80 bd ca 97 b4 bd 56 a0 0a bd
       0.18205485 -0.062601656 -0.08818014 -0.033844315
000280 9a ad 9a bd d3 62 54 bd 9c 9a b3 3d f0 05 a3 bc
       -0.07552643 -0.05185206 0.08769724 -0.019900292
000290 a1 78 c9 3d e8 45 11 be 6b 0a 8b 3d 59 ab 05 3e
       0.09837461 -0.14186823 0.067890964 0.13053645
0002a0 84 d9 f3 3d d6 bd 66 3c 96 0d c4 3d 52 b1 2d 3e
       0.11906722 0.014083346 0.09572904 0.16962174
0002b0 60 32 96 3d b4 53 af 3d 4f 18 a8 bd 42 b9 51 3d
       0.07333827 0.08560887 -0.082077615 0.051202066
0002c0 d8 d5 d0 bc 0e 37 fa bc dd e6 bd bd cb d3 ff bd
       -0.025492594 -0.03054383 -0.09272549 -0.12491568
0002d0 db 3f 2c 3e a3 a5 fa 3d fe e4 52 bc 19 48 25 3e
       0.16821234 0.12238624 -0.012871979 0.16140784
0002e0 8b e3 14 be 55 18 90 3d af de b0 bd 26 d2 d8 bb
       -0.14539926 0.07035891 -0.086362235 -0.0066168485
0002f0 b3 22 7e 3d 05 d6 10 3e 63 a9 c3 bd 20 14 82 bd
       0.06204481 0.14144142 -0.09553792 -0.06351495
000300 24 bb 0d 3e d0 9c 0f be b3 09 f9 3d ce 03 de 3d
       0.1384092 -0.14024663 0.12160053 0.108405694
000310 74 6d 90 bd 34 6a 0d 3d 5d 60 d7 bc f7 ef d5 bd
       -0.070521265 0.03452511 -0.026291067 -0.1044616
000320 a3 29 30 bd 89 2d 4b 3d 89 84 48 3d 76 94 19 bc
       -0.043008458 0.049603973 0.04895452 -0.009373775
000330 cd f3 5e 3d ad 88 3e 3d c6 82 14 3d d6 d5 f4 3c
       0.054431725 0.046517063 0.036257528 0.029887121
000340 79 78 77 bd 95 ab 02 3e d6 5d 73 3d 12 7d bc 3d
       -0.060417626 0.12760766 0.05941566 0.09203543
000350 60 f2 57 bd 9c 11 26 3d 9e fb 1d bd ee 83 cd bc
       -0.05272138 0.040544137 -0.03857004 -0.025087323
000360 fc 5e 9a 3b f0 ac ae 3d ca 5f 35 be 92 8c e8 bc
       0.00471103 0.08529079 -0.17712322 -0.028387342
000370 c2 25 01 be 05 3e 1e 3d 0b 0d fe bd 9f c1 ac bc
       -0.1261206 0.038633365 -0.124048315 -0.02108842
000380 00 12 38 3d f9 ab 47 bd b1 5f 24 bd d0 96 62 3d
       0.04493904 -0.04874799 -0.04013032 0.055319607
000390 1c 3c 5c bc c3 30 83 bd 12 0e c0 bc cd a8 a7 3d
       -0.013442066 -0.06405785 -0.02344421 0.08186493
0003a0 0e 17 e3 3d 34 52 18 bd 99 71 06 bd bd 47 03 bd
       0.11088382 -0.03718777 -0.03282318 -0.032050837
0003b0 70 cf 19 3e 4d d4 ab bd e7 e1 fd bd 34 49 66 bd
       0.15020537 -0.083901025 -0.12396603 -0.056222156
0003c0 80 ab c5 3c 66 09 e6 3d f0 8c 8b bd 4d 75 7b 3c
       0.02412963 0.11232261 -0.06813991 0.015347791
0003d0 97 70 8c bd d2 5b 40 bd b9 8d 61 bd 3b a5 8d be
       -0.06857412 -0.046962567 -0.055066798 -0.27665123
0003e0 36 07 c7 bd 06 95 9b 3d db 88 02 bd ee d6 19 bd
       -0.09718172 0.07596783 -0.031868797 -0.03755849
0003f0 90 b0 8e bc 75 4f 96 bc e1 72 18 3d c8 3b b3 3d
       -0.017418176 -0.018348435 0.037218932 0.08751637

fc2.bias f4 [256]
000000 bc ac a9 3d ae ec 3b bc f7 79 a4 3c b8 a4 b3 3d
       0.082848996 -0.011470003 0.020077689 0.08771652
000010 47 97 a5 bd 41 b7 57 bd d0 1d 1c bd d0 77 94 3c
       -0.080854945 -0.052665 -0.03811437 0.018123537
000020 aa 0e a2 3d d6 8e b5 bc ac 54 78 bd 94 d8 a0 3d
       0.07912953 -0.022162836 -0.060627624 0.07853809
000030 82 05 5c ba 06 dc 00 3e 4e b2 7f bd e5 46 b4 3a
       -0.0008393155 0.12583932 -0.062425904 0.0013754038
000040 58 c5 ac 3b d7 5e 5a 3d dc 7a 9c 3d 16 21 83 bd
       0.0052725486 0.053313103 0.07640621 -0.06402795
000050 67 f7 98 bc 87 99 80 3d 83 90 16 3e 54 b1 9d bd
       -0.018672658 0.06279283 0.14703564 -0.07699838
000060 1a 59 d6 3c 55 01 5f bc f8 f9 c3 3b 55 0d 77 bd
       0.026165534 -0.013611157 0.0059807263 -0.06031545
000070 f4 da ba 3d 8a 38 f6 3d b6 62 07 3d bb 8f 1b bd
       0.09123793 0.12022503 0.033053122 -0.03797887
000080 be b2 41 3b ec 89 15 3e 1e 45 6a bd b3 6c 18 bc
       0.0029556002 0.14603394 -0.05719482 -0.00930326
000090 3e 9d 63 bd e3 7c a0 3d 42 9d 08 3d 59 74 06 3d
       -0.05556988 0.0783632 0.033353098 0.0328258
0000a0 45 88 26 bd 0c c1 57 bc bd 4a 83 3d 28 7e bf ba
       -0.0406573 -0.013168585 0.064107396 -0.0014609741
0000b0 82 49 98 bd 2a 5d 72 3b 4f fa b2 3c 2c ff 1a 3e
       -0.074358955 0.00369818 0.021847872 0.15136403
0000c0 46 3f 01 3c b0 db 99 3b 6b 0b 87 bd 46 84 16 bc
       0.007888621 0.0046953782 -0.06593975 -0.00918681
0000d0 8c f2 02 3d 4f ac 22 3d 8a 90 7a bd 6a 42 a0 bd
       0.031969592 0.039715108 -0.061173 -0.078251675
0000e0 83 99 b9 3d 96 54 88 b9 da 42 57 bb 80 ba 7e 3b
       0.09062483 -0.00026002963 -0.0032846243 0.0038868487
0000f0 cb 53 24 3e ed 12 fd ba 70 31 85 3b 92 cd 4e bd
       0.1604759 -0.0019308008 0.0040647313 -0.050489016
000100 63 10 42 3d 75 bc 98 3d b1 6b 01 bd 3a 07 64 bd
       0.04737891 0.0745782 -0.031596843 -0.055670954
000110 e8 b3 9f bd 8f f1 84 bd 1c ac 27 bd 29 22 a8 3c
       -0.07797986 -0.06491386 -0.04093562 0.020524101
000120 c9 7c e3 bc 4f 8f 8d 3d 3e 91 8a 3d c9 24 9a bc
       -0.027769463 0.069120996 0.06765984 -0.018816369
000130 8d f3 7d 3d b4 a9 7c 3d c8 0c 24 3e 53 d3 3c 3c
       0.061999846 0.06168528 0.160205 0.011524993
000140 d3 83 88 bc 9e 08 10 3c 8a 0a 63 3d 1a 00 d4 3b
       -0.016664421 0.008791117 0.055429973 0.0064697387
000150 bc d2 97 3b 26 21 02 3e 88 99 ae bd 36 a8 31 bd
       0.004633276 0.12707958 -0.085253775 -0.04337331
000160 4d d7 ae bc 47 93 12 3c c7 4d 0f bd 24 10 00 3e
       -0.021342898 0.0089462465 -0.034986284 0.12506157
000170 43 ec 35 3d 3c 94 4b bd b6 45 2e bd 81 ac 52 bd
       0.04441477 -0.049701914 -0.04254695 -0.051434044
000180 02 03 a9 3d a9 89 50 bd 9e 4c f5 ba 54 40 77 3d
       0.08252527 -0.050912533 -0.001871485 0.060364082
000190 2b 99 8c bd a3 51 47 3d ea fb 5f 3d 18 a0 2a 3d
       -0.06865152 0.04866184 0.054683603 0.041656584
0001a0 f0 48 09 bd 4f 7a 8f bc 7f d9 cb bc f3 c0 01 bd
       -0.033516824 -0.017514376 -0.024883984 -0.03167815
0001b0 cc d8 30 bd 9e 76 ff 3c d5 3f b7 bc 66 0f c9 3d
       -0.043175504 0.03118449 -0.022369305 0.0981739
0001c0 f2 c5 7d 3b d0 6b 0b 3d 34 f0 84 bd 5d 74 e3 bc
       0.003872272 0.034038365 -0.064911276 -0.027765447
0001d0 d9 15 32 bd c3 0a f5 bc 5b ce 5e bd 58 2e 91 3d
       -0.043477867 -0.029912358 -0.054396015 0.070889175
0001e0 54 f3 f5 3d 5a 51 0c 3c b2 b5 b2 3d ac 4a d9 3c
       0.12009302 0.008564318 0.08726062 0.026524864
0001f0 d6 50 de 3d 69 d1 19 3d 23 e0 3d 3c 75 13 da 3b
       0.10855262 0.037553225 0.011589083 0.0066551515
000200 26 47 f2 3d 6a 81 52 3d e1 00 5d 3d b4 fc 5b bc
       0.11829977 0.05139295 0.053955916 -0.013426948
000210 29 43 58 bd 88 37 d1 3d 83 11 88 bd 78 c4 e7 3c
       -0.052798424 0.1021567 -0.06643965 0.028291926
000220 ba 20 c9 3d 5f 1a 83 bd e9 c5 6f bd 28 a6 4e 3d
       0.09820695 -0.06401514 -0.05853835 0.050451428
000230 a0 ba ae 3c de f6 87 bc 27 f7 d4 3d 52 4d 38 3c
       0.021329224 -0.016597208 0.10398703 0.011248903
000240 9b 24 0f 3e 5f de a1 3d ef 9d 25 bd 38 06 82 3c
       0.13978808 0.07903742 -0.04043382 0.015872106
000250 f2 8a 72 3c 2a 02 f1 bb e3 9a 1e 3d aa e2 d5 3b
       0.014803635 -0.0073549943 0.03872193 0.0065272646
000260 4c 58 2c 3d 51 75 50 3c c3 0c f4 3c 6c 95 87 3b
       0.042076394 0.012723283 0.029791242 0.0041376855
000270 14 04 4e bd 44 60 d5 bc 8b bd 35 bd b8 da 9a 3d
       -0.050296858 -0.02604688 -0.044370215 0.075612485
000280 e7 ba 3d bd 94 6b 78 bd d5 b8 38 bd 35 9f 9e bd
       -0.046320822 -0.06064947 -0.045098145 -0.0774521
000290 5b be a8 bd 8c 5e be 3c 83 a1 97 bd d4 ee 56 3d
       -0.082394324 0.023238443 -0.07403853 0.052473858
0002a0 90 61 9c bd ae 0d 5f bd f2 30 9f bb b2 71 7f bd
       -0.07635796 -0.054456405 -0.0048581297 -0.062364288
0002b0 95 28 5c 3c 63 76 7f bd e4 73 cd bc 3a 78 79 3c
       0.01343741 -0.06236876 -0.025079675 0.015226418
0002c0 2c 82 9a bc 69 1e 3c bc dd 16 8f bd 5c fe 24 bd
       -0.018860899 -0.01148186 -0.06986783 -0.04028164
0002d0 f3 e9 0c bc ef a0 fc 3c 26 66 92 bd cb bf c7 3d
       -0.0086007 0.030838458 -0.071483895 0.097533785
0002e0 c7 5b 1b bd a2 aa 38 bc d2 6b 66 bd 3c 58 ea 3d
       -0.037929323 -0.011271151 -0.05625517 0.114426106
0002f0 02 91 65 bd 11 37 2b 3c d4 ee 3e bd c0 43 14 3d
       -0.056046493 0.010450141 -0.046614483 0.036197424
000300 07 8b 88 ba d7 e1 c5 bc 5d 65 d1 bd b6 f7 f5 bb
       -0.001041741 -0.02415554 -0.10224412 -0.007506336
000310 37 96 66 bd 16 26 eb bb 56 6d 88 bd a6 b0 c8 bc
       -0.0562956 -0.007176171 -0.06661479 -0.024498295
000320 95 51 53 bd 41 1d 07 3c c3 c8 6c bd 60 4d b6 3d
       -0.051591475 0.008246721 -0.05780865 0.08901477
000330 db bf 1b 3b 4f 4f 91 bd 3f 83 d8 bc 15 7f a2 3d
       0.0023765478 -0.07095205 -0.02642977 0.07934395
000340 aa 6a f9 3d 16 c4 38 3d 94 0c 4a 3c 3f 68 9e bd
       0.12178548 0.045108877 0.0123321 -0.07734727
000350 e2 56 3a 3b 37 ad 9a 3c 66 04 62 bb e4 99 d7 3c
       0.0028433134 0.018881423 -0.0034487485 0.026318498
000360 02 98 1d 3d 5d 2b 12 bd 10 3b 42 bd 7c a0 4d bd
       0.038475044 -0.035685886 -0.047419608 -0.050201878
000370 67 58 32 bd e1 63 1e 3d b1 05 31 3c e8 44 70 bd
       -0.04354134 0.03866947 0.01080458 -0.058659464
000380 8c 24 0d bd f6 f1 05 3e 1b cf 37 bd c8 d9 18 bd
       -0.034458682 0.13080582 -0.044875246 -0.037317067
000390 47 f7 4a bd b5 72 68 3c b9 0b 8e bd b8 16 1e 3d
       -0.04955223 0.014187505 -0.0693583 0.038595885
0003a0 c6 c7 05 3d e1 df b0 bc b8 af b4 39 f0 2e 25 bb
       0.032661222 -0.021591129 0.00034463196 -0.002520498
0003b0 a3 1e 6e bd c4 f4 e3 3c 6b 4f 6a bd b7 35 f3 3d
       -0.058134686 0.027826674 -0.057204645 0.1187548
0003c0 7b 7c 8c bc e1 89 51 3c 65 b1 81 bd 3c 69 9c 3c
       -0.0171492 0.012789221 -0.063326634 0.019093148
0003d0 7c 0d 8b bc 08 d6 7e bd 42 37 b8 3c e8 88 69 bc
       -0.016974203 -0.062215835 0.022487286 -0.014253832
0003e0 b8 08 3d 3d e3 2d b3 bc 8c 88 4a 3d 52 30 be 3d
       0.046150893 -0.021872466 0.049446627 0.0928656
0003f0 f5 12 75 bd 9b 58 ab bd 08 9e a6 bd 8b 94 7f bb
       -0.059832532 -0.083665095 -0.08135611 -0.003899845

fc3.weight f4 [4, 256]
000000 9e 9b 5a 3e c7 5a 8b 3e 57 9d 08 be 2f 68 57 3d
       0.21348426 0.27217695 -0.1334127 0.05258959
000010 e2 50 84 bd 0f 51 fb bd 93 b5 b9 bd a7 c5 42 bd
       -0.0646074 -0.1227132 -0.09067836 -0.047551777
000020 2f 2a 75 3e c6 df 15 be 0c e6 c0 3d 22 c5 44 3e
       0.23941873 -0.14636144 0.09418878 0.19215825
000030 f8 4b 47 bd 40 7d f7 bc a1 f0 98 3b 41 53 00 be
       -0.048656434 -0.030211091 0.004667357 -0.12531759
000040 12 e5 20 be a0 20 84 3c b4 a5 7c 3e 8a 4b cd bd
       -0.15712383 0.016128838 0.24672586 -0.100241736
000050 ca 38 3e 3d c7 33 de 3d 1b f7 3f 3e c5 63 f3 bd
       0.046440877 0.108497195 0.18746607 -0.11884264
000060 50 9a 18 be 9f 39 fb bd 56 7a 82 3d 47 1e 4d be
       -0.14902616 -0.1226685 0.0637099 -0.20031081
000070 cd f9 74 3e a5 7f 64 3e da 08 a3 bc 6f e4 16 be
       0.23923416 0.22314318 -0.019901682 -0.14735578
000080 db fb a0 bd 33 6a 3a 3e e2 6d ec bd fe 01 e6 bd
       -0.078605376 0.18204574 -0.11544396 -0.11230849
000090 66 81 0d be 17 dc 7b 3e d9 27 9b 3e 4d e7 90 3b
       -0.13818893 0.24595676 0.3030384 0.0044221045
0000a0 c3 30 93 bd b2 76 00 3d 90 e6 3e bc 52 a2 18 be
       -0.07187035 0.031363197 -0.01165165 -0.1490567
0000b0 39 e9 d8 bd 45 d4 ce bd db 0a 17 be 66 32 56 3e
       -0.10591359 -0.10099081 -0.14750235 0.20917663
0000c0 b0 e9 cd 3d 20 3c f9 bb 98 79 c4 bd 56 c0 02 bd
       0.10054338 -0.0076060444 -0.09593505 -0.031921707
0000d0 64 f8 19 be a0 86 4a 3e f1 40 36 be 60 0f 10 be
       -0.1503616 0.19777918 -0.1779821 -0.14068365
0000e0 72 72 5a 3e 57 b3 09 be 0b cf d6 bd cd 82 c2 bc
       0.2133272 -0.13447319 -0.10488709 -0.023744011
0000f0 7f 76 84 3d e4 ae 92 bd 38 98 2e bd 36 19 17 bd
       0.06467914 -0.07162264 -0.042625636 -0.036889277
000100 cd 85 17 be d4 af 67 3e 4d 4b 52 3b ee e3 f7 bd
       -0.14797135 0.22625667 0.003208834 -0.12104021
000110 7e 0d 73 bd 90 8a 8f bc 64 40 22 be d7 fd 94 bd
       -0.05933904 -0.017522126 -0.15844876 -0.072749786
000120 cf c9 e2 bd 24 82 15 3e 0a b2 a9 3d b0 4a 54 3d
       -0.11073648 0.14600426 0.082859114 0.05182904
000130 df d8 18 3e 0c 3f 80 3e 5b 3f 21 3e 18 a2 af bd
       0.1492648 0.250481 0.15746824 -0.08575839
000140 c9 55 d0 bd 0e f5 4f bd 79 d3 42 3e b2 92 09 be
       -0.10172612 -0.05077081 0.19025983 -0.13434866
000150 b6 e3 eb bd 1b fa 14 3e ab 83 68 bd a7 28 93 bd
       -0.11518042 0.14548533 -0.056766193 -0.07185488
000160 ca ba fe bd 38 67 06 be 67 ee eb bd df 5d 68 3e
       -0.12437971 -0.13125312 -0.11520081 0.22692059
000170 c8 99 40 3e 77 26 c7 bd c1 7c 6a bd a2 90 af bd
       0.18808663 -0.097241335 -0.05724788 -0.085725084
000180 b5 7c 49 3e d9 15 04 be 44 6a 1a be 40 05 32 3e
       0.19676478 -0.12898959 -0.150796 0.17384815
000190 9d 8a db bd f9 25 12 3e 3a c4 05 be 69 bf 12 be
       -0.10719798 0.14272298 -0.13063136 -0.1433083
0001a0 68 35 3e be 9c e5 a9 bd 23 57 ef bd 92 38 53 3d
       -0.1857506 -0.08295748 -0.11686542 0.05156762
0001b0 52 16 22 be e6 63 c4 bd 10 aa b9 bd 84 5b 83 3e
       -0.15828827 -0.095893666 -0.0906564 0.25655758
0001c0 16 94 29 be 76 81 8b 3c 9f 06 fd bd cc cc e6 3c
       -0.16560397 0.017029505 -0.123547785 0.028173827
0001d0 84 91 dd 3c 31 71 0c be e3 c0 c4 3c c1 d4 45 3e
       0.027046926 -0.13715054 0.024017757 0.1931944
0001e0 b7 2f 37 3e c0 b0 ec bd 14 e0 dc 3d 23 ba a9 bd
       0.17889296 -0.1155715 0.10784927 -0.08287456
0001f0 93 1e 57 3e e1 b0 6f bd 9a cc 49 bd 5d 7b e3 bd
       0.21007757 -0.058518294 -0.04926739 -0.11107514
000200 36 04 27 3e 51 44 0c be a9 f2 b4 3d 75 9f 7c bb
       0.163102 -0.13697936 0.08835346 -0.0038547192
000210 08 9e 27 be 0c 0c 20 3e 50 05 a3 bd ef 2a 09 be
       -0.16368878 0.15629596 -0.07959998 -0.13395284
000220 32 b7 bd 3c c7 64 eb bd fe df d4 bd d6 a4 69 3e
       0.023158643 -0.11493831 -0.103942856 0.22816786
000230 9d 15 c7 bc 5b b7 60 bd a2 54 82 3e 7e db 02 be
       -0.024302298 -0.05486236 0.25455195 -0.12779042
000240 28 ac 4c 3e d2 9a 22 3e 19 ba d8 bd 04 66 16 3c
       0.19987547 0.15879372 -0.1058237 0.009179596
000250 f7 9f 12 be 51 33 4d bd e7 66 26 be e0 66 22 be
       -0.14318834 -0.050097767 -0.16250192 -0.15859556
000260 68 df 31 3e 66 ff 1c 3d ba d2 88 3d 53 1e 38 bd
       0.17370379 0.038329504 0.06680818 -0.044950794
000270 8e 38 2e 3d 49 2a 96 bd 6c bb 30 be 56 f1 c3 bd
       0.042534404 -0.07332284 -0.17258996 -0.095675156
000280 97 e7 43 bd 59 ef 96 bd 41 3f bf bd 19 aa d0 bd
       -0.047828283 -0.07369871 -0.093382366 -0.101886936
000290 20 68 02 be ff 0e b2 bd c4 8f 57 bd 2a cc fa 3d
       -0.12735033 -0.086942665 -0.05262734 0.122459725
0002a0 08 fd 1f be 0a ea 0e be f8 b6 ef bd bf a7 f0 bd
       -0.15623868 -0.13956466 -0.117048204 -0.11750745
0002b0 46 e0 a7 bc a3 11 db bd 00 3e 3b ba 0e 3b a3 bd
       -0.020492684 -0.10696723 -0.00071427226 -0.07970248
0002c0 3e 61 b0 bd 8f df ee bd e4 a5 d4 bd 3a 47 dc bd
       -0.086122975 -0.11663734 -0.103832036 -0.10755773
0002d0 83 60 88 3d b0 d0 a2 bd 34 a5 c2 bd 32 59 89 3e
       0.06659033 -0.0794996 -0.09504166 0.26825863
0002e0 c8 6c b5 bd 0b 1e a0 bd 32 47 f4 bd da 1b 09 3e
       -0.08858639 -0.0781823 -0.11927642 0.13389531
0002f0 c2 53 50 3d 44 9e 02 be dc fe de bd 8d 9f 02 3e
       0.050861128 -0.12755686 -0.10888454 0.12756176
000300 e7 4a a9 3d 61 4e 82 bd 76 8c 97 bd 63 f6 aa bd
       0.082662396 -0.06362606 -0.07399838 -0.08347776
000310 70 5d 07 bd d8 3b 09 be 3d 2c cb bd ed c0 a3 bd
       -0.033048093 -0.13401735 -0.09920547 -0.07995782
000320 08 e9 ec bd 95 c3 14 be ec 99 04 3d a6 47 6d 3e
       -0.11567885 -0.14527734 0.032373354 0.23171863
000330 6f ca 80 3e c7 45 03 be 68 d7 fb bd b2 b0 2f 3d
       0.25154445 -0.12819587 -0.12296945 0.04289312
000340 b1 ac 66 3e 09 36 e1 bc 37 a0 58 3d f2 97 20 be
       0.22526814 -0.027491586 0.052887168 -0.15682963
000350 48 98 da bd 85 2c fc bd d2 a1 5b bd 4d de 0f be
       -0.106735766 -0.12313179 -0.05362112 -0.14049645
000360 d2 98 c6 3d 2c d2 6b bd c6 09 39 bd c6 fd 1b be
       0.09697117 -0.057573482 -0.045175336 -0.15233526
000370 9c 4a 8f bd e2 25 01 3e cb e5 44 bd d7 b7 b4 bd
       -0.069966525 0.12612107 -0.04807071 -0.08824127
000380 89 b0 a4 bd 3c 9c 51 3e 9c f8 ee bd 48 a2 96 3c
       -0.08041484 0.20469755 -0.11668512 0.018387929
000390 7d 19 48 3d 37 21 16 be db 05 f2 bd d7 61 52 3d
       0.048852433 -0.14661108 -0.11817523 0.05136284
0003a0 24 de e3 3c b9 a9 41 bd a2 f6 02 be 57 35 65 bd
       0.027815886 -0.047281 -0.12789395 -0.055959072
0003b0 cf 2d 34 3d f5 23 05 be 59 ce 96 3c 81 7e 84 3e
       0.043989 -0.13001998 0.018408941 0.25877765
0003c0 ba 63 c7 bd c4 23 d8 bd cf ab 0b be ec b2 e8 bd
       -0.09735818 -0.10553697 -0.13639759 -0.11362252
0003d0 50 d8 a7 bd 9c 09 2e 3d 69 83 6f bd a9 ea 34 3d
       -0.08195555 0.042489633 -0.058474932 0.044169102
0003e0 f9 48 0f 3d c7 08 0c be 42 51 67 3e e0 9b 80 3e
       0.0349817 -0.13675223 0.22589591 0.25118923
0003f0 32 ef f6 bd f0 5f e5 bd e8 8a 0f be 9d 10 23 3d
       -0.12057342 -0.11199939 -0.14017832 0.039810766

fc3.bias f4 [4]
000000 89 e0 27 3d 19 0c 0e 3d d1 94 e2 3c 9d 2d 93 3c
       0.040985618 0.034679506 0.027658852 0.017966086
