DQN_LunarLander_ep400.pth (torch, 279252 bytes, 6 tensors)

fc1.weight f4 [256, 8]
0	0x3e2f5f55	0.1712621
1	0xbeaef61f	-0.3417215
2	0xbea246c7	-0.31694624
3	0xbf20a306	-0.62748754
4	0x3b057987	0.0020366625
5	0xbc96c0ac	-0.01840242
6	0x3e0464d8	0.12929094
7	0x3dfa6e37	0.12228053
8	0x3cc548cf	0.02408257
9	0x3e965f53	0.29369602
10	0x3dc2ba05	0.09508137
11	0x3f01451c	0.5049608
12	0xbde23e21	-0.110470064
13	0xbef25a9d	-0.47334757
14	0xbd10b9ec	-0.03533356
15	0xbe8ccb6d	-0.27498952
16	0xbe8905fa	-0.26762372
17	0x3ea2561c	0.3170632
18	0x3e43e3a8	0.19129813
19	0x3d893d57	0.06701153
20	0x3ea0139c	0.3126496
21	0xbeca460e	-0.39506572
22	0x3eead38c	0.45864522
23	0x3d2317bb	0.039817553
24	0x3eaf1a16	0.3419959
25	0xbd822b20	-0.06355882
26	0x3e797065	0.24359281
27	0xbdc4b6ed	-0.09605203
28	0xbe89af47	-0.26891539
29	0xbef94848	-0.4868796
30	0x3e66ad9b	0.22527163
31	0x3ebd4590	0.36967134
32	0xbdf9f28f	-0.122044675
33	0xbef456a8	-0.47722363
34	0xbe06538c	-0.13117808
35	0xbef0886c	-0.46979082
36	0x3e2f05e3	0.1709209
37	0x3ef22a15	0.4729773
38	0xbe107ab4	-0.14109308
39	0xbe7fe6f9	-0.24990453
40	0x3e78526a	0.24250188
41	0x3e878336	0.26467294
42	0x3e8c5b6e	0.27413505
43	0x3ebbdce6	0.3669197
44	0xbf298e3c	-0.6623266
45	0xbd732548	-0.059361726
46	0x3ce68b1b	0.028142503
47	0xbd83056e	-0.0639752
48	0xbeb92d2f	-0.36167285
49	0x3e6b2176	0.22961983
50	0xbebc433d	-0.3677005
51	0x3e88fcad	0.26755276
52	0xbdee8ea1	-0.11648298
53	0x3ec53fa8	0.38525128
54	0x3e91697a	0.28400785
55	0x3db87145	0.090059794
56	0x3ce0efa4	0.02745802
57	0x3d740ab8	0.059580535
58	0x3ec0af05	0.3763353
59	0x3dc66b02	0.09688379
60	0xbec01c4d	-0.37521592
61	0x3e884b2c	0.26619852
62	0xbe511acb	-0.20420377
63	0x3eea3e39	0.45750597
64	0xbe3a2db0	-0.18181491
65	0xbe9b547b	-0.3033789
66	0x3e79229b	0.24329607
67	0xbd911286	-0.07083611
68	0xbe9a74ac	-0.3016714
69	0xbedd346b	-0.43204054
70	0x3e3617de	0.17782542
71	0x3d48e6e5	0.049048323
72	0xbbce6c50	-0.006299533
73	0x3dd677fd	0.10472105
74	0xbecb3450	-0.3968835
75	0xbe239d05	-0.15977867
76	0x3f359ad2	0.7093936
77	0x3ee05dbc	0.43821514
78	0xbd9b0361	-0.07569004
79	0x3d34956b	0.04408781
80	0xbe9fb704	-0.31194317
81	0xbdeb5c39	-0.114921995
82	0xbe18ed90	-0.14934373
83	0xbc61dd0f	-0.013785615
84	0x3e71fc93	0.23631506
85	0x3e8c94b7	0.2745721
86	0x3e9db8ad	0.3080496
87	0x3c7afb4e	0.015318705
88	0xbe2bfa71	-0.16794755
89	0xbea40046	-0.3203146
90	0xbe83ccaf	-0.257421
91	0xbe89c48d	-0.2690777
92	0x3ec068d5	0.3757998
93	0x3ebb4298	0.36574244
94	0xbe818994	-0.25300276
95	0x3e2dc05d	0.16967912
96	0x3e87dac0	0.2653408
97	0x3e7f0241	0.24903204
98	0x3e9b6982	0.30353934
99	0x3efd9f75	0.4953572
100	0x3e1527de	0.1456599
101	0x3ec97b70	0.39351988
102	0x3e8940fc	0.26807392
103	0x3d8c086b	0.06837543
104	0x3e8412cc	0.2579559
105	0xbeb30c58	-0.34970355
106	0xbe4242c0	-0.18970776
107	0xbeca5aaa	-0.39522296
108	0x3e9cdc33	0.3063675
109	0xbb136f9a	-0.002249694
110	0xbdc89ae7	-0.0979517
111	0xbe37c406	-0.17945871
112	0xbeec8018	-0.46191478
113	0xbe376491	-0.17909457
114	0xbdee6e72	-0.116421595
115	0xbf154c66	-0.583197
116	0x3e9756ca	0.29558402
117	0xbeb56049	-0.35425022
118	0xbeeebcd4	-0.4662844
119	0x3ea1070f	0.31450698
120	0x3eca5924	0.39521134
121	0x3e31a214	0.17346984
122	0x3e0e918e	0.13922712
123	0x3c29194e	0.0103209745
124	0xbe1f3207	-0.15546428
125	0xbe9bc24b	-0.3042167
126	0xbe7466b9	-0.2386731
127	0x3df3f78c	0.1191245
128	0x3e6f905a	0.2339491
129	0xbf1689e6	-0.58804166
130	0x3ec1e579	0.37870386
131	0x3e71097a	0.23538771
132	0xbdecf7d3	-0.11570706
133	0xbea07e00	-0.3134613
134	0x3d3104ec	0.043217584
135	0xbef4d076	-0.47815293
136	0xbc1073d1	-0.008816675
137	0xbd5f0c27	-0.05445495
138	0xbd058798	-0.032600015
139	0x3d89adc9	0.067226
140	0xbe389395	-0.18025048
141	0xbed6d7df	-0.41961572
142	0xbe99a73b	-0.300104
143	0xbe844e5b	-0.2584103
144	0x3d1afec7	0.03784063
145	0x3e55803c	0.20849699
146	0xbe89e7d1	-0.26934674
147	0x3ed168e2	0.40900332
148	0x3f00d73c	0.5032842
149	0x3ef9bda7	0.48777506
150	0xbe20b794	-0.1569503
151	0xbeb85dd6	-0.3600909
152	0xbdb81a26	-0.089893624
153	0x3e369c68	0.17833102
154	0xbea5539c	-0.3229035
155	0xbea4b068	-0.32165837
156	0x3e96add8	0.29429507
157	0x3ea9d3d6	0.3316943
158	0xbe20658c	-0.15663737
159	0x3e81e068	0.2536652
160	0xbcd6f7b8	-0.026241168
161	0xbd18ec85	-0.037334938
162	0xbe203357	-0.15644585
163	0x3e6d7b98	0.23191679
164	0x3ea24bbb	0.31698403
165	0x3f07f613	0.53109854
166	0x3dc61a34	0.096729666
167	0xbf1cb8fd	-0.6121977
168	0x3e85df7c	0.26147068
169	0xbd07bd9c	-0.03313981
170	0xbe56d156	-0.20978293
171	0x3ea38af3	0.31941947
172	0x3ee58157	0.4482524
173	0x3f030c0e	0.5119027
174	0x3e8a5d1c	0.27024162
175	0x3e15834e	0.1460087
176	0x3e931805	0.28729263
177	0xbf0b4547	-0.54402584
178	0x3de54969	0.111956425
179	0xbe6ad54d	-0.2293293
180	0xbee9f006	-0.45690936
181	0xbaef1eb9	-0.0018243409
182	0xbd150eab	-0.03639094
183	0x3dfa0ea1	0.122098215
184	0xbdfc85d9	-0.12330217
185	0xbef914ee	-0.4864878
186	0xbdac65ef	-0.0841788
187	0xbe4230c7	-0.1896392
188	0x3f1168ab	0.56800336
189	0x3e051b75	0.12998755
190	0xbdbfea05	-0.093708076
191	0xbc9fa117	-0.019485993
192	0xbe8c7b28	-0.2743771
193	0xbda7853e	-0.08179711
194	0x3eb99185	0.36243835
195	0xbea6c3e6	-0.32571334
196	0xbf6f0595	-0.9336789
197	0xbe5e2cc7	-0.21696769
198	0x3e360330	0.17774653
199	0xbdff4931	-0.12465132
200	0xbe4d53dc	-0.20051521
201	0xbeb8f040	-0.36120796
202	0xbeb80012	-0.35937554
203	0xbd822dce	-0.06356393
204	0x3f225c09	0.63421685
205	0x3e83b0c7	0.25720808
206	0xbe082659	-0.13295878
207	0xbe440a65	-0.1914459
208	0x3eb2e95b	0.3494366
209	0x3ddbd5b8	0.10734123
210	0x3ea9743c	0.33096492
211	0x3df2e9b3	0.11860981
212	0xbdb76276	-0.08954327
213	0x3ee20ad5	0.4414889
214	0x3cc7856e	0.024355616
215	0x3e168f0a	0.14703003
216	0x3dcea894	0.100907475
217	0x3b98d659	0.004664224
218	0x3f28fb49	0.6600843
219	0x3efae357	0.49001572
220	0xbe115f28	-0.14196455
221	0x3ec85868	0.3912995
222	0x3d42aa7a	0.04752586
223	0x3ed26ba1	0.4109774
224	0x3ee40d8e	0.4454159
225	0x3e283253	0.16425447
226	0xbe6d6272	-0.23182085
227	0xbea51dca	-0.3224929
228	0x3f3d80d9	0.7402473
229	0xbe4ed89d	-0.20199819
230	0xbe8f7918	-0.28022075
231	0xbf138f26	-0.576403
232	0x3ec31cdf	0.38107964
233	0xbef5d529	-0.4801419
234	0x3f0e4665	0.55576164
235	0xbe01268f	-0.12612365
236	0xbca83780	-0.020534277
237	0xbe65fe35	-0.22460254
238	0xbd8c2fee	-0.06845079
239	0xbd809ba4	-0.06279686
240	0xbdfd856d	-0.123789646
241	0xbd26fefb	-0.040770512
242	0x3eb4e7c6	0.3533308
243	0xbde5b380	-0.112158775
244	0xbb2b51cf	-0.002614129
245	0x3f15a3b5	0.5845292
246	0x3eaa889d	0.33307353
247	0x3e4cc499	0.19996871
248	0xbe829045	-0.25500694
249	0xbca0a702	-0.019610886
250	0x3dc94d34	0.098291785
251	0xbd07a15b	-0.033112865
252	0xbd69cae3	-0.057078253
253	0x3f07d8e5	0.5306533
254	0x3ed67861	0.41888717
255	0xbe885085	-0.26623932

fc1.bias f4 [256]
0	0x3eabfb0c	0.3358997
1	0x3e166cdb	0.14689963
2	0x3e87ee40	0.26548958
3	0xbc2b40ce	-0.010452462
4	0x3a561e45	0.00081679627
5	0x3e273af3	0.16331081
6	0x3dafc778	0.085829675
7	0xbe8509c6	-0.2598402
8	0x3d154e2c	0.036451504
9	0xbd447467	-0.047962572
10	0xbe1c2b9c	-0.1525101
11	0xbde9ee74	-0.114224344
12	0xbe09b3ca	-0.1344749
13	0x3ea00ec7	0.31261274
14	0x3b992504	0.004673602
15	0xbc627145	-0.013820951
16	0xbe4124a9	-0.18861641
17	0xbea17c70	-0.3154025
18	0x3e59f381	0.21284296
19	0x3e830676	0.25590867
20	0x3e961e6f	0.29320094
21	0x3ec4831f	0.38381287
22	0x3d9f6199	0.07782287
23	0xbe32aaa1	-0.17447902
24	0xbd856148	-0.065126956
25	0xbe4c35b0	-0.19942355
26	0xbe6ac2c3	-0.22925858
27	0x3cc475f4	0.023982026
28	0xbe7f560e	-0.24935171
29	0xbdd9cb0e	-0.10634433
30	0x3e7268ce	0.23672792
31	0x3e12b69b	0.14327471
32	0xbdc9760e	-0.0983697
33	0xbd223662	-0.039602645
34	0xbd2157e0	-0.039390445
35	0xbd4a0d7b	-0.049329262
36	0xbe0d38d7	-0.13791214
37	0xbdec2eb2	-0.11532344
38	0xbe3a2338	-0.18177497
39	0x3ebf7860	0.37396526
40	0xbd609c1a	-0.05483637
41	0x3d81be1a	0.06335087
42	0x3c8f3a63	0.017483896
43	0xbd1bfca6	-0.03808274
44	0xbe49a3ba	-0.19691363
45	0xbe2e28b2	-0.17007712
46	0xbe406af5	-0.18790801
47	0x3ce8a550	0.02839914
48	0xbe649d3f	-0.2232561
49	0x3e5e903b	0.21734707
50	0x3e73ff49	0.23827852
51	0x3d8b559a	0.068034366
52	0xbcd8527c	-0.02640652
53	0xbe2477b8	-0.16061294
54	0x3e3db35e	0.18525454
55	0xbcaf6f76	-0.021415453
56	0x3e004a84	0.12528425
57	0x3d84a6b5	0.06477109
58	0xbe3078a6	-0.17233524
59	0xbe3a7575	-0.18208869
60	0xbe559034	-0.2085579
61	0xbeadf3e0	-0.33975124
62	0xbdd56eff	-0.104215614
63	0xbd8d3a91	-0.06895936
64	0xbe0fa0d0	-0.14026189
65	0xbe04e1ac	-0.12976712
66	0x3e65964b	0.22420613
67	0xbdb23065	-0.08700637
68	0xbe89fcfd	-0.26950827
69	0x3e7df8e6	0.24801978
70	0xbe45cd20	-0.1931653
71	0xbdb54d36	-0.088526174
72	0xbe7e0721	-0.24807407
73	0xbd262678	-0.04056403
74	0x3c71e591	0.014764206
75	0x3e821f72	0.25414616
76	0xbd80a88c	-0.06282148
77	0xbe51ee28	-0.20501006
78	0x3e1c28b1	0.15249898
79	0xbdef2cbc	-0.11678454
80	0xbd6ebd15	-0.05828579
81	0x3e9efa25	0.3105022
82	0xbe90d98f	-0.28290984
83	0xbd221bac	-0.03957717
84	0x3e87f622	0.26554972
85	0xbe7e2135	-0.24817355
86	0xbcd2191e	-0.025646742
87	0xbdec9153	-0.11551156
88	0x3d92baae	0.071645126
89	0xbdc8a779	-0.09797568
90	0x3b85ebd4	0.004086951
91	0xbc82dda7	-0.015974833
92	0x3ea93bd6	0.33053464
93	0x3c3e92e7	0.011631704
94	0x3e429075	0.19000418
95	0x3e4fcfc3	0.20294099
96	0x3e55692b	0.208409
97	0xbe92b949	-0.28656986
98	0xbe250ba8	-0.16117728
99	0x3ea87048	0.32898164
100	0xbea85469	-0.328769
101	0x3ec1d27c	0.378559
102	0xbe2fbc5b	-0.17161696
103	0x3c134363	0.008988234
104	0xbdf0be53	-0.117550515
105	0x3e329001	0.17437746
106	0x3e925607	0.2858126
107	0xbd8b2790	-0.06794655
108	0xbdd87c19	-0.10570545
109	0x3e4f12a7	0.20221959
110	0x3ea56525	0.3230373
111	0x3da3ac3c	0.079918355
112	0x3e53bbee	0.20677158
113	0xbe6893a3	-0.22712569
114	0x3d0b19b6	0.033960067
115	0x3e7239b5	0.23654826
116	0x3e0e5de0	0.13902998
117	0xbe3d39e1	-0.1847911
118	0x3dcfad9d	0.10140536
119	0xbb961220	-0.0045797974
120	0x3ead59a0	0.3385744
121	0x3e15db9f	0.1463456
122	0x3c84316f	0.016136853
123	0x3cb0a07f	0.021560906
124	0x3eb98d1a	0.36240464
125	0xbda1d68e	-0.07902251
126	0xbdf03eb5	-0.117307104
127	0xbe590075	-0.2119158
128	0xbe1c6b1a	-0.15275231
129	0x3d4aaa32	0.049478717
130	0x3ee7bf4c	0.45263135
131	0xbd0c59de	-0.03426539
132	0xbe0fcad0	-0.1404221
133	0x3d91e564	0.07123831
134	0x3d06f1f1	0.032945577
135	0xbdfbc936	-0.12294237
136	0xbdffed32	-0.12496413
137	0xbe495eb6	-0.19665036
138	0x3e0cf168	0.13763964
139	0x3d27fe59	0.04101405
140	0x3eb9793a	0.362253
141	0xbe81a46b	-0.25320753
142	0xbd0178f3	-0.031609487
143	0x3ddfdd56	0.10930888
144	0xbb6d4e04	-0.003620983
145	0xbeaba649	-0.33525303
146	0xbdcf8c71	-0.10134209
147	0x3ed52ebb	0.41637215
148	0x3c14bec1	0.009078682
149	0xbe62c4a9	-0.22145332
150	0x3c903793	0.017604625
151	0x3c369377	0.011143557
152	0x3e73478c	0.23757762
153	0x3e4cf160	0.20013952
154	0xbc2312ee	-0.009953244
155	0x3eb31c8a	0.3498271
156	0xbae4f5db	-0.001746829
157	0x3e3b8e86	0.18316087
158	0xbe35a812	-0.17739895
159	0x3e145ca3	0.14488463
160	0x3d268571	0.040654603
161	0x3c1a3620	0.0094123185
162	0x3eb1cbb3	0.34725723
163	0x3eb93964	0.36176598
164	0xbdeaf674	-0.114727885
165	0xbe281243	-0.16413216
166	0x3ebc3a5f	0.36763284
167	0x3e0d39c3	0.13791566
168	0xbeab3a5b	-0.3344296
169	0xbe5e7951	-0.21725966
170	0x3d0ff506	0.035145782
171	0xbe60b336	-0.21943364
172	0x3c848be9	0.016179996
173	0x3d514db1	0.051099483
174	0x3e4fcd15	0.20293076
175	0x3e24ccc8	0.16093743
176	0x3cf5c05f	0.029998956
177	0xbcd5fb9c	-0.026120953
178	0xba163df6	-0.0005731279
179	0x3e5a7a84	0.21335799
180	0xbca30807	-0.019901289
181	0xbe4f40e5	-0.20239599
182	0x3eb3ed7e	0.3514213
183	0x3dea7cfa	0.11449619
184	0x3cb969ca	0.022633452
185	0x3c646ee4	0.013942454
186	0xbe49e736	-0.19717106
187	0xbe790d7a	-0.24321547
188	0x3e99584d	0.2995018
189	0xbdf2c5c8	-0.1185413
190	0x3be01d2f	0.0068394165
191	0x3df4a61e	0.11945747
192	0x3ef5f485	0.48038116
193	0xbdf6a831	-0.12043799
194	0xbe3a9c2e	-0.1822364
195	0x3d725510	0.059163153
196	0x3e7cf763	0.24703746
197	0x3e55d4a7	0.20881902
198	0xbde5e5c3	-0.11225464
199	0x3e238f2e	0.15972587
200	0xbe15e62c	-0.14638585
201	0x3e9df16d	0.30848256
202	0x3edb1082	0.42786032
203	0xbdc002a4	-0.09375504
204	0xbe860e09	-0.26182583
205	0x3e507c4e	0.20359918
206	0xbe0acae3	-0.13553958
207	0x3e7ad717	0.24496113
208	0xbe08fb2c	-0.13377064
209	0x3ebb7311	0.36611226
210	0x3c40fc63	0.011778924
211	0xbdac908b	-0.08426007
212	0xbd3145a4	-0.043279305
213	0xbdc2e6e9	-0.09516699
214	0xbe57493c	-0.2102403
215	0xbe61fb29	-0.22068466
216	0x3df06370	0.11737716
217	0x3d8958e1	0.067064054
218	0x3dd93195	0.1060516
219	0xbe4355e3	-0.19075732
220	0x3de5985f	0.11210703
221	0x3ea72538	0.32645583
222	0xbd7965b6	-0.060888015
223	0xbd7ba64f	-0.0614379
224	0x3ec6c028	0.3881848
225	0xbbb79412	-0.005602368
226	0x3e58f6de	0.21187922
227	0xbd12422d	-0.03570764
228	0xbb2c786b	-0.0026316892
229	0xbcced23b	-0.02524673
230	0x3e6ce0ab	0.23132579
231	0x3d980bc0	0.07424116
232	0x3e9cb441	0.30606273
233	0x3ed9304c	0.4241966
234	0xbcaf942d	-0.02143296
235	0x3ce0b0c6	0.027428042
236	0x3e5ebf61	0.21752693
237	0xbcc9ed0e	-0.02464917
238	0xbd814fcd	-0.06314049
239	0x3ed5da5a	0.41768152
240	0x3cf78628	0.030215338
241	0x3e071109	0.13190092
242	0x3e295b2e	0.16538689
243	0xbdb2368e	-0.08701812
244	0xbcfc3520	-0.03078705
245	0xbe1fbb82	-0.15598872
246	0x3eef9d87	0.4679987
247	0x3d4fb395	0.050708372
248	0x3e856d91	0.26060155
249	0x3e9484ed	0.29007664
250	0xbd4d0634	-0.050054744
251	0xbe17d3be	-0.14826867
252	0xbdb69e97	-0.08916967
253	0x3ee0a938	0.43879104
254	0xbdb172f4	-0.08664504
255	0x3e051a71	0.12998368

fc2.weight f4 [256, 256]
0	0xbf135d70	-0.5756445
1	0xbe637f75	-0.2221659
2	0x3e05b2dd	0.13056512
3	0xbe962c81	-0.2933083
4	0xbe89ad5b	-0.26890072
5	0xbda380fa	-0.07983585
6	0xbe818513	-0.2529684
7	0x3e2c8576	0.16847786
8	0x3bc8319c	0.0061094295
9	0x3da0c348	0.07849747
10	0xbe17715c	-0.14789337
11	0xbf0e4c94	-0.555856
12	0xbe174a5b	-0.14774458
13	0xbe00b6af	-0.12569688
14	0xbf0a4cd9	-0.5402351
15	0xbdabd62c	-0.083904594
16	0xbced659c	-0.028979115
17	0x3be6f58f	0.007048316
18	0xbe9f4708	-0.3110888
19	0x3d7205c8	0.059087545
20	0xbe1a7ffb	-0.15087883
21	0x3c72041e	0.014771489
22	0xbe40f0cb	-0.18841855
23	0xbe974702	-0.29546362
24	0x3e46ce64	0.1941467
25	0xbe51d17d	-0.2049007
26	0xbe97ab4d	-0.2962288
27	0x3e31ca7d	0.173624
28	0xbc5e0855	-0.013551791
29	0xbdf2d098	-0.11856192
30	0x3e0ac6fd	0.1355247
31	0x3e24159e	0.16023871
32	0xbe2268c9	-0.15860285
33	0xbed1807d	-0.4091834
34	0xbe6f63b1	-0.23377873
35	0xbe30fd0c	-0.1728403
36	0xbea127dc	-0.31475723
37	0x3d969dee	0.073543414
38	0x3e2a6548	0.16640198
39	0xbd63c0ed	-0.05560391
40	0x3e126bab	0.14298885
41	0xbc9bdca5	-0.01902611
42	0xbe850693	-0.25981578
43	0xbeb25964	-0.34833825
44	0xbebd7dca	-0.37010032
45	0x3c8e4425	0.017366478
46	0xbeca62b3	-0.39528427
47	0xbe875564	-0.26432335
48	0x3e95cc93	0.2925764
49	0x3dd752b3	0.105138205
50	0x3d8e25f0	0.0694083
51	0x3d9f3a8a	0.07774837
52	0xbf46683f	-0.77502817
53	0x3c197cf5	0.009368171
54	0x3e1f5cc0	0.15562725
55	0x3e5de10c	0.2166788
56	0xbeb4e98e	-0.35334438
57	0xbeb4727f	-0.35243604
58	0x3cf2bea4	0.02963192
59	0x3d4fa3ec	0.050693437
60	0x3da852fa	0.082189515
61	0xbe8d06dc	-0.27544296
62	0xbee0853d	-0.43851653
63	0xbe9a06f8	-0.30083442
64	0xbbad9830	-0.005297683
65	0xbe7e1678	-0.24813259
66	0xbda4ab88	-0.080405295
67	0xbdadf5d5	-0.08494154
68	0x3e0b385d	0.1359572
69	0xbe74ea9a	-0.23917618
70	0xbd906ea3	-0.07052352
71	0xbf213014	-0.62963986
72	0x3d5e3459	0.05424914
73	0x3b5b877d	0.0033497505
74	0x3d94e820	0.07270837
75	0x3e826874	0.25470316
76	0xbedae522	-0.4275294
77	0xbe16a94f	-0.14713024
78	0xbe5dde3a	-0.21666804
79	0x3e33dad3	0.17563944
80	0xbc97575e	-0.018474277
81	0xbeb827e9	-0.3596795
82	0xbea257e3	-0.31707677
83	0xbe22d2ef	-0.15900777
84	0xbf4b30a4	-0.79371095
85	0xbeb2ba45	-0.34907737
86	0x3deccadf	0.11562132
87	0xbe22734a	-0.15864292
88	0xbee4fa2b	-0.44722113
89	0xbe5634fe	-0.20918652
90	0xbe8b5509	-0.27213314
91	0xbf227d85	-0.6347278
92	0xbf0d1697	-0.55112594
93	0xbe21e194	-0.15808707
94	0xbdf6c576	-0.120493814
95	0xbf067796	-0.52526224
96	0x3e1b067e	0.15139195
97	0xbde0583f	-0.109543316
98	0xbe5b5591	-0.2141936
99	0x3e4ba360	0.19886541
100	0xbcdb2199	-0.026749419
101	0xbe1be093	-0.15222387
102	0xbe6dfd86	-0.23241243
103	0x3f056579	0.5210796
104	0xbed3416c	-0.4126085
105	0x3e100a91	0.14066531
106	0xbe433021	-0.19061328
107	0xbee834c1	-0.45352748
108	0xbefa0acd	-0.48836365
109	0xbde2aa57	-0.11067646
110	0x3e621780	0.22079277
111	0xbdfbaf15	-0.122892536
112	0xbd9f42c7	-0.07776409
113	0xbe5719c8	-0.21005929
114	0xbf00a4af	-0.5025129
115	0xbd8dfe77	-0.06933301
116	0xbf1d8b3d	-0.61540586
117	0xbe8ca732	-0.2747131
118	0x3da0b773	0.0784749
119	0x3d5cd9f0	0.05391878
120	0x3e4f97f9	0.20272817
121	0xbeb2e688	-0.34941506
122	0xbd550dc2	-0.052015074
123	0xbe86e31a	-0.2634514
124	0xbe91b0ee	-0.284553
125	0xbe2c2b81	-0.1681347
126	0xbe73057b	-0.2373256
127	0xbd800738	-0.06251377
128	0xbd76ed4a	-0.06028489
129	0x3e544589	0.2072965
130	0xbf05b7c8	-0.5223355
131	0xbd92218b	-0.07135304
132	0xbce8396d	-0.028347695
133	0xbd8c9d84	-0.06865981
134	0xbe814124	-0.2524501
135	0xbe9b7550	-0.3036294
136	0xbed57fcf	-0.41699073
137	0x3daba0ad	0.08380256
138	0xbccf04da	-0.025270868
139	0xbe9624b9	-0.29324892
140	0x3e57f70f	0.21090339
141	0xbdf0b5d3	-0.1175343
142	0x3e17e4b9	0.14833345
143	0xbf1b9b34	-0.60783696
144	0x3d3d2dfc	0.046186432
145	0x3e070d57	0.13188682
146	0xbed4eddb	-0.4158772
147	0x3e334cb2	0.17509726
148	0x3e182267	0.14856873
149	0xbde047bc	-0.10951182
150	0xbdd0eaa6	-0.10201006
151	0x3ed78326	0.42092246
152	0x3e1e00bf	0.15429972
153	0x3e08f2b2	0.13373831
154	0xbeb62420	-0.35574436
155	0xbf1b454a	-0.606526
156	0x3e9b64d8	0.30350375
157	0xbec17b17	-0.37789223
158	0xbe44dffb	-0.19226067
159	0x3cdfdc0d	0.027326608
160	0xbd65b0cc	-0.05607681
161	0xbe9d9c46	-0.3078329
162	0x3e270ef2	0.16314295
163	0x3db45921	0.088060625
164	0x3e3e1643	0.1856318
165	0xbe4fb0c7	-0.20282279
166	0x3e2e8821	0.17044117
167	0x3e27a518	0.16371572
168	0x3ec6066f	0.38676783
169	0xbe8ebb68	-0.27877355
170	0x3f199a4c	0.60001063
171	0x3e648cdb	0.22319357
172	0x3c98c6b3	0.018649435
173	0x3ece0be4	0.40243447
174	0xbe17060d	-0.14748402
175	0x3e167fcd	0.1469719
176	0xbe9904aa	-0.2988637
177	0xbea5f7e2	-0.32415682
178	0xbe8a9ff2	-0.27075154
179	0xbe2a5801	-0.16635133
180	0x3eea3ee7	0.45751116
181	0x3e1acab2	0.15116385
182	0xbe8d78a5	-0.27631107
183	0x3e849e10	0.25901842
184	0xbef9a8d6	-0.48761624
185	0x3e62769c	0.22115558
186	0xbf1b284a	-0.6060835
187	0xbf4b0377	-0.7930216
188	0x3e3fbd6c	0.18724602
189	0x3e5c3ef9	0.21508397
190	0xbbab6b2d	-0.005231282
191	0x3e1f02db	0.15528433
192	0x3e377259	0.17914714
193	0xbe1e0537	-0.15431677
194	0x3e2fd024	0.17169243
195	0x3efd0f0e	0.49425548
196	0xbe13db7b	-0.14439194
197	0x3d9688ba	0.07350297
198	0xbdb0f839	-0.08641095
199	0x3dd3274e	0.10310231
200	0xbf00ba52	-0.502843
201	0xbeae8714	-0.3408743
202	0x3da1bdb1	0.07897509
203	0xbe93a6d3	-0.28838214
204	0x3e4959f1	0.19663216
205	0xbd0e30b2	-0.03471441
206	0xbe00eab3	-0.1258953
207	0x3c249102	0.010044338
208	0xbe4d91c2	-0.20075133
209	0x3e72640f	0.23670982
210	0x3dc12ec9	0.09432752
211	0x3e310fc0	0.17291164
212	0xbe6dafa7	-0.23211537
213	0x3e1aba4b	0.15110128
214	0xbe8c7715	-0.27434602
215	0xbf2fe712	-0.6871196
216	0x3e60dc65	0.21959074
217	0x3e2d84e3	0.16945224
218	0xbee1495d	-0.44001284
219	0xbe15b831	-0.14621045
220	0xbf062477	-0.5239939
221	0x3d095ae7	0.033533957
222	0xbeb44c45	-0.3521444
223	0x3d0c2d56	0.034222923
224	0x3dbaf719	0.091291614
225	0xbe041c76	-0.12901482
226	0xbdf57a45	-0.11986212
227	0x3ec4e213	0.3845373
228	0xbe86b12f	-0.26307055
229	0xbea8316b	-0.32850203
230	0xbefeb191	-0.49744847
231	0x3e8c5af7	0.2741315
232	0x3e827616	0.25480717
233	0x3e8c4fa9	0.27404526
234	0xbeb08122	-0.3447352
235	0xbd61241a	-0.05496607
236	0x3e85f4c1	0.26163295
237	0xbe36c41c	-0.17848247
238	0xbe20ae23	-0.15691428
239	0xbe31f416	-0.17378268
240	0x3e793d7e	0.24339864
241	0x3e4fd896	0.20297465
242	0xbe9613f5	-0.293121
243	0xbdd4dc9e	-0.10393642
244	0xbef4598e	-0.47724575
245	0xbe7aa413	-0.24476652
246	0xbe021e40	-0.12706852
247	0xbeb17ad0	-0.3466401
248	0x3c6c9d27	0.014441765
249	0x3e51e0f8	0.20495975
250	0xbf78f5c6	-0.9725002
251	0xbe19ecc5	-0.15031727
252	0xbe459af9	-0.19297399
253	0x3dc28e20	0.094997644
254	0x3c7f9e91	0.01560177
255	0x3e9c436e	0.30520195

fc2.bias f4 [256]
0	0x3de062ed	0.109563686
1	0xb9cfda0a	-0.00039644568
2	0xbc4798c2	-0.012182416
3	0x3d88dce0	0.066827536
4	0xbdc1ee46	-0.09469275
5	0xbdd4d0f6	-0.10391419
6	0xbda2852f	-0.07935559
7	0xbc407e74	-0.011748899
8	0x3d9e7eba	0.07739015
9	0xbd5676cc	-0.052359387
10	0xbe41b394	-0.1891616
11	0x3dd33c1f	0.103142016
12	0x3c292357	0.010323367
13	0x3e130877	0.14358698
14	0x3b40e2df	0.00294321
15	0xbd06706b	-0.032822054
16	0xbd06328b	-0.032763045
17	0x3d5a5ed7	0.053313103
18	0x3d8eb213	0.06967559
19	0xbe1a1cf5	-0.15050109
20	0xbb5f027e	-0.0034028585
21	0x3d3fdb46	0.046839975
22	0x3e47f100	0.19525528
23	0xbe0f76ef	-0.14010213
24	0xbc89af90	-0.016807348
25	0xbd89018b	-0.066897474
26	0x3ca6d124	0.020363398
27	0xbdae0158	-0.0849635
28	0x3e1f1a23	0.15537314
29	0x3dec6bda	0.115440086
30	0x3d048c1f	0.032360192
31	0xbd87f7a0	-0.066390276
32	0xbcf8aa9b	-0.030354789
33	0x3e2fe46c	0.1717698
34	0xbdd6444c	-0.10462245
35	0xbcb8b4a1	-0.022547068
36	0xbdb3cb23	-0.0877898
37	0x3d273208	0.040819198
38	0x3d763d61	0.06011713
39	0x3ddf6038	0.10907024
40	0xbd8b4938	-0.06801075
41	0xbd066459	-0.032810543
42	0x3d992cf7	0.074792795
43	0xbd267771	-0.040641252
44	0xbdd97107	-0.106172614
45	0xbd2ca448	-0.04214886
46	0xbd06d592	-0.03291852
47	0x3e54bcff	0.20775221
48	0x3db4192b	0.08793863
49	0x3b99dbb0	0.0046953782
50	0xbdc20c53	-0.09475007
51	0xbd0ff174	-0.035142377
52	0xbcb24c1e	-0.021764811
53	0x3d8ffca7	0.070306115
54	0xbdb8176a	-0.08988841
55	0xbddd14f7	-0.10795014
56	0x3e13a8c8	0.14419854
57	0xbd0c39f5	-0.03423496
58	0xbd64fe66	-0.055906676
59	0x3bbe01de	0.0057985624
60	0x3e60003c	0.2187509
61	0xbd02aae9	-0.031901274
62	0x3b853170	0.0040647313
63	0xbd1a723f	-0.03770661
64	0x3bd2f191	0.0064374884
65	0x3da90f17	0.08254831
66	0xbd08d5d6	-0.033407055
67	0xbd969cbd	-0.07354114
68	0xbde478ae	-0.1115583
69	0xbdbd1098	-0.09231681
70	0xbd8e93b0	-0.06961763
71	0xbbcab3e9	-0.0061859977
72	0xbda5a7e3	-0.080886625
73	0x3dc21687	0.09476953
74	0x3e03a9ed	0.1285779
75	0x3c0713bb	0.00824445
76	0x3de01fad	0.10943542
77	0x3d93f3ff	0.07224273
78	0x3e6d958b	0.23201577
79	0xbd010e7e	-0.03150796
80	0xbd77968f	-0.06044632
81	0x3bad1ab0	0.0052827224
82	0x3d4f028d	0.050539542
83	0xbcde5466	-0.027139854
84	0xbd3d8c6e	-0.046276502
85	0x3e48a1a2	0.19592908
86	0xbe1be61b	-0.15224497
87	0xbd4fae2d	-0.050703216
88	0xbd759cc4	-0.059963956
89	0xbc93c9a8	-0.018040493
90	0xbdafc4f7	-0.0858249
91	0x3e11fef0	0.14257407
92	0x3d9d41a1	0.07678533
93	0xbdbb1eb2	-0.09136714
94	0xbd6d69b0	-0.05796212
95	0xbdae8ee8	-0.08523351
96	0x3df7f83d	0.121078946
97	0xbd73a113	-0.059479784
98	0xbcded75d	-0.027202303
99	0x3dd47f9c	0.10375902
100	0xbdd7c1fd	-0.10535047
101	0x3d251a5d	0.040308345
102	0x3d1d4f31	0.0384056
103	0x398b9fda	0.00026631245
104	0xbd82832b	-0.063726746
105	0xbd3fd29d	-0.046831716
106	0xbb99f811	-0.0046987613
107	0xbd0a7cd5	-0.033810455
108	0xbd67cd9d	-0.056592572
109	0x3c05ed5a	0.008174265
110	0xbd6d73fe	-0.057971947
111	0x3e4a0e69	0.1973206
112	0xbd1b9732	-0.037985988
113	0x3b407aaf	0.002937
114	0xbdcc9bd1	-0.09990657
115	0xbce3745d	-0.027765447
116	0xbd3215d9	-0.043477867
117	0xbd835b6a	-0.0641392
118	0xbd652637	-0.055944648
119	0x3d84b088	0.06478983
120	0x3e44d6d5	0.19222577
121	0xbcccfe16	-0.025023501
122	0x3e27a63a	0.16372004
123	0xbc12ba44	-0.008955542
124	0x3dd924e5	0.1060274
125	0x3c307568	0.010770179
126	0xbcb6b2f0	-0.02230212
127	0xbce20e8d	-0.027594829
128	0x3d9ed604	0.07755664
129	0x3cdc99ec	0.026928864
130	0x3e23e35f	0.16004704
131	0x3d2ffd38	0.042966098
132	0xbdafc364	-0.0858219
133	0x3e08bbbc	0.13352865
134	0xbdcba499	-0.09943504
135	0xbcc7e0d7	-0.024399204
136	0x3e44128c	0.191477
137	0xbdb710ed	-0.08938775
138	0xbdde0afd	-0.108419396
139	0x3da36b5f	0.07979464
140	0x3b999da4	0.0046879817
141	0xbd23e0d6	-0.040009342
142	0x3e36ac32	0.17839125
143	0xbc926063	-0.017868226
144	0x3e01b14d	0.12665291
145	0x3e2bd11e	0.1677899
146	0xbda67dc4	-0.08129457
147	0x3dc12f84	0.09432891
148	0xbc9cfeab	-0.019164404
149	0xbd01e8fc	-0.03171633
150	0xbbce3521	-0.0062929546
151	0xbd2461cf	-0.04013234
152	0x3de9db35	0.114187635
153	0x3de0af30	0.10970914
154	0x3d74bdd5	0.05975135
155	0xbc85444d	-0.01626792
156	0xbd4e0414	-0.050296858
157	0xbd809651	-0.062786706
158	0xbdc38737	-0.095472746
159	0x3e0c619e	0.13709113
160	0xbd9ef2f9	-0.07761187
161	0xbd8c0565	-0.068369664
162	0xbd0cbd21	-0.034360055
163	0xbde75184	-0.11294845
164	0xbde22ba7	-0.11043482
165	0xbc29938a	-0.010350117
166	0xbda707aa	-0.08155759
167	0x3e0f11a0	0.13971567
168	0xbdd80f7c	-0.105498284
169	0xbdbab6c3	-0.0911689
170	0xbd05b8a2	-0.032646783
171	0xbdb87bbb	-0.09007975
172	0x3dba1410	0.09085858
173	0xbde3e5cf	-0.11127817
174	0xbce7784a	-0.0282556
175	0xbcfccceb	-0.030859431
176	0xbd2bd829	-0.041954193
177	0xbd5963cd	-0.053073693
178	0xbdfc4c72	-0.12319268
179	0xbdc410c4	-0.0957351
180	0x374fdde6	1.2389826e-05
181	0xbc5dcd0e	-0.013537658
182	0xbde49ff6	-0.11163323
183	0x3e10d863	0.14145045
184	0xbd9eb4bd	-0.07749317
185	0xbd30509a	-0.043045618
186	0xbd760c74	-0.06007047
187	0x3da618bd	0.08110187
188	0xbde30208	-0.11084372
189	0xbccdc29c	-0.025117211
190	0xbd74f69f	-0.05980551
191	0x3d1bf1e2	0.038072474
192	0x3d84266a	0.064526394
193	0xbd74b8c1	-0.059746508
194	0xbe3f0ec6	-0.1865798
195	0xbd1c7897	-0.03820094
196	0xbd9df0e4	-0.07711962
197	0xbd3264b5	-0.043553073
198	0xbdcef80b	-0.10105904
199	0xbd877009	-0.06613166
200	0xbce467fd	-0.027881617
201	0xbd03aa1e	-0.03214466
202	0xbc32c190	-0.010910407
203	0x3d29a2c0	0.041414976
204	0x3d22a769	0.039710436
205	0xbde38a9b	-0.11110421
206	0xbd6d7805	-0.057975788
207	0x3d9911e4	0.074741155
208	0x3dd7c0d4	0.10534826
209	0x3dcd884b	0.100357614
210	0xbd4fea3f	-0.050760504
211	0xbdf58a3b	-0.11989256
212	0xbd1e8316	-0.038699232
213	0xbbb80f46	-0.005617055
214	0xbd9f36db	-0.07774135
215	0xbc919ffb	-0.01777648
216	0x3dfedd8c	0.124446005
217	0xbd6449b1	-0.05573434
218	0xbd423b10	-0.047419608
219	0xbdb6fbf4	-0.08934775
220	0xbd810a85	-0.063008346
221	0x3dbd13db	0.09232303
222	0xbc989696	-0.018626492
223	0xbdcbd941	-0.09953547
224	0xbd7b4636	-0.061346255
225	0x3dba8925	0.091081895
226	0xbda7b632	-0.08189048
227	0xbd25d499	-0.040485952
228	0xbd5434f7	-0.051808324
229	0xbce4559a	-0.02787285
230	0xbdd8da91	-0.10588563
231	0x3d41bcca	0.047299184
232	0x3d542b84	0.051799312
233	0xbdecdd66	-0.11565666
234	0xbd3bfad8	-0.04589352
235	0xbcd0c336	-0.025483709
236	0xbd6e1ea3	-0.058134686
237	0xbbbd7d40	-0.005782753
238	0xbd213121	-0.039353494
239	0x3e078c6b	0.13237159
240	0xbd23665d	-0.039892543
241	0xbd18aae3	-0.037272345
242	0xbdce7a6d	-0.100819446
243	0x3b8b6b89	0.0042547625
244	0xbd768de2	-0.060193904
245	0x3b38acf9	0.0028179272
246	0x3cb83742	0.022487286
247	0x3c9f8dab	0.019476732
248	0x3d316428	0.043308407
249	0xbd6ad1f8	-0.057329148
250	0x3da5c3f8	0.08094019
251	0x3e42f3c3	0.190383
252	0xbdcbcfaa	-0.09951718
253	0xbdfa6dc0	-0.122279644
254	0xbe00ca62	-0.12577203
255	0xbc889602	-0.016673092

fc3.weight f4 [4, 256]
0	0x3f2d3402	0.6765748
1	0x3f362fe8	0.7116685
2	0xbe60768f	-0.21920227
3	0x3e81ce4d	0.25352708
4	0xbe542a75	-0.20719321
5	0xbe3c267a	-0.18374053
6	0xbe1c6262	-0.15271905
7	0xbe1b5e59	-0.1517271
8	0x3f3518e0	0.7074108
9	0xbe6e8c41	-0.2329569
10	0xbd435d1c	-0.047696218
11	0x3f1866b9	0.5953174
12	0xbe1bf249	-0.15229143
13	0x3dbb1c0d	0.0913621
14	0xbe33ab11	-0.17545725
15	0xbe50182b	-0.2032172
16	0xbe7a958b	-0.24471109
17	0x3c8420a0	0.016128838
18	0x3efdc1c7	0.49561903
19	0xbe3f039f	-0.18653725
20	0x3ee53081	0.44763568
21	0x3ea1d374	0.31606638
22	0x3ecf9a2e	0.40547317
23	0xbe368309	-0.17823423
24	0xbe64aad5	-0.22330792
25	0xbe3f3094	-0.18670875
26	0x3bc01196	0.0058614714
27	0xbe8d736c	-0.27627122
28	0x3ed5044e	0.41604847
29	0x3eef7630	0.46769857
30	0xbca308da	-0.019901682
31	0xbe7a381e	-0.2443547
32	0xbe1a889d	-0.15091176
33	0x3f22abb6	0.6354326
34	0xbe34bf76	-0.17651162
35	0xbe27a0fa	-0.16370001
36	0xbe5b1d79	-0.21397962
37	0x3ef16711	0.47148946
38	0x3f2d5f10	0.6772318
39	0xbe592b91	-0.21208026
40	0xbe477b04	-0.1948052
41	0x3ea9d686	0.3317148
42	0x3e20a167	0.1568657
43	0xbe63a8f3	-0.22232418
44	0xbe360885	-0.17776687
45	0xbe294883	-0.16531567
46	0xbe61dce6	-0.22056922
47	0x3ee06948	0.43830323
48	0x3f26fa69	0.65225846
49	0xbbf93c20	-0.0076060444
50	0xbe2a1d45	-0.16612728
51	0xbe2bb69f	-0.16768883
52	0xbe66a53f	-0.22523974
53	0x3f267479	0.65021473
54	0xbe849f55	-0.2590281
55	0xbe5c1c4e	-0.21495172
56	0x3ebd5920	0.3698206
57	0xbe5e898a	-0.21732154
58	0xbe2ead5a	-0.17058316
59	0xbdf15f4e	-0.11785756
60	0x3e8506f5	0.2598187
61	0xbe1b3ce2	-0.15159944
62	0xbd2e9838	-0.042625636
63	0xbe0d1437	-0.13777243
64	0xbe6d6b5f	-0.2318549
65	0x3f0a519e	0.5403079
66	0x3ac097e8	0.0014693709
67	0xbe54ea3a	-0.20792475
68	0xbe3f3a90	-0.18674684
69	0xbdf30c9a	-0.11867638
70	0xbe7836bf	-0.24239634
71	0xbe194e9c	-0.14971393
72	0xbe37aa97	-0.17936169
73	0x3ec1263c	0.37724483
74	0x3ea3ea06	0.32014483
75	0xbd8b8c62	-0.06813885
76	0x3f2c7d3a	0.6737858
77	0x3f300060	0.6875057
78	0x3ea3c05c	0.31982696
79	0xbe1a162f	-0.15047525
80	0xbe33520e	-0.1751177
81	0xbd4fd74b	-0.05074243
82	0x3eea2927	0.45734522
83	0xbe59e5f2	-0.21279123
84	0xbe390bad	-0.1807086
85	0x3eb768c3	0.35822114
86	0xbe264dbb	-0.1624059
87	0xbe2445f2	-0.16042307
88	0xbe48af79	-0.19598188
89	0xbe70373b	-0.23458569
90	0xbe3440da	-0.17602864
91	0x3ee52c1d	0.44760218
92	0x3f2fd789	0.68688256
93	0xbe2597d1	-0.16171195
94	0xbe52a41a	-0.20570412
95	0xbe17ef08	-0.14837277
96	0x3ece3791	0.4027677
97	0xbe77e87f	-0.24209784
98	0xbe7eb86e	-0.24875042
99	0x3f1f01e8	0.62112284
100	0xbe32c2c9	-0.17457117
101	0x3ebe8abd	0.37215224
102	0xbe872782	-0.2639733
103	0xbe561c80	-0.2090931
104	0xbe860d84	-0.26182187
105	0xbe6440b8	-0.22290313
106	0xbe9860b6	-0.29761285
107	0x3d4475f7	0.047964063
108	0xbe8f07f6	-0.2793576
109	0xbe2b40a1	-0.16723873
110	0xbe28b63e	-0.1647577
111	0x3f024887	0.5089192
112	0xbe750141	-0.2392626
113	0xbe08afd9	-0.1334833
114	0xbe472c71	-0.19450547
115	0x3ce6cccc	0.028173827
116	0x3cdd9184	0.027046926
117	0xbe5ac615	-0.21364625
118	0x3caa845f	0.020815073
119	0x3edd796e	0.43256706
120	0x3ecdac29	0.4017041
121	0xbe3c8513	-0.18410139
122	0x3e95f1d6	0.2928607
123	0xbe1fe24a	-0.15613666
124	0x3ef0fff8	0.4707029
125	0xbe1094e6	-0.141193
126	0xbe19ef6d	-0.1503274
127	0xbe441cfd	-0.19151683
128	0x3ebc5bbe	0.36788744
129	0xbe6c4fd0	-0.23077321
130	0x3e24d8a4	0.16098267
131	0x3e913d05	0.28366867
132	0xbe7288f2	-0.23685053
133	0x3f0c6387	0.54839367
134	0xbe3cfa00	-0.18454742
135	0xbe435eb2	-0.19079092
136	0x3e033508	0.12813199
137	0xbe49ba80	-0.1970005
138	0xbe2aa30d	-0.16663761
139	0x3ed55110	0.41663408
140	0xbe3a52ef	-0.18195699
141	0xbe117eef	-0.14208578
142	0x3ed6a593	0.41923198
143	0xbe4d4113	-0.20044355
144	0x3ed43326	0.41445273
145	0x3ea75032	0.32678372
146	0xbe3b881e	-0.18313643
147	0xbdfc96f0	-0.123334765
148	0xbe5c69fd	-0.21524806
149	0xbe29d079	-0.16583432
150	0xbe784879	-0.24246396
151	0xbe705b75	-0.23472388
152	0x3ee257d7	0.4420764
153	0x3e7120d5	0.2354768
154	0x3ecb6947	0.39728758
155	0xbe5a644f	-0.21327327
156	0x3d2e388e	0.042534404
157	0xbe0e04c4	-0.13869005
158	0xbe7b3e86	-0.2453557
159	0x3cd75173	0.026283955
160	0xbe34f7b6	-0.17672619
161	0xbe4b7995	-0.19870599
162	0xbe7f0816	-0.24905428
163	0xbe2af29e	-0.16694114
164	0xbe2d5c0a	-0.16929641
165	0xbe23c0fe	-0.1599159
166	0xbdf6376a	-0.12022288
167	0x3ea1b1f5	0.31581083
168	0xbe7fff79	-0.24999799
169	0xbe57df15	-0.21081193
170	0xbe46fb52	-0.19431809
171	0xbe6bc5dc	-0.23024696
172	0x3e851f12	0.26000267
173	0xbe304c47	-0.17216597
174	0xba3b3e00	-0.00071427226
175	0xbe163075	-0.14666922
176	0xbe607bc0	-0.21922207
177	0xbe3eb7a3	-0.1862474
178	0xbe2c460b	-0.16823594
179	0xbe24f534	-0.16109163
180	0x3e410596	0.18849787
181	0xbe1a5c9f	-0.15074395
182	0xbe235a0e	-0.15952322
183	0x3edb6184	0.42847836
184	0xbe1b337b	-0.15156357
185	0xbe1b9cec	-0.1519658
186	0xbe80cf6b	-0.25158247
187	0x3ed50850	0.41607904
188	0x3d9daa84	0.07698539
189	0xbe4bdff5	-0.19909652
190	0xbe54201b	-0.20715372
191	0x3ee0fcf3	0.43942985
192	0x3efa52a1	0.48891166
193	0xbe06f3c8	-0.13178933
194	0xbe383d4f	-0.17992137
195	0xbe1e62ec	-0.15467423
196	0xbe1795f5	-0.14803298
197	0xbe518055	-0.20459111
198	0xbe3b5e02	-0.1829758
199	0xbe16ba19	-0.14719428
200	0xbe7b55ce	-0.2454445
201	0xbe52e1e3	-0.20593981
202	0x3e64571c	0.22298855
203	0x3ee05789	0.43816784
204	0x3f38fbe8	0.7225938
205	0xbe5852ef	-0.21125387
206	0xbe4e3ff7	-0.20141588
207	0xbd3cb491	-0.04607064
208	0x3eda0697	0.42583153
209	0xbd6e26ac	-0.05814235
210	0x3ca84c7b	0.020544281
211	0xbe66982d	-0.22518988
212	0xbe3057d4	-0.17221004
213	0xbe4bf7c1	-0.1991873
214	0xbe57c876	-0.21072564
215	0xbe5af2eb	-0.21381728
216	0x3da07bb2	0.07836093
217	0xbe4a08c5	-0.19729908
218	0xbd3909c6	-0.045175336
219	0xbe65bbb5	-0.22434886
220	0xbe4656fd	-0.19369121
221	0x3e9a0b04	0.3008653
222	0xbe2856d6	-0.16439375
223	0xbe19401f	-0.14965867
224	0xbe297094	-0.16546851
225	0x3ed5eb18	0.41780925
226	0xbe35c22f	-0.17749856
227	0x3c96a248	0.018387929
228	0x3d300553	0.042973828
229	0xbe618471	-0.22023179
230	0xbe44e8cb	-0.19229428
231	0x3d9b7bca	0.0759197
232	0x3f04a665	0.518164
233	0xbe152f50	-0.1456883
234	0xbe46e7c3	-0.19424348
235	0xbe492350	-0.19642377
236	0x3d342dcf	0.043989
237	0xbe596905	-0.21231468
238	0xbd957a79	-0.072987504
239	0x3f2a8d44	0.66621804
240	0xbe4aa13f	-0.19788073
241	0xbe325e02	-0.17418674
242	0xbe59381a	-0.21212807
243	0xbe3ae0c9	-0.18249811
244	0xbe18167c	-0.14852327
245	0x3e1036a7	0.14083348
246	0xbd6f8369	-0.058474932
247	0x3e247c45	0.1606303
248	0x3d0f48f9	0.0349817
249	0xbe5ce6ab	-0.21572368
250	0x3f25d994	0.6478512
251	0x3f02c5d7	0.5108313
252	0xbe49e015	-0.19714387
253	0xbe39e938	-0.18155372
254	0xbe585f8d	-0.211302
255	0xbc976996	-0.018482964

fc3.bias f4 [4]
0	0x3dbda28b	0.09259518
1	0x3d38f16b	0.04515211
2	0x3da61d1d	0.08111022
3	0x3d92bfe3	0.07165506
