DQN_LunarLander_ep10.pth (torch, 279242 bytes, 6 tensors)

fc1.weight f4 [256, 8]
00000000: 2340 b3bc ff09 7fbe 0c7b 76be 9e7b 21be
00000010: 908c 1fbe 8256 5b3d 7c23 103e 1e19 dc3d
00000020: 31d2 30bd b2f4 473e 2819 403e 8c4c b23e
00000030: aa7e 213e 0344 77be e572 91bd 71a8 80be
00000040: 6d5f 78be 7c16 8f3e a5ed 813e 4320 bd3d
00000050: 1afb 933e 3ed6 52be 2239 933e 72ec 16bd
00000060: 862e 9d3e 2c5a 75bd e24d 1b3e e255 1b3e
00000070: cc1d 7f3b fd89 78be b5d1 753e 5def a43e
00000080: 6512 d9bd 400f 86be 088e 04be 85f0 b3be
00000090: 1983 bebd 75d2 9b3e 49aa 21be 5ce9 69be
000000a0: 3b26 fc3d b6a5 363e a48a 153e 5a9b 9d3e
000000b0: bbdd b0be 5690 053e b58e dabc b270 09be
000000c0: 7b73 74be 0c48 853d 7cd3 99be dd39 5a3e
000000d0: 60cd 60be 8260 053e 4e71 563e 2c1e 373e
000000e0: 0522 903e f905 1f3e c84b 9f3e 9b20 523e
000000f0: 9c88 62bd fbde 883e ddc8 f4bd 370c ab3e
00000100: 9638 5ebe 63af 41be ba67 713e d804 ac3b
00000110: e379 8fbd 81ed 47be 8fb7 203e 51da 14be
00000120: 4aa9 5ebc 6e7b 293e 7e96 70be 6fa1 7ebd
00000130: 1fc3 853e 718b 09bd 77d8 0fbe 3af7 0a3e
00000140: bb5b 80be be1e b83d a978 b33d 05ed 2bbd
00000150: d7f9 26bc c7c6 fa3d 04d5 4a3e a18c 283d
00000160: 60dd 403c 6e1a 80be 5e18 5abe f7bd 943c
00000170: 944c 9e3d 8451 743e 0c48 63be cf0e 6f3e
00000180: a89c dd3d 4adc 673e 0dc5 8e3e 28c9 a63e
00000190: d19c 733e 2d25 893e 0673 793e 8b95 15bc
000001a0: 5d25 513e 9e18 78be 8425 0ebe 95bb 50be
000001b0: 3ed5 da3d f10d 5bbd 1af9 61be 3b4c 10be
000001c0: c16b 8abe 0341 a7be fcb4 16bc 62a7 9dbe
000001d0: d8b8 943e 4677 a0be 5fd1 a8be 4298 663e
000001e0: 494c 823e 68c9 193d b49b 23bc 6415 ce3d
000001f0: c5fe e5bd 05bc 68bd ef53 ddbc 4bb1 a7bd
00000200: 6763 893c f614 80be db70 fb3d 8872 8f3e
00000210: 838e 273d 6af5 6bbe 43c7 7a3e ddd9 92be
00000220: 1ec9 0bbe 93b7 453e 8a42 863d 40f0 913d
00000230: db8a fdbd 14e9 0dbe 7f3c 4bbe 3df9 a2be
00000240: d46f 253e 474e 553e 45d6 32be 9b66 943e
00000250: d31e b43e 5069 8b3e d12f 33be 126e 32be
00000260: e9bb f9bc 03ec d83d 07a3 36be 7ad9 1ebe
00000270: dc15 51bc 357f 0e3e 14d5 29be a011 9e3e
00000280: 63ab 9b3c b1e9 08be b034 18be 52bb ae3e
00000290: 5c61 0b3e 2e8e 983e 40f1 f13d e49d a7be
000002a0: d061 8e3e ffce d0bd 4322 a0be 38ab 923e
000002b0: 6186 ab3e 4fb5 843e 0086 543e e00b c43d
000002c0: 0771 633e 1cc9 2abe 8bea 41be d2de b23c
000002d0: 46a9 abbe 9c72 193e 1316 a4bd cb38 8a3d
000002e0: 9fd5 c43d 343b a6be 0864 be3d f8d8 e83d
000002f0: 8361 963e 44e5 2fbc 8da1 0bbe 2aaa a1bc
00000300: da9f 4ebe a3e1 303e 7d6c 153e afa1 1ebe
00000310: 8fb1 b2be 7e51 183d 51df c13d 3431 6dbe
00000320: 9053 7eba f06c 9cbe c9eb 59be e8e8 493e
00000330: 01a4 a63e e93b 3c3c 4b7b 80be 4ce8 aabe
00000340: 17d5 813e f91d 703e 3764 e23d 78f0 033e
00000350: 6deb 9f3d b678 363e 1a8c efbc ddfc 643e
00000360: 82a8 273e 13b7 a53e 3936 ac3e a805 483e
00000370: 2bda 30be fe30 843e b7f5 cfbc 47b1 5a3e
00000380: 74a0 ac3e 4c6f 083e 9ba6 30be bbaa b3be
00000390: 5751 943e 4638 6dbe 436b b2be 94c1 66be
000003a0: 6a49 553e e8bf 17be ccc3 b13e 10b2 b83d
000003b0: ea84 093e 7b65 afbd 5b8a e6bd af9a 9abe
000003c0: 1c79 8c3d edee a9be d2b9 123e 7de6 603e
000003d0: 3014 993e 099a 993e 7b5f 873e 2f57 6c3e
000003e0: 2735 07be f366 c6bd bdda 093e c847 243e
000003f0: 8038 bebd fad8 b13e 17f0 9a3e 9114 8fbe
-0.021881169 -0.24906157 -0.24070376 -0.15769812 -0.15580964 0.053549297 0.14076036 0.10746978
-0.043169204 0.19526938 0.18759596 0.34824026 0.15770975 -0.24147038 -0.071019925 -0.2512851
-0.24255152 0.27946842 0.2537662 0.09234669 0.28902513 -0.2058954 0.28754526 -0.036846586
0.30699557 -0.059900448 0.15166429 0.1516948 0.0038927672 -0.24271388 0.24005778 0.3221387
-0.105992116 -0.2618351 -0.12944806 -0.3514444 -0.09302349 0.30434003 -0.15787615 -0.22842926
0.123119794 0.17836651 0.14603668 0.30782586 -0.34544167 0.13043341 -0.026679376 -0.13421896
-0.23872177 0.065078825 -0.30044162 0.21311136 -0.21953344 0.13025096 0.2094166 0.17882603
0.28150955 0.15529622 0.31112504 0.2052025 -0.055306062 0.2673262 -0.11952374 0.33407757
-0.21701273 -0.18914561 0.23574725 0.005249601 -0.0700567 -0.19524194 0.15695022 -0.14536406
-0.013590166 0.16550991 -0.23494908 -0.062165674 0.26125428 -0.033580247 -0.14047419 0.13570872
-0.25069985 0.089902386 0.087632485 -0.041974086 -0.010191402 0.12244945 0.19807822 0.04114974
0.01177153 -0.25020164 -0.21298358 0.018156989 0.0772945 0.2385922 -0.22195452 0.23345493
0.108208954 0.22642627 0.27884713 0.32575345 0.2379029 0.26786175 0.24360284 -0.009129892
0.20424409 -0.2422814 -0.13881499 -0.20384057 0.10685204 -0.053480092 -0.22067681 -0.1409158
-0.27035335 -0.32666788 -0.0091984235 -0.30791765 0.29047275 -0.31340998 -0.32972237 0.22519019
0.25448826 0.03754559 -0.009985853 0.10062674 -0.11230234 -0.056819934 -0.027017562 -0.08188113
0.016771032 -0.25015992 0.12277385 0.28017068 0.040907394 -0.23042837 0.24490075 -0.28681841
-0.13650939 0.1930831 0.0655566 0.07125902 -0.1238 -0.13858443 -0.19847296 -0.3183078
0.1615594 0.20830642 -0.1746455 0.28984532 0.35179767 0.27228785 -0.1749871 -0.17424801
-0.03048511 0.10591891 -0.17835627 -0.15512648 -0.012761559 0.13915713 -0.16585189 0.30872822
0.019002622 -0.13370396 -0.14863849 0.3412729 0.13611358 0.29795974 0.11813593 -0.32737648
0.27809 -0.10195731 -0.3127614 0.28646255 0.3350096 0.25919577 0.20754242 0.095725775
0.22211085 -0.1667828 -0.18937127 0.021834765 -0.33527583 0.14985126 -0.08012023 0.06749114
0.096110575 -0.32467043 0.09296423 0.113695085 0.2937127 -0.0107358135 -0.13635845 -0.01973446
-0.20178166 0.17273574 0.14592166 -0.15491365 -0.3490109 0.037187092 0.09466422 -0.23163301
-0.0009701783 -0.30551863 -0.21281351 0.19717753 0.32547 0.011488893 -0.25094065 -0.33380353
0.25357887 0.23448934 0.11054271 0.128847 0.07808576 0.17819485 -0.02924161 0.22362085
0.16372874 0.32366237 0.3363512 0.19533408 -0.17270724 0.25818628 -0.02538572 0.21356688
0.33716166 0.13323706 -0.17251055 -0.35091195 0.28968307 -0.23165998 -0.3484746 -0.22534782
0.20828786 -0.148193 0.34719694 0.09018338 0.13429609 -0.08564278 -0.11256858 -0.3019614
0.06859037 -0.33190098 0.14328697 0.21962924 0.29898214 0.30000332 0.26440033 0.23080133
-0.1320387 -0.09687605 0.13462348 0.16043007 -0.0928812 0.34735852 0.302613 -0.27945378

fc1.bias f4 [256]
00000000: 005e 743e 0879 9f3d 2d0b 4b3e 4a5b e63a
00000010: d8a4 483e 9595 a73c 0126 a5bd e011 53be
00000020: bcd1 f23d fbf7 7fbd 2f32 d2bd a5d9 ccbd
00000030: fd01 72be 4f6c 6e3e 6936 98be 4790 75be
00000040: dfc2 53bd fe85 51be dfc2 943e 77e2 653e
00000050: ec04 943e 44eb 863e 3589 7b3d 9024 47be
00000060: 3042 cd3d a050 54be f163 77be 79d2 463d
00000070: 34a5 5abe bf9c ddbd 2687 45bc 4cf7 b33d
00000080: 524e 92bd dfeb 403c cb00 42bd 004c 3c3c
00000090: bb50 a2be 08c9 43be ba7b 1f3d ba3b 983e
000000a0: 8821 a2bd 6894 d2bb 86a3 30bd 9bfc 87be
000000b0: 291a 64be 84ad 98be c857 b3be 4605 04be
000000c0: 0091 84be eeda ed3d 6924 513e 6d97 a1bd
000000d0: c3a0 62be 5e69 9fbe 1666 e83d 8b02 acbd
000000e0: 9db9 f93c ff2f a2be ce20 2abe 9153 98be
000000f0: cd6a 81be 38bd 86be 9599 2bbe dffd 87bd
00000100: f87c 9fbe 5728 e9bd 376e 513e e7bd 74be
00000110: 3507 9fbe 7a08 ac3e db01 9cbd a23f 69bb
00000120: 513d 85be d825 95bd d8df 3f3e cdf1 803e
00000130: 1865 1c3d f81c 63be e9d5 a23d c84c 25be
00000140: 45e0 733d ce2f b13e d9a5 b4be de08 273c
00000150: 0ef5 87bd a0fb 95be 249d d93c f7bd a4be
00000160: 2de4 133d afd0 22be 30d4 3bbd 55d7 e4bd
00000170: a195 2d3e 2870 95bd 898a 973e 4f47 4e3d
00000180: 6d9e a63d 2a2b 9abe 116e 94be 58f5 763e
00000190: 2087 7abe c49b b03e 2969 74be 92f7 943d
000001a0: 10a6 9fbe 7cf5 44bd 1b3a 953e fa6f 39be
000001b0: 2bf6 403e 44ea 543e 3826 913e 9fae 0b3e
000001c0: c779 8b3d f0a5 9ebe d28b 763d 8c27 833e
000001d0: c834 1b3e 9d96 1ebe fedc 4ebc f046 c93d
000001e0: 1950 423e 3297 4d3d 4dcc 783e aaae acbe
000001f0: c3e8 993e 5b9b 56be fac6 89be e598 0cbe
00000200: 6a03 70be c6e4 933d 6791 b03e 2a32 acbd
00000210: af30 8ebe 1919 a5bc 2c00 033e ee8d 80be
00000220: 8775 3fbe 2449 5fbe 155f 313e e75d a9be
00000230: e9b3 903e 0a36 a2be 9496 b3bc 3bb5 4e3e
00000240: 6e7d f73d 49cc 93be d61b 863e 79a4 893e
00000250: c0bc 033b a853 3cbe a7aa ecbd 0243 c83c
00000260: 8cb3 463e 5f2e 5d3e 0656 dfbd 4010 863e
00000270: 878a 28be 5248 f53c 62ed 1dbe a630 043e
00000280: be03 05bd d723 0b3d ded5 8a3e d9c9 413e
00000290: e813 83be 8490 0fbe d7ae 663e 1446 66bb
000002a0: 2aa1 afbe 6b84 8dbe 04ed 3fbe 633e 81be
000002b0: 8fe3 433e 4eee 573e d0d7 5f3e 6f7e 3a3d
000002c0: af97 ff3d 8bb1 dcbd c665 90bb 2b91 e53d
000002d0: f41d 80be 1198 4dbe 21ca a13e ced9 f53c
000002e0: bc8a 3ebe cbac cf3c f2b4 67be d464 cabd
000002f0: b313 923e 35b6 4dbe caf9 d23c 79e2 a43d
00000300: ae96 b23e 3f8b aebe 8a84 a9be 26a6 ca3d
00000310: 99d1 ab3e 461e 113e db85 63be 9b51 5f3e
00000320: 149b 9fbe 8078 9b3e a3d3 a33e 309b 8f3d
00000330: e39b 58be d8aa a23c f726 b8bd d147 4c3e
00000340: 7b42 17be d151 963e a29c 183e 02fb f7bd
00000350: c377 d3bd 78f1 febd b133 a5be 5ee8 b2bd
00000360: faa9 0e3e 9631 b53c 7c6b 1bbb 4a1e 2ebe
00000370: 5635 7e3d d193 843e b94c 3dbe 79d0 05be
00000380: d364 933e b40d 93bd 87ec 373e 26d4 6dbd
00000390: e9eb ebbd 5036 513e d5bf 733e 425e 523e
000003a0: 530b 763e 46aa 323e eb30 943d c440 8cbe
000003b0: e6f9 113e a884 a4be 8e57 a33c cff4 a23e
000003c0: c98a 043d 4a84 193c d2e3 4e3e 9e35 c0bc
000003d0: 5980 e2bd 1916 8dbe 6e99 8a3e 6fb6 dfbd
000003e0: 5354 953e f167 6e3e c408 d83d 7532 1ebe
000003f0: 1e75 1dbe f9f0 893e 6c15 59bd 8ea3 453e
0.23863983 0.07786757 0.19828482 0.0017574814 0.19594133 0.020457068 -0.08063889 -0.20612288
0.1185641 -0.062492352 -0.10263478 -0.1000245 -0.23633571 0.23283504 -0.29729012 -0.23980819
-0.051699515 -0.2046127 0.29054925 0.2244967 0.28910005 0.26351368 0.061410148 -0.19447541
0.1002239 -0.20733881 -0.24159218 0.048540566 -0.21352082 -0.108209126 -0.012056148 0.087874025
-0.07143845 0.011774986 -0.047364037 0.011492729 -0.31702217 -0.19119656 0.038936354 0.29733068
-0.07916552 -0.006426383 -0.043124698 -0.2655991 -0.22275604 -0.29819882 -0.3502791 -0.12892637
-0.25891876 0.11614023 0.20424046 -0.0789021 -0.22131638 -0.31135076 0.11347596 -0.083989225
0.030484015 -0.31677243 -0.16614076 -0.29751256 -0.25276795 -0.26316237 -0.16757806 -0.06640219
-0.3115003 -0.11384647 0.204522 -0.23900567 -0.31060186 0.33600217 -0.076175414 -0.0035590907
-0.26023343 -0.07282609 0.18737733 0.2518448 0.038182348 -0.2217902 0.079509564 -0.16142571
0.059540052 0.34606785 -0.35282782 0.010194985 -0.06638537 -0.29293537 0.026564188 -0.32176182
0.036106277 -0.15899919 -0.045856655 -0.11173884 0.1695161 -0.07296783 0.2959788 0.050360974
0.08135686 -0.30111057 -0.28990224 0.24117029 -0.24465609 0.3449384 -0.2386824 0.07273783
-0.31181383 -0.048085675 0.29145893 -0.18109122 0.18843906 0.2079249 0.2834947 0.13640831
0.068103366 -0.30985975 0.060191937 0.2561611 0.15156853 -0.15487142 -0.012625931 0.098279834
0.18975867 0.05019302 0.24296685 -0.33727008 0.30060396 -0.20957701 -0.2690962 -0.137302
-0.23438802 0.072213694 0.34485933 -0.084080055 -0.27771518 -0.020153569 0.12793034 -0.25108284
-0.18697177 -0.21805245 0.17321427 -0.33079454 0.2826226 -0.31681854 -0.021922387 0.20186321
0.12084471 -0.28866795 0.26193112 0.26883295 0.0020101517 -0.18391287 -0.11555987 0.024446014
0.19404429 0.2159972 -0.109050795 0.26184273 -0.16459094 0.029941712 -0.15422586 0.12909183
-0.032474272 0.033969726 0.27116293 0.18924655 -0.25601125 -0.14019972 0.22527634 -0.0035136985
-0.34302646 -0.2764009 -0.18742758 -0.2524291 0.19129775 0.21087 0.2185967 0.045530733
0.12480103 -0.10776051 -0.0044066636 0.11209329 -0.25022852 -0.2007754 0.31599525 0.030011084
-0.1860761 0.025350949 -0.22627619 -0.09882513 0.28530654 -0.20089038 0.025753874 0.08051009
0.34880584 -0.3409061 -0.33108932 0.098949715 0.33558348 0.14171705 -0.2221903 0.21808474
-0.31173003 0.30365372 0.31997404 0.070120215 -0.21153216 0.019856855 -0.08991807 0.19949271
-0.14771454 0.29359296 0.149035 -0.12108423 -0.10325577 -0.124484 -0.32266 -0.08735727
0.13932028 0.022118371 -0.0023715189 -0.17003742 0.062062584 0.25894025 -0.18486299 -0.13067807
0.2878786 -0.07180348 0.17961322 -0.05806365 -0.11519606 0.20430875 0.23803647 0.20543769
0.24027757 0.17447767 0.07235893 -0.27393162 0.14255485 -0.3213246 0.01993921 0.318274
0.03235892 0.009369919 0.20204094 -0.023463067 -0.110596366 -0.27555922 0.27070183 -0.10923468
0.29165897 0.23281838 0.10548547 -0.15448935 -0.15376708 0.2694166 -0.052998945 0.19300672

fc2.weight f4 [256, 256]
00000000: 96eb 31bd 7a30 743d e44d 80bc 7879 26bd
00000010: 90e3 103d d044 dcbb de0e 6bbd e8d6 acbc
00000020: c01e 7c3b 5282 36bd 3ca7 9abc 0866 953c
00000030: e060 cabb 6c0d 03bd 74c7 05bd 08b9 59bc
00000040: e088 5dbd 4067 d8bb 6804 1dbd 202b c4bc
00000050: 80ba aebc 705f 6a3c a0ec 26bd 884c 1b3c
00000060: 5085 34bd e0c6 bcbb 386d fbbc 042d 6dbd
00000070: 7015 69bd b0f8 673d 70b8 8bbb 6cd7 6f3d
00000080: daf2 40bd 7e72 1cbd 3e39 1b3d f86e 11bd
00000090: 949f 383d 0a45 4c3d 04c0 743d b0bb dc3b
000000a0: 8072 953a deae 353d 00f0 2a38 882e 113c
000000b0: 0cea 85bc e049 60bb 388f 19bd bc43 83bc
000000c0: 34b9 82bc fcc0 32bd 286f 76bd 1e5d 123d
000000d0: 72fb 003d ba4b 043d 6804 5b3c 104e a33b
000000e0: c040 ecbb a4c1 843c ec13 1fbd 66bb 21bd
000000f0: c607 51bd 383c 39bc 1cf8 2dbd 20ec 7a3b
00000100: 803d 5fbc 2e24 413d 0025 63bb ee29 0a3d
00000110: 00e3 2dbc b86b 8b3c 0831 c2bc 08de 243c
00000120: 3836 8fbc def6 2dbd 904f 3dbc f0ba b73b
00000130: bcfc 0dbd f0bc be3b 808f 03bc 7a59 723d
00000140: 949c ccbc 6ca5 3bbd 406f 513c 981d 2f3d
00000150: b6c8 5e3d fa46 6dbd 0abc 00bd 3cb6 483d
00000160: a85b 08bd 3601 663d 8001 ab3c 98b5 4bbd
00000170: f891 bd3c a850 ea3c 76b6 16bd b08b dfbc
00000180: 1ce0 e03c 90fe fcbb 9c01 b93c b092 16bd
00000190: 6c9c a8bc 544a 75bd 10f5 d2bb 7cc2 8cbc
000001a0: f4c5 a1bc b0af 67bc 7c91 e7bc bc0a 86bc
000001b0: 3242 42bd b485 71bd acd0 e53c b818 a4bc
000001c0: b4f8 46bd 0052 aabb e8ac 1f3d 4017 5f3c
000001d0: 2ef3 2a3d 785f 883c 40ba a9ba 98fa dcbc
000001e0: 88dd a03c 82e1 043d d242 213d 942d e0bc
000001f0: 1c8e a5bc 446c debc 089b 0abd 809b c63a
00000200: 5085 63bc 780e d53c 0853 7ebc 80da 39ba
00000210: ecb3 4d3d aec6 22bd 3036 77bc ac13 5fbd
00000220: c095 8abc c062 4c3c d823 c1bc 60fc a73b
00000230: 3c1c 6fbd 3604 223d c81b 48bd a4e5 31bd
00000240: c8f9 243c ba66 33bd 6038 99bc 40a7 f23c
00000250: ce42 6bbd a876 5e3d 009a e0ba fa61 673d
00000260: 9c27 9fbc 3445 b83c 5071 b6bc 1454 bf3c
00000270: 58e0 c5bc a8bb 6f3c 80df a3ba 3863 48bd
00000280: c8c4 e7bc cc76 ecbc 3a1f 373d d0c7 84bc
00000290: acb0 bebc 2ef0 20bd 5248 2abd 3039 7d3d
000002a0: 8058 b8ba 484b ec3c f031 5f3d 3869 3a3d
000002b0: 882d 1b3c 9e21 5b3d 0c46 e6bc a0fc 0bbb
000002c0: c821 18bc 76aa 153d f03e dcbc 4cf0 c5bc
000002d0: 7882 063d 98fb c03c a0c8 013b 9c6e 733d
000002e0: bc98 a43c 409b c23b 4c6d 79bd 40ee d03b
000002f0: d4e6 dcbc 3462 273d 28c6 353c c48b 1a3d
00000300: a438 433d 2065 783d 0edf 143d de96 7e3d
00000310: 6cfb edbc c84c 5fbc b4a8 a53c d8a4 4dbd
00000320: dc23 ef3c 2c85 c43c 1e79 2fbd 8239 023d
00000330: 3cef b13c aa57 1b3d f6d2 3f3d 6a8f 443d
00000340: 7839 193c a082 e73c f0e8 033d 0c2d a0bc
00000350: 48bc cf3c a606 7bbd 7c17 853c 1c3a 8cbc
00000360: 348b fb3c 1603 2a3d 861e 50bd 9095 82bb
00000370: 4617 7ebd 36ee 41bd c0f2 273c 105b 48bc
00000380: 80fa 0abd 94bb ae3c b00d b5bb 5cf5 ac3c
00000390: e4a6 653d e43f cbbc 00c0 853a b0d0 e23c
000003a0: be0d 3e3d 90ed 8cbc 5009 b23c 38db ca3c
000003b0: 20aa 573d 34e2 a7bc fccd fcbc 0e2c 5abd
000003c0: c8f1 3fbc 7c01 1c3d a83f e73c 78d8 273d
000003d0: 8093 01ba 60ef ef3b 00e5 7c3b 241d e8bc
000003e0: 844f 77bd 2e5b 46bd 0089 083a 68d3 223c
000003f0: c033 b13c ae4b 0ebd 3e96 0b3d 82ff 183d
-0.043437563 0.059616543 -0.015662141 -0.040643185 0.03537327 -0.0067220703 -0.057387225 -0.021098569
0.0038470477 -0.044557877 -0.018878572 0.018237129 -0.006176099 -0.031995222 -0.032660916 -0.013288744
-0.054085612 -0.0066041052 -0.03833428 -0.023946345 -0.021329165 0.014304981 -0.040753007 0.009478696
-0.04407245 -0.0057610124 -0.030691728 -0.05790426 -0.05690521 0.05663365 -0.00426393 0.05855505
-0.0471066 -0.038195126 0.037896387 -0.03550622 0.04507406 0.04987053 0.059753433 0.0067362413
0.0011401922 0.04435622 4.0754676e-05 0.008861192 -0.016346954 -0.003422372 -0.0374901 -0.01602351
-0.015957452 -0.043641075 -0.0601646 0.035733335 0.031489797 0.03229878 0.01336775 0.004983671
-0.0072098672 0.016205616 -0.03883736 -0.039485358 -0.051032804 -0.011305861 -0.042472944 0.0038287714
-0.013625503 0.047153644 -0.0034659505 0.033731394 -0.010613203 0.017019138 -0.02370502 0.010062702
-0.017481908 -0.04247176 -0.011554614 0.0056070015 -0.034664854 0.005820863 -0.008029819 0.059167363
-0.024977006 -0.045812055 0.012782872 0.042752832 0.05439063 -0.057929017 -0.031429328 0.049001917
-0.033290535 0.0561535 0.020874739 -0.04973373 0.023140892 0.028602913 -0.036795102 -0.027288288
0.027450614 -0.007720776 0.022583775 -0.036760986 -0.0205824 -0.059885338 -0.006437905 -0.017182581
-0.019747712 -0.014141008 -0.028267615 -0.01636254 -0.04742641 -0.0589654 0.028053604 -0.020031318
-0.048577026 -0.0051977634 0.038983256 0.013616383 0.04173582 0.016647086 -0.0012949184 -0.026974961
0.019636884 0.032441624 0.039370365 -0.027365483 -0.020209365 -0.027151234 -0.033839256 0.0015152544
-0.013886765 0.026007876 -0.015522726 -0.0007089749 0.050220415 -0.039740257 -0.015088603 -0.05446212
-0.01691711 0.012474716 -0.023576662 0.005126521 -0.058376536 0.039554797 -0.04885462 -0.043431893
0.010069318 -0.04379914 -0.01870364 0.029620767 -0.057436757 0.05431238 -0.0017135739 0.056489922
-0.019428067 0.022493936 -0.022270828 0.023355521 -0.024154827 0.014632143 -0.0012502521 -0.048922747
-0.028292075 -0.02886524 0.044707514 -0.01620856 -0.023277603 -0.039291553 -0.041572876 0.061822116
-0.0014064461 0.02884449 0.054490983 0.0455105 0.009471305 0.053498857 -0.028109573 -0.0021360293
-0.009285398 0.036539517 -0.02688548 -0.024162434 0.03283927 0.02355747 0.001980342 0.059431657
0.02009236 0.0059389174 -0.06089525 0.006376058 -0.026965536 0.04086514 0.011094607 0.037730947
0.04766144 0.060643315 0.036345534 0.062155597 -0.029050551 -0.013629146 0.020222045 -0.050206035
0.029191904 0.023989283 -0.042840116 0.031793125 0.021720521 0.0379254 0.046832047 0.047988333
0.0093520805 0.028260529 0.03220457 -0.01955273 0.025358334 -0.061285637 0.01624655 -0.017117552
0.030706026 0.04150685 -0.05081036 -0.0039851144 -0.062033914 -0.047346316 0.010250747 -0.012228742
-0.0339303 0.021329679 -0.0055253133 0.02111309 0.056067362 -0.024810739 0.0010204315 0.0276874
0.046399824 -0.017203122 0.021732956 0.024762735 0.05265248 -0.020493604 -0.03085994 -0.05326467
-0.01171536 0.038087353 0.028228596 0.040977925 -0.00049429387 0.007322237 0.0038588643 -0.028334208
-0.060378566 -0.0484268 0.0005208403 0.0099380985 0.021631122 -0.034740143 0.03407883 0.037353046

fc2.bias f4 [256]
00000000: f45a e83c 64fb 71bd c816 243d 2011 fbbb
00000010: aaa4 54bd 589a f4bc 8082 4dbc 52f9 453d
00000020: d4ec db3c 7094 33bc 0a10 25bd c2be 033d
00000030: 00a3 243a 0227 6a3d 8a9b 7fbd 34ef cd3c
00000040: b4d9 8f3c 4aad 653d 402b 21bc 2e3c 02bd
00000050: 188d 61bc f01a 2abd 10e9 dc3c 52e7 60bd
00000060: c2fc 493d 586d 483c 188e 6e3c 840c 2cbd
00000070: 9080 803c b8bf 163d 3091 163d 604e a5bc
00000080: 4c97 be3c deee 7c3d 020c 27bd 78e3 063c
00000090: 70e9 14bd 0846 54bc 80f1 d73c 08c2 3b3c
000000a0: c0ae 243c 189e 0ebc 585f 903c ec1f e33c
000000b0: 6830 0cbd 9c16 c33c 889e 273d b615 643d
000000c0: e0cb 5ebc b0db 993b a61c 13bd a0e3 f23c
000000d0: ae0f 3c3d 6458 b8bc 50e2 62bd 9ad8 59bd
000000e0: 5485 d83c c0c7 673c 202b b93c 548d 953c
000000f0: 9c3a 773d 9cf5 ff3c 7031 853b 4c87 4fbd
00000100: 24c3 733d 40a3 8cbb 0412 cabc 1674 3abd
00000110: 1cf2 1bbd 8686 1fbd e40d e3bc 805d 793d
00000120: b09f 1fbc 7076 e13c 2c10 bdbc 5021 79bc
00000130: 0022 00bb c0a5 a23b 7614 433d 068b 333d
00000140: 40ce a93b 4822 3f3c 8e33 20bd a426 a33c
00000150: 9831 b03c e8ac 5f3c 38a6 60bd 08f3 10bd
00000160: 00a1 0f3b 88f2 043c c051 87bc f8b4 223d
00000170: c09e 233b 0ccf e8bc 2c30 b3bc cce0 c8bc
00000180: b4dc 873c f6a7 78bd d0f7 7a3c 7c41 c23c
00000190: 9618 1ebd 3e78 2abd 044d 303d 8cb3 783d
000001a0: d8a6 d8bc b051 083c 745c c3bc f08c cbbc
000001b0: 808f c2bc 5cbe 433d d07a 173c d0aa 953b
000001c0: 9c42 9a3c 4ea4 623d e4a2 0bbd a805 d0bc
000001d0: 86ad 1dbd 9804 32bc 10c2 4ebd 00c6 7ebc
000001e0: 3484 6e3d da30 253d ac32 e93c 100b 243d
000001f0: 5002 883c 54ac 6a3d 323a 513d 5a8c 043d
00000200: 7c8e a13c 90ca 4d3d 86a2 0c3d f813 2abc
00000210: 30c9 19bd 3e81 6f3d ec3b 17bd d22b 523d
00000220: 62cf 13bd ae10 36bd 280d fcbc 4098 af3a
00000230: ceb9 733d e09f 8e3c c251 013d ccf8 f33c
00000240: 52cb 443d 4052 ceba c80a 16bc 8403 e13c
00000250: 0cb9 173d b4d3 d63c 46fb 433d 0c68 d53c
00000260: 60ef c2bc a097 56bb c0b1 31bc d879 003d
00000270: 7010 46bd 9053 193c 4e0a 0ebd d815 d93c
00000280: c001 99bb f66d 25bd 22e6 19bd 0aef 39bd
00000290: 002e 3bbd 7834 3c3d d4fa 43bd 042a b63c
000002a0: d076 63bd 68c7 b7bc 18f9 8b3c 7aab 1ebd
000002b0: 485d 823c 9c65 27bd e473 cdbc 1c52 2e3d
000002c0: f8ee 7b3c 00b4 ef39 74a4 41bd 6861 43bc
000002d0: 5029 0fbc 9e5d 5a3d eaa9 2abd 04c3 bb3c
000002e0: 802b daba cc1a bb3c 24bd 9bbc dc95 e03c
000002f0: b0bf 52bd 1ab5 263d 5254 53bd d04c 43bc
00000300: 709c fdbb 6001 a43b 76d3 4abd 9816 a13c
00000310: c0aa 9dbc e0f5 6d3b 7cac 27bd 14be b73c
00000320: 449d 4dbd a0ad ee3c 0e43 52bd f8cd 95bc
00000330: 8604 6bbd 8c7a 56bd d0a0 7cbc b01a 7f3d
00000340: be9b 103d 5884 323d 1805 b13c b64f 76bd
00000350: 548a c43c 0a9e 423d 70c6 aabb 5cf7 503d
00000360: 9473 3a3d 08b5 5cbc 103b 42bd 824b 1ebd
00000370: 24ad e8bc cc17 1dbd b606 353d 9649 12bd
00000380: 4013 63bc 6071 0f3d d8b8 48bc 64bb ffbc
00000390: 02d1 29bd 9608 173d b673 2fbd 4ce3 8f3c
000003a0: 6013 623c e429 fd3c 9c76 af3c 387a 693c
000003b0: 9c12 64bd 166a 7d3d 5c27 40bd 2873 4a3d
000003c0: 543b 893c 1a1f 113d ea0c 3abd 661d 123d
000003d0: d08a 7e3c 6c16 75bd 18e2 bc3c 1054 25bc
000003e0: 5eea 483d 607b 17bc 2068 b83b 406d 673b
000003f0: 50ab fabc 9ef4 70bd 0e8b 73bd 308f 893c
0.028363682 -0.059077635 0.04006079 -0.0076619536 -0.05191485 -0.029858753 -0.012543321 0.048333474
0.026846327 -0.010960683 -0.0402985 0.032164343 0.00062803924 0.057166107 -0.062404193 0.025138475
0.017559864 0.056073464 -0.009836972 -0.031795673 -0.0137665495 -0.041529596 0.026966602 -0.054908104
0.049313314 0.012233101 0.014560245 -0.042004123 0.015686303 0.03680393 0.036759555 -0.020178974
0.023265503 0.06175124 -0.040782936 0.008232944 -0.036355436 -0.01295615 0.026360273 0.011459835
0.010051429 -0.008704685 0.017623588 0.027725182 -0.03422585 0.023814492 0.04092267 0.055684768
-0.013598412 0.0046953782 -0.035915993 0.029649556 0.04591339 -0.022503085 -0.05539161 -0.053185083
0.026430763 0.014146745 0.022603571 0.018255867 0.06035863 0.031245045 0.0040647313 -0.05066614
0.059512272 -0.004291922 -0.024666794 -0.045520864 -0.03807269 -0.03894665 -0.027716585 0.060880184
-0.009742662 0.027522296 -0.023079 -0.015205696 -0.0019551516 0.0049636066 0.047626935 0.043833755
0.0051820576 0.011665888 -0.039111666 0.019915886 0.021508023 0.013652064 -0.05484602 -0.035388023
0.0021916032 0.008114465 -0.016518474 0.039723366 0.0024966449 -0.02841904 -0.021873556 -0.024521254
0.016584732 -0.060707055 0.015317872 0.023712866 -0.038597666 -0.041618578 0.043042198 0.060718104
-0.026446745 0.008320257 -0.023847796 -0.024847478 -0.023750067 0.047788963 0.009245589 0.0045674816
0.01883059 0.055332474 -0.03409089 -0.025393322 -0.038495563 -0.010865353 -0.05047804 -0.015550137
0.058231547 0.04032979 0.028466545 0.040049613 0.016602665 0.05729325 0.05108089 0.032360412
0.019721262 0.050242007 0.034334682 -0.0103807375 -0.037545383 0.058472864 -0.03692238 0.05131132
-0.036086448 -0.0444495 -0.030767992 0.0013396814 0.05950337 0.017410219 0.03157211 0.029781722
0.048045464 -0.0015741065 -0.009157844 0.027467497 0.03704171 0.026223995 0.047847055 0.02605059
-0.023795784 -0.0032744184 -0.010845602 0.0313662 -0.04835552 0.009358302 -0.034677796 0.026499674
-0.004669398 -0.04038807 -0.037572987 -0.04539398 -0.045698166 0.045948476 -0.04784663 0.022236831
-0.05553323 -0.022433951 0.01708655 -0.03873775 0.01591362 -0.040868387 -0.025079675 0.042558774
0.015376799 0.00045719743 -0.047275975 -0.011925079 -0.008737877 0.053311937 -0.04166595 0.02292014
-0.0016645044 0.022839926 -0.019011088 0.027415209 -0.05145234 0.040700056 -0.051594086 -0.011920169
-0.007739596 0.0050050467 -0.04951807 0.019664094 -0.019246459 0.0036309883 -0.04093598 0.022429504
-0.05019881 0.029135525 -0.05133348 -0.01828669 -0.05737736 -0.052362964 -0.0154192 0.06228131
0.035304777 0.043583244 0.021608874 -0.060134612 0.023991741 0.047514 -0.005211644 0.05101715
0.04552038 -0.013470896 -0.047419608 -0.03864623 -0.028402872 -0.038352773 0.044195853 -0.03571471
-0.01385957 0.035020232 -0.012251101 -0.031217285 -0.04145909 0.036873423 -0.04283496 0.017564438
0.013798565 0.030903764 0.021418862 0.014250331 -0.05568181 0.06186875 -0.046912536 0.049426228
0.016751923 0.03543005 -0.045422472 0.035672568 0.015536025 -0.059835836 0.023057029 -0.010090843
0.049051635 -0.0092457235 0.005627647 0.003531292 -0.030599266 -0.058827035 -0.059458785 0.01679191

fc3.weight f4 [4, 256]
00000000: 50e2 403d f4ce 523d 026a 0fbd f867 193c
00000010: 207d 503d d031 9dbc 4079 f43b 0442 553d
00000020: b0ad 213d 82d3 19bd b0ec 603d b6ed 023d
00000030: a04a 843c 3433 87bc a8e7 503d 30ac 98bc
00000040: 6ca3 62bd 5c68 883c 8c08 703d b0b7 6e3c
00000050: 88d9 483d e0aa 88bc 0068 c138 d8a9 1ebc
00000060: a0f5 2abd 88c8 a8bc 3ac8 543d 6ca4 43bd
00000070: c610 403d ca4f 363d 3083 5fbc f60a 72bd
00000080: f0f7 643c 20a0 0e3b c877 6abc a0d9 26bc
00000090: 78aa 17bd 7cbd 5f3d dc95 ab3c 0ced 683d
000000a0: bc28 0f3d 52c1 2d3d 70b9 383c d8d0 81bc
000000b0: 6802 b83c b05d a63b ee38 40bd 1281 1d3d
000000c0: 6ca4 413d 203c f9bb c4cd f33c a475 613d
000000d0: 44b0 4ebd 2ac1 0f3d 54d4 64bd 9234 00bd
000000e0: e80f 103c 3a93 23bd f03b efbb 0c8e 003d
000000f0: d6cf 48bd 3024 5e3d 3898 2ebd 54cd 443d
00000100: aa2b 3abd a669 1c3d 3837 0f3c 882c 89bc
00000110: 7ef8 013d 1680 403d 247c 36bd 20b9 063d
00000120: 30a7 87bb f86e e93c 3021 fabb 84ca 5d3d
00000130: f826 98bc 2089 523d 92ac 133d e046 42bb
00000140: 2835 053c 6207 53bd 0091 c6b9 046f 10bd
00000150: 6cce 85bc 90e4 e33c 8006 e43c 28f5 473c
00000160: 12ad 03bd 5c0d 4cbd d006 ffbb a2c9 493d
00000170: e88e fd3c 4004 9e3a e430 9d3c 6031 313c
00000180: ba12 473d 9c1a 4dbd 4c51 69bd 0eaa 493d
00000190: 804a 973b 183e 1c3c d03b 30bd 54f4 31bd
000001a0: 5ab0 73bd a837 1a3c 048d 68bd 3058 753d
000001b0: 6811 8bbc 80ae 59bb 1c0e 943c fc86 923c
000001c0: 381c 6bbd 9c0b 673d 205a 463b cccc e63c
000001d0: a818 f53c 885d 69bc 608d c93c 8079 283d
000001e0: 84d9 853c 5041 91bb 38e8 913c a8c3 08bc
000001f0: b457 943c 503b 513c 48a0 253d ec06 96bc
00000200: 50ec bd3b 5e74 20bd 32f8 673d 2060 34bb
00000210: 2ee8 7ebd 78d5 bf3c 8401 a43c c094 01bb
00000220: a2b3 05bd b414 a0bc 6879 60bc 0ef4 5a3d
00000230: f224 723d b027 173d b08b 3f3d 3e1c 17bd
00000240: 24ff 013d 9066 fd3b b665 013d c0cf 0d3d
00000250: a82e 95bc f6a2 6f3d 1888 f7bc 3060 37bd
00000260: dc1b 2b3d 9093 b33b a079 a33c 72f4 363d
00000270: b8fb 473d 7609 0a3d 56b9 6abd 8054 08bd
00000280: d278 723d b82f 203d eebb 0cbd 00de bc3c
00000290: c0c0 d53b 3064 e23b a062 3b3c 8e37 653d
000002a0: 46ec 5dbd 0064 b03a 10ba debc 4092 f53b
000002b0: f80d 5ebc f015 01bc 003e 3bba 4cd4 aa3c
000002c0: 6ce9 8c3c a014 7bbc 2810 0ebc 201b 39bc
000002d0: 9c43 743d 5cb3 2b3d c072 9c3a c8c6 693c
000002e0: a0ce bb3b 147a d03c 2895 a53c 7046 bb3b
000002f0: bac4 613d 8680 15bd 90bb 09bd f865 be3c
00000300: 007d 2a3c 0e9e 303d 9c85 303d 3801 0e3c
00000310: aefd 773d ee62 2dbd c07d 66bb 1cc3 b53c
00000320: f08d 9dbc 5211 4bbd 5c56 123d e831 f93c
00000330: 04bc 113d f8e0 ecbc 34fe d1bc b2b4 503d
00000340: 5ec1 653d 2c11 4c3d b66e 063d b808 63bd
00000350: 0012 7e3b 4c5c b3bc f45a cbbc 80ea 02bd
00000360: 121b 793d e804 503d c609 39bd a6ad 11bd
00000370: 5890 593c 006d b23c 8e56 413d 5897 7c3c
00000380: 005d 99ba a057 d73c 40ce d4bb bc78 bd3c
00000390: 2840 5a3d 8407 4dbd 48cf efbc e0f3 5f3d
000003a0: 2064 c9bb 44f8 ff3c 3064 fbbc 1075 9f3c
000003b0: 7609 383d a80a 45bc 1caa 053d da31 223d
000003c0: 1011 f13b e007 a6bc 4a5e 02bd a87d 3bbc
000003d0: 08be 673c 4ed0 323d 6a97 6fbd 900e 403d
000003e0: 8456 163d 7cb9 47bd 84ba 5d3d 9056 df3b
000003f0: 2c82 90bc 7ca0 e0bc c6f6 29bd 9ecd 3b3d
0.04709083 0.051466897 -0.035013206 0.009363167 0.05090058 -0.019188792 0.007460743 0.05206491
0.039472282 -0.037555225 0.054913223 0.03196498 0.016148865 -0.016503908 0.051002175 -0.018636793
-0.055331632 0.016651325 0.0586019 0.014570162 0.04903558 -0.016683042 9.222329e-05 -0.009684049
-0.041738153 -0.020603433 0.051948763 -0.047764227 0.046890996 0.044509687 -0.013642117 -0.059092484
0.0139751285 0.0021762922 -0.014310785 -0.010183722 -0.037027806 0.054624066 0.020945482 0.05686669
0.034950957 0.042420693 0.0112746805 -0.015846655 0.022462085 0.0050770864 -0.046929292 0.03845317
0.047275946 -0.0076060444 0.029761203 0.05504383 -0.05046107 0.035096325 -0.055866554 -0.031300135
0.008792855 -0.039935328 -0.0073008463 0.031385466 -0.049026333 0.05423373 -0.042625636 0.04804738
-0.045451798 0.03818669 0.0087411925 -0.016744867 0.03173112 0.046997152 -0.044551983 0.032891393
-0.0041398033 0.028495297 -0.007633351 0.054148212 -0.01857327 0.051400304 0.036053248 -0.0029644296
0.008130349 -0.051520713 -0.00037873536 -0.035262123 -0.016333781 0.027818948 0.02783513 0.012204446
-0.032147475 -0.049817428 -0.0077827945 0.049264558 0.030951932 0.001205571 0.019188352 0.010814995
0.048601843 -0.050074205 -0.056962296 0.049234442 0.0046170354 0.009536289 -0.04302579 -0.0434459
-0.059494354 0.009412684 -0.056775108 0.059898555 -0.016976073 -0.0033215582 0.018073134 0.017886631
-0.05739996 0.056407556 0.003026612 0.028173827 0.029918984 -0.014243491 0.024603546 0.041131496
0.016339071 -0.0044328347 0.017810926 -0.008347429 0.018108226 0.012770489 0.04043606 -0.018313847
0.005795993 -0.039173476 0.056633182 -0.0027523115 -0.062233143 0.02341722 0.020020254 -0.00197725
-0.032642014 -0.019541122 -0.0137008205 0.053455405 0.059117265 0.036903083 0.046764076 -0.03689217
0.03173746 0.0077331737 0.03159114 0.034621954 -0.018210724 0.05850502 -0.030216262 -0.044769466
0.041774616 0.0054802373 0.019955456 0.044666715 0.048824042 0.03370043 -0.057305656 -0.03328371
0.059197254 0.03910801 -0.03435891 0.023055077 0.0065232217 0.006908916 0.011437088 0.055961184
-0.054180406 0.0013457537 -0.02718833 0.007494241 -0.013553135 -0.007878765 -0.00071427226 0.020853184
0.017201148 -0.015324742 -0.008670844 -0.011297971 0.05963479 0.041919097 0.0011936054 0.014268585
0.0057314187 0.025448836 0.020212725 0.005715184 0.055119254 -0.036499523 -0.03362614 0.023241982
0.010405779 0.043119483 0.04309617 0.008667283 0.060544662 -0.042330675 -0.0035170168 0.022187762
-0.01923272 -0.049577065 0.03572689 0.030419305 0.035579696 -0.028915867 -0.025633909 0.050953574
0.056092612 0.049821064 0.032820426 -0.055428237 0.0038768053 -0.021894597 -0.024823643 -0.031961918
0.060816832 0.05078593 -0.045175336 -0.035565995 0.013279043 0.02178049 0.047201686 0.015416943
-0.001170069 0.0262869 -0.0064943135 0.02312886 0.05328384 -0.050055996 -0.029273644 0.054675937
-0.006145969 0.031246312 -0.030687422 0.019465 0.044930898 -0.012026466 0.032632932 0.039598323
0.0073567703 -0.020267427 -0.031828202 -0.011443533 0.014144428 0.043655686 -0.05849401 0.046888888
0.0367036 -0.048760876 0.054132953 0.006815739 -0.017640196 -0.027420275 -0.041495107 0.04585039

fc3.bias f4 [4]
00000000: 40f1 2e3d e29b 123d c07d 00bc 40c0 653b
0.042710543 0.035793193 -0.007842481 0.0035057217
