DQN_LunarLander_ep500.pth (torch, 279252 bytes, 6 tensors)

fc1.weight f4 [256, 8]
00000000: 1d9e 6dbd 12e2 943e d012 67be 1436 683e
00000010: 2e37 1e3f 8b63 103e 7b2c bfbd ccf9 703e
00000020: d160 23bd 4038 1b3e de86 43bd 1606 d2be
00000030: cdca cebe fea8 2a3f 531d 4d3d 9754 28be
00000040: 9955 5fbc 6fa8 1db9 3bed c3bc 75e1 363a
00000050: eb05 803f 46b0 23bd b2c2 43bd 9837 e6be
00000060: 53dd 663e c920 853e 1780 913e 865a dabe
00000070: 9602 54be 49f2 dabd 7002 61be c30e b23e
00000080: 62ac e33e 3404 3b3d b8a9 43bd 872e babd
00000090: 0e82 593e 19cf 223f c6c9 43be 3e60 d43d
000000a0: 689e 1c3b 171f 5e3e 9466 44be bfc8 ad3d
000000b0: 2de4 003f 30a5 a73e 3177 773e e1b5 77bd
000000c0: d61f 9f3b 5513 9f3e e821 c53e 7a7e dcbe
000000d0: 9925 f7be 750a d1be 361b b9be b8e8 b23e
000000e0: 91b3 463d 61d5 5e3e 7cf2 a9bd f0a5 473e
000000f0: a8e2 a4be 06b8 c9be 25e3 b93e 202e 43bd
00000100: 3838 4bbe cdb5 10be 0b8c c1bd 8ca5 eebc
00000110: 3314 31bd 86e7 943e 02b6 d5be 86a8 f63d
00000120: 74ad 613e ab06 02be 9746 433e 0d27 c7be
00000130: 556c 2ebf 5211 4b3d 1a51 42bf f7a1 cabe
00000140: f085 ce3c 2ee2 58be e2a8 86be 0234 03bf
00000150: 8959 cf3e 67b4 d93e 54da 803e db16 3c3e
00000160: 1b61 a8be 6f16 88be e444 06bf 978a 8b3d
00000170: 8aca 0e3f 6bd5 ae3c bea6 b63e 539e d9be
00000180: 6141 86be cc32 663e a69e debe 3976 49be
00000190: c1ee 9bbe 9c4d c83e 13e6 d23d 2043 01bf
000001a0: 3ee2 98be b906 6dbe 3e8f 2bbe bf0a d73d
000001b0: 2fcf fa3e 91ab d23e f15e 353e 023a 9e3e
000001c0: 29de b23d 0ed1 c83e a7df 86be fb04 0abf
000001d0: 8c52 cbbd 1204 133f b561 453e 5d16 3a3e
000001e0: 5e11 9e3e 6a12 8cbd af5e 4cbd fe27 f03d
000001f0: 4474 abbe 8e4a ddbe 4c85 10be a408 173e
00000200: 5580 97be cfe3 683e 6839 96be 821d 153e
00000210: 1560 b63b 26d9 c3be ddb0 0cbe ee25 14be
00000220: e7af 94be 62ff e73d 0536 ac3e 87cf 35be
00000230: 3279 7cbe 3cc2 d33e 7071 323e a40b 223c
00000240: 36e6 14be d864 b03e 6f83 3c3e 2d2d b9be
00000250: dbb0 aabe 0f22 643d 0fca 6a3e ad8e 83be
00000260: 7a25 f2bd 499f b3bc 1c72 043f 65a4 aa3d
00000270: 8e8f f2be fbd1 b43e f1d0 b0be 1c82 37bd
00000280: 244a 0bbe 08b0 c2bd 1c14 4abe aad2 85be
00000290: b4e5 e03d c1ea 33be 7be9 403d 2de3 393e
000002a0: ac97 cfbe 9fe6 c63e ef2c a23d a8f9 0abf
000002b0: 8cd0 cebc eaa6 0c3f 8b86 703d 48ed eb3e
000002c0: eeeb d33e ff5f 1abe f35a 0c3f c9be 073e
000002d0: c241 10be d964 963e 3006 893e 410d 0ebd
000002e0: 5e27 b1be 5797 8c3d ee4e 4abe e4f4 733e
000002f0: abe4 443e 699e d7be c98a a33d 8f9f 0d3e
00000300: f4af 243e a925 b53e 255a 103f 82eb 5a3e
00000310: 52e7 d9bd 9b0e d73b 9377 81be 290e 933d
00000320: 9398 ed3d 809f debd c17e b6bd 7586 32be
00000330: ab23 133f 1414 bc3e e313 38be f4f7 0fbf
00000340: 7c12 15be 2dd0 26bd fc7a ac3e 5ff3 27bf
00000350: f4c8 a7be c8b4 113f 80d0 69bd 3e18 1ebe
00000360: ccf6 0f3f 4110 debe 1e16 b03e a84c babc
00000370: bc39 463d 2239 033e 9e61 92be 1a04 4d3e
00000380: c628 af3e 2a6a 5bbd b018 0abf cc81 9cbe
00000390: 9cc6 28be 9c53 24be 49c0 703e f69c 66be
000003a0: 427f 483d d04a bd3d d1a1 50bf fd74 3f3e
000003b0: 4b02 323d cfe4 57bd 304f 31bd 298b 7e3d
000003c0: cee3 0b3e f97e 403d 27c5 de3d 6a8b 593e
000003d0: 1758 e7be 752d cfbe 8093 3fbf 04f2 433d
000003e0: 342f 16be dcf9 ae3e 1d38 2cbf c51b 6c3e
000003f0: 333c 7a3e 838e db3d 1e87 473e 8e18 e03d
-0.058012117 0.29078728 -0.2256577 0.22676879 0.6180295 0.14100473 -0.09334656 0.2353279
-0.039887253 0.15158176 -0.04773604 -0.41020268 -0.403891 0.6666411 0.050076794 -0.16438518
-0.013631248 -0.00015035433 -0.023916831 0.0006976345 1.0001806 -0.03996303 -0.047793098 -0.4496429
0.22545366 0.26001576 0.28418037 -0.4264719 -0.20704111 -0.106907435 -0.21973586 0.34776887
0.44467455 0.045658305 -0.04776928 -0.09090906 0.21241018 0.63597256 -0.19119939 0.10369919
0.0023898128 0.21691547 -0.19179755 0.08485555 0.5034817 0.32743216 0.24166562 -0.060476188
0.00485609 0.31069437 0.3850243 -0.43065244 -0.48270872 -0.4082829 -0.36153573 0.34943175
0.04851109 0.21761085 -0.08298203 0.19496894 -0.32204175 -0.3939821 0.3630611 -0.04765141
-0.19845665 -0.14131851 -0.09450539 -0.029131673 -0.043232154 0.29082888 -0.41740423 0.12043862
0.22038823 -0.12697856 0.19069897 -0.3889698 -0.6813405 0.049577065 -0.75905 -0.39576694
0.02521035 -0.2118003 -0.26300722 -0.5125123 0.40497997 0.4252045 0.2516657 0.18368094
-0.32886586 -0.26579615 -0.5244887 0.06813543 0.557778 0.021342 0.3567409 -0.42503604
-0.26221755 0.22480315 -0.43480414 -0.19674005 -0.30455592 0.3912171 0.102977894 -0.5049305
-0.2986011 -0.23147096 -0.16753861 0.105000965 0.48986194 0.4114652 0.17711999 0.3090363
0.0873378 0.39221996 -0.26342508 -0.5391385 -0.09927854 0.57428086 0.19275554 0.18172593
0.30872625 -0.0683945 -0.049894985 0.11726378 -0.3348714 -0.43220943 -0.14113349 0.1474939
-0.29590097 0.22743152 -0.29340672 0.14562038 0.005565653 -0.3825161 -0.13739343 -0.14467594
-0.29040453 0.11328007 0.33634964 -0.17754947 -0.24655607 0.41359127 0.17426085 0.009890471
-0.14540944 0.34451938 0.18409513 -0.3616728 -0.33338055 0.055696543 0.22928642 -0.2569479
-0.11823554 -0.021926539 0.5173662 0.08332137 -0.4737515 0.35316452 -0.3453441 -0.044801816
-0.13602501 -0.095062315 -0.19734234 -0.26137286 0.109813124 -0.1757002 0.047097664 0.18153067
-0.40545404 0.38847825 0.07918727 -0.54287195 -0.025245927 0.5494219 0.05872206 0.4607947
0.41390938 -0.15075682 0.5482628 0.13256373 -0.14087585 0.29373816 0.26762533 -0.03468061
-0.34600347 0.06864803 -0.19756672 0.23823887 0.19227855 -0.42113045 0.079854555 0.13830398
0.16082746 0.35380295 0.5638755 0.21378902 -0.10639824 0.0065630204 -0.2528654 0.07180435
0.11601367 -0.10870266 -0.08910895 -0.17434104 0.574763 0.36734068 -0.17976336 -0.5623772
-0.14557832 -0.040725876 0.3368758 -0.6560573 -0.32770503 0.56916475 -0.057083607 -0.15438935
0.5623596 -0.43371776 0.34391874 -0.02274163 0.048394904 0.12814763 -0.285901 0.20021096
0.34210795 -0.053568043 -0.5394392 -0.30567777 -0.16482013 -0.1604752 0.23510851 -0.22520813
0.048949488 0.09242785 -0.8149691 0.18696971 0.043459218 -0.052708443 -0.04328841 0.062144432
0.1366112 0.04699609 0.108774476 0.21244588 -0.45184395 -0.40464368 -0.7483444 0.047838226
-0.14666444 0.34175003 -0.6727312 0.23057468 0.24437027 0.10720541 0.19485137 0.109421834

fc1.bias f4 [256]
00000000: 0ed3 d63d 0e57 123e 6b33 e23a 8d40 e73e
00000010: e9ed 29be 4b03 4cbe f825 a83d 388b 743c
00000020: 7d92 02be 53e7 703e 1624 c33e 5482 0bbe
00000030: 4316 17be 10e8 803e ad1d e83e 8f5a 573e
00000040: 23b9 29be 7892 e73e b61f de3e 231c a63e
00000050: 4ce0 e83e dc4a b53e 792c e7bc 6406 ae3a
00000060: 272b c2be 77eb 46be abb9 9f3e d8e3 56be
00000070: de34 043d 1918 b9bc 1249 4a3e a339 3d3e
00000080: 251f 7cbe 2524 033e c845 e7bc b44c f63e
00000090: 207c 263e 5ce7 683e e4e1 a9bb 22e6 27bd
000000a0: 50b1 76be 9e56 013e 033c ca3d 65b0 93be
000000b0: 7fde 92be b085 5f3e b33f d13e a2c2 4dbe
000000c0: 78b0 263d 1fef 833e bb0a b0b9 3e00 6a3d
000000d0: 6bb6 b73e 0dfd a93d 13ef 95be 6cf7 37be
000000e0: e399 123e 1ebb 43be 2028 203c 7a42 863b
000000f0: be1e c83e 9b1a 163e cec5 86be c193 703e
00000100: 8e81 adbd 7904 c2bd 745a bb3e 9d7c b2be
00000110: 7355 bb3e 32de 3ebe d269 7fbb 18d7 a5be
00000120: 57c3 75bd 8234 3dbe 2496 7e3e 8e77 443e
00000130: fa7b d03e d760 fbbc dd26 cb3e 4ff3 5fbc
00000140: 7c7c e03e 290c 563d 8764 983e b05e 32be
00000150: 8e64 993e b9bc 4e3d 1db8 0e3e 6606 5cbe
00000160: d213 9c3e 7356 aebe 6470 8f3e 8061 013e
00000170: 6c20 bebe fcf1 d83c 1770 8dbd 7978 6b3e
00000180: 32f7 733e 0c32 8f39 5ccd 1dbe 87f9 833e
00000190: 1250 e93e 10c0 e23e 810a c7bd e3b6 f5bc
000001a0: 4d19 d43e 8760 9b3e 22b1 c3be 0ba2 27be
000001b0: 8984 c63e 55b4 9f3e 6150 363d 0489 363e
000001c0: a781 553e 3beb 4b3d e1b0 7cbe 0d84 ab3e
000001d0: 5268 be3e 5aa2 c13d 1779 fe3b e3a3 0c3f
000001e0: a2d7 333e e5df ce3a 4166 313e 8986 78be
000001f0: bc4f a7be ffdc b0be 4a80 e73d ec43 b3bd
00000200: 2c28 c43e bf08 633e 6d77 0b3b 06e2 633e
00000210: 9857 b2be 7d44 a73e e633 2e3d 80e0 19be
00000220: 2640 50be 1664 10be 48f4 2b3c 8a5f 4a3e
00000230: f259 b83e c4e5 e8bc ef7e 8cbd d477 7f3e
00000240: 4489 6e3e 9155 e93d f25a babd 9fe4 733e
00000250: 3ace 723e 4828 9fba 71f1 c13b b4c9 b2be
00000260: 5e24 72bd 1971 97be 083e 6d3e c899 943e
00000270: 30cb c93c faa2 8c3e 2a0b 2f3e 9780 bcbd
00000280: 8815 643d 8c30 d63e d82b cc3d 0dd8 7dbd
00000290: 0a4f 6fbe 4236 a43d 0b08 0a3e 480f 5cbe
000002a0: fb00 b33e ce66 1e3e 5efb 9abe 7628 de3e
000002b0: 13f4 603e e961 b5bd ba59 8fbc 6fd8 2f3e
000002c0: 190a fd3e 5ead 23be f9bb 4a3e 42b5 8b3e
000002d0: 78c7 12be 63cf 253e 08e8 b83e e407 a53e
000002e0: 871e 11be 61bc 05bd 8e54 153e 12b9 243e
000002f0: f0d3 5cbe 286e 4fbe a9b9 90bb 621d 4fbe
00000300: 1895 f5bd 0814 e1bd c79d c83e ed84 0ebe
00000310: c6fe 05be 9b37 0abd 15ea c1bc e37d f23c
00000320: 67c0 b83e 3695 abbd c98c 10be 771b 16be
00000330: a9e0 6bbc 9c4d 073e 2caf 31be 0b34 6dbc
00000340: c5a6 283d 662a 6dbe 971a 983e aae4 123e
00000350: f85d df3e f9b5 733e 807d cbbd 02ed 43be
00000360: 68b8 b6be 48a2 8cbe 0bb0 5c3e 1296 173e
00000370: 5815 90ba c8df fb3e 486c 073c b3c3 563e
00000380: a059 ed3d 6c4a b63e 4279 f93d d4f8 bc39
00000390: cc7e 873e 1c6d 9e3e 6a0d 45bd 21b9 07be
000003a0: c6f9 803d fc00 913d 3b1c 58be a3c8 383e
000003b0: c370 90be a045 68be 0ea5 a1bd bd0d ae3e
000003c0: 41fc 053e ac45 05be 1e09 0a3e f525 8a3e
000003d0: 5eea 36be 72a0 b1bc d435 1abf 1c43 923e
000003e0: 8984 b3bd 7bd0 293d ad84 263e 26da 91bd
000003f0: 6d2e f83d 7d6b af3e 2350 ec3b d45d 5a3b
0.10489474 0.14291021 0.0017257755 0.45166436 -0.16594662 -0.19923131 0.08210367 0.01492577
-0.12751193 0.23525743 0.3811347 -0.13623935 -0.14754586 0.2517705 0.4533514 0.21030639
-0.1657453 0.45228934 0.4338357 0.32443342 0.45483625 0.35408676 -0.028219448 0.0013277051
-0.37923548 -0.1942576 0.3119634 -0.20985353 0.03227698 -0.022594498 0.19754437 0.18479018
-0.24621256 0.12806757 -0.028231516 0.48105395 0.16258287 0.22744507 -0.005184399 -0.040990956
-0.24091077 0.12630698 0.098747276 -0.28845516 -0.28685376 0.21828341 0.4086891 -0.20093778
0.040695637 0.25768372 -0.0003357733 0.057129137 0.3588136 0.08300219 -0.29283962 -0.17965478
0.14316516 -0.19114348 0.009775192 0.00409728 0.39085954 0.14658587 -0.26322788 0.23493864
-0.08471976 -0.09473509 0.36592448 -0.34860697 0.3658863 -0.18639448 -0.0038972986 -0.32390666
-0.060000744 -0.18477061 0.24861962 0.19186231 0.40719587 -0.030685825 0.39678088 -0.013668849
0.43844974 0.05225769 0.29764196 -0.17418933 0.2995953 0.05047295 0.13937421 -0.21486816
0.30483872 -0.3405033 0.28015435 0.1263485 -0.3713411 0.026482575 -0.06906145 0.22995175
0.23824766 0.00027312373 -0.1541037 0.25776312 0.455689 0.44287157 -0.097188 -0.029994434
0.41425553 0.30347082 -0.3822108 -0.16370408 0.3877299 0.3119227 0.04451025 0.17825705
0.2085024 0.04978488 -0.24676849 0.33499184 0.37188965 0.09454794 0.0077659 0.5493757
0.17562726 0.0015783279 0.17324163 -0.24270071 -0.3267802 -0.34543607 0.11303766 -0.087531894
0.383119 0.22171305 0.00212809 0.2225419 -0.34832454 0.3266944 0.042529963 -0.15027046
-0.2033697 -0.1410068 0.010495253 0.19763008 0.36006123 -0.028429873 -0.06860148 0.24948055
0.2329455 0.113932736 -0.09099378 0.23817681 0.23711482 -0.0012142742 0.0059186746 -0.34919512
-0.059116714 -0.29578474 0.23168194 0.29023576 0.02463302 0.2746809 0.17094103 -0.09204214
0.055684596 0.41833913 0.099693 -0.06197362 -0.23369995 0.08018161 0.1347963 -0.21490204
0.34961686 0.15468904 -0.30269903 0.43390244 0.21968107 -0.088565655 -0.01749884 0.17172407
0.49421766 -0.15984103 0.19798268 0.27286726 -0.14333904 0.16192393 0.36114526 0.32232583
-0.14171802 -0.032650355 0.14583036 0.16086224 -0.21565223 -0.20256865 -0.0044166637 -0.20226052
-0.11991328 -0.10990149 0.39182875 -0.13917895 -0.1308547 -0.033744436 -0.02367119 0.029601043
0.3608429 -0.08378069 -0.14116205 -0.14658915 -0.014396825 0.132132 -0.17351979 -0.01447774
0.04117467 -0.23160705 0.29707786 0.14345041 0.4362638 0.23799886 -0.099360466 -0.1913338
-0.35687566 -0.2746756 0.2155153 0.14803341 -0.0010992689 0.4919417 0.008265562 0.20973091
0.1158936 0.35603654 0.12181331 0.00036043546 0.26463926 0.3094262 -0.048108496 -0.13254215
0.062976405 0.07080266 -0.21104519 0.18045287 -0.2821103 -0.2268281 -0.0789281 0.33994856
0.13084508 -0.13014859 0.1348004 0.26982084 -0.17862841 -0.021682952 -0.60238385 0.28566825
-0.087655134 0.041458588 0.1626155 -0.07121687 0.1211823 0.34261695 0.0072117015 0.0033320086

fc2.weight f4 [256, 256]
00000000: 8e9a 863d f68b 003e 4d80 5ebf 9285 8fbc
00000010: 89ef 00bf 4810 a63c 7503 443d 5f15 a93d
00000020: 2a42 f73d 237f 913d fd9a c63c ad80 b13e
00000030: 5306 d93d 5c61 7e3d 8edf a33d 6d24 f3bd
00000040: da3f f4bd 1c37 943d 882e a13d 6150 333e
00000050: ee42 a9bc 841e 293c 785f 413e 9525 473d
00000060: 7c80 613e daed d73d 132b 9a3d a2f4 8a3e
00000070: 19aa 68be 53f6 4bbf 8b1e b23d 53b1 143c
00000080: 00bf 633e 4767 143e 465b b9bc 5339 8a3d
00000090: 4ec9 ef3d 4728 70bc cb64 93be 6b0d 48be
000000a0: b35a b5bd a955 463e 49eb b73e 0440 d43e
000000b0: 8eff afbd eb7c ce3d f669 cf3c 5a44 1f3c
000000c0: c2d1 423e 1735 923d fc2a 01bf 159b 2e3e
000000d0: 1830 553d f036 f33d 9ed6 723e f311 803d
000000e0: a8f9 e2bc 3f78 bc3e 176e eebe 331c 3fbf
000000f0: c441 9a3d 32bf 333e 4314 5cbe 8127 ad3e
00000100: 1164 b53d a347 b6be 9514 213d cb95 193f
00000110: 5197 b63c 0586 3fbf eabd a0be 06e6 a53e
00000120: ad6e 1a3d 183e 0f3e 5c09 2ebd eafb ca3c
00000130: 9bdc b13c bcd0 2bbb c1c8 213e aa51 d73d
00000140: cd27 a53c b6b7 21be ea59 c4bc 6968 bf3e
00000150: 4274 6dbd 983c a9bd 04b0 583e 783a c13e
00000160: 701a de3d b037 583e 7560 813d 6144 813d
00000170: 2cc4 16bd b209 943e d2fc b0bd 92f4 f23d
00000180: aee0 1e3c 62b0 31bf dce0 b23d 329d 1cbe
00000190: b3e2 53bc 6597 043e 81d8 5b3e 3adf 823e
000001a0: 19c8 d6bc bad0 913c a46e 5e3d fde3 9d3e
000001b0: 45cf ffbb 88f7 1fbb e584 d8bc fdda 35bd
000001c0: 4342 153e ef0d 83be a35f 61bf cf21 8f3d
000001d0: 4dd9 cf3d d44d 82bd ec4d 483e 5c04 85bd
000001e0: 0e29 6b3e fdf8 b4bf f1c7 1d3d faf6 813e
000001f0: ba32 3fbe b1f9 cb3d afab a7be bacc 613e
00000200: 43da 323d fa2d b23c 24dd 09bf d9aa 5a3e
00000210: c8b1 7e3e 3f0c 053d af7b aabd b1e3 373e
00000220: f4f3 14bf 6a13 f83d 9343 d83b 9b92 b63e
00000230: 38ad c83d 393c d7bd 731a 8d3d 8e8c 163e
00000240: 9fd2 4e3e 3197 653e ddc7 86be 0777 c03b
00000250: 7a4f 1dbc a8f2 b1bd c192 183d 3a54 e73e
00000260: b18d 86bd 2e6b 43be 9af6 413e 5427 033e
00000270: 9fdf ea3d 7419 e63c f3b7 8b3b 6638 9e3e
00000280: d131 333e bbca 49bd 8fdb b93d 9ce8 1b3e
00000290: 6919 d53d 16f5 c0bd 9f75 c4bd 9c0a bfbe
000002a0: a472 2b3d 576b 0f3e a03d 813e 0c94 483d
000002b0: 8c04 6abe 1ef5 b63e 4c6b 49be 62be ae3d
000002c0: 447b fc3d bce9 193e 83bf 0abd c466 8fbd
000002d0: 691c 503e b5fe c63d ceaf 7abd 52cc 703c
000002e0: 0a33 393e b2aa ea3d f0dd 8c3b bb58 153d
000002f0: 7288 723e 39d7 c33e fff2 35bf 65c5 abbe
00000300: c50b 0ebe f36e 243e 329c 68bd 6e74 d43e
00000310: f5a6 353e 667c 9ebe 4343 da3d 4741 d4bc
00000320: d09d 4b3d d574 be3d 8504 993e 06a4 00be
00000330: e92c 41be 18fd 143c 6324 dc3e 1ae2 3bbe
00000340: 0377 1abd 7a0e a13e 4b54 203c 4e1a 843d
00000350: 62d2 f83c fe39 19bd 0fea f7bd 40a8 8b3e
00000360: 1a3b 1d3e f020 ad3c ef6b b1bc 74aa 58bd
00000370: 41e8 bdbe d662 6eba 99b7 7d3d b595 b1be
00000380: a972 7ebc 5a44 0a3e 08d5 0e3e 5854 3dbe
00000390: 5c83 4b3d 12a2 63bd 5bbe f03d 2c4b fb3d
000003a0: 7e58 a03d af66 033e 9b7f 833c e887 52bd
000003b0: 68d7 93bd 047b 8e3e b29e 9c3d f3f4 edbc
000003c0: feb5 863e eebc 66ba 0cf2 803e f0eb 063e
000003d0: e1e7 9fbe 7de5 1c3e 4799 733d 47e7 b63c
000003e0: 9297 ccbd 21e0 063e 3965 6c3e 70e7 43bc
000003f0: d8b0 7a3d 6897 52bd 9694 833e 21c6 e3be
0.06572448 0.12553391 -0.8691452 -0.017519746 -0.503655 0.020271435 0.04785486 0.08256029
0.12073167 0.071043275 0.024243826 0.34668484 0.105969094 0.062104568 0.08001624 -0.11872182
-0.11926241 0.07237074 0.07870203 0.17511131 -0.020661797 0.010322217 0.18884075 0.048619825
0.22021669 0.105434135 0.07527747 0.27139765 -0.22721137 -0.79672736 0.08697232 0.0090754805
0.2224083 0.14492522 -0.02262653 0.06749215 0.11708318 -0.01465804 -0.28787836 -0.19536369
-0.0885519 0.19368614 0.35921696 0.4145509 -0.08593665 0.1008242 0.02531908 0.009720886
0.19025329 0.07139032 -0.50456214 0.17051347 0.05204782 0.11875713 0.23714682 0.062534235
-0.027706936 0.3681049 -0.46568367 -0.74652404 0.07532075 0.17553404 -0.21492104 0.33819202
0.08856977 -0.3560153 0.03932627 0.5999419 0.02228895 -0.7481387 -0.31394893 0.32402056
0.037703205 0.1398853 -0.042489395 0.024778325 0.021711638 -0.0026216945 0.15799238 0.10513623
0.02016058 -0.15792736 -0.023968656 0.37384346 -0.0579722 -0.082635105 0.21160895 0.3773992
0.10844886 0.21114993 0.06317226 0.0631187 -0.036808178 0.28913647 -0.08641972 0.11863054
0.0096971225 -0.69409764 0.08734295 -0.1529434 -0.012932467 0.12948377 0.21469308 0.25560933
-0.02621846 0.017799724 0.054304734 0.30838004 -0.007806691 -0.0024409015 -0.026430557 -0.044398297
0.14576058 -0.25596568 -0.88036555 0.0698887 0.10148869 -0.06362501 0.19560975 -0.06494972
0.2296488 -1.4138485 0.038520757 0.2538374 -0.18671694 0.09959734 -0.32748172 0.22050753
0.04366518 0.021750439 -0.5385306 0.21354236 0.24872506 0.032482382 -0.08324372 0.17957951
-0.5818474 0.12113078 0.0065998523 0.35658726 0.09798664 -0.105095334 0.068898104 0.14702055
0.20197533 0.22420956 -0.2632436 0.005873564 -0.009601468 -0.08688861 0.03724933 0.45181447
-0.06569994 -0.19083855 0.18941727 0.12807971 0.114684336 0.028088309 0.004263872 0.30902404
0.17499472 -0.049265604 0.090750806 0.15225452 0.10405237 -0.094217464 -0.09592747 -0.37312782
0.041857377 0.1400579 0.2524233 0.048969314 -0.22853297 0.35733885 -0.19669837 0.085324064
0.123281986 0.15030569 -0.033874046 -0.07002023 0.20323338 0.0971655 -0.061202817 0.014697151
0.18085876 0.11458339 0.004298918 0.036461573 0.23684862 0.3825014 -0.7107391 -0.33549038
-0.13871677 0.16057949 -0.056789584 0.4149508 0.1773947 -0.30954283 0.106573604 -0.025910033
0.04971105 0.09299628 0.2988626 -0.1256257 -0.18864788 0.009093545 0.4299651 -0.1834797
-0.037711155 0.31456357 0.009785722 0.0645033 0.030373756 -0.03740882 -0.1210519 0.27276802
0.15354577 0.02113387 -0.021657912 -0.05289693 -0.37091258 -0.0009093707 0.06194267 -0.3468453
-0.015530267 0.13502637 0.13948452 -0.18489206 0.04968582 -0.055574484 0.117550574 0.12270197
0.078293785 0.1283214 0.016052058 -0.05139914 -0.0721882 0.27828228 0.07647456 -0.029047465
0.26310724 -0.00088019564 0.25184667 0.1317594 -0.31231597 0.15321918 0.05947235 0.022327079
-0.09989847 0.13171436 0.23085488 -0.0119570345 0.061203808 -0.051413924 0.256993 -0.44487098

fc2.bias f4 [256]
00000000: 3ea4 5cbd c6a7 3d3e 513a b03d 53c3 a83c
00000010: 08b7 953d e09a 4bbc 0230 803b caf6 c53d
00000020: 0a9e 873b dc06 b63b b867 8b3d 3349 053e
00000030: 68f0 a03c 540a a5bd 6190 5ebd f7bf 503e
00000040: 048f 2c3d 9d38 883d 1dde aa3d 0eba d63d
00000050: 62b9 093d 8cf7 1a3b 09b4 bd3c 0a4a 5f3d
00000060: c887 a33d 7334 023e 8099 893d ecda 33bd
00000070: acd3 bdbc f48f 4d3e c2ac 293d 429b 0dbd
00000080: 0585 893d 2060 793d dbdb 2d3e 2faf ebbc
00000090: 8507 663d ec42 d8bc c681 18bd 23e3 a03c
000000a0: 2b21 e7bc 2437 7ebd 431d af3d d70b 723c
000000b0: 95e0 2a3e 8925 0f3d cf2c 64bc 60ee 5cbc
000000c0: a7be 123e c342 c63d 8242 0e3e 529f dc3c
000000d0: 8312 1bbd 9153 c83d 8671 d53d f374 603d
000000e0: 7e9d 4dbb a419 b8bc e333 203b 26f3 b3bd
000000f0: 48f5 97bd 1770 55bd 5460 8dbd b6ec 883c
00000100: acab b23d 0eac c53b 92c2 743d 6cae 73bd
00000110: 0716 2b3e ad13 9bbc 9e99 3f3e 441d 993c
00000120: 9de3 5dbc 4c7b 6d3d 1293 713d 10e4 e03d
00000130: 337b a83d 3a09 7d3d 2e1b c13c acda da3d
00000140: 8a03 5f3d 0741 903d c5de 593d 2e08 f5bb
00000150: 34e6 e93d 0940 6ebd 2aa8 4c3d 33c0 383e
00000160: ad1d ebbc 5c50 21bd 8faa 1abd 169c 62bc
00000170: 3ce6 443d 42fc adbd 1729 a5bc 5e16 f83d
00000180: f1ab 2c3e f751 f03b ee2d c83c aac2 c03c
00000190: a22c cebc dc6a 923c ef50 99bd a680 b43c
000001a0: 4e6e 18bc 20fb ee3b c2fc b23c 46db 4c3e
000001b0: 4ab1 86bd 1da2 6f3d 1c3b 993d 9295 53be
000001c0: fb2d 0abc 264a f43c 1dbc 5e3e 6b47 d9bc
000001d0: 32b9 833c 898b 593d 1fe9 eebc 764a 9f3d
000001e0: 1d85 a3bd 55c2 593e 6720 843c 86ad 63bd
000001f0: 9ba8 52bc 01a9 103d 8201 80bd b05b 173d
00000200: b5cf 31bd 46aa 3f3d 7c7d 013d 1778 03bc
00000210: af88 103e d1f6 293e dd2b 9bbd 182c 133e
00000220: 0cde 86bd fb33 cd3a 62fb 013d d2ae ee3c
00000230: ce97 2dbb a469 81ba ccdb fe3b 4f92 f0ba
00000240: d9de 9bbd e2b9 f2ba 218e bb3d e130 cb3d
00000250: b358 1a3d 1ac0 443d db83 063e 3110 923d
00000260: 1a1a 17bb 2461 e33c 4d7c 7d3c d2f5 a9bb
00000270: 592c e03d 2f4b 2e3d 0a53 0c3e 141a 62bd
00000280: 6761 78bc 190f e83b 8895 a33d 6ac5 053d
00000290: 730b d6bc 30ff 023e 9ec1 87bc f880 b13d
000002a0: d33c 07bd 978f 173d b2b0 06bb 4f8c d43d
000002b0: 23dd dfbb 4639 2ebd 8293 a8bd a2d8 48bd
000002c0: fca2 e63d 6646 9a3d 467f 4ebd 1bdd cd3d
000002d0: 8016 94bc 2e16 a13c 2dc5 863c 7c1f cd3d
000002e0: 3450 c03d 6240 73bd 7b31 2f3e 1e85 393e
000002f0: dc82 92bd e0ae b13c 5d91 ca3d e8bc 7bbd
00000300: be0d de3d c165 03bd 9d9d 4b3d abbf e6bc
00000310: cf28 003e 4e8b 9a3d a120 44bc 7dcf 57be
00000320: f0e3 2dbd 892d a1bd d5d6 243d db1a a53d
00000330: 6683 81bd 188a 9e3d eaa0 6c3d 0bbe 3ebc
00000340: af98 7b3c 1e26 0d3e ae65 853d e485 69be
00000350: 347e a1bc 0fa9 3c3d 4d7b ef3d 01dc 95bc
00000360: 79a4 013d 4c0b ab3d 2f8e 8ebd 7173 2b3d
00000370: 7e67 71bc 8a1e 9ebc b2c9 943d f297 483e
00000380: a2e5 60bc 34cd 4d3d 6db7 d3bc f280 2abc
00000390: 87cc c43c 63f0 fe3d 8131 723c d592 e03c
000003a0: 381b 453d 1444 04bd 3428 3dbc 95a9 e63d
000003b0: 8f1d 853c e821 e8bc 2a86 edbc a103 033d
000003c0: 08d2 5ebd 03c8 833c 2432 96bd f886 30bb
000003d0: f169 46bc e253 ddba d5d7 5a3d 2c53 663c
000003e0: 6145 333e ff6e 2d3d 3152 e83c 9af2 503b
000003f0: ac2e 823d b6c6 353e b9fe de3d 4d92 2abd
-0.05386757 0.18521032 0.08604873 0.02060095 0.07310301 -0.012427062 0.003911973 0.09666212
0.004138713 0.005555017 0.06806892 0.13016205 0.019645885 -0.080586106 -0.05433691 0.20385729
0.042128578 0.06651423 0.08343146 0.10484706 0.03362406 0.0023646085 0.023157137 0.05451397
0.079848826 0.1271532 0.06718731 -0.043909952 -0.023172222 0.20074445 0.04142452 -0.034571894
0.067148246 0.060882688 0.169784 -0.028770057 0.056159515 -0.026399098 -0.037233137 0.019639557
-0.028214058 -0.062064305 0.08550503 0.014773331 0.16687234 0.034947906 -0.013926699 -0.013484567
0.1433054 0.096807025 0.13892558 0.026931439 -0.03785945 0.09781564 0.104220435 0.05479903
-0.003137439 -0.022473164 0.002444499 -0.08786611 -0.074198306 -0.05210885 -0.06903139 0.016714435
0.0872415 0.0060324734 0.05975587 -0.059492514 0.16707622 -0.01893028 0.18710944 0.018690713
-0.013543037 0.057978913 0.058978148 0.109809995 0.082266234 0.061776377 0.02357253 0.106862396
0.054446734 0.07043653 0.053190965 -0.0074777817 0.11420861 -0.058166537 0.04996506 0.18042068
-0.028700674 -0.039383277 -0.037760314 -0.013831159 0.04807113 -0.0849538 -0.020161195 0.12113641
0.16862465 0.0073339897 0.024435963 0.023530323 -0.025167767 0.01787322 -0.0748614 0.022034
-0.009303642 0.00729312 0.02184904 0.20005521 -0.06576784 0.058504213 0.07481977 -0.20662525
-0.008433814 0.029820513 0.21751447 -0.026523313 0.016079519 0.053111587 -0.029163895 0.07777874
-0.07984374 0.21265538 0.016128732 -0.055585407 -0.0128575815 0.035317425 -0.062502876 0.036952674
-0.043410975 0.046793245 0.03161381 -0.008024237 0.1411464 0.16598059 -0.07576726 0.14372289
-0.06585321 0.001565575 0.031733878 0.029136095 -0.0026488188 -0.0009873402 0.0077776667 -0.001835415
-0.07610864 -0.0018518532 0.09157968 0.09921432 0.037682246 0.048034765 0.13136236 0.071319945
-0.002305633 0.027756281 0.01547153 -0.005186775 0.10945959 0.04255217 0.13703552 -0.05520065
-0.015159941 0.007081878 0.07987505 0.03265897 -0.026128506 0.12792659 -0.016571816 0.08667177
-0.03301699 0.037002172 -0.0020552096 0.10378324 -0.0068317815 -0.04253509 -0.0823126 -0.049034722
0.112615556 0.07532959 -0.050414346 0.10051938 -0.018077135 0.019663896 0.016451443 0.10015771
0.093902975 -0.059387572 0.17108719 0.18117186 -0.07153866 0.021689832 0.09891007 -0.061459452
0.10842465 -0.032079462 0.04971086 -0.028167566 0.12515567 0.075461015 -0.01197067 -0.21075244
-0.042453706 -0.07870013 0.040243942 0.08061763 -0.063238904 0.07741183 0.057770647 -0.011641989
0.015356227 0.13784072 0.065135345 -0.22804981 -0.019713499 0.046059664 0.1169344 -0.018293383
0.031650994 0.08351764 -0.06960713 0.04185814 -0.014734147 -0.019301672 0.07265033 0.19589213
-0.013726624 0.050244525 -0.0258443 -0.0104067195 0.024023307 0.12448194 0.01478231 0.027413765
0.04812166 -0.032291487 -0.01154523 0.11262814 0.016249446 -0.02833648 -0.028994638 0.031985883
-0.05439952 0.016086584 -0.07333782 -0.0026935916 -0.012110219 -0.0016885961 0.05342849 0.014057916
0.17506935 0.042342182 0.028359504 0.0031882883 0.06356558 0.17751583 0.10888428 -0.04164343

fc3.weight f4 [4, 256]
00000000: bbbc 6abe 8bfd 963e 2abf 94be aa9f a6be
00000010: ff8a 4bbe dfdc 98be a7c8 cfbe b87d 9a3e
00000020: 1dd6 90be bb1c 94be 2560 8a3e 4723 893e
00000030: 491b 5dbe 800f 95be b5d9 ccbe cab4 803e
00000040: af24 bbbe 89a8 e9bd c2c2 823e 8736 dc3e
00000050: 5491 98be 977b adbe 281b d6be 2eda 513e
00000060: adff 4bbe f9aa 993e 2a67 e13d 35a7 80be
00000070: 091e 86be e1dc 473e ee48 62be 3560 89bc
00000080: e615 ac3e e733 2ebe e737 493e 73a3 c7be
00000090: 4fd1 31be 76c8 81be 32e6 39be ec99 9dbe
000000a0: 2637 7bbe ccfd 333d 4c64 893e 1a3a 1dbe
000000b0: e8d2 593e 630a 75be a9ec a2be ec50 adbe
000000c0: ed71 143e b508 9f3e c5dc 6b3e f1ed ee3e
000000d0: a363 9fbe 7860 433e 6950 413e cdca be3e
000000e0: d906 4abe 0bf2 a1be a948 9ebe 9dfe 9dbe
000000f0: 64dc abbe 24cf 533d 562f abbe 39a3 4e3d
00000100: 12df 77be b97e 9bbe 1f18 5dbd fa39 96be
00000110: 4f65 623e afc1 85be e33f 493e 679c 8fbe
00000120: d9ce 003d 6ed9 8a3e 4ddb 88be f0bf 663e
00000130: 4f72 c63e c5fa df3e bbdf b8be 8b01 613e
00000140: 54b3 84be bb88 34be 3417 ed3e e715 ed3e
00000150: 52bc 8e3e dbe6 9abe a276 dd3e c737 973e
00000160: a40c 7fbe ac1d cbbc 70ab a1be 0443 cfbe
00000170: d37d 3fbe 61e9 88be 8b73 8abe b235 93be
00000180: 5e7e 363e d278 be3e d4f7 bdbe 603b 68be
00000190: c5e1 a8be 606b aebc 1250 53be 0e3b 8fbe
000001a0: c7bb 73be f8f5 fe3b aa88 54be 2558 993e
000001b0: 0d77 6dbe 6030 d3bd 7070 943e ef92 75be
000001c0: c6b5 87be 97f7 77be 2ea8 2c3e a2bb dd3e
000001d0: a0c4 9fbe 19a8 6f3e f43b 503d 2edf cf3e
000001e0: c50f abbe 466a 533e fccc 6c3e 628a a3be
000001f0: 3c0c debd f7da 97be ec98 8b3c f660 c23c
00000200: b13d 3ebd 5a99 5fbe 8e45 6d3d 8c3c d13e
00000210: 22b4 a13e 443f 753e ab60 36be 9307 953e
00000220: 6e47 b3be eeee 9abe f81b b33e a850 87be
00000230: bbca a7be 828c a9be b173 67be a65e bdbe
00000240: 6c36 a5be a6ff 053e a7a3 673e 0c41 f83e
00000250: 61d9 7fbe 6e1f 863e 754a fb3e 2241 b13e
00000260: a1ef b0be 5b38 3dbe 2f04 adbe c1a2 48be
00000270: 2f67 993e aea2 05be aa32 9e3e cc7c 8abe
00000280: 59e0 9dbe b497 c5be b2dd 1a3f 0a1e 87be
00000290: 5ad3 de3e 0f86 8c3e 008c 1abe 9a74 993e
000002a0: 1ac1 bbbe b735 80be 8794 3abe ac32 b23e
000002b0: 3837 a0be 15dc b7be fa25 8dbe 3a54 a6be
000002c0: 99d8 0c3f b989 b7be 9061 bebe 7a73 953e
000002d0: de0b 65bd 1359 85be ca14 a9be 374b a93e
000002e0: 4fdd f03e 78af 103d d124 723e 65f7 593e
000002f0: f278 73be c2c8 fa3e 440e 2f3e a5d1 34be
00000300: 5ecc 4f3e 39c6 5d3e 03ef 1f3c b6df 25be
00000310: ecda 953e 2b52 573e 6da0 56be 0726 a4be
00000320: add2 acbe 129c 98be 9081 5ebe fff8 8e3e
00000330: 4820 773d 7be1 fe3e d50e a2be 049c a93e
00000340: baed a8be f6fc 383e afa8 513e 82f3 b1be
00000350: 8d3a 61be 85d8 08bd 914c ad3e cf3c 4ebe
00000360: 5d8d f43e e97a 173e d794 45be 5f8b 9cbe
00000370: cc4e 113f 1526 e6be ab49 a1be 2abb 753e
00000380: ce13 bcbe 3d5d 3c3e a8cd 80ba cb86 fe3c
00000390: 95f8 babe 670e 203e 1e98 d0be ade6 b83e
000003a0: 22eb cd3e fc96 89be 46ae a83e 30f2 353e
000003b0: f902 b03e 81e4 b0be 0f8d c0be fc6d 84be
000003c0: 5062 27be 6781 81be 76c3 46be 953e 9ebe
000003d0: 18a9 d73e 6d07 96be e8c5 223e ab79 70be
000003e0: 55aa 4e3e d7ce 32be 8839 a4be f7f6 ed3e
000003f0: d44a 8f3e 7713 da3d d0d9 c03e 1ff0 72be
-0.22923557 0.29490313 -0.29052097 -0.3254369 -0.19877242 -0.2985601 -0.40582773 0.3017404
-0.28288355 -0.2892817 0.27026477 0.26784727 -0.2159244 -0.29113388 -0.40009847 0.2513793
-0.36551425 -0.11409099 0.25539213 0.4301035 -0.29798377 -0.33883354 -0.41817594 0.20493385
-0.19921751 0.30013254 0.11006005 -0.2512757 -0.2619479 0.19517852 -0.22098133 -0.016769508
0.33610457 -0.17011987 0.19650231 -0.3899189 -0.17365001 -0.25348252 -0.18154219 -0.30781496
-0.24532756 0.04394321 0.26834333 -0.15354195 0.2127186 -0.23929743 -0.31821182 -0.338508
0.14496584 0.3106133 0.23033436 0.4666591 -0.31130704 0.19079769 0.1887833 0.372641
-0.19729175 -0.31629977 -0.3091481 -0.30858317 -0.33566582 0.051711217 -0.33434552 0.05044863
-0.24206188 -0.3037012 -0.05397808 -0.29341108 0.22108959 -0.2612433 0.19653277 -0.28049013
0.031447265 0.2711901 -0.26729813 0.22534156 0.38759086 0.4374601 -0.36108193 0.21973245
-0.25918067 -0.17630284 0.46306765 0.46305773 0.27878052 -0.30254254 0.43254572 0.29534742
-0.24907166 -0.024794422 -0.3157611 -0.40480816 -0.18700342 -0.26740554 -0.27041277 -0.28751904
0.17821643 0.37201554 -0.3710314 -0.226789 -0.32984748 -0.021291435 -0.20636013 -0.27974743
-0.238021 0.0077807866 -0.20755258 0.2995006 -0.23189946 -0.10311961 0.28992033 -0.23981832
-0.2650587 -0.24215542 0.1686103 0.43307215 -0.312047 0.23403968 0.050838426 0.4059996
-0.3341047 0.20646009 0.2312507 -0.31941515 -0.10842177 -0.29659244 0.017040692 0.023727875
-0.046445552 -0.21835843 0.05792766 0.40866506 0.31582743 0.23949915 -0.17810313 0.2910734
-0.35015434 -0.30260414 0.34982276 -0.26428723 -0.3277186 -0.3311501 -0.22602727 -0.36986274
-0.32268083 0.13085803 0.22621022 0.48487127 -0.24985267 0.26195854 0.49080244 0.34620005
-0.34557822 -0.18478529 -0.33792254 -0.19593336 0.29961535 -0.13050339 0.3089803 -0.27048337
-0.30835226 -0.38592303 0.6049453 -0.26390105 0.43520623 0.2744603 -0.15092468 0.29971772
-0.36670762 -0.2504098 -0.18220721 0.34804285 -0.3129213 -0.35910097 -0.27568036 -0.32486135
0.55018 -0.35847262 -0.3718381 0.29189664 -0.05591952 -0.2604452 -0.33023673 0.33065197
0.47043845 0.03532359 0.23646857 0.2128578 -0.23776606 0.4898129 0.17095286 -0.17658098
0.20292804 0.21657647 0.009761575 -0.1619862 0.29268587 0.21027438 -0.20959635 -0.32060263
-0.33754483 -0.29806572 -0.21729112 0.27924344 0.06033352 0.49781403 -0.3165194 0.33126843
-0.3299387 0.18065247 0.20474504 -0.34756094 -0.21994992 -0.033409614 0.33847478 -0.20140384
0.47764102 0.1479298 -0.19295059 -0.30575082 0.5676086 -0.4495093 -0.31501517 0.23997179
-0.3673386 0.18394943 -0.0009826915 0.031070134 -0.36517778 0.15630494 -0.40741056 0.36113492
0.40218455 -0.26873004 0.3294546 0.17768168 0.34377268 -0.34549335 -0.3760762 -0.2586516
-0.16346097 -0.2529404 -0.194105 -0.3090712 0.42121196 -0.2930254 0.15895808 -0.23483913
0.20182164 -0.17461716 -0.32075143 0.46477482 0.27986777 0.10648244 0.37666178 -0.23724411

fc3.bias f4 [4]
00000000: 9f0f 9c3d 6622 2f3d 5476 9b3d e2ad 623d
0.07620167 0.042757414 0.07590929 0.05534161
