DQN_LunarLander_ep300.pth (torch, 279252 bytes, 6 tensors)

fc1.weight f4 [256, 8]
000000 25 9e d6 3d 7f 0f ac be 64 94 53 be aa e7 09 bf
       0.104793824 -0.33605573 -0.20662075 -0.53869116
000010 3e 3a 8e bd 6d ce a6 bd 23 0e 14 3e 7b cb 03 3e
       -0.069447026 -0.08144841 0.14458518 0.1287059
000020 18 d7 34 3d 02 5a 84 3e 9b 87 15 3e bb 79 f9 3e
       0.044150442 0.2584992 0.1460251 0.48725685
000030 98 3f dd bd 84 ca f7 be f6 96 c5 bd f6 4f 77 be
       -0.10803145 -0.48396695 -0.09647934 -0.24151596
000040 82 63 85 be 3a 5a b2 3e b2 48 40 3e 0e ad 7f 3d
       -0.2605248 0.34834462 0.18777731 0.062420897
000050 0f 9a a6 3e 05 b2 b7 be 7f 79 e5 3e 25 54 82 3d
       0.32539412 -0.35878006 0.44819257 0.063637055
000060 d7 eb be 3e fa 72 56 be bd 90 8c 3e 03 f3 cb bd
       0.37289307 -0.20942298 0.27454177 -0.0995846
000070 28 e1 57 be f4 51 f1 be ef 53 59 3e db d3 bd 3e
       -0.21081984 -0.47132838 0.21223424 0.37075695
000080 3d 29 5a be 93 03 f1 be b5 e1 28 be a2 d3 03 bf
       -0.21304794 -0.4707304 -0.1649235 -0.514948
000090 6f 28 bf 3d 5e 5f f1 3e cf 3a bd bd 70 d8 83 be
       0.09333884 0.47143072 -0.092397325 -0.25751066
0000a0 c8 f6 86 3e c8 f4 62 3e 14 eb 9c 3e 96 af a0 3e
       0.26360154 0.22163689 0.306481 0.3138396
0000b0 41 90 1d bf fc a2 02 be 47 82 57 bd 69 5a a3 bd
       -0.6154824 -0.12757486 -0.052614477 -0.07976229
0000c0 fd 39 b8 be 40 ce 5a 3e ba 77 9f be ae bd 2e 3e
       -0.35981742 0.2136774 -0.31146032 0.17064545
0000d0 30 0d cd bd f5 d6 d5 3e 0f d8 8a 3e af e4 0b 3e
       -0.10012281 0.41765562 0.27117965 0.13661455
0000e0 a5 0a f1 3d 03 b6 0a 3e 93 f7 ce 3e 83 9a 8d 3e
       0.117696084 0.13545994 0.4042326 0.27656946
0000f0 04 67 c4 be d7 a6 7c 3e 23 4a 3c be 5d 35 e0 3e
       -0.38359845 0.2467302 -0.18387656 0.43790713
000100 85 fe 33 be 8d 80 b2 be c6 e5 d5 3e 3a ae 35 be
       -0.1757756 -0.348637 0.41776866 -0.17742243
000110 8d 02 87 be c3 cd cb be 98 7c 3a 3e 7f e4 ed 3b
       -0.26369134 -0.3980542 0.18211591 0.007259905
000120 bc e8 c9 bc 51 cd e6 3d b0 ef 8d be 96 54 5f be
       -0.02464711 0.1126963 -0.2772193 -0.2180961
000130 d0 c3 27 3f ba 0a de 3e d4 a2 1a be 89 5a b4 3d
       0.6553316 0.4336756 -0.15101177 0.08806331
000140 28 ed c4 be bb 3c b3 bd cf 84 b6 bc c2 e1 37 be
       -0.38462186 -0.08751818 -0.022280125 -0.17957214
000150 7f bf 2f 3e 24 6c b1 3e d9 47 94 3e cc d9 16 3d
       0.17162894 0.34652817 0.28961065 0.0368288
000160 3d 71 2b be 77 f1 8c be 46 76 a9 be 74 aa 94 be
       -0.16742416 -0.27527973 -0.33098048 -0.29036295
000170 80 88 b4 3e c7 7d d6 3e b0 63 0c be e8 5c 0a 3e
       0.3526039 0.41892835 -0.13709903 0.13512003
000180 74 cc 31 3e ea 6a 83 3e c1 9a 9e 3e 64 2d e4 3e
       0.17363149 0.25667506 0.30977443 0.4456588
000190 60 49 1d 3e c3 56 f4 3e 3a 97 5d 3e b5 79 73 3b
       0.15360022 0.47722444 0.2163972 0.00371514
0001a0 18 94 54 3e 22 25 93 be 5c f6 3f be 4d 73 b5 be
       0.20759618 -0.28739268 -0.18746322 -0.3543953
0001b0 3e a7 b5 3e 3b 68 0e 3c a3 4c bc bd ed d8 2b be
       0.35479158 0.008691843 -0.09194305 -0.1678197
0001c0 8e 81 d6 be 1a ff 66 be d1 6f 35 3d 22 9f 25 bf
       -0.41895717 -0.22558251 0.04429609 -0.6469594
0001d0 29 78 6b 3e 44 f4 d4 be c1 23 9d be f3 12 99 3e
       0.22995056 -0.4159261 -0.3069134 0.2989727
0001e0 93 3e d1 3e 6d f3 2c 3e 7d 4d 05 bc 00 d1 96 3d
       0.40868053 0.16889735 -0.00813615 0.07364082
0001f0 e3 67 3e be df 56 c1 be 21 13 11 be c7 cc b2 3d
       -0.18594317 -0.3776159 -0.14167453 0.087304644
000200 d7 16 25 3e d1 65 f1 be b9 cd a7 3e 5a dd 26 3e
       0.16121994 -0.47147992 0.3277414 0.16295376
000210 a8 8d 15 be 96 4a d3 be f6 66 a6 3d 42 b8 d3 be
       -0.14604819 -0.41267842 0.08125107 -0.41351515
000220 45 ac 0e bd 3f 82 32 bd ad 61 15 bd 10 f4 8b 3c
       -0.034832258 -0.043581244 -0.036470104 0.017084152
000230 87 e8 53 be 08 a2 fb be 53 84 49 be 39 d3 78 be
       -0.20694171 -0.49147058 -0.19679384 -0.24299325
000240 2a c4 48 3d 1b 00 4d 3e 7b 0c 99 be 69 fe c1 3e
       0.0490152 0.20019571 -0.29892334 0.37889412
000250 90 99 e3 3e 3a 7c 0a 3f 0c 63 3d be 7b e1 b0 be
       0.44453096 0.54095805 -0.18494815 -0.34547028
000260 3e ff f9 bd f6 df 4a 3e 90 1b 8a be 2a a8 81 be
       -0.12206887 0.19811997 -0.26974154 -0.25323611
000270 66 f9 79 3e d8 48 ae 3e a3 d0 e0 bd 00 8a 85 3e
       0.24411544 0.3403995 -0.10977294 0.26081848
000280 f1 15 21 bd 4b 06 2d bd 2b 0a 0b be 7e ad 49 3e
       -0.039327566 -0.04224233 -0.13578098 0.19695088
000290 13 b1 91 3e ea d7 1a 3f a6 28 98 3d 10 82 0a bf
       0.2845541 0.6048571 0.07429628 -0.5410471
0002a0 69 cb 77 3e 97 b9 53 bc 3d 69 76 be 86 82 8a 3e
       0.24198689 -0.012922666 -0.24063583 0.27052706
0002b0 66 52 bc 3e 71 57 08 3f be 96 89 3e a2 08 0b 3e
       0.36781615 0.53258425 0.2687282 0.13577512
0002c0 3d 0f 97 3e 1f d8 01 bf 9d eb e3 3c 22 4a 02 be
       0.29503813 -0.507204 0.02782231 -0.12723592
0002d0 3e bf df be 5e 31 88 bd 05 b0 41 bd 5f b0 ef 3d
       -0.43700594 -0.06650041 -0.047287006 0.11703562
0002e0 02 fe 91 bd df e1 c7 be e5 4d 88 bd 1f f5 4b be
       -0.07128526 -0.39039513 -0.06655482 -0.19917725
0002f0 34 4f 09 3f 8e 00 34 3e 9d 61 be bc d7 f1 c0 bd
       0.5363648 0.17578337 -0.023239905 -0.09421127
000300 87 d6 9b be f5 56 98 bc c9 30 70 3e 39 bc b2 be
       -0.3043711 -0.018596152 0.2345611 -0.34909227
000310 fd 9e 4a bf ca a6 9a be a0 83 01 3e 4c 3d 39 be
       -0.79148847 -0.30205375 0.12647867 -0.18089789
000320 4b 59 49 be 38 f3 87 be 10 37 ac be c1 ad d0 bd
       -0.19662969 -0.2655275 -0.3363576 -0.10189391
000330 41 c8 19 3f 79 5b 8e 3e 8c ee d7 bd 69 76 a6 be
       0.6007119 0.27804163 -0.10543546 -0.32512215
000340 0c 24 94 3e 75 4e 44 3e b2 f1 41 3e 97 36 7b 3e
       0.28933752 0.19170554 0.18939856 0.24532543
000350 bb 46 94 3c bd e7 e5 3e 19 59 f3 3c 10 e0 10 3e
       0.018100133 0.44903365 0.029705571 0.14147973
000360 69 4f d2 3d 05 97 53 3d 5a 82 e0 3e 07 67 da 3e
       0.102690525 0.051657695 0.4384945 0.4265673
000370 e9 bd ba be 32 39 ad 3e 84 ff 8b 3d 30 c2 d6 3e
       -0.36473015 0.338327 0.06835845 0.41945028
000380 a6 bd cc 3e 34 c5 37 3e 51 6c 76 be cb 13 c6 be
       0.3998844 0.17946321 -0.24064757 -0.38686976
000390 3f 9b 29 3f 7c 35 50 be 10 18 a3 be e4 36 d5 be
       0.6625251 -0.20332903 -0.31854296 -0.4164344
0003a0 87 da a1 3e 2d 9d c5 be ab 15 fb 3e 63 fb 6e bd
       0.31612036 -0.38596478 0.4903997 -0.05834521
0003b0 e4 88 68 bd ca 28 8e be 18 d2 9b bd 13 cf f5 bd
       -0.056771174 -0.27765495 -0.076084316 -0.12002387
0003c0 09 a8 ab bd c1 3e ec bd 6e b7 50 3e 01 fb 6e bd
       -0.083816595 -0.11535407 0.20382473 -0.058344845
0003d0 99 8d 14 3e 67 c8 21 3f 52 93 9f 3e 6e 04 4c 3e
       0.1450714 0.63196415 0.31167084 0.19923565
0003e0 c7 93 6a be b5 83 8d bd 94 68 0c 3e 19 10 a0 3c
       -0.22907935 -0.06909887 0.13711768 0.019538926
0003f0 82 4b 29 3c 87 c2 1e 3f 0b 74 c3 3e 96 aa 8f be
       0.010332944 0.62015575 0.3817447 -0.28059834

fc1.bias f4 [256]
000000 7c 35 b5 3e d6 bb 12 3e a0 ed 83 3e c4 c8 c9 3b
       0.35392368 0.14329466 0.2576723 0.0061579663
000010 c4 83 66 3d 5b 8d 09 3e c1 df b4 3d 93 5a 89 be
       0.056278005 0.13432829 0.0883174 -0.26826915
000020 07 d9 8c 3d fc e0 a6 bd 07 2a 0e be 02 d6 c9 bc
       0.06877332 -0.08148381 -0.1388322 -0.02463818
000030 da 20 39 be 41 24 99 3e fb e2 c0 bb dd 08 b8 bc
       -0.18078938 0.29910472 -0.005886433 -0.022465164
000040 ef fb 0d be f8 2b 8d be 2c 35 71 3e 88 b7 72 3e
       -0.13865636 -0.27572608 0.2355544 0.23702824
000050 92 85 a6 3e 93 fd cd 3e 4e 8a b6 3c ca 77 a4 bd
       0.3252378 0.40232524 0.022282746 -0.080306605
000060 e6 65 87 bd 24 82 93 bd 6a ad 7e be d2 87 89 bc
       -0.066112325 -0.07202557 -0.2487084 -0.016788397
000070 d6 21 83 be 64 9e b0 bd 7c f2 4b 3e d2 85 08 3e
       -0.25611752 -0.086239606 0.19916719 0.13332298
000080 d9 34 99 bd d6 89 96 3a fe 09 84 bc 8f dc 36 bd
       -0.07480783 0.001148517 -0.016118046 -0.044643935
000090 71 d0 29 be d9 12 09 be 07 43 10 be 01 e1 bc 3e
       -0.1658342 -0.13386096 -0.14088069 0.36890414
0000a0 cd 9c 50 3c 42 8a 9e 3d 4c b8 d5 3c 38 7e 08 be
       0.012732697 0.07741214 0.026088856 -0.13329399
0000b0 61 00 23 be 29 b5 10 be 09 98 03 be 5b 3f 03 3c
       -0.15918113 -0.14131607 -0.12850966 0.008010711
0000c0 fc 4b 9f be 1a 0e 45 3e ce d1 6d 3e 23 df 5a 3d
       -0.3111266 0.1924366 0.23224565 0.053435456
0000d0 af 77 2a bd 33 f8 f7 bd f8 d5 30 3e cb 3b ad bc
       -0.041618045 -0.12107887 0.17269123 -0.021146676
0000e0 4c 30 b7 3d f4 84 bd 3c 15 84 3f be fc 6d 86 be
       0.08944759 0.023134686 -0.18702729 -0.26255786
0000f0 4f d7 5e be 5c a4 ac be a1 48 a8 bd 2d fc 23 be
       -0.21761821 -0.33719146 -0.08216978 -0.16014166
000100 16 d6 38 be 92 c4 c0 bd 90 8f 6f 3e 3e 12 fb bd
       -0.18050417 -0.09412493 0.23394608 -0.12259339
000110 47 34 8a be df 3f 8b 3e 67 83 58 be 5d 61 97 bd
       -0.2699301 0.27197167 -0.21143876 -0.073916174
000120 f3 08 88 be a9 b5 20 bc 10 58 46 3b 3b 4c 3c 3e
       -0.26569328 -0.009808936 0.0030264892 0.18388455
000130 be d8 5c ba fc 58 5b be c7 03 40 3e ee 46 e8 bd
       -0.0008424631 -0.21420664 0.18751441 -0.11341654
000140 34 2a a0 3c 25 d8 b5 3e af d9 b0 be e1 67 14 3b
       0.019551374 0.35516468 -0.3454108 0.0022644924
000150 c8 a0 2b 3e 72 cb 49 be 6f 51 1b 3d ae 87 f7 bd
       0.16760552 -0.19706514 0.037919458 -0.12086426
000160 ab 72 8b 3d 59 ba c3 bd 7a 84 3a 3d 56 6e 39 3c
       0.068089806 -0.09557027 0.045536496 0.01131781
000170 d4 93 a6 3e 99 d6 37 3c e5 63 4f 3e 1b 3f 3c 3e
       0.3253466 0.011220598 0.2025295 0.18383448
000180 f9 7f 4a 3e b2 a9 5c be b0 cc 3e be e0 e4 90 3e
       0.1977538 -0.21549109 -0.1863277 0.28299618
000190 59 c9 9e be e6 50 dc 3e 2f 2f 43 be 5b 0c c8 3b
       -0.3101299 0.4303047 -0.19060968 0.0061049885
0001a0 fb 35 25 be 89 c4 08 3e ad e9 86 3e 6b d4 62 bd
       -0.16133873 0.13356222 0.26350155 -0.05537836
0001b0 28 00 44 3b 6e 19 58 3e cd 52 8c 3e e7 64 a2 3d
       0.002990732 0.2110345 0.27406922 0.07929402
0001c0 ea 9e 2b 3e bf 00 74 be 67 b2 78 3d d1 ae 68 3e
       0.1675984 -0.2382841 0.060717013 0.22722937
0001d0 7b 83 9f 3d 92 74 4a be 81 bc e1 3d 84 e3 4e 3d
       0.0778875 -0.1977103 0.110222824 0.050509945
0001e0 a4 95 a7 3e d8 20 ff 3d 13 58 b2 3d f7 42 a1 bd
       0.32731354 0.12457436 0.08708205 -0.07874101
0001f0 9a b3 b5 3e 09 ea 0a be 04 71 00 be f4 05 7e be
       0.35488588 -0.1356584 -0.12543112 -0.24806958
000200 c8 31 21 be 8a 57 7f 3d 49 00 f2 3e 54 61 03 bd
       -0.15741646 0.062339343 0.47265843 -0.03207524
000210 fb 38 12 be 99 13 94 3d 3b 0f 5b 3d ac fc 29 be
       -0.14279549 0.072303005 0.05348132 -0.16600293
000220 07 49 ab bd b6 b1 89 be ee 9c 17 3e 75 12 6a bd
       -0.08363538 -0.26893395 0.14805958 -0.05714651
000230 e2 14 b1 3e fa 9c 90 be fa 9d 37 3d d8 ae b6 3d
       0.34586245 -0.28244764 0.044828393 0.089200675
000240 19 e1 dd 3c ce 19 a4 be e4 8a 79 3d c8 25 cc 3e
       0.027084874 -0.32050937 0.060923472 0.39872575
000250 5c b6 29 bd 88 b5 75 be f1 86 6f 3d ae f4 b3 3c
       -0.041433677 -0.2399503 0.0584783 0.021967258
000260 ca 46 24 3e e0 22 00 3e e6 b7 26 3c d2 e6 b8 3e
       0.16042629 0.12513304 0.010175681 0.36113602
000270 ef f7 91 bc e9 b1 27 3e 9b e4 3d be 68 15 07 3e
       -0.01781842 0.16376461 -0.18544237 0.1319176
000280 24 55 1a 3c 86 86 74 3d 3c 5d a8 3e 77 83 a8 3e
       0.009419713 0.059698604 0.32883632 0.329128
000290 77 eb 66 be 2b 3c 2e be 58 49 b0 3e 75 be f1 3d
       -0.2255076 -0.1701514 0.34430957 0.11803905
0002a0 ce 96 c2 be bd 4e 7a be 46 54 45 3d 20 19 81 be
       -0.3800568 -0.24444099 0.048176073 -0.2521448
0002b0 5e df 74 3d 02 bf aa 3d 62 25 69 3e 12 37 10 3e
       0.059783332 0.08337213 0.22768167 0.14083508
0002c0 b7 b9 d5 3c 43 e0 a3 bd 0a 8c 18 3c 7c d2 66 3e
       0.026089532 -0.08001759 0.009310732 0.22541231
0002d0 f9 2e 0f bd 0a 72 34 be 91 ba 9d 3e c6 08 e1 3d
       -0.034956906 -0.17621627 0.308064 0.109880015
0002e0 70 dd 92 bd 9d fc 35 3d 2a a8 56 be ba ed 1a be
       -0.07171142 0.044430364 -0.20962587 -0.15129748
0002f0 28 8d a0 3e 6a dd f6 bd 0d 9c 9e bc d8 ca d6 3d
       0.31357694 -0.1205395 -0.01936152 0.10487908
000300 88 2a ec 3e 89 f6 3d be cf 52 62 be ed fb cf 3d
       0.461262 -0.18551077 -0.22101901 0.10155473
000310 b9 b9 4f 3e 6c ff 3a 3e 75 a4 00 be 7d af 0d 3e
       0.20285691 0.18261498 -0.12562735 0.13836475
000320 58 86 0c be c6 6a a0 3e 88 21 db 3e f3 d5 f0 bc
       -0.13723123 0.31331462 0.4279902 -0.029398894
000330 e7 60 7c be de 5e 4f 3e a5 a0 bf bd bb 20 77 3e
       -0.2464634 0.20251033 -0.093568124 0.2413358
000340 34 6f b2 bd be 71 b6 3e 15 9d 3e 3c 90 18 90 bd
       -0.087126166 0.35633653 0.011634131 -0.07035935
000350 3b 3f 5f bd 42 36 31 bd f5 68 5d be 29 4d 1f be
       -0.05450366 -0.043264635 -0.21622069 -0.15556778
000360 f6 37 6c 3d 56 0e 00 3c f1 02 a9 3d 31 f4 2e be
       0.057670556 0.007815918 0.08252514 -0.17085339
000370 d5 5e b8 3d 29 e9 9d 3e 23 ce 53 bd 38 2d c9 bd
       0.09002463 0.3084195 -0.05171026 -0.09823078
000380 5b d5 bc 3e 80 aa a9 bd 90 3e 5d 3e 9f 2d 82 bd
       0.36881527 -0.082844734 0.21605897 -0.06356358
000390 30 61 96 bc b8 ec 46 bc 42 ee 67 3e b5 13 41 3e
       -0.01835689 -0.012141399 0.22649482 0.18855174
0003a0 68 2b 8c 3e e2 c8 cb 3e 33 69 af bc af f8 ac 3c
       0.27376866 0.398017 -0.021412468 0.021114675
0003b0 a8 e4 56 3e 1c 55 4c bd 2a f0 40 bc 95 49 d3 3e
       0.20985663 -0.049885854 -0.01177601 0.41267076
0003c0 45 ba 7f 3a d3 a0 4f 3d 35 f0 43 3e 8b 6c cb bd
       0.00097552344 0.050690483 0.191346 -0.09932812
0003d0 84 ae 6c bd fc da 46 be c6 19 eb 3e c9 7c 9f 3c
       -0.05778362 -0.19419473 0.459181 0.019468682
0003e0 a5 8e 89 3e 3f 89 8b 3e a2 9f 99 3c dc b2 2a be
       0.26866642 0.27253148 0.018752877 -0.16669792
0003f0 3c 47 44 bd e9 81 df 3e 2d bc 8f bd 30 60 ff 3d
       -0.047919497 0.436538 -0.070183136 0.12469518

fc2.weight f4 [256, 256]
000000 b7 0c 09 bf d5 19 6a be 2b 81 c8 3d 26 7c 62 be
       -0.53535026 -0.22861417 0.09790262 -0.22117671
000010 b2 2f 82 be 41 e8 05 be 6d 42 6b be 2f b5 5a 3e
       -0.25427014 -0.13076879 -0.22974558 0.21358179
000020 e4 aa 5e be ca a5 8d 3e 07 bb 5d be 86 cf d1 be
       -0.21744877 0.2766555 -0.21653377 -0.4097864
000030 d7 b7 63 be 78 cb dc bc 0d cc 1d bf 36 0f 9c bd
       -0.22238098 -0.02695249 -0.6163948 -0.07620089
000040 9c 65 ed bc c5 97 ac 3b 90 be 8e be 49 57 93 3d
       -0.028979115 0.005267116 -0.27879763 0.07194383
000050 71 23 3e be ca 82 20 3c 89 5d 46 be e3 20 81 be
       -0.18568207 0.009796808 -0.19371618 -0.25220403
000060 c8 e8 93 3d a9 2d d0 bd 67 b7 ab be 00 d1 c6 3c
       0.07222134 -0.10164959 -0.33538362 0.02426958
000070 9c 40 7f 3e 57 e7 9c bd 9e 8a 8a bc 2c fe c1 3b
       0.2492699 -0.07661312 -0.016911801 0.005920192
000080 07 08 31 be 10 57 05 bf 7b ae ba be 44 0c 08 be
       -0.17288218 -0.5208597 -0.36461243 -0.13285929
000090 e7 18 85 be dc c9 10 3e 26 49 3f 3e 9f cd ac bd
       -0.2599556 0.14139503 0.18680248 -0.084376566
0000a0 ac 82 35 3e c7 29 81 bd 83 4e af be dc 66 82 be
       0.17725629 -0.063067965 -0.34239587 -0.254691
0000b0 7e 67 bb be ee a6 4c bb 63 f8 0a bf f2 04 80 be
       -0.36602396 -0.0031227428 -0.5428526 -0.25003773
0000c0 09 cb d7 3e d2 e4 3e 3d f5 74 62 bd 1a ff 72 3d
       0.4214709 0.04660494 -0.05528732 0.059325315
0000d0 bd 86 1b bf e5 ff 8d 3d f8 df b6 3d 7a f1 5a 3e
       -0.6075247 0.06933574 0.089294374 0.21381178
0000e0 15 d5 b3 be c3 dc bb be df e4 04 3d ad 87 0b 3e
       -0.35123506 -0.36691865 0.03244483 0.13625975
0000f0 7f b8 f8 3d 2d 4f 3e be 66 c1 dd be f3 f1 63 be
       0.12144565 -0.1858489 -0.43311614 -0.22260265
000100 42 14 94 bd 3e 42 67 be 8a ec 25 be 2c 25 2f be
       -0.07230426 -0.22583863 -0.16203514 -0.17104024
000110 08 04 d8 3d 74 7f 85 be c8 00 dd 3d e3 37 ce be
       0.10547644 -0.26073802 0.10791165 -0.40277013
000120 2e 34 5e 3d 36 a0 a9 3d 5a fd c8 bd d8 04 8c 3e
       0.05424898 0.08282511 -0.09813948 0.27347445
000130 8e 07 de be 85 f8 67 be fc 19 61 be 0c 6a 3a 3e
       -0.4336514 -0.22653396 -0.21982569 0.18204516
000140 c9 ce 5f be 59 ca d4 be 1d ad ee bd d2 a2 79 be
       -0.21856226 -0.4156063 -0.116541125 -0.24378517
000150 47 f4 f0 be 3e 7a 94 be 2d 60 9c 3d 2b 62 c8 bd
       -0.4706137 -0.28999513 0.076355316 -0.09784349
000160 15 42 d2 be 5a 3a 51 be 82 41 f9 be a7 d1 24 bf
       -0.41066042 -0.20432416 -0.4868279 -0.64382404
000170 9a f9 ef be e1 95 e1 bd d8 2e 2a be 6f 36 1c bf
       -0.46870118 -0.11014915 -0.16619432 -0.6102056
000180 53 80 df 3d 28 e6 a5 bc 43 d6 b1 be 45 80 58 3d
       0.10913148 -0.020251349 -0.3473378 0.052856702
000190 99 21 db bc 84 8b 6b be 5a 6c 82 be 05 25 e9 3e
       -0.026749419 -0.2300244 -0.2547329 0.45536056
0001a0 99 42 92 be 72 57 13 3c e3 d4 87 be fd 5b cb be
       -0.28566435 0.008993017 -0.26529607 -0.3971862
0001b0 6b be b3 be 0f 15 b6 bd d4 f6 b2 3d b1 d5 1c be
       -0.35106215 -0.08890735 0.08738485 -0.15315892
0001c0 60 54 8b bd 5d 5f 29 be b7 f0 d2 be 75 35 b7 be
       -0.06803203 -0.16540284 -0.41199276 -0.35782972
0001d0 f2 c5 b6 be df 9f 85 be 0d b8 0c be 39 3e 54 3e
       -0.35697895 -0.26098534 -0.13742085 0.20726861
0001e0 45 a3 30 3e 3f a1 c5 be 4a fa 18 be 7d d3 e9 bd
       0.17249782 -0.38599584 -0.14939228 -0.11417291
0001f0 50 7d d7 be 35 98 59 be 5d e8 8b be 9e 55 cd bd
       -0.42087793 -0.21249469 -0.27325717 -0.10026096
000200 c4 c6 47 be 15 8e 1d 3e 18 a9 d8 be d7 41 3e be
       -0.19509417 0.15386231 -0.42316508 -0.18579803
000210 be 32 ff 3d 35 90 b1 bc df 20 a8 be 0f a0 cb be
       0.1246085 -0.021675209 -0.3283758 -0.39770553
000220 54 83 b2 be 6f d6 5c 3e 9f d9 bf bd e8 18 7d be
       -0.3486582 0.21566175 -0.0936768 -0.24716532
000230 e2 85 a8 3d f0 85 99 bd 4c 1c 7c 3d d5 89 07 bf
       0.08228661 -0.0749625 0.061550424 -0.5294469
000240 e5 d1 8d 3e 93 96 8d 3e 41 4a ab be b6 9f 01 3e
       0.276992 0.27653942 -0.3345509 0.12658581
000250 66 ed f4 3d cc 48 47 bd e5 77 b3 bd 77 9f 0b 3f
       0.11959343 -0.04865341 -0.087631024 0.545402
000260 d4 b6 94 3d 92 01 70 bd c1 e0 8b be 7b 34 fa be
       0.07261434 -0.058595248 -0.2731991 -0.48868164
000270 c4 50 d3 3e 8e 4b a9 be 64 f2 83 bd 37 47 9c 3c
       0.41272557 -0.33065456 -0.06442717 0.019076927
000280 f9 ea 50 3b b9 67 bf be 22 32 fb 3d c8 35 e3 3d
       0.0031878336 -0.37383822 0.122654215 0.11094242
000290 62 66 51 3e 01 d2 69 be aa 20 eb 3d 5d 38 23 3e
       0.20449212 -0.22834016 0.114808396 0.1593947
0002a0 1e fb 77 3e 1b ad 34 be 29 8f 0f 3f 06 21 ea 3e
       0.24216887 -0.1764416 0.5607782 0.4572832
0002b0 3b a8 b3 3d f6 d5 6f 3e e9 64 9e bd a5 0d 1d 3e
       0.08772322 0.23421463 -0.07734091 0.15337236
0002c0 3d d7 3f be 41 25 80 be 17 bd cd be 8a 66 69 be
       -0.1873445 -0.25028422 -0.40183327 -0.22793022
0002d0 09 af fe 3e 84 9d 6d 3e 88 a1 57 be 93 8e 75 3e
       0.49742916 0.23204619 -0.21057713 0.23980169
0002e0 04 95 cb be 03 df d5 3d 22 1d e5 be fc ba b5 be
       -0.39762127 0.10442927 -0.4474879 -0.3549422
0002f0 cf d5 d0 3d 90 6c 8a 3e bb 14 1b be a5 c7 31 3d
       0.10197031 0.27035952 -0.15144627 0.043403286
000300 28 a7 2b 3e e8 05 60 be 4c 13 cd 3e 26 d9 f2 3e
       0.16762984 -0.21877253 0.40053785 0.47431296
000310 97 20 a0 bd 03 fd 9e 3c 44 5e 34 be a4 b1 3e bd
       -0.07818716 0.019407755 -0.17614084 -0.04655613
000320 3a de c1 be 13 e8 b4 be 76 80 84 3c 94 08 91 be
       -0.37864858 -0.3533331 0.016174536 -0.28326857
000330 59 6f 18 3e cf 03 a0 bd dd 31 8f bd c8 e3 44 bc
       0.14886226 -0.078132264 -0.069919325 -0.012017198
000340 7e 25 61 be d9 c0 15 3e 3b 60 29 be 5c 8e 37 3e
       -0.21986958 0.14624347 -0.16540615 0.179254
000350 e6 41 71 be 5d 08 20 3e 55 73 54 be 60 26 c8 be
       -0.23560295 0.1562819 -0.2074712 -0.39091778
000360 b9 f7 2c 3d b9 c1 0a 3e 0e 31 8f be 88 20 16 be
       0.042228434 0.13550462 -0.27967113 -0.14660847
000370 a2 fa 0c bf f5 e6 39 3d 1d 19 65 be ee 19 0d 3e
       -0.55069935 0.045386273 -0.22372861 0.13779423
000380 f4 06 93 3d d3 32 22 bd db 39 32 be b3 97 a8 3e
       0.071790606 -0.03959925 -0.17404883 0.32928237
000390 98 4f 01 be f8 58 9a be f1 f1 08 bf 5e e8 b1 3d
       -0.12628019 -0.30146003 -0.53494173 0.08686899
0003a0 fc ff 6a 3e b1 5b 20 3d b0 fb 6d be fd c3 90 bd
       0.22949213 0.039149944 -0.23240542 -0.07068632
0003b0 53 e6 3a 3e d9 c1 cd bd 0e 91 89 bd 2f 63 8e bd
       0.18251924 -0.10046739 -0.0671712 -0.069525115
0003c0 e5 ef b0 3d c0 55 ff 3d 48 12 84 be 84 b2 4f be
       0.08639506 0.124675274 -0.25795197 -0.20282942
0003d0 c9 3c c0 be 83 f8 a9 be 5e ee 3f be 17 9c a5 be
       -0.37546375 -0.33197412 -0.18743274 -0.3234565
0003e0 5d 94 fb bd 22 f0 00 3e 33 52 03 bf 2c cd 14 bd
       -0.122841574 0.12591603 -0.512973 -0.03632848
0003f0 d3 a7 98 be 9f 70 3d bd 77 82 03 3d c0 63 39 3e
       -0.2981554 -0.046249982 0.032106843 0.18104458

fc2.bias f4 [256]
000000 55 bd 6e 3d ca 0a 19 bc 2b a1 01 bc 6e 21 cf 3d
       0.05828603 -0.009340951 -0.007911961 0.10113798
000010 d5 a5 00 be 42 a4 b9 bd 7b 27 8f bd 80 59 93 bc
       -0.1256326 -0.09064533 -0.06989952 -0.017987013
000020 a4 c6 17 3d 6d d3 4d bd 93 87 18 be 30 9c b8 3d
       0.037054673 -0.05025046 -0.14895467 0.090141654
000030 fa 91 32 3c 54 56 12 3e 4b 96 2b bc e9 f9 d0 bc
       0.010899061 0.14290744 -0.010472844 -0.025509791
000040 09 e2 be bc d7 5e 5a 3d 6b be fe 3c 39 c1 0d be
       -0.023301141 0.053313103 0.031096658 -0.1384324
000050 d3 c8 3a bc d1 bb ae 3c 46 a3 31 3e cd df f2 bd
       -0.011400419 0.021329792 0.1734744 -0.11859093
000060 f6 bf 7e bc 04 60 5d bd 26 ff 83 3c df f9 ad bd
       -0.015548697 -0.054046646 0.016112875 -0.08494925
000070 b2 e1 02 3e 71 8a ac 3d 1f 8c 04 3d f4 52 84 bd
       0.12781408 0.08424843 0.032360192 -0.064611346
000080 d8 10 70 bd 31 00 0c 3e f3 40 bf bd c7 83 90 bc
       -0.058609813 0.13671948 -0.0933856 -0.017640961
000090 75 d8 bb bd c5 97 4a 3d c5 3d 9f 3d 6c b3 d5 3d
       -0.09172145 0.049461145 0.077754535 0.10434613
0000a0 b6 80 b5 bd 9b b3 0e bd a4 14 ce 3d 41 46 2a bd
       -0.0886244 -0.034839254 0.10062531 -0.041570906
0000b0 5f e6 d6 bd 00 77 f3 bc 10 30 88 bc 37 c2 3f 3e
       -0.104931585 -0.02971983 -0.01662448 0.18726431
0000c0 de b8 a9 3d b0 db 99 3b dc 1c cd bd 2a 80 7d bd
       0.08287214 0.0046953782 -0.1001527 -0.061889805
0000d0 cf 93 c0 bb 29 78 59 3d 7d ad c4 bd 40 03 e6 bd
       -0.005876995 0.05309311 -0.09603403 -0.11231089
0000e0 09 a8 f9 3d c8 ef 17 bd 5e ac 33 bd 74 eb 2c bb
       0.12190253 -0.037093908 -0.043865554 -0.0026385458
0000f0 89 45 4b 3e e3 9a 0a bd 70 31 85 3b f1 26 fc bc
       0.19850744 -0.033839118 0.0040647313 -0.030780287
000100 df b1 05 3c 9c 30 55 3d d6 d5 08 bd 48 67 a1 bd
       0.008160084 0.05204831 -0.033407055 -0.078810275
000110 0c b8 eb bd 85 6b b7 bd 99 ac 96 bd 6a 76 19 bc
       -0.115097135 -0.089560546 -0.07357139 -0.009366611
000120 e2 d4 86 bd 6d 8d c2 3d 89 ff e4 3d 0f b6 c6 3b
       -0.06583573 0.09499631 0.11181552 0.0060641835
000130 de dc 79 3d 20 92 1a 3d 4e a1 4f 3e 22 71 e9 bc
       0.06100165 0.037737012 0.20276377 -0.028496329
000140 ee 95 65 bd b0 1a ad 3b 6c ac 13 3d b5 c6 88 bc
       -0.056051187 0.0052827224 0.036053106 -0.016696313
000150 05 e6 e1 bc 28 3b 2d 3e b7 cd 06 be 8a d7 6d bd
       -0.027575502 0.16917098 -0.13164411 -0.058066882
000160 9a a3 67 bd 9e f0 a9 bc c2 4a 90 bd b4 62 fd 3d
       -0.056552507 -0.020744618 -0.07045509 0.12372342
000170 1a c0 9b 3d 31 6c a2 bd a3 dc bc bd bd e7 b4 bd
       0.07605 -0.07930792 -0.092217706 -0.08833263
000180 78 31 fe 3d 1c ab 76 bd 05 fb 0d bd 05 c7 b7 3d
       0.12411779 -0.060221776 -0.03466322 0.08973507
000190 bf 00 e3 bd f1 9f 4d 3c 97 e0 0e 3d 27 93 a9 3b
       -0.11084127 0.01255034 0.034882154 0.0051750126
0001a0 16 47 8d bd 05 b7 97 bd f4 5a c8 3a 02 7f 02 bd
       -0.06898324 -0.07407955 0.0015285895 -0.031859405
0001b0 aa 6b 93 bd d9 7b 4a bb 95 89 5a bd 73 d1 30 3e
       -0.0719827 -0.0030896573 -0.053353865 0.17267399
0001c0 f0 2a 0a bd 1f 62 6c 3c 5d b2 cd bd 5d 74 e3 bc
       -0.033732355 0.014427691 -0.10043786 -0.027765447
0001d0 d9 15 32 bd 52 c9 87 bd 44 26 61 bd f5 40 09 3d
       -0.043477867 -0.06630196 -0.054968134 0.033509213
0001e0 e5 30 3a 3e 79 dd d0 bc 49 9a 0f 3e 7e fd 27 3c
       0.18182714 -0.025496231 0.14023699 0.010253308
0001f0 34 aa 8f 3d a5 f7 9c 3c c2 5b 14 bd 69 f7 a9 bc
       0.070148855 0.019161055 -0.03622032 -0.020747857
000200 9e 6e bb 3d e7 a8 d3 3c 56 50 20 3e 61 8c d8 3c
       0.09151958 0.025837375 0.15655646 0.026434125
000210 d8 a5 b5 bd d6 d4 13 3e cf 59 d1 bd 8f 75 b7 bb
       -0.08869523 0.14436659 -0.10222208 -0.005598731
000220 81 0c 2d 3e d1 f0 b6 bd f1 45 c5 bd 67 9b 8b 3d
       0.16899301 -0.08932651 -0.09632481 0.0681675
000230 9e 04 df bc 14 cc 56 bd 24 f7 11 3e bf 57 51 bc
       -0.027223881 -0.052440718 0.14254433 -0.012777268
000240 cd 86 d9 3d 0a 3e 10 3e 56 81 9d bd 7f df af 3d
       0.10621414 0.14086166 -0.076906845 0.0858755
000250 2d 52 9d bc 62 91 38 bd 5a 21 8c 3b e6 19 12 bd
       -0.019204224 -0.045060523 0.0042764368 -0.03566923
000260 3f ac c0 3d 57 b5 a8 3d 0b 45 73 3d 8a a5 0a bd
       0.09407853 0.08237713 0.059392016 -0.033849277
000270 14 04 4e bd c0 bc 72 bd fe 41 b1 bd 33 c8 e5 3d
       -0.050296858 -0.059262037 -0.08655165 0.112198256
000280 a9 80 dd bd fe 90 a4 bd 0f 76 59 bd db 1b e5 bd
       -0.108155556 -0.080354676 -0.053091105 -0.11186954
000290 8d 7b d0 bd 44 8b 40 3b de 5d ba bd 95 c9 ec 3d
       -0.101798154 0.0029379884 -0.09099935 0.11561886
0002a0 08 cf e3 bd 15 50 c3 bd 03 9b f9 bc 43 18 05 be
       -0.111234725 -0.09536759 -0.030469423 -0.12997536
0002b0 0a 07 72 3d d8 06 d1 bd 4a 78 e7 bc b4 26 a3 bc
       0.059088744 -0.102063835 -0.0282556 -0.019915916
0002c0 a8 50 97 bd b2 07 22 bd c6 e0 d7 bd 51 d1 9d bd
       -0.07388431 -0.03955812 -0.10540919 -0.077059396
0002d0 4a 07 41 3c 8b 38 3f bb 7d 30 dc bd d4 15 f0 3d
       0.011781523 -0.002917799 -0.10751436 0.117229134
0002e0 64 0f 95 bd 35 bc 2a bd 71 80 a2 bd dd f2 c1 3d
       -0.07278326 -0.041683394 -0.079346545 0.094701506
0002f0 ef 71 c9 bd 76 d4 cc bc c3 8c 4f bd 9d 04 99 3c
       -0.09836184 -0.025003653 -0.05067135 0.018678958
000300 e1 a0 2e 3d d7 7c 61 bd 55 10 33 be dd 63 fe bc
       0.042633895 -0.055050697 -0.17486699 -0.031053478
000310 6b c1 af bd 04 ca 3c bd 66 d8 bf bd 31 86 74 bd
       -0.085818134 -0.046091095 -0.093674466 -0.059698287
000320 32 02 a1 bd 6e 56 d3 bc 4b 58 19 bd d7 77 7d 3d
       -0.07861747 -0.025798049 -0.03743772 0.061881866
000330 6f 6a bd bc 55 ae cb bd 13 52 5a bd 98 ff a8 3d
       -0.02312204 -0.099453606 -0.05330093 0.08251876
000340 e6 f5 b6 3d bc 1a d5 3d b6 75 ab bd dc 91 ee bd
       0.0893362 0.1040549 -0.08372061 -0.11648914
000350 3f d0 16 bd fb ee 28 bc 1b 30 64 bd 5e f3 67 bc
       -0.036819693 -0.010310884 -0.05570994 -0.014157144
000360 50 1a f4 3d 47 4e 99 bd 10 3b 42 bd 9f 51 9e bd
       0.11919081 -0.07485633 -0.047419608 -0.07730412
000370 8c fd 88 bd b6 44 97 3d 07 ce ac bc c1 e3 bc bd
       -0.06688985 0.073861524 -0.021094335 -0.09223128
000380 3b cc 58 bd 39 e8 dc 3d ef 37 b3 bd 99 d4 25 bd
       -0.052929144 0.107864805 -0.08750903 -0.040485952
000390 47 f7 4a bd 3f 7a d5 bc 79 af d4 bd dc b1 7b 3d
       -0.04955223 -0.026059268 -0.10385031 0.061448917
0003a0 18 a8 0d 3d 24 eb bd bd 21 79 31 bd 3b 39 02 bd
       0.034584135 -0.09273365 -0.04332841 -0.03179286
0003b0 a3 1e 6e bd 12 ec 26 bc aa cf 12 bd d8 d8 f6 3d
       -0.058134686 -0.0101881195 -0.035842575 0.120530784
0003c0 f9 7d 40 bd 74 b6 8c bc 90 e8 cc bd a0 20 51 3a
       -0.046995137 -0.017176844 -0.10005295 0.0007977579
0003d0 3d f7 52 bd fd 0c 7b bc 42 37 b8 3c d3 52 17 3d
       -0.051505316 -0.015322921 0.022487286 0.03694422
0003e0 28 64 31 3d 91 61 6d bd b8 3d 2a 3d f8 eb 29 3e
       0.043308407 -0.057954375 0.041562766 0.16593921
0003f0 fa 69 c9 bd 64 04 ec bd 5f 86 f5 bd 67 cd 0b bc
       -0.098346666 -0.11524275 -0.1198852 -0.008532858

fc3.weight f4 [4, 256]
000000 2a 0e 1e 3f 92 9d 11 3f e6 3a 3e be 9a 3e 53 3e
       0.6174036 0.5688106 -0.18577155 0.2062935
000010 a9 0c 07 be 41 d9 29 be 54 03 0a be ac 8b dd bd
       -0.13188423 -0.16586782 -0.13477832 -0.10817656
000020 c0 8d 25 3f 96 4f 4d be eb 05 89 3c b9 a8 02 3f
       0.6466942 -0.20049891 0.016726455 0.510387
000030 3f 20 de bd ad 44 8a 3d 70 59 a4 bd b7 59 32 be
       -0.10845994 0.0675138 -0.08024871 -0.17417036
000040 b9 b5 55 be a0 20 84 3c 32 20 ef 3e ea de 1f be
       -0.20870103 0.016128838 0.4670425 -0.15612379
000050 42 e0 23 3e 28 36 9a 3e 36 bd bf 3e f7 90 27 be
       0.16003516 0.30119443 0.37449044 -0.16363893
000060 85 63 4d be 76 73 2a be bb 3d 48 3c ad af 7c be
       -0.20057495 -0.16645607 0.012221749 -0.2467639
000070 b4 f6 c4 3e 25 3e e0 3e da 08 a3 bc 16 0b 4f be
       0.3846947 0.43797413 -0.019901682 -0.20219073
000080 01 a8 f5 bd 1c fa 08 3f 1e ba 23 be 2d 80 12 be
       -0.11994935 0.53506637 -0.15988967 -0.14306708
000090 d0 71 43 be 2d a7 da 3e 56 4c 19 3f 42 eb e7 bd
       -0.19086385 0.4270567 0.59882104 -0.11324169
0000a0 b5 3f 0b be 03 bf a0 3e 7a 04 ce 3d d4 6b 4c be
       -0.13598521 0.3139573 0.100594476 -0.19963008
0000b0 2a 77 1f be 6b 18 15 be 0f de 49 be 30 cd ce 3e
       -0.15572801 -0.14560096 -0.19713615 0.4039092
0000c0 24 8f dd 3e 20 3c f9 bb 86 3f 17 be dc ae d9 bd
       0.4327327 -0.0076060444 -0.14770326 -0.10629055
0000d0 e4 0a 4e be 79 c7 11 3f a7 ff 6a be 8d bc 41 be
       -0.20121342 0.56944996 -0.22949086 -0.18919583
0000e0 1d d4 ae 3e 37 e7 3d be ac 59 1a be 8c a0 b0 bd
       0.34146205 -0.18545233 -0.1507327 -0.08624372
0000f0 eb 18 63 3e 5b c6 03 be 38 98 2e bd d8 60 aa bd
       0.22177474 -0.12868635 -0.042625636 -0.08319253
000100 6d 21 50 be 32 9f ec 3e e8 97 c0 3a 23 62 30 be
       -0.20325251 0.46215206 0.0014693709 -0.17224936
000110 5a 0d f6 bd de b9 b5 bd 12 b6 59 be 85 34 01 be
       -0.12014265 -0.08873342 -0.2126086 -0.12617691
000120 e8 d7 21 be df 7b a7 3e 27 22 8d 3e 56 d0 cd bc
       -0.15805018 0.32711694 0.2756512 -0.025123756
000130 9f 12 05 3f 95 1b 1f 3f 6f f6 98 3e 03 81 04 be
       0.5198154 0.6215146 0.29875514 -0.12939839
000140 05 63 1a be 4b d7 4f bd 84 d0 da 3e e1 5e 39 be
       -0.15076835 -0.05074243 0.4273721 -0.181026
000150 fc 40 25 be 90 4c a8 3e a7 68 09 be d1 76 fc bd
       -0.16138071 0.32870913 -0.13418828 -0.1232735
000160 ab bb 2f be c1 65 3e be 06 fb 21 be c9 ff d6 3e
       -0.17161433 -0.18593504 -0.15818414 0.41992024
000170 2a 92 26 3f ce 3f 11 be 0e 3d 04 be e2 00 06 be
       0.6506678 -0.14184496 -0.12913916 -0.13086274
000180 c7 16 a2 3e 3f ca 3a be 1d e4 53 be 12 74 0f 3f
       0.31658003 -0.18241213 -0.20692487 0.56036484
000190 2b a0 1e be 5a 0c b3 3e d4 14 43 be 82 96 40 be
       -0.15490787 0.3497036 -0.19050914 -0.18807414
0001a0 d4 59 71 be 47 55 22 be c9 cb 64 be 92 38 53 3d
       -0.23569423 -0.15852843 -0.22343363 0.05156762
0001b0 b2 52 50 be ee 0d 17 be 2e 61 11 be b6 bd e8 3e
       -0.20344046 -0.14751408 -0.14197227 0.45457238
0001c0 46 08 5d be 02 e8 73 bd 35 9d 2f be cc cc e6 3c
       -0.21585187 -0.05954743 -0.17149813 0.028173827
0001d0 84 91 dd 3c f6 d6 40 be 89 89 c4 3c 27 73 d0 3e
       0.027046926 -0.18832001 0.023991363 0.40712854
0001e0 a5 9a cc 3e bd 50 26 be 1b ff 8a 3e a0 cb fd bd
       0.39961734 -0.16241737 0.27147755 -0.12392354
0001f0 e1 af da 3e 8a 94 da bd 15 6c f1 bd 9e 91 27 be
       0.4271231 -0.10672863 -0.11788193 -0.16364142
000200 0e 97 ab 3e 55 3f 3f be 96 de 18 3e 24 c6 85 3e
       0.33513683 -0.18676503 0.1492866 0.26127732
000210 51 e4 59 be 3a 57 f3 3e 46 72 0a be 25 0e 36 be
       -0.21278502 0.47527486 -0.13520154 -0.17778833
000220 9b 91 e2 3d f8 d4 27 be 10 54 17 be e4 70 c2 3e
       0.11062928 -0.16389835 -0.14778161 0.37976754
000230 05 2b de bd bb 80 da bd 57 b4 c9 3e d3 78 32 be
       -0.10848049 -0.10669085 0.393954 -0.17428903
000240 72 44 c9 3e 19 17 99 3e bb d3 22 be c1 06 c1 bd
       0.39310032 0.29900435 -0.15901081 -0.09425116
000250 66 0c 43 be 3a 49 df bd 19 76 5c be 9e b8 56 be
       -0.19047698 -0.10902639 -0.21529426 -0.20968863
000260 eb b0 d5 3e 09 ba 5c 3e 38 58 8b 3e 1f 80 01 be
       0.4173654 0.21555342 0.27215743 -0.1264653
000270 8e 38 2e 3d 03 1e f3 bd ee 84 63 be 24 d8 de 3a
       0.042534404 -0.11870959 -0.22218677 0.0017001671
000280 f8 01 eb bd a7 99 02 be b0 c0 30 be 99 b9 18 be
       -0.11474985 -0.12753926 -0.17261004 -0.1491455
000290 20 ba 25 be 77 30 0c be 45 df d0 bd 23 63 92 3e
       -0.16184282 -0.13690363 -0.10198835 0.2859126
0002a0 8a 7b 5a be fe e3 42 be 70 84 2a be f2 6f 32 be
       -0.21336189 -0.19032285 -0.16652083 -0.17425516
0002b0 ad 3c 6c 3e 2e f6 1d be 00 3e 3b ba 74 42 03 be
       0.23070021 -0.15425941 -0.00071427226 -0.12818319
0002c0 44 c0 1c be 50 5a 27 be 36 83 17 be ab d7 16 be
       -0.15307719 -0.16343045 -0.14796147 -0.14730708
0002d0 f9 af 04 3e 03 5a 07 be bd 3d 11 be a0 41 cd 3e
       0.12957753 -0.1321793 -0.14183708 0.4008913
0002e0 5c c4 08 be b7 09 05 be d2 f4 2e be 56 80 bc 3e
       -0.13356155 -0.12991987 -0.17085579 0.36816663
0002f0 15 c3 2b 3d 1c b2 35 be b2 db 15 be 65 b8 c5 3e
       0.04193409 -0.17743725 -0.14634588 0.38617244
000300 b2 65 cd 3e 99 a5 e6 bd 8f 84 19 be 2b 12 07 be
       0.4011665 -0.11262054 -0.14991973 -0.13190524
000310 0a af c8 bd e3 a0 3a be 8c aa 19 be 00 62 03 be
       -0.09799011 -0.18225436 -0.15006465 -0.12830353
000320 b3 c0 48 be d5 f6 42 be 99 cd 3c 3d 90 9d cd 3e
       -0.19604759 -0.19039471 0.04609451 0.40159273
000330 c6 6b 1e 3f d3 b8 36 be 65 d8 2c be 77 c0 09 3c
       0.618832 -0.17843942 -0.16879423 0.008407704
000340 45 6a cf 3e f8 3a 5f bd ac 1a 2a 3c 5f b9 4e be
       0.40510765 -0.054499596 0.010382336 -0.20187901
000350 31 61 1e be 2d ac 31 be bb 91 37 be fa 68 40 be
       -0.15466763 -0.17350836 -0.17926686 -0.18790045
000360 ab 47 89 3d df 3f f0 bd c6 09 39 bd 69 30 4c be
       0.06703123 -0.117309324 -0.045175336 -0.19940342
000370 00 c0 01 be 2b aa 89 3e 25 01 d9 bd 44 27 08 be
       -0.12670898 0.2688764 -0.105959214 -0.13296229
000380 24 0c 08 be 91 69 c3 3e 28 7b 25 be 48 a2 96 3c
       -0.13285881 0.38166478 -0.16160262 0.018387929
000390 7d 19 48 3d 07 09 47 be 3a 0a 2c be d1 e9 9c 3d
       0.048852433 -0.19437037 -0.16800776 0.076617844
0003a0 41 29 a1 3e 35 ed e5 bd 58 df 31 be 76 04 fd bd
       0.31476787 -0.11226884 -0.17370355 -0.123543665
0003b0 cf 2d 34 3d 19 8a 3c be 7c c2 59 bd 81 94 06 3f
       0.043989 -0.18412055 -0.05316399 0.5257035
0003c0 8f 16 22 be 25 59 1b be e7 82 3e be ea 6c 1c be
       -0.15828918 -0.15170725 -0.18604623 -0.15275922
0003d0 f1 d6 02 be 05 e0 d8 3d 69 83 6f bd 7d c5 c0 3d
       -0.12777306 0.10589603 -0.058474932 0.09412668
0003e0 f9 48 0f 3d e8 92 3c be d2 56 12 3f 86 1f ea 3e
       0.0349817 -0.18415415 0.5716373 0.45727175
0003f0 dc 85 2e be 8f fc 22 be 9c d5 40 be de 15 96 bc
       -0.17043251 -0.15916656 -0.18831486 -0.018320974

fc3.bias f4 [4]
000000 91 3f 90 3d 5d 53 2e 3d b3 f3 91 3d 5e 72 3f 3d
       0.07043374 0.04255997 0.0712656 0.04673993
