PPO_LunarLander_ep8000.pth (torch, 279103 bytes, 8 tensors)

log_std f4 [1, 2]
0	0xbf001a0a	-0.5003973
1	0xbf12ca07	-0.5733952

fc1.weight f4 [256, 8]
0	0x3d3dd286	0.04634335
1	0xbd01cbda	-0.03168855
2	0x3c5b574b	0.0133875115
3	0xbd7cf7ce	-0.061759762
4	0x3fa3ad78	1.2787313
5	0x3d448863	0.04798163
6	0x3ecdccfd	0.40195456
7	0x3e111f80	0.14172173
8	0x3ea7fe87	0.32811376
9	0x3e75b250	0.23993802
10	0xbc0e94a7	-0.008702434
11	0x3c119521	0.008885653
12	0xbe1f2459	-0.1554121
13	0xbed3a070	-0.41333342
14	0x3ea8e7e5	0.3298942
15	0x3eaf16ba	0.34197026
16	0x3e4c2314	0.19935256
17	0x3d3adbfc	0.04561995
18	0xbd642445	-0.05569865
19	0x3de260ea	0.11053641
20	0xbe9dd434	-0.3082596
21	0xbea50f17	-0.32238075
22	0xbd631487	-0.0554395
23	0xbd236dc2	-0.039899595
24	0xbc71feab	-0.01477019
25	0xbcecd915	-0.028912107
26	0xbea41bf2	-0.3205257
27	0xbef85a67	-0.48506472
28	0x3f0537f3	0.52038497
29	0x3c8a78e5	0.01690335
30	0x3e64d9c8	0.22348702
31	0x3d50d347	0.05098274
32	0xbdd14129	-0.102175064
33	0xbf169c55	-0.58832294
34	0x3f09a3b0	0.5376539
35	0xbec6a2f0	-0.38796186
36	0xbeffcf6d	-0.4996294
37	0xbef1efb5	-0.47253194
38	0x3ec1a686	0.3782236
39	0xbd3bf1d1	-0.04588491
40	0x3f2b1d17	0.6684126
41	0x3d50f6bc	0.051016554
42	0x3e08d79e	0.13363501
43	0x3b9432f2	0.0045226747
44	0x3e339d21	0.17540409
45	0x3ddbd3ed	0.10733781
46	0xbe8ee0b9	-0.27905825
47	0xbd7de17d	-0.06198262
48	0x3df2a7f9	0.118484445
49	0x3f0a623c	0.54056144
50	0xbcb23884	-0.021755464
51	0xbefe28d8	-0.49640536
52	0x3d9f8bb0	0.07790315
53	0x3e9ed5a1	0.3102236
54	0xbd2ea51b	-0.042637926
55	0xbd40e03f	-0.047088858
56	0x3e008d1f	0.12553833
57	0x3d35414f	0.044251736
58	0xbe3d27ad	-0.18472166
59	0xbccae2b9	-0.024766313
60	0x3dc8e40e	0.09809123
61	0xbe3e389d	-0.18576284
62	0xbdcff399	-0.101538844
63	0x3e246ba8	0.16056693
64	0x3e52d789	0.20590033
65	0x3b6c274b	0.0036034163
66	0x3ec52c86	0.3851053
67	0xbdd99cb4	-0.10625592
68	0x3f84f7c6	1.0388114
69	0xbeb85b11	-0.36006978
70	0x3eb287ca	0.34869224
71	0xbe9615cd	-0.29313508
72	0xbeaf0e1b	-0.3419045
73	0xbda7e8e7	-0.081987195
74	0x3ca6ed86	0.020376932
75	0x3dc494d6	0.09598701
76	0xbce60cef	-0.02808234
77	0xbe29ec8b	-0.1659414
78	0x3eaf3af4	0.34224665
79	0xbdf6e63a	-0.12055631
80	0xbcde65b4	-0.027148105
81	0x3ee5e40c	0.44900548
82	0x3eb712d5	0.35756555
83	0xbec5ecb4	-0.38657153
84	0x3d92c872	0.07167138
85	0x3e3f721a	0.1869587
86	0x3d44a78f	0.04801136
87	0xbe6e5221	-0.23273517
88	0xbf17943e	-0.59210575
89	0x3d7c8083	0.061645996
90	0xbd9a6de8	-0.07540494
91	0x3d915f74	0.07098284
92	0x3e10d174	0.141424
93	0x3e1f2dfb	0.15544884
94	0x3e7f1d36	0.24913487
95	0x3e1fad0a	0.15593353
96	0x3f24d911	0.6439372
97	0x3cd2e453	0.02574364
98	0x3ec73707	0.3890917
99	0x3bfdfca3	0.007751064
100	0xbe886250	-0.26637506
101	0x3d8b83a7	0.0681222
102	0x3d5973c1	0.053088907
103	0x3eaae6e9	0.33379295
104	0x3f32cfbc	0.6984823
105	0xbebef65c	-0.37297332
106	0x3de43c4e	0.11144315
107	0xbe9bc337	-0.30422375
108	0x3e291e38	0.16515434
109	0x3d579496	0.052631937
110	0x3e383dc2	0.17992309
111	0x3c8c6b6e	0.01714107
112	0xbf0e4dab	-0.5558726
113	0xbf17d3ee	-0.59307754
114	0x3df0d3e9	0.11759169
115	0xbdf1733f	-0.117895596
116	0x3f11ad0f	0.5690469
117	0x3ed3c167	0.41358492
118	0xbcbadd2a	-0.022810537
119	0xbd710e84	-0.058851734
120	0x3f1a59f0	0.60293484
121	0xbeb9ccea	-0.3628915
122	0x3e859983	0.26093683
123	0x3d1acc01	0.03779221
124	0xbe4e36e5	-0.20138128
125	0xbe192c46	-0.14958295
126	0x3d9081ee	0.07056032
127	0x3d4d5051	0.050125424
128	0x3efd1fab	0.49438223
129	0xbedf44de	-0.4360723
130	0x3e236a96	0.15958628
131	0xbf15730f	-0.5837869
132	0xbe33f688	-0.17574513
133	0xbd4722d4	-0.0486172
134	0x3d14df19	0.036345575
135	0x3c0b1f2b	0.008491318
136	0xbe11675a	-0.14199582
137	0x3eec138e	0.4610867
138	0xbebdc361	-0.37063125
139	0xbee1d34f	-0.44106528
140	0xbefe4cbb	-0.49667916
141	0x3ed241be	0.41065782
142	0xbc0a49ee	-0.008440478
143	0xbe8f87fc	-0.28033435
144	0xbc84949c	-0.016184144
145	0x3e4aabfe	0.19792172
146	0x3cc4a85e	0.024006065
147	0x3e7567d6	0.23965392
148	0x3ef35046	0.4752218
149	0xbe8c8033	-0.27441558
150	0xbe89bf43	-0.26903734
151	0x3e2b1ebb	0.16710941
152	0x3f3bd513	0.73372
153	0xbda23618	-0.07920474
154	0x3e94ed72	0.29087406
155	0xbe686abf	-0.2269697
156	0xbe519dc0	-0.20470333
157	0x3cc3aeaf	0.023887007
158	0x3ca0eebb	0.019645086
159	0x3d95b11c	0.073091716
160	0xbf07ae89	-0.53000695
161	0x3ec99ad5	0.3937594
162	0xbe142f99	-0.14471282
163	0x3e5a5f56	0.2132543
164	0x3ee3b207	0.44471762
165	0x3e1cda93	0.15317754
166	0xbe55d1ca	-0.2088081
167	0xbeab7e63	-0.33494863
168	0xbdcda0b8	-0.1004042
169	0x3efa02c6	0.4883024
170	0x3d356de5	0.044294257
171	0x3c80aed8	0.015708372
172	0x3f065e57	0.524877
173	0xbea237b5	-0.31683126
174	0x3e728645	0.23684032
175	0x3e951c93	0.29123363
176	0x3e702eba	0.23455325
177	0x3e6f533a	0.23371592
178	0x3e00fca6	0.12596378
179	0xbea18327	-0.31545374
180	0x3e70bfeb	0.23510711
181	0xbeb15979	-0.34638575
182	0xbbf9fbb6	-0.0076288832
183	0x3e38b3c5	0.18037327
184	0x3e6e1930	0.23251796
185	0xbf103245	-0.56326705
186	0xbd14e51f	-0.03635132
187	0xbead878f	-0.33892485
188	0xbd3cf3e6	-0.046131037
189	0x3e2f7930	0.17136073
190	0xbd9380c8	-0.072022974
191	0xbe688960	-0.22708654
192	0xbe0bc851	-0.13650633
193	0x3edeaa5b	0.43489346
194	0xbe49e87f	-0.19717596
195	0xbed419a3	-0.4142581
196	0x3f2609cc	0.648587
197	0xbd6bb524	-0.057545796
198	0xbe577d61	-0.21043922
199	0x3e580c89	0.21098532
200	0x3aa8b586	0.0012871481
201	0x3f1861a1	0.5952397
202	0x3de3052d	0.110849716
203	0xbe3cdd6e	-0.18443844
204	0x3ed8a7da	0.4231556
205	0x3e37ca41	0.17948247
206	0xbe350300	-0.17676926
207	0xbe525dc2	-0.20543578
208	0xbdfb0655	-0.12257067
209	0x3ed91eaa	0.42406207
210	0xbec177e1	-0.37786773
211	0xbeb6ce7c	-0.3570441
212	0xbed5f930	-0.41791677
213	0x3d58c53f	0.052922484
214	0xbbb40643	-0.0054939105
215	0xbe614b5e	-0.22001407
216	0x3e684436	0.2268227
217	0xbebbd9b3	-0.3668953
218	0xbee727a1	-0.45147422
219	0xbd69e6ae	-0.05710476
220	0xbe204c4a	-0.15654102
221	0xbd9319f2	-0.07182683
222	0x3e1f510c	0.1555826
223	0xbc01f9d8	-0.007933103
224	0xbce9347e	-0.028467413
225	0xbe1d0f0b	-0.1533777
226	0xbd71c96e	-0.05902999
227	0xbe77eccc	-0.24211425
228	0x3ea28feb	0.31750426
229	0x3edd560c	0.4322971
230	0xbe7bf2ca	-0.24604335
231	0xbe74b2a9	-0.23896278
232	0xbeb6e537	-0.35721752
233	0xbedd5603	-0.43229684
234	0xbe74dc9b	-0.2391228
235	0xbdeb85b1	-0.11500109
236	0x3ed64a40	0.41853523
237	0x3ec1e997	0.37873527
238	0xbe5ae391	-0.21375872
239	0x3eba0141	0.36329082
240	0xbd3b4bfa	-0.045726754
241	0x3f269270	0.65067196
242	0xbda97ee9	-0.08276159
243	0x3d987474	0.07444087
244	0xbe8c20ee	-0.27368873
245	0x3d95f1a6	0.073214814
246	0xbb7667c2	-0.0037598466
247	0xbeeb01c3	-0.45899782
248	0x3e921b84	0.28536618
249	0xbeb072bf	-0.34462544
250	0x3d48da12	0.049036093
251	0x3e2cd0f5	0.16876586
252	0xbf0b0ee0	-0.5431957
253	0xbeee96b5	-0.46599355
254	0xbea5bcd7	-0.32370636
255	0xbea8aac6	-0.3294279

fc1.bias f4 [256]
0	0xbc90502e	-0.017616358
1	0x3da32f35	0.079679884
2	0x3e8927e7	0.26788256
3	0xbc423f1c	-0.011855867
4	0x3e1ee74b	0.15517919
5	0x3d0a0363	0.033694636
6	0x3dfbdec6	0.1229835
7	0x3e9ad822	0.3024302
8	0xbd35fede	-0.044432513
9	0x3ea2e211	0.318131
10	0x3e9b4a6b	0.30330214
11	0xbc8be6ce	-0.01707783
12	0xbd8acd16	-0.06777398
13	0xbd6e9299	-0.058245275
14	0xbe819f94	-0.2531706
15	0xbe3767bf	-0.1791067
16	0xbe5b52f6	-0.21418366
17	0x3e96b9de	0.2943868
18	0x3ef29c60	0.4738493
19	0xbe0cc4c2	-0.13746932
20	0x3dc90d8d	0.09817038
21	0x3e784da4	0.24248368
22	0x3eaf9abd	0.34297743
23	0xbda8be08	-0.082393706
24	0x3df515ef	0.11967074
25	0xbd25a4c4	-0.040440336
26	0x3e9c7afa	0.30562574
27	0x3e631fb9	0.2218007
28	0x3ea60bbb	0.32430825
29	0x3e3bafef	0.18328832
30	0x3eadbb93	0.3393217
31	0x3e9caa69	0.30598763
32	0x3aaf363a	0.0013367601
33	0x3e7c111f	0.24615906
34	0x3ea2e748	0.3181708
35	0xbe914caf	-0.28378817
36	0x3c118c1b	0.008883501
37	0x3cc784df	0.02435535
38	0x3e0832e5	0.13300665
39	0x3e03fe5e	0.12890002
40	0xbd09f378	-0.033679456
41	0x3e90698b	0.28205523
42	0x3e99ba95	0.30025163
43	0x3e8d66e2	0.27617556
44	0x3eaae724	0.3337947
45	0x3bdc3c3d	0.006721048
46	0xbdbde561	-0.09272266
47	0x3d9d2ebb	0.07674929
48	0x3e146065	0.14489897
49	0xbe195b73	-0.14976291
50	0x3e01c32e	0.12672111
51	0x3e026562	0.12733987
52	0x3ead8333	0.3388916
53	0x3e8c86be	0.2744655
54	0x3e83d4c4	0.25748265
55	0x3e94e809	0.2908328
56	0xbd9125e9	-0.07087309
57	0x3d9a52d4	0.075353295
58	0x3d922546	0.071360156
59	0x3eb101ea	0.34571773
60	0xbb9e68ec	-0.004834285
61	0x3d3daabe	0.04630541
62	0x3ea35cca	0.3190673
63	0x3ec3ffbb	0.38281044
64	0x3eccccbc	0.3999995
65	0x3e98da05	0.29853836
66	0xbddbb491	-0.107278
67	0x3e07ae4e	0.13250086
68	0x3e30c7da	0.17263737
69	0x3e661a47	0.22470962
70	0xbd3cb31b	-0.046069246
71	0xbe012594	-0.12611991
72	0x3e4de099	0.20105208
73	0xbc8c5813	-0.01713184
74	0x3c2d912c	0.010593694
75	0x3e96f907	0.29486868
76	0xbca1ac85	-0.019735584
77	0x3e89f4b6	0.26944512
78	0x3ebbbab3	0.36665878
79	0x3c9c1660	0.019053638
80	0xbe73371e	-0.23751494
81	0xbebbb515	-0.36661592
82	0xbe5db958	-0.21652734
83	0x3dc79e2f	0.09746968
84	0x3d7beb2a	0.061503567
85	0xbb96f6c1	-0.004607052
86	0xbe1f817d	-0.1557674
87	0xbe101494	-0.1407035
88	0x3e9f38d4	0.31098044
89	0x3e4542ad	0.19263716
90	0xbca5a3ba	-0.020219672
91	0xbe050a48	-0.12992203
92	0xbd1d913b	-0.03846858
93	0x3de023e0	0.109443426
94	0x3ebdf57f	0.3710136
95	0x3e3fc003	0.1872559
96	0x3ee0e5bd	0.43925276
97	0x3e6dba7b	0.23215668
98	0xbe983615	-0.2972876
99	0xbda51f8d	-0.080626585
100	0x3e3ce0c0	0.1844511
101	0xbe476818	-0.19473302
102	0xbd6e3f67	-0.058165934
103	0xbc246da5	-0.010035907
104	0xbdca0708	-0.09864622
105	0xbe7e2830	-0.24820018
106	0x3ecabe2c	0.39598215
107	0x3eaafb41	0.33394817
108	0x3d879274	0.066197306
109	0x3d398507	0.04529288
110	0x3e8eb8eb	0.27875456
111	0x3de2fc80	0.11083317
112	0xbe023f69	-0.12719502
113	0x3e1f13a5	0.15534838
114	0xbe01466a	-0.12624517
115	0x3e6f874b	0.23391454
116	0xbe842171	-0.25806764
117	0x3e9205c0	0.28520012
118	0xbd741a96	-0.059595667
119	0xbeb63d67	-0.3559372
120	0x3e337132	0.1752365
121	0x3e2497fe	0.16073605
122	0x3e9cbd01	0.3061295
123	0x3d317571	0.04332489
124	0x3f02a4be	0.51032627
125	0x3e9acf22	0.30236155
126	0xbbbec95d	-0.005822344
127	0x3da1d1ec	0.079013675
128	0xbdec2045	-0.115295924
129	0xbe027190	-0.12738633
130	0xbdec340a	-0.11533363
131	0xbd25a034	-0.040435985
132	0x3dad1177	0.08450597
133	0x3e6f128b	0.23346917
134	0x3e2a46cd	0.16628571
135	0x3eb084d5	0.34476343
136	0x3ecc50cd	0.39905396
137	0xbcd9259d	-0.026507193
138	0xbe8d2e87	-0.2757456
139	0x3df73b43	0.1207185
140	0x3ea1428a	0.31496078
141	0x3ecfe333	0.40603027
142	0xbdd2875f	-0.10279726
143	0xbc9cb311	-0.019128354
144	0x3e639de6	0.22228202
145	0x3ed91d48	0.42405152
146	0x3e996f52	0.29967743
147	0x3e24c598	0.16091001
148	0xbe652d9e	-0.22380683
149	0x3d8bc4c7	0.06824642
150	0xbd83ce22	-0.06435801
151	0xbdec06f7	-0.11524766
152	0x3df049fd	0.11732862
153	0xbd79cbf1	-0.06098551
154	0xbe550037	-0.20800863
155	0x3ec434f2	0.38321644
156	0xbdb70251	-0.08935989
157	0x3d9dfb38	0.07713932
158	0x3e8c2af1	0.27376512
159	0x3e910a48	0.28328156
160	0xbdcbfed9	-0.09960718
161	0x3e4ab695	0.19796212
162	0x3c2f77ba	0.010709697
163	0x3e155d18	0.14586294
164	0x3d88571e	0.06657241
165	0xbe2fbc88	-0.17161763
166	0xbde249ad	-0.11049209
167	0xbd8ebe86	-0.06969933
168	0xbca73c97	-0.020414634
169	0x3e14a3c7	0.14515601
170	0x3d8d5eb6	0.0690283
171	0xbe2eaf42	-0.17059043
172	0x3e80db8e	0.25167507
173	0x3d870ac8	0.06593853
174	0x3ece8d6a	0.40342265
175	0xbee84dc8	-0.45371842
176	0x3da6c122	0.08142306
177	0x3e02623b	0.12732784
178	0xbdd58a54	-0.104267746
179	0xbde1ee8e	-0.11031829
180	0x3dc21f16	0.094785854
181	0xbcb0d11f	-0.021584092
182	0x3e0593a5	0.13044603
183	0x3ddfffba	0.10937448
184	0xbc85ceb8	-0.016333923
185	0x3e1a8805	0.1509095
186	0xbd6ea6f5	-0.05826469
187	0xbe1b4f49	-0.15166964
188	0x3e2cfe46	0.16893873
189	0xbe26a3b3	-0.16273384
190	0x3ea36650	0.31913996
191	0x3eba3740	0.36370277
192	0x3e8d62a4	0.2761432
193	0xbe5143c1	-0.20436002
194	0xbe27bb38	-0.16380012
195	0xbdd01113	-0.10159507
196	0x3d32cd4f	0.04365283
197	0x3e2fbfcc	0.17163008
198	0x3e1fc9e6	0.15604362
199	0x3efa2d89	0.48862866
200	0xbdff830d	-0.12476168
201	0xbacd5bb5	-0.001566759
202	0x3dc6b229	0.0970195
203	0x3e768a58	0.24076211
204	0xbcccc9e2	-0.024998609
205	0x3c597b62	0.013274046
206	0x3ea16713	0.31523952
207	0x3eb86659	0.36015585
208	0x3ce9e283	0.028550392
209	0x3cfc5b69	0.030805307
210	0x3ea84324	0.32863724
211	0xbe3f997c	-0.18710893
212	0x3eb1a8fe	0.34699243
213	0xbe7a165f	-0.24422596
214	0xbe3159a6	-0.17319354
215	0x3e00a309	0.12562193
216	0x3ae75b2c	0.0017651073
217	0x3e9d8107	0.30762503
218	0xbc5d026f	-0.01348935
219	0xbe11d78b	-0.1424238
220	0x3e399bb7	0.18125807
221	0xbe45bdde	-0.1931071
222	0x3e571450	0.21003842
223	0xbdf86682	-0.12128927
224	0x3e83e37e	0.257595
225	0xbe30ee4e	-0.17278406
226	0xbd839d2c	-0.064264625
227	0x3d4f477b	0.05060528
228	0xbd02f99a	-0.03197632
229	0xbbcbbc8f	-0.0062175463
230	0x3e771197	0.24127804
231	0xbe311945	-0.17294796
232	0xbc08b14b	-0.008343051
233	0x3e8b7ffa	0.27246076
234	0x3eb4bab7	0.35298702
235	0x3ea3d8ae	0.3200125
236	0x3eaa12f1	0.33217576
237	0xbe07bd35	-0.1325577
238	0x3e7c79e6	0.24655876
239	0x3ed97eb9	0.42479494
240	0xbe56e354	-0.20985156
241	0x3e60cdec	0.21953553
242	0x3d0782c1	0.03308368
243	0x3ebaa3cf	0.364531
244	0xbe99b13d	-0.30018035
245	0x3d394d94	0.04524
246	0x3e5e0aef	0.21683858
247	0x3ee32e46	0.4437124
248	0x3c51419a	0.012771988
249	0x3e592440	0.21205235
250	0xbd9d83f5	-0.076911844
251	0xbe0e4926	-0.13895091
252	0x3c17e21a	0.009270215
253	0x3ed6c9a3	0.41950712
254	0x3ee25355	0.44204202
255	0x3e60500f	0.2190554

fc2.weight f4 [256, 256]
0	0x3ea811cb	0.32826075
1	0xbd75ec29	-0.060039673
2	0x3c1f91c7	0.009739346
3	0x3e4e975f	0.20174931
4	0x3d651384	0.055926815
5	0xbea37fac	-0.31933343
6	0x3c2c7688	0.010526307
7	0x3d23f934	0.04003258
8	0x3e8cf2eb	0.27529082
9	0x3d346d67	0.044049647
10	0x3c627e25	0.0138240205
11	0xbe165c52	-0.14683655
12	0xbe18a82e	-0.14907905
13	0xbe95edda	-0.2928303
14	0xbdb53d99	-0.088496394
15	0xbe34f7bc	-0.17672628
16	0xbeb34edc	-0.35021102
17	0x3e0db13f	0.13837145
18	0x3de24248	0.110477984
19	0xbe3fa1a6	-0.18714008
20	0xbdba77e0	-0.091048956
21	0x3d12e117	0.035859194
22	0x3de9c8ef	0.11415278
23	0xbeab3588	-0.3343928
24	0x3ce789ad	0.028263891
25	0x3e30eefb	0.17278664
26	0x3da97d0a	0.082758024
27	0x3cf1174a	0.02943005
28	0xbd75c02e	-0.05999773
29	0x3e06a478	0.13148677
30	0x3de17fbe	0.11010693
31	0x3cfa91cc	0.0305871
32	0x3d6598ce	0.05605393
33	0x3d914d4e	0.07094823
34	0x3dc6953a	0.096964315
35	0xbdbc4e5e	-0.09194635
36	0x3e73fcb8	0.23826873
37	0x3da1fca1	0.07909513
38	0xbe289a32	-0.16465071
39	0xbb8d21ae	-0.0043069934
40	0xba8b768c	-0.0010640188
41	0x3d29524b	0.041338246
42	0x3da3a79e	0.07990955
43	0xbb3ff0e3	-0.0029287867
44	0x3d99762a	0.07493241
45	0xbe8c171a	-0.27361375
46	0xbe1bcd8d	-0.1521513
47	0xbdaa5a7c	-0.0831804
48	0x3dcf4d2d	0.10122142
49	0x3cc5043c	0.02404987
50	0xbda761bb	-0.081729375
51	0xbde8d74b	-0.11369189
52	0x3dfeae73	0.12435617
53	0x3c87d3d7	0.016580505
54	0xb929f8a9	-0.00016209729
55	0x3dcbc244	0.099491626
56	0xbe023e02	-0.12718967
57	0x3e0da2d7	0.1383165
58	0x3dc934f7	0.09824555
59	0x3e2365c2	0.15956786
60	0x3e1ebdf7	0.15502153
61	0xbd6d8845	-0.057991285
62	0x3d8be2de	0.06830381
63	0x3dfcde13	0.12347045
64	0xbc726f42	-0.014797034
65	0x3dcd50e0	0.10025191
66	0xbe672f2f	-0.22576593
67	0x3d6f2ea5	0.058394093
68	0xbce08605	-0.027407655
69	0xbc8a52bd	-0.016885156
70	0x3f059cb3	0.5219223
71	0xbde6e0c0	-0.112733364
72	0x3e43c309	0.19117369
73	0x3e89e5eb	0.26933226
74	0x3f7644e1	0.9619885
75	0x3d3b019b	0.045655828
76	0xbe48ec55	-0.19621404
77	0x3ce50dcd	0.027960682
78	0xbd768fc3	-0.060195696
79	0xbd15b957	-0.036553707
80	0xbb2b59c2	-0.002614603
81	0xbc60e677	-0.013726822
82	0xbdd6505c	-0.10464546
83	0xbbe8388a	-0.007086818
84	0x3e43de76	0.19127831
85	0x3e0194df	0.12654446
86	0xbd2a1387	-0.04152253
87	0xbc23e2dc	-0.010002818
88	0x3dc5a309	0.09650237
89	0x3dde72ee	0.10861765
90	0x3df165c7	0.117869906
91	0x3ccd9554	0.02509562
92	0x3e198e1d	0.14995618
93	0xbd3a1349	-0.045428548
94	0x3df3e963	0.11909749
95	0x3d8c4de9	0.06850798
96	0x3d8a9ed0	0.06768572
97	0x3d179588	0.03700784
98	0xbb5af585	-0.0033410501
99	0x3d2d40db	0.04229818
100	0x3ea50f12	0.3223806
101	0x3e6b9003	0.23004155
102	0xbe4bc7b9	-0.19900407
103	0x3c0eb644	0.008710448
104	0x3e786a53	0.2425931
105	0xbd23626c	-0.039888784
106	0x3db1df14	0.08685127
107	0x3d915ec9	0.07098157
108	0x3d818e0a	0.0632592
109	0x3e237f71	0.15966584
110	0x3e0634a6	0.13106021
111	0xbe60e2b9	-0.21961488
112	0xbed2281e	-0.41046232
113	0x3d9064ce	0.07050477
114	0x3de7e729	0.11323387
115	0x3cc331d0	0.023827463
116	0x3c4e1274	0.012577642
117	0x3e435674	0.19075948
118	0x3ed49d8f	0.41526458
119	0xbe70fc6b	-0.2353379
120	0x3c5d7cfa	0.013518566
121	0x3d9d7ad7	0.076894455
122	0x3e9028e7	0.28156206
123	0x3c8f51b2	0.01749501
124	0x3de66349	0.11249406
125	0x3d1620cf	0.036652382
126	0xbd26f8da	-0.040764667
127	0xbe071384	-0.13191038
128	0xbe031d7c	-0.12804216
129	0xbf0bd82d	-0.54626733
130	0x3eaba924	0.33527482
131	0x3f065f52	0.524892
132	0xbd19e628	-0.03757301
133	0x3d1fa6c5	0.038977403
134	0x3e39b85d	0.18136735
135	0x3cc81d05	0.0244279
136	0x3d00d752	0.031455345
137	0x3e5d5f34	0.21618348
138	0x3e847dc0	0.2587719
139	0x3da8d7e6	0.08244304
140	0x3dd1a2dc	0.10236141
141	0x3de8f644	0.113750964
142	0xbd83cff4	-0.06436148
143	0x3ee4fcc2	0.4472409
144	0x3df99f88	0.12188631
145	0x3e313ca7	0.17308293
146	0x3d91a523	0.071115755
147	0xbe566f0b	-0.20940797
148	0x3e2a7d95	0.16649468
149	0x3d0457a0	0.03231013
150	0xbe0bb638	-0.1364373
151	0x3f14242b	0.5786769
152	0xbe26a8f3	-0.16275387
153	0x3daed7f4	0.085372835
154	0xbf967a7d	-1.175613
155	0x3d2745a1	0.040837888
156	0x3ac6b33f	0.0015159621
157	0x3cab8b79	0.02094053
158	0x3d9f6ba8	0.07784206
159	0x3e287035	0.16449054
160	0x3dd0677d	0.10175989
161	0x3d4f02a5	0.05053963
162	0xbdc3b1cb	-0.09555396
163	0x3e8113e6	0.25210494
164	0x3e03e0b7	0.1287869
165	0xbc369c28	-0.011145629
166	0xbdbe3a39	-0.09288449
167	0xbe86d283	-0.26332483
168	0xbd0f8a6f	-0.03504413
169	0xbde533ce	-0.111915216
170	0x3d51e06d	0.05123942
171	0xbf076d67	-0.5290131
172	0x3df07adb	0.11742183
173	0xbd233f00	-0.039855003
174	0x3d80921a	0.06277867
175	0x3ed233a5	0.41055027
176	0x3d7f8d5b	0.062390666
177	0x3db94361	0.09046055
178	0xbea95889	-0.3307536
179	0x3e97b09c	0.2962693
180	0x3e36bc53	0.17845277
181	0xbde5f400	-0.1122818
182	0x3d62fca3	0.055416714
183	0xbdc3968c	-0.09550199
184	0x3df0a73f	0.1175065
185	0xbddd9734	-0.10819855
186	0xbe09f7af	-0.1347339
187	0x3e82bc70	0.2553439
188	0xbe31e431	-0.17372204
189	0xbe27d81b	-0.16391031
190	0x3da9f1d9	0.08298082
191	0x3d501ce0	0.050808787
192	0x3d659786	0.056052707
193	0xbf80dbbe	-1.006706
194	0xbcebe4b4	-0.028795578
195	0xbe8e00e0	-0.27735043
196	0xbe17274e	-0.14761087
197	0xbd74dca5	-0.059780736
198	0xbc673a75	-0.014113058
199	0x3dc1e0c2	0.09466697
200	0x3c669a02	0.014074804
201	0xbd7bf16e	-0.061509542
202	0xbd5fcbac	-0.054637596
203	0x3d30224a	0.04300145
204	0x3e4bf036	0.19915852
205	0x3e1e6688	0.154688
206	0x3e28c396	0.1648086
207	0x3da89e65	0.08233336
208	0xbda81996	-0.08208005
209	0xbd292688	-0.041296512
210	0x3db82997	0.08992308
211	0xbea84461	-0.3286467
212	0xbdebe1f6	-0.11517708
213	0xbcbdee3e	-0.023184892
214	0x3ea0580d	0.31317177
215	0x3dac9384	0.08426574
216	0x3e386b6c	0.18009728
217	0x3e0c93ee	0.13728306
218	0x3ea010e5	0.3126289
219	0xbead27b5	-0.33819357
220	0x3d3bd9b7	0.045861926
221	0xbf5d4d75	-0.86446315
222	0xbd5c37d8	-0.053764194
223	0x3e8b2af1	0.271812
224	0x3db919b9	0.09038109
225	0x3e91ce08	0.28477502
226	0x3d863fcf	0.06555139
227	0xbcb2a214	-0.0218058
228	0xbe9fd586	-0.31217593
229	0xbdd754cc	-0.105142206
230	0x3dd9925e	0.106236205
231	0x3e826c5a	0.2547329
232	0x3e5607d2	0.2090142
233	0x3bf383fd	0.0074315057
234	0x3d9a17f7	0.07524102
235	0x3dbf7231	0.09347952
236	0x3c955750	0.01823011
237	0x3d7d9dc1	0.061918024
238	0x3d80950c	0.062784284
239	0x3e16e430	0.14735484
240	0xbe128fca	-0.14312664
241	0x3dc62f16	0.0967695
242	0xbde0543d	-0.10953567
243	0x3d523b79	0.05132625
244	0xbe13fd64	-0.1445213
245	0x3d34e383	0.044162285
246	0x3e179b8c	0.1480543
247	0x3d4e0a21	0.05030263
248	0x3e8bd077	0.27307484
249	0x3ec32d20	0.38120365
250	0xbbe90f4c	-0.007112419
251	0x3e7563b0	0.23963809
252	0xbe439e0c	-0.19103259
253	0x3ced3493	0.028955733
254	0x3dc38b0d	0.09548006
255	0xbc25ccb1	-0.010119603

fc2.bias f4 [256]
0	0x3d37ef33	0.044905853
1	0xbb36c510	-0.0027888454
2	0xbdc595a2	-0.09647681
3	0x3c447035	0.011989643
4	0xbca6a56c	-0.020342551
5	0xbdad8f55	-0.08474604
6	0xbda25b1a	-0.079275325
7	0x3d706083	0.05868579
8	0xbd31d837	-0.04341909
9	0x3d08d1e6	0.0334033
10	0x3aeee9bf	0.0018227621
11	0xbc2794ae	-0.010228319
12	0xbd52688b	-0.05136923
13	0xbc9ca926	-0.019123625
14	0xbd12f8f5	-0.035881955
15	0xbd81714f	-0.0632044
16	0xbd6c7d88	-0.057736903
17	0xbd5e8e22	-0.054334767
18	0xbd762f74	-0.06010385
19	0xbbec1873	-0.007205063
20	0xbce6815c	-0.028137855
21	0x3c6d54b0	0.014485523
22	0x3d87c1c0	0.06628752
23	0xbca3c34f	-0.019990591
24	0xbd471245	-0.048601408
25	0xbc93e89e	-0.018055256
26	0xbda3dba1	-0.08000875
27	0x3d283180	0.041062832
28	0x3d4b266a	0.04959718
29	0xbd97b199	-0.07406921
30	0x3cf8d46d	0.03037473
31	0xbd2fd030	-0.042923152
32	0xbc018773	-0.007905829
33	0xbd40696e	-0.046975546
34	0x3e07f3e3	0.13276629
35	0x3c153939	0.009107881
36	0x3d4b1eda	0.04958997
37	0x3c608e40	0.01370579
38	0xbb8e264d	-0.004338062
39	0xbd1d4205	-0.03839304
40	0x3e14f303	0.14545827
41	0xbcd24b1f	-0.025670586
42	0x3cdf2800	0.027240753
43	0xbd6836b8	-0.05669281
44	0x3c061414	0.008183498
45	0x3c69836c	0.014252525
46	0x3d268392	0.04065282
47	0xbd057709	-0.032584224
48	0x3adb5f46	0.0016736768
49	0xbca8c313	-0.020600831
50	0x3d675489	0.056477103
51	0x3e0e8e84	0.13921553
52	0x3dd3b8fd	0.10338018
53	0xbc899aa7	-0.016797377
54	0xbd10b411	-0.035327975
55	0x3c17851d	0.009248045
56	0xbd77a71a	-0.060462095
57	0x3e16819f	0.14697884
58	0xbdad574b	-0.084639154
59	0x3c128891	0.008943693
60	0xbc36084e	-0.011110378
61	0xbccf231b	-0.025285294
62	0xbb954953	-0.00455586
63	0x3d1d4c43	0.038402807
64	0xbc823b29	-0.01589735
65	0x3d6156d8	0.05501446
66	0xbd68e4a6	-0.05685868
67	0x3c588442	0.0132151265
68	0xbc8212b8	-0.015878066
69	0x3c8ec704	0.017428882
70	0xbc21f296	-0.009884497
71	0x3d2d0b7f	0.04224729
72	0xbcf4f65e	-0.029902633
73	0xbd341090	-0.043961108
74	0xbd42adf5	-0.04752918
75	0x3de979ab	0.114001594
76	0x3ca5f3f9	0.020257937
77	0x3d0e54e5	0.03474893
78	0xbd3648b8	-0.044502944
79	0x3d7df71e	0.062003247
80	0x3c2be274	0.010491002
81	0xbc6c4064	-0.014419649
82	0x3ca9f89c	0.020748429
83	0xbd63080d	-0.0554276
84	0x3da4fcc5	0.080560245
85	0xbd13c914	-0.036080435
86	0x3d35887c	0.044319615
87	0x3b1c7ac3	0.0023876883
88	0x3d973e59	0.07384939
89	0x3df3ca02	0.11903764
90	0x3d760288	0.060061008
91	0xbd1795b0	-0.037007987
92	0xb801f45b	-3.098357e-05
93	0xbd00c7eb	-0.031440657
94	0x3d4ef8e9	0.050530348
95	0xbb005c50	-0.0019586273
96	0x3cb97e8d	0.022643352
97	0x3df64a48	0.12025887
98	0x3dddeb06	0.10835843
99	0x3ba72797	0.005101155
100	0xbd55d037	-0.052200522
101	0xbd3d8067	-0.046265032
102	0xbceba62d	-0.028765762
103	0xbd19c7cd	-0.03754406
104	0x3def53e7	0.11685925
105	0x3d7c5423	0.061603677
106	0xbd03b858	-0.032158226
107	0xbd82ebc3	-0.06392624
108	0xbd08f8a5	-0.03344025
109	0x3bb4221e	0.005497231
110	0xba5d8f54	-0.00084518385
111	0x3c281a3c	0.010260161
112	0x3d41385c	0.04717289
113	0x3d7d79b4	0.061883643
114	0xbd704a0f	-0.058664378
115	0x3d03e34f	0.0321992
116	0x3d1a73a2	0.037707932
117	0xbd35c0d8	-0.044373363
118	0x3d3711b1	0.044694606
119	0xbd553539	-0.05205271
120	0x3d0b9f37	0.034087386
121	0x3d04ee74	0.03245397
122	0x3d9bbc35	0.07604257
123	0xbcd84f66	-0.026405048
124	0xbd4075c9	-0.04698733
125	0xbd96550a	-0.07340439
126	0x3d80ab78	0.06282705
127	0xbdb91112	-0.09036459
128	0xbd818a91	-0.063252576
129	0x3d46fd75	0.04858156
130	0x3d272130	0.040803134
131	0x3c993c04	0.018705375
132	0xbc8be171	-0.017075272
133	0xbbb8928b	-0.0056327037
134	0x3d0ad606	0.033895515
135	0x3cb3d1a8	0.021950558
136	0xbd4a57c2	-0.0494001
137	0x3d3b2004	0.04568483
138	0xbd75fcb9	-0.06005547
139	0x3d20635c	0.039157256
140	0xbd0bf2f6	-0.034167252
141	0xbd323d11	-0.04351527
142	0xbd84355f	-0.06455492
143	0x3da8d30b	0.08243378
144	0x3dc801ff	0.09766006
145	0x3d81e3b3	0.06342258
146	0x3c9a1c1a	0.018812228
147	0x3c27b5c3	0.010236206
148	0xbb81a754	-0.0039567146
149	0x3ceb8020	0.028747618
150	0xbc225711	-0.009908454
151	0x3d5e4d99	0.05427322
152	0x3bb159ec	0.005412331
153	0xbd379e1e	-0.044828527
154	0x3cc620a2	0.024185482
155	0x3d24e932	0.040261455
156	0x3d89aeec	0.06722817
157	0xbd561e14	-0.05227478
158	0x3d7e2cfe	0.062054627
159	0xbce6c4e9	-0.028170066
160	0x3dd341e3	0.10315301
161	0x3d728ed4	0.059218243
162	0x3d5d0566	0.053960226
163	0x3d87ca28	0.06630355
164	0xbd082936	-0.033242427
165	0x3cda3d3c	0.026640527
166	0x3e02ff1b	0.12792628
167	0x3d883ba9	0.06652004
168	0x3c87b38f	0.016565112
169	0x3c188cbd	0.009310898
170	0xbc3a631b	-0.011376168
171	0xbd6ac596	-0.05731734
172	0x3ce2aae2	0.027669374
173	0xbaf3c46c	-0.0018597967
174	0x3d429178	0.04750201
175	0xbdab0eeb	-0.08352455
176	0x3ca1bdaf	0.019743768
177	0x3d0eb579	0.034841035
178	0xbb16904f	-0.0022974198
179	0xbd35c9c1	-0.04438186
180	0x3d1db6b5	0.03850432
181	0xbb11d09e	-0.002224959
182	0xbd92293c	-0.07136771
183	0xbc960520	-0.01831299
184	0x3df82ae2	0.12117554
185	0x3c0db4bc	0.008649047
186	0x3deaa4a6	0.114571854
187	0xbbc53120	-0.006017819
188	0x3ca78d0d	0.020453
189	0xbdc771b7	-0.09738486
190	0x3db52f28	0.08846885
191	0x3d31b45a	0.043384887
192	0xbc60fd3c	-0.013732251
193	0x3cf9e6a5	0.030505488
194	0x3d1e49e6	0.038644694
195	0x3d369634	0.04457684
196	0xbd8a69c8	-0.067584574
197	0x3c155697	0.009114883
198	0x3d3a56fc	0.04549311
199	0x3d65fdcf	0.056150254
200	0x3d2452ed	0.040118147
201	0xbd35e4a9	-0.04440752
202	0x3cea8ed6	0.028632563
203	0x3c5e39c5	0.013563578
204	0xbc2fcb7e	-0.010729669
205	0xbd9566d4	-0.072950035
206	0xbd175cae	-0.03695362
207	0xbcb98c77	-0.022649987
208	0xbd20744e	-0.039173417
209	0x3d6f7c9c	0.058468446
210	0x3900582f	0.00012239882
211	0xbd0cbf40	-0.034362078
212	0x3dd71f9f	0.10504078
213	0xbd35695c	-0.04428993
214	0xbcadcc59	-0.021215605
215	0xbc8f17be	-0.017467376
216	0x3d5711d8	0.05250725
217	0xbcd1806c	-0.025573932
218	0x3d8047e9	0.06263716
219	0x3c0a9c55	0.008460124
220	0x3e18a015	0.14904816
221	0xbc716798	-0.014734171
222	0xbd2f8af6	-0.042857133
223	0xbd0ae0d0	-0.033905804
224	0x3cebaf9a	0.028770257
225	0xbc1015b3	-0.008794236
226	0xbbf137a8	-0.007361371
227	0xbd8f70da	-0.070039466
228	0xbc5e9132	-0.013584422
229	0xbb7e9018	-0.003884321
230	0x3c7302b5	0.014832188
231	0xbda5d63f	-0.08097505
232	0x3cf3fd2f	0.029783813
233	0x3bf297fb	0.0074033714
234	0x3b809573	0.0039240657
235	0x3dcf2638	0.101147115
236	0x3d3976ea	0.04527942
237	0x3da265aa	0.07929547
238	0xb816e95f	-3.598013e-05
239	0xbba55568	-0.0050455816
240	0x3e046ea2	0.12932828
241	0x3dede065	0.116150655
242	0x3b58bcef	0.0033071598
243	0x3c83acb9	0.016073572
244	0xbbd282bc	-0.006424276
245	0x3c8a3bf8	0.016874298
246	0x3cddbc07	0.027067197
247	0x3d58d803	0.05294038
248	0xbcb6a82c	-0.022296987
249	0xbc668cf6	-0.014071694
250	0x3e09864b	0.13430135
251	0x3c475bd2	0.012167888
252	0xbcb96670	-0.022631854
253	0xbd26ce41	-0.040724043
254	0xbd236997	-0.03989562
255	0xbc09b368	-0.00840459

mean.weight f4 [2, 256]
0	0xbd403371	-0.04692406
1	0xbc9ad639	-0.018900977
2	0x3d7feb32	0.06248016
3	0xbd090fbf	-0.033462282
4	0xbd0ba2f8	-0.034090966
5	0xbce10e87	-0.027472747
6	0xbbd0c29c	-0.0063708555
7	0x3ca8c5be	0.020602103
8	0x3d470e71	0.048597757
9	0xbd4427b2	-0.04788942
10	0x3d6f92b9	0.058489535
11	0xbb276f03	-0.0025548346
12	0xbac0af58	-0.0014700694
13	0xbd5acac2	-0.05341602
14	0xbd628c58	-0.055309623
15	0xbd53b9fd	-0.051691044
16	0x3d91a428	0.071113884
17	0xbbc9136d	-0.006136349
18	0x3bebe27d	0.0071986304
19	0x3d645df9	0.05575368
20	0x3d25a0bc	0.04043649
21	0x3c1b7022	0.009487184
22	0xbd37e8c9	-0.044899736
23	0xbca92ed3	-0.02065221
24	0xbd75d378	-0.060016125
25	0xbccdc171	-0.025116654
26	0xbd5e7171	-0.054307405
27	0x3d76506a	0.060135283
28	0xbe13cd5c	-0.14433807
29	0x3d14b657	0.036306705
30	0xb954ee1e	-0.00020306601
31	0xbd1a864e	-0.03772574
32	0xbd92480f	-0.0714265
33	0x3d197390	0.037463725
34	0x3d4c907a	0.04994247
35	0x3d82dbf0	0.06389606
36	0xbccf4fbc	-0.025306575
37	0x3d9b145c	0.075722426
38	0x3d4cd1cc	0.050004765
39	0x3c98b9fa	0.018643368
40	0xbe1a8745	-0.15090664
41	0x3c1a64e6	0.00942347
42	0x3bc3cc86	0.005975309
43	0xbd779fe7	-0.06045523
44	0xbcac52a8	-0.021035507
45	0xbc9cdd23	-0.019148415
46	0x3bc8af4c	0.0061244126
47	0xbb15e23c	-0.0022870442
48	0xbcebbb30	-0.028775781
49	0x3d7490a9	0.05970827
50	0x3ce6fb12	0.028195892
51	0xbcea32d8	-0.028588697
52	0xbd9e7b74	-0.077383906
53	0xbd2ef759	-0.042716358
54	0xbc9d3b40	-0.019193292
55	0x3dee2bd6	0.11629455
56	0x3bd35ec6	0.006450507
57	0x3d343512	0.043995924
58	0x3d1872bd	0.037218798
59	0x3d8512e0	0.06497741
60	0xbc8dd59f	-0.017313777
61	0x3c5d5fea	0.013511637
62	0xbdb919c5	-0.09038118
63	0x3d81f1b8	0.06344932
64	0xbd1c9cae	-0.03823536
65	0x3c25c5ac	0.010117929
66	0x3d0ece21	0.03486455
67	0x3b91ef7e	0.0044535985
68	0x3dccfebf	0.100095265
69	0x3e39e1cb	0.1815254
70	0xbd2c1bd2	-0.04201872
71	0x3d1ebc8a	0.038754024
72	0x3d82695e	0.063677534
73	0xbd889c45	-0.06670431
74	0xbd29b348	-0.04143074
75	0xbd793287	-0.060839202
76	0x3da3d36e	0.079993114
77	0xbd1f906a	-0.038956083
78	0x3dd44451	0.10364593
79	0xbd1f43af	-0.038882907
80	0xbcae7ae9	-0.021298843
81	0x3d2b370e	0.04180055
82	0x3cce1773	0.025157666
83	0xbd46d11d	-0.04853927
84	0x3e1f54c3	0.15559678
85	0xbc0007af	-0.007814332
86	0x3dff9fc2	0.12481643
87	0x3d3236a9	0.04350916
88	0x3bc53535	0.0060183057
89	0xbc14d5fe	-0.009084223
90	0x3bb9d40e	0.005671031
91	0x3d3bd98d	0.04586177
92	0xbce876b4	-0.028376915
93	0xbd859069	-0.06521685
94	0x3c7d1a3b	0.015448148
95	0xbd638412	-0.055545874
96	0xbd27c64e	-0.040960602
97	0x3bd10226	0.00637843
98	0xbda638dc	-0.08116314
99	0xbd285c53	-0.041103672
100	0xbc79a3f3	-0.015236842
101	0xbd2af2b2	-0.04173536
102	0x3d45ec78	0.048321217
103	0xbd8caedf	-0.068692915
104	0x3cbb5a7a	0.022870291
105	0x3d9fa27c	0.07794663
106	0xbdb643ea	-0.08899672
107	0x3e09a966	0.13443527
108	0xbd806b9a	-0.06270523
109	0x3d20d712	0.039267607
110	0xbc499939	-0.0123045975
111	0x3c59b512	0.013287799
112	0xbd435966	-0.04769268
113	0x3cc95ea6	0.024581265
114	0xbc91968d	-0.017771984
115	0x3c7b7d15	0.015349646
116	0xbb4762f7	-0.0030423978
117	0xbdc1c08d	-0.09460554
118	0xbd2b6d96	-0.041852556
119	0x3d2b07e9	0.04175559
120	0xbd0aa6f8	-0.03385064
121	0x3d4b462c	0.049627468
122	0xbc930715	-0.017947713
123	0x3d3e1f36	0.046416484
124	0x3d3f1d34	0.04665871
125	0xbda45bac	-0.080252975
126	0x3e008ba2	0.12553266
127	0x3d86432e	0.06555782
128	0x3d75f70f	0.060050067
129	0x3c551c22	0.013007196
130	0xbd201b3a	-0.039088465
131	0x3c1e0559	0.00964483
132	0x3ce78f9c	0.02826672
133	0x3d85aeb2	0.06527461
134	0xbcb4c4d6	-0.022066515
135	0x3da223ef	0.0791701
136	0xbdcd6ca9	-0.10030491
137	0xbd43acb0	-0.04777211
138	0x3d41665a	0.04721675
139	0xbd033d6f	-0.03204101
140	0x3d05415a	0.032533027
141	0xbe0af3e4	-0.135696
142	0x3d478dbd	0.048719157
143	0xbd9afe23	-0.07568004
144	0xbde39145	-0.11111692
145	0x3c8e6730	0.017383188
146	0x3d857436	0.06516306
147	0x3c9a4ef0	0.018836468
148	0xbde05e5f	-0.109555
149	0x3d5e0650	0.05420524
150	0x3c89f8b9	0.016842233
151	0x3d1f7411	0.03892905
152	0xbd313d9d	-0.04327165
153	0xbd5b3caa	-0.05352465
154	0xbcfa5381	-0.030557396
155	0x3d37f278	0.04490897
156	0x3c0b88df	0.008516519
157	0xbdb94910	-0.09047139
158	0x3d3ce13e	0.046113245
159	0xbdf1bb19	-0.11803264
160	0x3d57889e	0.052620523
161	0x3ce656e6	0.028117608
162	0xbd656204	-0.056001678
163	0xbd766505	-0.060154933
164	0x3d48d3f4	0.04903026
165	0xbcc73708	-0.024318233
166	0x3d423f88	0.04742387
167	0xbdfb8525	-0.12281255
168	0x3d5cc046	0.053894304
169	0xbd5646b0	-0.052313507
170	0xbccf00a8	-0.025268868
171	0xbd62c688	-0.055365115
172	0x3d8bb7ed	0.068221904
173	0x3b7f89fd	0.003899216
174	0x3d46c9df	0.048532363
175	0xbda1f2fe	-0.07907675
176	0xbd2e12aa	-0.04249827
177	0xbad6b2bf	-0.0016380175
178	0x3d280091	0.041016165
179	0xbd3caa4c	-0.046060845
180	0x3d1e63cd	0.038669396
181	0xbd445e76	-0.047941647
182	0xbd7b31d2	-0.06132681
183	0xbd11bcba	-0.035580374
184	0x3cb54a85	0.02213026
185	0x3c85ef64	0.016349502
186	0x3d239f44	0.03994681
187	0xbb5f3737	-0.003406001
188	0x3d280b69	0.041026507
189	0x3b5df5c7	0.0033868419
190	0x3cb283fb	0.021791449
191	0x3d3f94bd	0.046772707
192	0xbd8798ab	-0.06620916
193	0xbca10c8a	-0.0196593
194	0xbcb090bf	-0.021553395
195	0xbc93b741	-0.018031718
196	0x3d598def	0.053113874
197	0x3d89a52a	0.06720956
198	0x3e549d52	0.20763138
199	0x3c191abf	0.009344756
200	0x3d13b547	0.03606155
201	0xbd982f2e	-0.07430874
202	0x3d9f7429	0.07785828
203	0xbd65d446	-0.056110643
204	0xbd3db304	-0.0463133
205	0xbd6c0b8f	-0.05762821
206	0xbd88d097	-0.0668041
207	0xbb80b3ea	-0.0039276974
208	0xbc51d0bd	-0.012806115
209	0x3e400619	0.18752326
210	0xbcfa7bd0	-0.030576617
211	0x3d211130	0.039323032
212	0x3d1d01e0	0.038331866
213	0xbd96f5b3	-0.07371082
214	0xbd204f3c	-0.039138064
215	0xbd82e02c	-0.06390414
216	0x3d88a889	0.066727705
217	0x3c7714dd	0.015080658
218	0x3c5996f8	0.013280623
219	0xbd5a96fa	-0.05336664
220	0xbd47fbca	-0.04882411
221	0x3ccf2b72	0.025289271
222	0x3d00cc90	0.031445086
223	0x3b5c7d9f	0.0033644212
224	0xbd19607b	-0.037445527
225	0xbd244614	-0.040105894
226	0xbe1559f9	-0.14585103
227	0x3c32017c	0.010864612
228	0xbd5ca133	-0.05386467
229	0x3d7d0aef	0.061778005
230	0xbdb4857f	-0.08814525
231	0x3d6faec9	0.058516297
232	0x3d2c45ac	0.04205863
233	0xbd87d83c	-0.0663304
234	0xbd1297a8	-0.035789162
235	0x3cb7086c	0.022342883
236	0x3e8995e7	0.2687218
237	0xbd4c0856	-0.049812637
238	0x3ac72255	0.0015192727
239	0x3d8997c7	0.06718402
240	0x3d86829a	0.06567879
241	0x3b0fac11	0.0021922628
242	0x3d1b10fc	0.037857994
243	0x3d8dd516	0.069254085
244	0x3cf88656	0.030337494
245	0x3b0de10e	0.0021649036
246	0x3c777263	0.0151029555
247	0x3d2c19e8	0.042016894
248	0x3cd4dc76	0.02598403
249	0x3d373733	0.044730376
250	0xbd6932af	-0.0569331
251	0x3dc355b0	0.09537828
252	0x3b4ba1fd	0.0031071894
253	0x3d51405e	0.051086776
254	0xbd348924	-0.0440761
255	0x3d26a686	0.040686153

mean.bias f4 [2]
0	0x3d59db53	0.05318768
1	0x3d9cd9f0	0.07658756

value.weight f4 [1, 256]
0	0x3ea03cfe	0.31296533
1	0xbecb751c	-0.39737785
2	0xbf1cf046	-0.6130413
3	0xbe46df85	-0.19421203
4	0xbf20b613	-0.62777823
5	0xbed35150	-0.41272974
6	0xbeb19cf5	-0.3469006
7	0x3c6e877c	0.014558669
8	0x3f252aee	0.6451863
9	0x3ee21c9a	0.44162446
10	0x3c91b9bb	0.017788759
11	0xbed52aa2	-0.4163409
12	0xbea23add	-0.31685534
13	0xbecc08b1	-0.3985038
14	0x3d0be012	0.034149237
15	0x3ac348cd	0.0014899016
16	0xbeaa0719	-0.3320854
17	0x3cc42ca3	0.023947066
18	0xbee12ea3	-0.43980893
19	0x3d36139b	0.04445229
20	0x3c1f2cfd	0.009715316
21	0xbe860bbb	-0.26180825
22	0xbe759ad0	-0.23984838
23	0xbe5d132a	-0.21589342
24	0xbee5f1b3	-0.44910964
25	0xbe727ee7	-0.23681222
26	0xbe944013	-0.28955135
27	0x3ec1ca9d	0.37849894
28	0x3f1510ae	0.58228576
29	0xbf0f8128	-0.5605645
30	0x3eefc00b	0.46826205
31	0xbe9f63ff	-0.31130978
32	0xbe91bbd6	-0.2846362
33	0xbe95acb3	-0.29233322
34	0x3e88a8c7	0.26691267
35	0x3f09c44e	0.5381516
36	0x3cf338ad	0.029690111
37	0xbec1e585	-0.37870422
38	0xbea4a02b	-0.32153448
39	0xbea9dd26	-0.33176535
40	0x3ea4f8ed	0.32221165
41	0x3d5f70c5	0.054550905
42	0x3ee33c23	0.44381818
43	0x3c459756	0.012060007
44	0xbed6cf5e	-0.41955084
45	0x3d4ab129	0.04948536
46	0x3eeaae24	0.45835984
47	0xbe8cc1b3	-0.2749153
48	0xbe8e0a0c	-0.2774204
49	0x3d5378a1	0.051628713
50	0x3c81650c	0.015795253
51	0x3eb3d0eb	0.3512033
52	0x3ebd8fe8	0.37023854
53	0xbe8d81b4	-0.27638018
54	0xbeae6235	-0.340593
55	0x3ed7fc6c	0.4218477
56	0xbe7fc6e7	-0.24978219
57	0x3ea4af5e	0.32165045
58	0xbecac423	-0.39602765
59	0xbe72dbba	-0.23716632
60	0x3f06ed0b	0.5270545
61	0x3f001402	0.5003053
62	0x3f25200e	0.64502037
63	0x3c2f9b38	0.010718159
64	0x3f075a50	0.5287218
65	0x3ecce767	0.40020296
66	0x3f1999c0	0.6000023
67	0xbed34609	-0.4126437
68	0x3e9324fd	0.28739157
69	0x3f0f9d78	0.56099653
70	0xbe9deed4	-0.30846274
71	0xbe9ad270	-0.30238676
72	0xbe438ed9	-0.19097461
73	0xbe92ff3d	-0.28710356
74	0x3f03e1a4	0.51516175
75	0x3ede21af	0.43385074
76	0x3ec10ffa	0.37707502
77	0xbe5d1c69	-0.21592869
78	0x3e6da876	0.23208794
79	0xbe48108b	-0.1953756
80	0xbea1355a	-0.31486017
81	0xbe8c3d24	-0.27390397
82	0xbe5fed9f	-0.21867989
83	0x3f0711ff	0.52761835
84	0x3ee489bd	0.44636336
85	0xbea5abcb	-0.3235763
86	0x3ea28c8f	0.31747863
87	0xbea1d57f	-0.31608197
88	0xbe468ae5	-0.19388922
89	0xbf422060	-0.7583065
90	0xbe3a3fe6	-0.18188438
91	0x3cf7cd42	0.030249242
92	0xbea48f2e	-0.32140487
93	0xbf00c538	-0.5030093
94	0x3e9d3378	0.3070333
95	0xbe4da3d4	-0.20082027
96	0xbeb1a284	-0.34694302
97	0x3ed74eda	0.42052346
98	0x3f1c76b1	0.6111861
99	0x3d3b0b9c	0.04566537
100	0x3f0f490d	0.5597084
101	0x3c8fec54	0.017568745
102	0xbecd6cb8	-0.40122008
103	0xbf1d8235	-0.61526805
104	0x3ed43de0	0.41453457
105	0x3eb62e82	0.35582358
106	0x3efd781e	0.49505705
107	0xbf1d508b	-0.61451024
108	0xbe8fdaa8	-0.2809651
109	0x3c9d86fe	0.019229408
110	0x3f16efaf	0.5895948
111	0xbed9ade7	-0.4251549
112	0x3ccb8607	0.024844183
113	0x3ecdf59d	0.4022645
114	0x3f00e477	0.5034861
115	0xbe94ccc5	-0.29062477
116	0xbe536d16	-0.20647082
117	0xbef73c8d	-0.48288384
118	0xbe271f9b	-0.1632065
119	0x3f112573	0.5669777
120	0xbeb3a000	-0.35083008
121	0xbe4e5cd9	-0.20152606
122	0x3ec351ae	0.38148254
123	0x3d503e03	0.05084039
124	0xbee3f9af	-0.4452643
125	0xbef53581	-0.47892383
126	0x3f05f992	0.5233394
127	0xbf285cd5	-0.6576665
128	0xbeab243b	-0.3342608
129	0xbe44c4c7	-0.1921569
130	0x3f188b5f	0.59587663
131	0xbe8f6dbc	-0.28013408
132	0xbe5a29c0	-0.21304989
133	0xbe95275a	-0.29131585
134	0x3eeea08d	0.46606866
135	0xbe904780	-0.2817955
136	0xbf02cffe	-0.5109862
137	0x3ed774a5	0.4208118
138	0xbe7af1a2	-0.24506238
139	0x3f0f3f86	0.55956304
140	0x3cdc5b24	0.026898928
141	0x3f247c8e	0.64252555
142	0x3f0beeee	0.5466145
143	0x3eac9fdd	0.33715716
144	0x3efdd410	0.49575853
145	0x3ec52008	0.38501
146	0xbed8f9f6	-0.42378205
147	0x3f070eb2	0.527568
148	0x3f159820	0.5843525
149	0xbe2d420e	-0.16919729
150	0xbeed41db	-0.46339306
151	0xbe973d16	-0.29538792
152	0xbeb41bc8	-0.35177445
153	0xbf179cc3	-0.59223574
154	0x3c9ac186	0.018891107
155	0x3ec6b7c9	0.38812092
156	0x3edbbb60	0.42916393
157	0xbef3a010	-0.47583055
158	0x3f0fcf64	0.5617583
159	0xbed42e47	-0.41441557
160	0x3ecf7b18	0.405236
161	0x3f3fc49a	0.74909365
162	0xbe443a7d	-0.19162937
163	0x3f29d1da	0.66335833
164	0x3d51c622	0.051214345
165	0xbe83248d	-0.25613824
166	0x3ebeaf7c	0.3724326
167	0x3f1296c3	0.57261294
168	0xbe97e1ce	-0.29664463
169	0xbec593cb	-0.3858932
170	0x3d36ba09	0.04461101
171	0x3d2e6f1f	0.042586442
172	0xbe913592	-0.28361183
173	0xbe7f40ee	-0.24927112
174	0xbe7a79fc	-0.24460596
175	0xbf03810d	-0.5136879
176	0xbee5bf0a	-0.44872314
177	0xbe883672	-0.26604038
178	0xbe8924d3	-0.26785907
179	0xbe9521b6	-0.29127282
180	0xbe891a31	-0.26777795
181	0xbecf344c	-0.40469587
182	0xbe98b526	-0.29825705
183	0xbe7b71aa	-0.24555078
184	0x3ec7bc5d	0.39010897
185	0x3cc2bc4c	0.023771428
186	0x3ea7a9ab	0.32746634
187	0xbf05251b	-0.52009743
188	0xbe81ec2b	-0.25375494
189	0xbf1702c0	-0.5898857
190	0x3ed519c6	0.41621226
191	0x3eb7e1c6	0.3591444
192	0xbea8904c	-0.3292259
193	0x3ef233ff	0.47305295
194	0x3e9fb848	0.31195283
195	0xbe40cb54	-0.18827564
196	0xbe98d3ac	-0.29848993
197	0xbeb15219	-0.34632948
198	0x3f65a029	0.8969751
199	0x3ec0a5d2	0.3762651
200	0x3f0e33a2	0.55547535
201	0xbeb0b569	-0.34513405
202	0x3e48483b	0.19558804
203	0xbea4c20f	-0.32179305
204	0xbf063116	-0.5241865
205	0xbea90425	-0.33010975
206	0xbec3ae0d	-0.38218728
207	0x3f04ab03	0.51823443
208	0x3f1337c0	0.5750694
209	0xbe1c0981	-0.15238
210	0xbe4c469c	-0.1994881
211	0xbf14ce3d	-0.58127195
212	0x3ef7125d	0.48256198
213	0x3f036a6d	0.5133427
214	0xbebaf240	-0.36512947
215	0xbe5188b2	-0.20462301
216	0xbe85fb2c	-0.2616819
217	0x3f03f916	0.5155195
218	0x3ee326bd	0.44365492
219	0xbe534205	-0.20630653
220	0x3eb88e21	0.36045936
221	0xbe44c4ea	-0.19215742
222	0xbf33c2a9	-0.702189
223	0x3d7288c9	0.05921248
224	0x3ef5566c	0.47917497
225	0xbe9d6919	-0.30744246
226	0x3f21d436	0.63214433
227	0xbe93bb68	-0.28853917
228	0x3d0c0a66	0.034189604
229	0xbeab2a32	-0.3343063
230	0xbf01e5b2	-0.5074111
231	0xbe904d59	-0.28184012
232	0xbeef90ba	-0.46790105
233	0xbe82baf7	-0.25533268
234	0x3efe59c4	0.4967786
235	0x3ec0db49	0.376673
236	0x3f9c08bc	1.2190166
237	0x3ea902a1	0.33009818
238	0xbe9112b8	-0.28334594
239	0xbecf45f6	-0.40483063
240	0x3ec55254	0.38539374
241	0x3ec912f4	0.39272273
242	0x3d31b02b	0.043380897
243	0xbe3ea5b0	-0.18617892
244	0xbea53223	-0.32264814
245	0xbeaefb3b	-0.3417605
246	0x3edc6f19	0.4305351
247	0x3d2d4545	0.04230239
248	0xbe80483b	-0.25055107
249	0xbf3ce608	-0.737885
250	0x3ea76397	0.3269317
251	0x3ef8c45a	0.48587304
252	0x3cf901f2	0.030396435
253	0x3f0d7f1a	0.55272067
254	0xbe4bc976	-0.1990107
255	0xbd0b44d8	-0.0340012
