PPO_LunarLander_ep4000.pth (torch, 279103 bytes, 8 tensors)

log_std f4 [1, 2]
0	0xbef1fc1d	-0.4726266
1	0xbeae6279	-0.34059504

fc1.weight f4 [256, 8]
0	0x3d102791	0.035193983
1	0xbcf8a243	-0.03035081
2	0x3cc59d4e	0.02412286
3	0xbd90c031	-0.070679076
4	0x3f9efe2e	1.242132
5	0x3d69a27f	0.057039734
6	0x3ecd1c18	0.40060496
7	0x3e15e237	0.14637075
8	0x3ea62878	0.3245275
9	0x3e78d1dd	0.24298806
10	0xbbbd9d32	-0.0057865614
11	0x3c2db1fc	0.010601517
12	0xbe180e03	-0.14849095
13	0xbed9bc1b	-0.42526326
14	0x3ea99799	0.33123472
15	0x3eae00a1	0.33984855
16	0x3e310454	0.17286807
17	0x3d3e1d23	0.046414506
18	0xbd4282eb	-0.047488134
19	0x3de79a44	0.11308721
20	0xbea89338	-0.3292482
21	0xbea572d7	-0.32314178
22	0xbd4fe987	-0.05075982
23	0xbd17c713	-0.037055086
24	0xbc3a9ad5	-0.011389454
25	0xbd1eb273	-0.0387444
26	0xbea3c8c5	-0.31989112
27	0xbef384a6	-0.4756214
28	0x3f062e9f	0.5241489
29	0x3cffabbe	0.031209823
30	0x3e629242	0.22126105
31	0x3d79b1e2	0.060960658
32	0xbdbda6e4	-0.092603475
33	0xbf14094d	-0.5782669
34	0x3f040f11	0.5158549
35	0xbec3b0cf	-0.38220832
36	0xbefa160d	-0.48844948
37	0xbef399eb	-0.47578368
38	0x3ec3df4f	0.38256308
39	0xbd291e7a	-0.04128883
40	0x3f2aebea	0.66766226
41	0x3d7b1aff	0.061305042
42	0x3e19023e	0.14942262
43	0x3c119553	0.008885699
44	0x3e236b13	0.15958814
45	0x3e0157e0	0.12631178
46	0xbe6c88dd	-0.23099084
47	0xbd23e370	-0.040011823
48	0x3dc221cc	0.094791025
49	0x3f0aa692	0.54160416
50	0xbc6953b0	-0.014241144
51	0xbeffccc5	-0.49960914
52	0x3daac7d5	0.08338896
53	0x3ea82b88	0.32845712
54	0xbd9e6b9d	-0.07735369
55	0xbe017cec	-0.1264531
56	0x3e0720ca	0.13196102
57	0x3d228f66	0.039687537
58	0xbe40cd9b	-0.18828432
59	0xbcac9d59	-0.021071123
60	0x3dcb6186	0.099307105
61	0xbe3c0d29	-0.18364395
62	0xbdd658e9	-0.10466177
63	0x3e257e82	0.1616154
64	0x3e1a8800	0.15090942
65	0x3b217658	0.0024637189
66	0x3ec5c142	0.38624007
67	0xbdfedcbf	-0.12444448
68	0x3f7e3338	0.99296904
69	0xbecff328	-0.406152
70	0x3eb0fd28	0.34568143
71	0xbe958b57	-0.2920787
72	0xbeb3ee02	-0.35142523
73	0xbd98184b	-0.074265085
74	0x3cc31c0e	0.023817088
75	0x3dc7b47e	0.09751223
76	0xbd1784eb	-0.036991995
77	0xbe34f4aa	-0.17671457
78	0x3eb01d1a	0.34397203
79	0xbdfb1f2e	-0.122618064
80	0xbcab31e6	-0.020897817
81	0x3ee79c07	0.45236227
82	0x3eaf88d2	0.34284073
83	0xbec2d2e4	-0.38051522
84	0x3d959e28	0.073055565
85	0x3e3b9218	0.18317449
86	0x3d3899ac	0.045068428
87	0xbe5ab229	-0.21357025
88	0xbf1aa470	-0.6040716
89	0x3d67992c	0.05654256
90	0xbda0b768	-0.07847482
91	0x3d7dfb91	0.06200749
92	0x3e1629ec	0.1466443
93	0x3e27b806	0.16378793
94	0x3e7ff602	0.24996188
95	0x3e1c37d5	0.15255673
96	0x3f249365	0.64287406
97	0x3c4ef52a	0.012631694
98	0x3ecd224b	0.40065226
99	0xbbef7e2c	-0.007308742
100	0xbe7ff9fb	-0.24997704
101	0x3d931085	0.07180885
102	0x3d3e3d2f	0.046445068
103	0x3eaa1d3d	0.33225432
104	0x3f2a3095	0.6648038
105	0xbec44ad6	-0.38338345
106	0x3e202de1	0.15642501
107	0xbe9a5fb7	-0.3015115
108	0x3e2ecef0	0.17071128
109	0x3d5c43e2	0.053775676
110	0x3e3b1857	0.18271004
111	0x3d0e2a07	0.03470805
112	0xbf060110	-0.5234537
113	0xbee75d90	-0.4518857
114	0x3dd2ba9a	0.10289498
115	0xbe03bf5b	-0.12865965
116	0x3f0b04ed	0.5430439
117	0x3ee12a39	0.43977526
118	0xbc018313	-0.007904786
119	0xbd7e6738	-0.062110156
120	0x3f0a51d3	0.54031104
121	0xbe95466c	-0.2915529
122	0x3e96b039	0.29431322
123	0x3bb4dd9d	0.0055195824
124	0xbe728ab8	-0.2368573
125	0xbe2eeaf5	-0.17081816
126	0x3d61e993	0.055154394
127	0x3d440b3b	0.047862273
128	0x3f030884	0.5118487
129	0xbecc89cd	-0.39948884
130	0x3e3737f4	0.17892438
131	0xbf1c5364	-0.61064744
132	0xbe389c84	-0.18028456
133	0xbd0190a9	-0.0316321
134	0x3c330236	0.01092582
135	0xbcc5538b	-0.024087688
136	0xbde956b7	-0.11393493
137	0x3eeae0f6	0.45874757
138	0xbebb4915	-0.36579195
139	0xbee1c20f	-0.44093367
140	0xbef369e8	-0.47541738
141	0x3eda11a2	0.42591578
142	0xbcf69d10	-0.03010419
143	0xbe8c835b	-0.27443966
144	0xbb55f0e3	-0.00326448
145	0x3e495b7e	0.19663808
146	0x3b990171	0.0046693613
147	0x3e804eee	0.2506022
148	0x3eee2919	0.4651573
149	0xbe829e0e	-0.2551121
150	0xbe8c1e05	-0.27366653
151	0x3e2d3596	0.16914973
152	0x3f3fef65	0.7497466
153	0xbdbe7dff	-0.093013756
154	0x3e95ea09	0.29280117
155	0xbe5674f2	-0.20943049
156	0xbe4d74b7	-0.20064054
157	0xbc217358	-0.00985416
158	0x3c8c8bf1	0.017156573
159	0x3d8d0207	0.06885152
160	0xbf0b6bf0	-0.54461575
161	0x3eca2a3c	0.39485347
162	0xbe0fa886	-0.1402913
163	0x3e5f7738	0.21822822
164	0x3edd6ff6	0.43249482
165	0x3e380a3b	0.17972653
166	0xbe5551b2	-0.20831946
167	0xbeadd9ae	-0.3395514
168	0xbdcae7dd	-0.09907506
169	0x3ef7baaa	0.483846
170	0x3cc7e728	0.024402216
171	0x3c918b74	0.017766692
172	0x3f0376d0	0.5135317
173	0xbe962888	-0.29327798
174	0x3e7b2bfd	0.24528499
175	0x3e9a007f	0.30078503
176	0x3e745e1a	0.23864022
177	0x3e6b3980	0.22971153
178	0x3df8e124	0.12152317
179	0xbe9f6bc8	-0.31136918
180	0x3e73a627	0.23793851
181	0xbeabbf53	-0.33544406
182	0xbc1b5ad6	-0.009482106
183	0x3e3e09cd	0.18558426
184	0x3e80e518	0.25174785
185	0xbf02e47b	-0.51129884
186	0xbd152fde	-0.036422603
187	0xbeb55d98	-0.3542297
188	0x3b4a822b	0.003090034
189	0x3e5809ba	0.2109746
190	0xbd9b716b	-0.07589992
191	0xbe633bdd	-0.22190805
192	0xbdd61bd4	-0.104545265
193	0x3edf533b	0.43618187
194	0xbe842b0d	-0.25814095
195	0xbecfd737	-0.40593883
196	0x3f1f6513	0.622636
197	0xbd0df60e	-0.034658484
198	0xbe4aeb44	-0.19816309
199	0x3e62ff01	0.22167589
200	0x3b744485	0.0037272286
201	0x3f17a64b	0.5923812
202	0x3df42ec9	0.11922986
203	0xbe4ff2dc	-0.20307487
204	0x3edcb27a	0.43104917
205	0x3e13bb07	0.14426814
206	0xbe4e0882	-0.20120433
207	0xbe5b517d	-0.21417804
208	0xbe0befc7	-0.13665687
209	0x3eda36b9	0.42619875
210	0xbebe825c	-0.3720883
211	0xbeb75931	-0.35810235
212	0xbed0e22e	-0.4079756
213	0x3d56a895	0.052406866
214	0xbc0959ca	-0.008383224
215	0xbe62d2ca	-0.22150722
216	0x3e7305b1	0.2373264
217	0xbebb239f	-0.36550614
218	0xbef0dcf3	-0.4704357
219	0xbd43c0e3	-0.047791373
220	0xbe406ba2	-0.18791059
221	0xbd78174d	-0.060569096
222	0x3e1da681	0.15395547
223	0xbc078a58	-0.00827273
224	0xbd1b1714	-0.037863806
225	0xbe1b2e3b	-0.15154354
226	0xbd1be492	-0.03805978
227	0xbe780b1d	-0.2422299
228	0x3ea8e4ab	0.3298696
229	0x3ed361bb	0.412855
230	0xbe7245d8	-0.23659456
231	0xbe5a9342	-0.21345237
232	0xbeabaeb6	-0.3353173
233	0xbee809c7	-0.4531996
234	0xbe938511	-0.2881246
235	0xbdb5ff16	-0.088865444
236	0x3eebc1f5	0.46046415
237	0x3eb124ea	0.34598476
238	0xbe59626b	-0.2122895
239	0x3eb93374	0.36172068
240	0xbd4f67fe	-0.050636284
241	0x3f25cf0c	0.64769053
242	0xbd92a2c4	-0.07159951
243	0x3d84ec38	0.06490368
244	0xbe87ee7d	-0.2654914
245	0x3da148c3	0.07875206
246	0xbcbd6b8b	-0.02312257
247	0xbeeb01c3	-0.45899782
248	0x3e576cff	0.21037672
249	0xbec2daf9	-0.38057688
250	0x3de075da	0.109599784
251	0x3e393252	0.18085602
252	0xbf1c57c7	-0.6107144
253	0xbee1e625	-0.441209
254	0xbeaa442c	-0.33255136
255	0xbea91c7c	-0.33029544

fc1.bias f4 [256]
0	0xbcede6cf	-0.029040722
1	0x3d9dd61d	0.077068545
2	0x3e894824	0.2681285
3	0xbc17f9c6	-0.009275859
4	0x3e269b45	0.16270168
5	0x3d59003c	0.05297874
6	0x3debbb10	0.11510289
7	0x3e999fa5	0.30004612
8	0xbd5c4c64	-0.05378379
9	0x3ea23c95	0.31686845
10	0x3e9efd16	0.31052464
11	0xbc99eed3	-0.018790638
12	0xbd88412b	-0.06653055
13	0xbd5d3b69	-0.054011736
14	0xbe680ded	-0.22661562
15	0xbe3702f2	-0.17872217
16	0xbe384bac	-0.17997617
17	0x3e9b47d2	0.30328232
18	0x3eecfc8c	0.46286428
19	0xbe0d1bc9	-0.1378013
20	0x3dc796d3	0.09745564
21	0x3e777c38	0.2416848
22	0x3eb03314	0.3441397
23	0xbd7af0cd	-0.0612648
24	0x3e02bb89	0.12766851
25	0xbd30a9cf	-0.043130692
26	0x3e9f992b	0.31171545
27	0x3e551aa9	0.20810951
28	0x3ea74520	0.32669926
29	0x3e37c2c8	0.17945397
30	0x3eaf1048	0.3419211
31	0x3e9f524c	0.31117475
32	0xba74f46b	-0.00093442824
33	0x3e7de3f8	0.24793994
34	0x3ea0ab32	0.31380612
35	0xbe8cc7ed	-0.2749628
36	0x3ba9dec7	0.005184028
37	0x3d1a6d19	0.0377017
38	0x3df2dab1	0.11858118
39	0x3e0031f5	0.12519057
40	0xbcc27d2e	-0.023741331
41	0x3e90a942	0.28254133
42	0x3e982736	0.29717416
43	0x3e8bfcae	0.27341217
44	0x3ea999d5	0.33125177
45	0xbc17a2d5	-0.009255131
46	0xbde2c6ef	-0.110731
47	0x3db79868	0.08964616
48	0x3e0b1338	0.1358155
49	0xbe16543f	-0.14680575
50	0x3ded5610	0.11588681
51	0x3dfe3885	0.12413124
52	0x3eaeb033	0.34118804
53	0x3e889d43	0.2668248
54	0x3e848e61	0.25889876
55	0x3e95f743	0.29290208
56	0xbd8b0359	-0.06787748
57	0x3da399b6	0.079883024
58	0x3d96837f	0.073493
59	0x3eb36dfa	0.35044843
60	0x3bb9d216	0.005670796
61	0x3d160f94	0.03663595
62	0x3ea449dd	0.32087603
63	0x3ec3db90	0.3825345
64	0x3ecb8808	0.3975222
65	0x3e9e2eba	0.30895025
66	0xbdc8d926	-0.09807043
67	0x3e0d4fe7	0.13800012
68	0x3e3a25f4	0.1817854
69	0x3e612317	0.21986042
70	0xbda76d24	-0.08175114
71	0xbe0e6f03	-0.13909535
72	0x3e40e348	0.18836701
73	0xbccc32ea	-0.024926621
74	0x3c1aea9c	0.009455349
75	0x3e9619df	0.29316613
76	0xbc947a82	-0.018124823
77	0x3e8915ac	0.26774347
78	0x3eb33f56	0.3500926
79	0x3cb062f6	0.021531563
80	0xbe774fa6	-0.24151477
81	0xbeb2d0ca	-0.34924918
82	0xbe6aed95	-0.22942193
83	0x3de5ab18	0.11214274
84	0x3d73a8c4	0.05948712
85	0xbcb0c6b8	-0.021579131
86	0xbe0b7eb2	-0.13622549
87	0xbe00e436	-0.12587056
88	0x3e9f3a02	0.31098944
89	0x3e46d342	0.19416526
90	0xbc457f08	-0.012054212
91	0xbdfc38fa	-0.12315555
92	0xbd12da5a	-0.035852768
93	0x3dd83e09	0.10558707
94	0x3ebd1bd1	0.36935285
95	0x3e32a347	0.17445098
96	0x3edf6146	0.436289
97	0x3e6e62e4	0.23279911
98	0xbe986f1f	-0.2977228
99	0xbdabd569	-0.08390314
100	0x3e3de38d	0.18543835
101	0xbe365186	-0.17804536
102	0xbd3f5200	-0.04670906
103	0x3ac5c7ed	0.001508949
104	0xbdcf7350	-0.10129416
105	0xbe753569	-0.23946156
106	0x3ecc413c	0.3989352
107	0x3ea1bf4d	0.31591263
108	0x3d928b88	0.0715552
109	0x3d5d0f05	0.053969402
110	0x3e901933	0.28144225
111	0x3de4c21a	0.111698344
112	0xbe108106	-0.14111719
113	0x3e1dfbdf	0.15428112
114	0xbdca99ca	-0.09892614
115	0x3e6f2e13	0.2335742
116	0xbe8bf620	-0.27336216
117	0x3e93aed9	0.28844336
118	0xbd910e26	-0.07082777
119	0xbeafc07c	-0.3432654
120	0x3e3d0377	0.18458353
121	0x3e289038	0.16461265
122	0x3e9a8bf1	0.30184892
123	0x3cb2c9b1	0.02182469
124	0x3f028ad1	0.5099307
125	0x3e9b8ff5	0.30383268
126	0xbc688e21	-0.014194042
127	0x3d9c4fc1	0.07632399
128	0xbe029cdf	-0.12755154
129	0xbe13ad1f	-0.14421509
130	0xbdd9b790	-0.10630715
131	0xbd4b7a36	-0.049677096
132	0x3dc42b72	0.09578599
133	0x3e7fc15d	0.24976106
134	0x3e37f2ee	0.17963764
135	0x3eadac1d	0.33920375
136	0x3ecb84aa	0.39749652
137	0xbc8229af	-0.015889017
138	0xbe89259e	-0.26786512
139	0x3df1e87e	0.118119225
140	0x3ea00665	0.3125488
141	0x3ed2603d	0.4108905
142	0xbde3e553	-0.111277245
143	0xbbe71b79	-0.0070528355
144	0x3e665f34	0.22497255
145	0x3ed54282	0.41652304
146	0x3e99f022	0.3006602
147	0x3e181f74	0.14855748
148	0xbe64292c	-0.22281331
149	0x3d96fb19	0.07372112
150	0xbd97bf11	-0.0740949
151	0xbdf18cbe	-0.117944226
152	0x3df2a7d9	0.11848421
153	0xbd1ec6b3	-0.038763713
154	0xbe40ca9f	-0.18827294
155	0x3ec522f6	0.38503236
156	0xbdafdcf7	-0.085870676
157	0x3dc3faf8	0.09569353
158	0x3e9a990b	0.30194888
159	0x3e90d99e	0.2829103
160	0xbda1eaf3	-0.07906141
161	0x3e4cb17f	0.19989584
162	0x3c1bdeec	0.009513598
163	0x3e203902	0.15646747
164	0x3daf8b9a	0.08571549
165	0xbe2433b1	-0.16035344
166	0xbe092dfb	-0.13396446
167	0xbdc80da2	-0.09768225
168	0xbc4bd8d6	-0.012441834
169	0x3e0dcac4	0.1384688
170	0x3d8a06b4	0.0673956
171	0xbe5254ee	-0.2054021
172	0x3e82f37e	0.25576395
173	0x3d309ef1	0.04312033
174	0x3ecf43af	0.40481326
175	0xbee591d4	-0.4483782
176	0x3d9b6514	0.075876385
177	0x3dfd46ab	0.123669945
178	0xbdf48733	-0.1193985
179	0xbddd187c	-0.10795686
180	0x3dd3283f	0.10310411
181	0xbd0aff4e	-0.033934884
182	0x3e06f346	0.13178739
183	0x3db3e2dd	0.08783505
184	0xbbced549	-0.0063120467
185	0x3e0e0dc8	0.13872445
186	0xbd931f58	-0.07183713
187	0xbe167656	-0.14693579
188	0x3e208dd6	0.15679106
189	0xbe2bdea0	-0.16784143
190	0x3ea35824	0.31903183
191	0x3eb8c4e3	0.36087713
192	0x3e8c4b60	0.27401257
193	0xbe3f3966	-0.1867424
194	0xbe20c54d	-0.15700264
195	0xbddbfa8c	-0.107411474
196	0x3d4df2fe	0.050280564
197	0x3e1f04fa	0.15529242
198	0x3e1749c1	0.14774229
199	0x3ef802d6	0.48439664
200	0xbdfa69b3	-0.12227192
201	0xbb4e2eb4	-0.0031460943
202	0x3dc3c33d	0.09558723
203	0x3e626245	0.221078
204	0xbcb89507	-0.022532
205	0x3c0fd723	0.00877932
206	0x3ea38ed3	0.31944904
207	0x3ebc3c2f	0.36764666
208	0x3d21fb38	0.03954622
209	0x3d01268a	0.031530894
210	0x3ea72d67	0.32651827
211	0xbe43833a	-0.19093028
212	0x3eb01809	0.34393337
213	0xbe736e20	-0.23772478
214	0xbe2616e7	-0.16219674
215	0x3e017ea1	0.12645961
216	0x3c6b235c	0.014351692
217	0x3e9f82a0	0.31154346
218	0xbcb658b9	-0.022259103
219	0xbe15ae5a	-0.14617291
220	0x3e42ca71	0.19022538
221	0xbe4089ec	-0.18802613
222	0x3e56423a	0.20923701
223	0xbdf1d7f2	-0.118087664
224	0x3e82ea5c	0.25569427
225	0xbe28b805	-0.16476448
226	0xbd75b262	-0.059984572
227	0x3d4cf163	0.05003489
228	0xbcb1dfe7	-0.02171321
229	0x3d2b0167	0.041749384
230	0x3e758608	0.2397691
231	0xbe2352c6	-0.15949544
232	0xbc3216c8	-0.010869689
233	0x3e92b668	0.2865479
234	0x3eb456c2	0.3522244
235	0x3e9f382d	0.31097546
236	0x3ea72fdd	0.32653704
237	0xbe1a7b91	-0.150862
238	0x3e765a97	0.24057995
239	0x3edab30f	0.42714736
240	0xbe594815	-0.21218903
241	0x3e6932bb	0.22773258
242	0x3d21274d	0.03934412
243	0x3eb7182c	0.3576063
244	0xbe94f590	-0.290936
245	0x3d785f18	0.060637563
246	0x3e58c807	0.21170054
247	0x3ee462f6	0.4460675
248	0x3cb5c595	0.022188941
249	0x3e54df65	0.20788343
250	0xbd93250e	-0.07184802
251	0xbe059f20	-0.13048983
252	0xbb35f75f	-0.0027765853
253	0x3ed28b59	0.4112194
254	0x3ee28201	0.4423981
255	0x3e5bedf5	0.21477492

fc2.weight f4 [256, 256]
0	0x3ea55e9e	0.3229875
1	0xbd785785	-0.06063034
2	0x3c57daf4	0.013174761
3	0x3e4f62fa	0.202526
4	0x3d682c0b	0.056682628
5	0xbe9fbb6b	-0.31197676
6	0x3bde76f1	0.0067890813
7	0x3d2e3129	0.04252735
8	0x3e8de8f7	0.277168
9	0x3d2964b5	0.041355807
10	0x3c224475	0.009904017
11	0xbe18559a	-0.14876404
12	0xbe144cc4	-0.14482409
13	0xbe902e3e	-0.2816028
14	0xbd8af0ec	-0.067842335
15	0xbe0db89a	-0.13839951
16	0xbeb559d9	-0.3542011
17	0x3e0885bc	0.13332266
18	0x3de7b403	0.113136314
19	0xbe321769	-0.17391743
20	0xbdd1dbb5	-0.10246984
21	0x3d12a116	0.035798155
22	0x3dee1814	0.11625686
23	0xbe974831	-0.29547265
24	0x3d05ae7a	0.032637097
25	0x3e328b87	0.17436038
26	0x3da2d6fa	0.0795116
27	0x3cc87f33	0.024474716
28	0xbd565723	-0.052329194
29	0x3e0a1ba1	0.13487102
30	0x3dd4edd4	0.103969246
31	0x3d3512ec	0.0442075
32	0x3d625905	0.055260677
33	0x3d92d041	0.071686275
34	0x3dcb1d62	0.09917714
35	0xbdb39bc8	-0.08769947
36	0x3e78b3fb	0.24287407
37	0x3da218cc	0.07914886
38	0xbe28ae8a	-0.16472831
39	0xbc011b90	-0.007880107
40	0xbbad35db	-0.005285961
41	0x3d23493a	0.039864756
42	0x3da23c78	0.0792169
43	0xbbc088b1	-0.00587567
44	0x3d9c4ef7	0.07632249
45	0xbe844d7e	-0.25840372
46	0xbdfe10ed	-0.12405572
47	0xbdb54139	-0.08850331
48	0x3dd5c22b	0.10437425
49	0x3ccbba6a	0.024869163
50	0xbd9b2715	-0.07575814
51	0xbdeb2b8c	-0.11482915
52	0x3dfe8675	0.124279894
53	0x3c8ff90f	0.017574815
54	0xba043863	-0.00050438027
55	0x3dcb4258	0.099247634
56	0xbe02d88e	-0.12777922
57	0x3de9242b	0.113838516
58	0x3dcfcba0	0.1014626
59	0x3e21d5af	0.1580417
60	0x3e1f0bb8	0.15531814
61	0xbd58af4f	-0.052901562
62	0x3d89ea90	0.06734192
63	0x3df271f6	0.118381426
64	0xbc6f6b7d	-0.01461303
65	0x3dc9859d	0.09839938
66	0xbe3b52cd	-0.18293305
67	0x3d6bf19f	0.057603475
68	0xbce9b97f	-0.028530834
69	0xbc06bcad	-0.008223695
70	0x3f105331	0.5637694
71	0xbdeb68ba	-0.114945844
72	0x3e433f09	0.19067015
73	0x3e92e13d	0.28687468
74	0x3f72718f	0.94704527
75	0x3d427a18	0.04747972
76	0xbe53e31d	-0.20692106
77	0x3d1b4dd2	0.037916012
78	0xbd73d6d4	-0.059531048
79	0xbd463afd	-0.0483961
80	0xbc7595ec	-0.014989357
81	0xbbc5b0eb	-0.006033053
82	0xbdd44cac	-0.103661865
83	0x3b3721b5	0.0027943675
84	0x3e440f2a	0.1914641
85	0x3df4d197	0.119540386
86	0xbd1e168b	-0.038595717
87	0xbccdbbe1	-0.025114002
88	0x3dc3dc7c	0.095635384
89	0x3ddbb58c	0.10727987
90	0x3df223e5	0.118232526
91	0x3cc0ddb3	0.023543214
92	0x3e15956e	0.14607784
93	0xbd485038	-0.048904628
94	0x3dea94f7	0.11454194
95	0x3d75e252	0.06003029
96	0x3d84b7f2	0.06480397
97	0x3d0d6bf3	0.034526777
98	0xbad0a187	-0.001591728
99	0x3d44fc4d	0.048092175
100	0x3eb526a5	0.35381046
101	0x3e69bacc	0.22825164
102	0xbe0441ef	-0.12915777
103	0x3bab9fd8	0.0052375607
104	0x3e7848bc	0.24246496
105	0xbcefbf46	-0.029266011
106	0x3dab8ef8	0.083768785
107	0x3da7d724	0.08195332
108	0x3d8b58ff	0.06804084
109	0x3e20dae7	0.15708505
110	0x3e026313	0.12733106
111	0xbe57557d	-0.21028705
112	0xbec5abf6	-0.38607758
113	0x3d97cf10	0.07412541
114	0x3dd8d3ca	0.105872706
115	0x3ce52d8b	0.027975818
116	0x3bbf73bc	0.005842654
117	0x3e430dae	0.19048187
118	0x3ece5794	0.40301192
119	0xbe389d86	-0.1802884
120	0x3c175811	0.009237305
121	0x3da48114	0.08032432
122	0x3e90e712	0.28301293
123	0x3b1745e8	0.002308244
124	0x3de143e2	0.10999276
125	0x3d136efe	0.035994522
126	0xbd6eac07	-0.058269527
127	0xbe06ab03	-0.13151173
128	0xbe0184b8	-0.12648284
129	0xbedd4246	-0.43214625
130	0x3eab2e8e	0.33433956
131	0x3f04cb3e	0.5187262
132	0xbd2a10db	-0.04151998
133	0x3d194485	0.03741886
134	0x3e3ad160	0.18243933
135	0x3ce14435	0.027498344
136	0x3ce8ec80	0.028433084
137	0x3e6ed9c5	0.2332526
138	0x3e86defb	0.26341996
139	0x3db914ff	0.09037208
140	0x3dd096f1	0.1018504
141	0x3de048c9	0.10951383
142	0xbd83c96c	-0.064349025
143	0x3edee313	0.4353262
144	0x3dfafa20	0.12254739
145	0x3e2d5f3a	0.16930857
146	0x3d9d4a36	0.0768017
147	0xbe54aa4a	-0.20768085
148	0x3e38b55f	0.18037938
149	0x3d0c8037	0.034301963
150	0xbe0a1650	-0.13485074
151	0x3f1ab8aa	0.60438025
152	0xbe173efd	-0.14770122
153	0x3d9dcdf5	0.07705299
154	0xbf70561a	-0.9388138
155	0x3d170aaf	0.036875423
156	0xbc39b1f3	-0.01133393
157	0x3ca07998	0.01958923
158	0x3da2cc33	0.07949104
159	0x3e294d3a	0.16533366
160	0x3dcda866	0.10041885
161	0x3d48bb8a	0.049006976
162	0xbdc15988	-0.09440905
163	0x3e7ed804	0.24887091
164	0x3e004803	0.1252747
165	0xbbb93ca8	-0.0056529827
166	0xbda49c41	-0.080376156
167	0xbe7403d7	-0.2382959
168	0xbd0ca4e9	-0.034336958
169	0xbdd2abec	-0.10286698
170	0x3d58004b	0.052734654
171	0xbed2e683	-0.4119149
172	0x3dca7737	0.0988602
173	0xbd1822ef	-0.03714269
174	0x3d73dd0c	0.05953698
175	0x3ed63ca0	0.41843128
176	0x3d590c9e	0.05299055
177	0x3da69c2f	0.081352584
178	0xbe8ca7a8	-0.27471662
179	0x3ea0377f	0.3129234
180	0x3e29322f	0.1652305
181	0xbddca7aa	-0.10774167
182	0x3d60ad5c	0.05485283
183	0xbdc7b951	-0.09752143
184	0x3ddcee8f	0.10787689
185	0xbdc638e0	-0.09678817
186	0xbe0286ae	-0.12746689
187	0x3e81b808	0.25335717
188	0xbe22f4c1	-0.15913679
189	0xbe1508e3	-0.14554171
190	0x3dae82ed	0.08521066
191	0x3d30198e	0.04299312
192	0x3d63b399	0.0555912
193	0xbf49b373	-0.7878944
194	0xbc592d62	-0.013255449
195	0xbe713110	-0.23553872
196	0xbe1752ea	-0.14777723
197	0xbd4d9b31	-0.05019683
198	0x3c251d11	0.010077731
199	0x3db816fb	0.08988758
200	0x3c81b763	0.015834516
201	0xbd9a8e7b	-0.07546707
202	0xbd64d463	-0.05586661
203	0x3d4b2f90	0.049605906
204	0x3e61c20d	0.22046681
205	0x3e14bafd	0.14524455
206	0x3e27c39c	0.16383213
207	0x3da2e09b	0.07952996
208	0xbda9e262	-0.08295132
209	0xbd14a41b	-0.036289316
210	0x3dbf757d	0.09348581
211	0xbe90f405	-0.28311172
212	0xbdef7e68	-0.11694032
213	0xbcedada6	-0.029013466
214	0x3e9e04e1	0.30863097
215	0x3da98576	0.08277409
216	0x3e2a7366	0.16645584
217	0x3e097ea8	0.13427222
218	0x3e9b4eb1	0.30333474
219	0xbebaa237	-0.36451885
220	0x3d4eef0c	0.05052094
221	0xbf27cb7b	-0.6554486
222	0xbd4dc45c	-0.05023609
223	0x3e90e440	0.2829914
224	0x3dc5a0db	0.09649821
225	0x3e933704	0.2875291
226	0x3d839684	0.06425193
227	0xbc0a4daf	-0.008441373
228	0xbe9ea7c9	-0.30987385
229	0xbde69e5c	-0.112606734
230	0x3ddfe4e5	0.1093233
231	0x3e89513e	0.26819795
232	0x3e54241b	0.20716898
233	0x3b9eb90f	0.004843838
234	0x3d9a2e64	0.075283796
235	0x3dc3415c	0.09533951
236	0x3c9aa6dd	0.018878395
237	0x3d8a728e	0.06760131
238	0x3d6ef9d1	0.058343712
239	0x3e180f81	0.14849664
240	0xbdf104c6	-0.117684886
241	0x3dccf288	0.10007197
242	0xbdd911e3	-0.10599115
243	0x3d513e01	0.051084522
244	0xbe0230b7	-0.12713896
245	0x3d1a7387	0.03770783
246	0x3e067dfb	0.13133995
247	0x3d40140f	0.04689413
248	0x3e8b43e2	0.27200228
249	0x3ecae51b	0.3962792
250	0xbc3073c9	-0.010769793
251	0x3e6bbe5e	0.23021838
252	0xbe38c13d	-0.18042465
253	0x3d0f0855	0.034920055
254	0x3dc87c97	0.097893886
255	0xbc48366e	-0.012220008

fc2.bias f4 [256]
0	0x3d3836ce	0.04497414
1	0xbc16de01	-0.009208203
2	0xbdc71a0d	-0.09721766
3	0x3c38f6a4	0.011289272
4	0xbc828e9b	-0.01593714
5	0xbda3b4e7	-0.07993489
6	0xbda0309d	-0.07821772
7	0x3d706083	0.05868579
8	0xbd28cc6d	-0.04121058
9	0x3d0319aa	0.032006897
10	0x3aeee9bf	0.0018227621
11	0xbba7b776	-0.005118306
12	0xbd532d91	-0.051557127
13	0xbca5ff54	-0.020263352
14	0xbd12f8f5	-0.035881955
15	0xbd81714f	-0.0632044
16	0xbd7b8ac7	-0.061411645
17	0xbd5e8e22	-0.054334767
18	0xbd67a336	-0.056552134
19	0xbbec1873	-0.007205063
20	0xbce6815c	-0.028137855
21	0x3c66606f	0.0140610775
22	0x3d864559	0.06556196
23	0xbc9a50ff	-0.01883745
24	0xbd4f3868	-0.050590903
25	0xbc98be30	-0.018645376
26	0xbda40a96	-0.080098316
27	0x3d2b69ff	0.041849133
28	0x3d33e1b8	0.043916434
29	0xbd9c24fd	-0.076242425
30	0x3cfb67ca	0.030689139
31	0xbd2c9452	-0.042133637
32	0xbc01e09f	-0.007927089
33	0xbd3b8db2	-0.045789428
34	0x3e08dfa8	0.13366568
35	0x3bf0ec56	0.007352392
36	0x3d4b1eda	0.04958997
37	0x3c65a2a9	0.014015832
38	0xb9f58e87	-0.00046836233
39	0xbd18d615	-0.03731354
40	0x3e11ad63	0.14226298
41	0xbcd24b1f	-0.025670586
42	0x3cf229a8	0.029560879
43	0xbd6836b8	-0.05669281
44	0x3c3ea7be	0.011636673
45	0x3c69836c	0.014252525
46	0x3d28d10e	0.041214995
47	0xbd080ae9	-0.03321353
48	0x3b22b531	0.0024827237
49	0xbca8c313	-0.020600831
50	0x3d675489	0.056477103
51	0x3e0c6447	0.13710128
52	0x3dd0f42b	0.10202821
53	0xbc8f8504	-0.017519481
54	0xbd12d873	-0.035850953
55	0x3c8d255c	0.017229728
56	0xbd787029	-0.06065384
57	0x3e1785d2	0.14797142
58	0xbda3a355	-0.079901375
59	0x3c251eb6	0.010078123
60	0xbc41919b	-0.0118145
61	0xbcbe3f31	-0.023223491
62	0xbc1de700	-0.009637594
63	0x3d1d4c43	0.038402807
64	0xbca3e343	-0.020005828
65	0x3d634251	0.055483166
66	0xbd6105ad	-0.054937053
67	0x3c3fc3c1	0.011704386
68	0xbc8212b8	-0.015878066
69	0x3cb3f04f	0.021965174
70	0xbc10ff7c	-0.008849975
71	0x3d378c6e	0.04481166
72	0xbce13bf3	-0.027494406
73	0xbd2a7d79	-0.041623566
74	0xbd34a869	-0.04410592
75	0x3de73395	0.11289135
76	0x3caac0da	0.020843912
77	0x3d0b7a24	0.03405203
78	0xbd2a5235	-0.041582305
79	0x3d7b2bf6	0.06132122
80	0x3c3ed28e	0.01164688
81	0xbc533616	-0.012891313
82	0x3ca8ff69	0.020629602
83	0xbd6ce9ee	-0.05784028
84	0x3db4ec1d	0.088340975
85	0xbd0ef167	-0.034898188
86	0x3d34eb97	0.04416999
87	0x3b566a42	0.0032717143
88	0x3d9729f6	0.0738105
89	0x3dedc914	0.11610618
90	0x3d73a22f	0.059480842
91	0xbd1795b0	-0.037007987
92	0xba30d798	-0.0006745993
93	0xbd14fca5	-0.036373753
94	0x3d52cc57	0.051464405
95	0xbafda049	-0.0019350137
96	0x3c9b5cbd	0.01896512
97	0x3df7190f	0.120653264
98	0x3dddb33d	0.108252026
99	0x3ba72797	0.005101155
100	0xbd4e0343	-0.05029608
101	0xbd3d8067	-0.046265032
102	0xbce5884c	-0.028019093
103	0xbd23a5be	-0.039952986
104	0x3def868b	0.11695584
105	0x3d745300	0.059649467
106	0xbce56b97	-0.028005404
107	0xbd746cfe	-0.059674256
108	0xbd07bfd6	-0.033141933
109	0x3bb4221e	0.005497231
110	0x3aa26846	0.0012390695
111	0x3bbafeed	0.005706659
112	0x3d41385c	0.04717289
113	0x3d800964	0.06251791
114	0xbd68a8c1	-0.05680156
115	0x3d05b194	0.032640055
116	0x3d17b2c9	0.037035737
117	0xbd476db6	-0.048688613
118	0x3d3a9957	0.045556393
119	0xbd4cfdec	-0.050046846
120	0x3d02c1d1	0.03192312
121	0x3d089f77	0.033355203
122	0x3d9c64e5	0.076364316
123	0xbcd84f66	-0.026405048
124	0xbd422066	-0.04739418
125	0xbd9f3d49	-0.07775361
126	0x3d8fa254	0.070133835
127	0xbdcdaa62	-0.100422636
128	0xbd76df15	-0.06027134
129	0x3d4c03b8	0.049808234
130	0x3d206fa7	0.03916898
131	0x3c965919	0.018353032
132	0xbc8ac1d7	-0.016938133
133	0xbb9a0bce	-0.0047011143
134	0x3d111854	0.03542359
135	0x3cbd6060	0.023117244
136	0xbd613096	-0.054977976
137	0x3d35a40d	0.044345904
138	0xbd7305c6	-0.059331678
139	0x3d15af75	0.036544282
140	0xbd0bf2f6	-0.034167252
141	0xbd3e7d3a	-0.046506144
142	0xbd848790	-0.06471169
143	0x3da78c09	0.081810065
144	0x3dc5baa3	0.09654739
145	0x3d8309d9	0.06398363
146	0x3c13ab0b	0.009012948
147	0x3c4c969c	0.01248708
148	0xbc51aa80	-0.012796998
149	0x3d05449c	0.032536134
150	0xbbc46bf8	-0.005994316
151	0x3d5e0d71	0.054212037
152	0x3b727761	0.0036997425
153	0xbd3159d2	-0.04329855
154	0x3cc620a2	0.024185482
155	0x3d28f8dc	0.041252956
156	0x3d8a0c09	0.06740577
157	0xbd6ca92b	-0.05777852
158	0x3d7aa307	0.06119063
159	0xbd08f610	-0.03343779
160	0x3dd54a83	0.104146026
161	0x3d829169	0.06375391
162	0x3d5f32dc	0.054491863
163	0x3d70cd12	0.05878932
164	0xbd082936	-0.033242427
165	0x3cd71896	0.02625684
166	0x3e03bf7d	0.12866016
167	0x3d8bf8aa	0.06834538
168	0x3c8b2bd1	0.016988667
169	0x3c1e6f9d	0.009670165
170	0xbc3a631b	-0.011376168
171	0xbd6ac596	-0.05731734
172	0x3ceb3cf0	0.02871558
173	0xbadd8513	-0.0016900621
174	0x3d445857	0.04793581
175	0xbdb367f6	-0.08760063
176	0x3c827470	0.015924662
177	0x3d0bbd14	0.034115866
178	0xbb1262d9	-0.002233675
179	0xbd3926b9	-0.045202944
180	0x3d1f5ebc	0.038908705
181	0x3ade0c69	0.0016940954
182	0xbd9030a1	-0.07040525
183	0xbc9bcb63	-0.01901788
184	0x3df8dec3	0.121518634
185	0x3c0db4bc	0.008649047
186	0x3dec459f	0.11536717
187	0xbc2ca9b0	-0.0105385035
188	0x3cb1d5c5	0.021708379
189	0xbdc7fa3b	-0.097645245
190	0x3db728a9	0.08943302
191	0x3d354e51	0.04426414
192	0xbc6a6d49	-0.014308282
193	0x3ce975bc	0.028498523
194	0x3d20bab0	0.03924054
195	0x3d34bf62	0.04412783
196	0xbd870278	-0.06592268
197	0x3c277cb8	0.010222606
198	0x3d3b8795	0.045783598
199	0x3d6789d2	0.05652792
200	0x3d374d4b	0.044751447
201	0xbd416374	-0.047213987
202	0x3ccdd2a7	0.02512486
203	0x3c6641b3	0.01405375
204	0xbc337fa7	-0.010955728
205	0xbd92cb0f	-0.071676366
206	0xbd2ccf8e	-0.042190127
207	0xbcaf7e7c	-0.021422617
208	0xbd120a25	-0.035654206
209	0x3d7a8f2a	0.06117169
210	0x3b282964	0.0025659436
211	0xbd110e21	-0.035413865
212	0x3dd4b07d	0.10385225
213	0xbd2b267d	-0.041784752
214	0xbcaddf90	-0.021224767
215	0xbc8c7031	-0.01714334
216	0x3d600904	0.054696098
217	0xbcb12735	-0.02162514
218	0x3d8228e2	0.06355454
219	0x3c04aca3	0.0080978
220	0x3e188f90	0.14898515
221	0xbc5488dd	-0.012972084
222	0xbd3592af	-0.04432934
223	0xbd0ae0d0	-0.033905804
224	0x3cffba0b	0.031216642
225	0xbc0f1309	-0.008732566
226	0xbc693491	-0.014233724
227	0xbd8d4a3d	-0.068989255
228	0xbc5e9132	-0.013584422
229	0xba8c7862	-0.0010717029
230	0x3c36020f	0.011108889
231	0xbda47873	-0.08030786
232	0x3ca844ae	0.020540562
233	0x3bebf2e3	0.007200585
234	0x3a9cf3af	0.0011974479
235	0x3dd113d5	0.10208861
236	0x3d555d1a	0.05209074
237	0x3da01cd0	0.078179955
238	0xba42afe6	-0.00074267236
239	0xbbb21823	-0.005435006
240	0x3e050e4b	0.12993734
241	0x3def5302	0.11685754
242	0x3b58bcef	0.0033071598
243	0x3c9524b3	0.018205976
244	0xbb72f80b	-0.0037074115
245	0x3ca59921	0.02021462
246	0x3cd2e278	0.025742754
247	0x3d58d803	0.05294038
248	0xbcb52859	-0.022113966
249	0xbc5d733f	-0.013516246
250	0x3e093f14	0.13402969
251	0x3c6eef30	0.014583394
252	0xbcb96670	-0.022631854
253	0xbd2071c0	-0.03917098
254	0xbd24b2cb	-0.040209573
255	0xbc09b368	-0.00840459

mean.weight f4 [2, 256]
0	0xbd3fc9da	-0.04682336
1	0xbc97597e	-0.01847529
2	0x3d4d500a	0.05012516
3	0xbd0ab34f	-0.03386241
4	0xbd06c427	-0.03290191
5	0xbcd3aca3	-0.025839156
6	0xbbabc453	-0.0052419095
7	0x3ca8c5be	0.020602103
8	0x3d44a754	0.04801114
9	0xbd471158	-0.048600525
10	0x3d6f92b9	0.058489535
11	0xbb5a158b	-0.0033277
12	0xbaa1c9eb	-0.0012343501
13	0xbd451649	-0.048116956
14	0xbd628c58	-0.055309623
15	0xbd53b9fd	-0.051691044
16	0x3d7fc7b4	0.06244631
17	0xbbc9136d	-0.006136349
18	0x3c6e44a0	0.014542729
19	0x3d645df9	0.05575368
20	0x3d25a0bc	0.04043649
21	0x3be9ea15	0.0071385005
22	0xbd33e498	-0.043919176
23	0xbca2fc2f	-0.019895641
24	0xbd49cb89	-0.049266372
25	0xbcc07f94	-0.023498334
26	0xbd538546	-0.05164077
27	0x3d76102f	0.060074028
28	0xbe175db6	-0.14781842
29	0x3cfd8807	0.030948652
30	0x3a91cbfd	0.0011123415
31	0xbd0f594f	-0.03499728
32	0xbd8b5267	-0.068028264
33	0x3d178d13	0.036999773
34	0x3d34b746	0.044120096
35	0x3d7df931	0.062005226
36	0xbccf4fbc	-0.025306575
37	0x3d852dad	0.065028526
38	0x3d4d536f	0.050128397
39	0x3caa2bef	0.020772902
40	0xbe19bdef	-0.1501386
41	0x3c1a64e6	0.00942347
42	0x3c11deba	0.0089032
43	0xbd779fe7	-0.06045523
44	0xbcb50beb	-0.02210041
45	0xbc9cdd23	-0.019148415
46	0x3bb97bd7	0.005660515
47	0xbb49a2ca	-0.0030767196
48	0xbcd6a8f5	-0.026203612
49	0x3d7490a9	0.05970827
50	0x3ce6fb12	0.028195892
51	0xbcf0049a	-0.02929907
52	0xbd977630	-0.07395589
53	0xbd3011e8	-0.042985827
54	0xbc8b4860	-0.017002285
55	0x3da428a1	0.08015562
56	0x3bed7cd7	0.007247548
57	0x3d20a5c3	0.039220583
58	0x3d0fdbe3	0.03512181
59	0x3d7806be	0.060553305
60	0xbc945cf5	-0.018110732
61	0x3c4937bd	0.012281355
62	0xbdbd7ecf	-0.092527024
63	0x3d81f1b8	0.06344932
64	0xbd1cc334	-0.038272098
65	0x3c110a38	0.008852534
66	0x3d049a0a	0.032373466
67	0x3c139f7e	0.009010194
68	0x3dccfebf	0.100095265
69	0x3e1823f0	0.14857459
70	0xbd2453b8	-0.040118903
71	0x3d1fd725	0.039023537
72	0x3d7aa88d	0.0611959
73	0xbd7e52ae	-0.06209057
74	0xbd2cfab6	-0.042231284
75	0xbd79b0fc	-0.0609598
76	0x3da1a777	0.078932695
77	0xbd1d2197	-0.038362112
78	0x3d8fa77b	0.07014366
79	0xbd1e0a44	-0.03858401
80	0xbc8f4d9e	-0.017493065
81	0x3d27b893	0.040947508
82	0x3cb91e37	0.022597415
83	0xbd4dfcd7	-0.050289955
84	0x3e0316f6	0.12801728
85	0xbbba3738	-0.005682852
86	0x3df08fb2	0.11746158
87	0x3d28e24b	0.041231435
88	0x3ba71a6a	0.0050995843
89	0x3bd63c75	0.0065379688
90	0x3ba162da	0.004925114
91	0x3d3bd98d	0.04586177
92	0xbce8e607	-0.028429998
93	0xbd61f293	-0.055162977
94	0x3c39bbe2	0.011336299
95	0xbd5dffaa	-0.0541989
96	0xbd2914bb	-0.041279536
97	0x3bcc1954	0.0062286053
98	0xbdb7f917	-0.08983057
99	0xbd285c53	-0.041103672
100	0xbc7fe896	-0.015619418
101	0xbd2af2b2	-0.04173536
102	0x3d37d35b	0.0448793
103	0xbd73792f	-0.05944174
104	0x3cabc386	0.020967256
105	0x3d997ea7	0.0749486
106	0xbdb40797	-0.0879051
107	0x3e039751	0.12850691
108	0xbd76e113	-0.06027324
109	0x3d20d712	0.039267607
110	0xbc640c17	-0.013918898
111	0x3c4f32d1	0.012646393
112	0xbd435966	-0.04769268
113	0x3cc3ea17	0.023915334
114	0xbca01e6f	-0.019545762
115	0x3c65d142	0.014026942
116	0xbb4d3e84	-0.003131778
117	0xbda8c771	-0.082411654
118	0xbd234a9b	-0.03986607
119	0x3d1fc71f	0.039008256
120	0xbcf8304d	-0.03029647
121	0x3d405786	0.04695847
122	0xbc9a3931	-0.0188261
123	0x3d3e1f36	0.046416484
124	0x3d3d6c92	0.04624612
125	0xbd90a5de	-0.07062887
126	0x3dce1c62	0.10064007
127	0x3d6edb59	0.058314655
128	0x3d6bd2fc	0.057574257
129	0x3c6500d2	0.013977246
130	0xbd3f05e3	-0.046636473
131	0x3c1050ff	0.0088083735
132	0x3cd74618	0.02627854
133	0x3d7d6467	0.06186333
134	0xbcb4a8df	-0.02205318
135	0x3d9938cb	0.074815355
136	0xbdb73067	-0.08944779
137	0xbd471b73	-0.048610162
138	0x3d3d5f42	0.046233423
139	0xbd0728a7	-0.032997753
140	0x3d05415a	0.032533027
141	0xbe0c7c5f	-0.13719319
142	0x3d42ca3a	0.04755614
143	0xbd9a7a53	-0.07542863
144	0xbde142a9	-0.109990425
145	0x3c5a0db0	0.013308927
146	0x3d73f03b	0.059555274
147	0x3c8ed386	0.017434847
148	0xbddfa80d	-0.10920725
149	0x3d560bd3	0.05225737
150	0x3cb74a76	0.022374373
151	0x3d14c04c	0.0363162
152	0xbd248bf1	-0.04017252
153	0xbd3f7c2a	-0.04674927
154	0xbcfa5381	-0.030557396
155	0x3d35d240	0.044389963
156	0x3becad74	0.0072228257
157	0xbda3f0f5	-0.08004943
158	0x3d38a524	0.045079365
159	0xbdde5e1f	-0.10857796
160	0x3d47aa0e	0.04874616
161	0x3ca9d062	0.020729247
162	0xbd5d64c5	-0.05405118
163	0xbd8ac08a	-0.06775005
164	0x3d48d3f4	0.04903026
165	0xbcb4cdc5	-0.022070775
166	0x3d3c0a2e	0.045908146
167	0xbe010dc7	-0.12602912
168	0x3d4fcdbe	0.05073332
169	0xbd55cf07	-0.05219939
170	0xbccf00a8	-0.025268868
171	0xbd62c688	-0.055365115
172	0x3d849bac	0.064750046
173	0x3b7cd33c	0.0038578054
174	0x3d372101	0.04470921
175	0xbd8bd847	-0.06828361
176	0xbd06368e	-0.03276687
177	0xbaef2fb0	-0.0018248465
178	0x3d1cd54a	0.038289346
179	0xbd3c342c	-0.045948192
180	0x3d1672da	0.036730625
181	0xbd35c70c	-0.04437928
182	0xbd69adb2	-0.057050414
183	0xbd118b10	-0.03553301
184	0x3ca1a9b2	0.019734237
185	0x3c85ef64	0.016349502
186	0x3d182d13	0.03715236
187	0x3b7f1e93	0.0038928136
188	0x3d1febf5	0.039043386
189	0x3c09786a	0.008390525
190	0x3ca63c4e	0.020292427
191	0x3d3ed793	0.046592306
192	0xbd7a14db	-0.061055046
193	0xbc9aeba8	-0.018911198
194	0xbcaa0b24	-0.020757265
195	0xbc987025	-0.018608162
196	0x3d5152e5	0.051104445
197	0x3d841caf	0.064507835
198	0x3e478a15	0.19486268
199	0x3c1bf7df	0.009519546
200	0x3d0d4440	0.034488916
201	0xbd92f192	-0.07174982
202	0x3d8c808e	0.06860457
203	0xbd58bd52	-0.052914925
204	0xbd24b8a4	-0.04021515
205	0xbd5cc7b5	-0.053901393
206	0xbd89f940	-0.06736994
207	0xbbed941c	-0.007250322
208	0xbc70b1fa	-0.01469087
209	0x3e137732	0.14400938
210	0xbce59317	-0.02802424
211	0x3d4c31c8	0.049852163
212	0x3d17d502	0.037068374
213	0xbd9614f3	-0.073282145
214	0xbd161748	-0.036643296
215	0xbd81a085	-0.06329445
216	0x3d8445f1	0.06458653
217	0x3c56d615	0.013112565
218	0x3c568233	0.013092565
219	0xbd575166	-0.052567862
220	0xbd4662f1	-0.0484342
221	0x3ccbfe6f	0.024901597
222	0x3c61ef7b	0.013790007
223	0x3b5c7d9f	0.0033644212
224	0xbd145a4e	-0.036218934
225	0xbd20dd6a	-0.039273657
226	0xbe1a29da	-0.15055028
227	0x3c2be3b9	0.010491305
228	0xbd5ca133	-0.05386467
229	0x3d68582e	0.05672472
230	0xbd9dbb26	-0.07701711
231	0x3d5f0f03	0.054457676
232	0x3d302490	0.04300362
233	0xbd83693f	-0.064165585
234	0xbd1667a0	-0.03671992
235	0x3cb54b5c	0.02213066
236	0x3e7ee61a	0.24892464
237	0xbd546287	-0.051851775
238	0x3a000ce8	0.00048847357
239	0x3d852e43	0.06502964
240	0x3d802192	0.06256403
241	0x3b2fc0e9	0.0026817864
242	0x3d1b10fc	0.037857994
243	0x3d85b96a	0.065295056
244	0x3d0142a4	0.031557694
245	0x3bc0b8c6	0.0058814017
246	0x3c6a79fa	0.014311308
247	0x3d2c19e8	0.042016894
248	0x3cbb7fe7	0.022888137
249	0x3d4a09ae	0.049325638
250	0xbd6a3212	-0.057176657
251	0x3d95aa7d	0.07307909
252	0x3b4ba1fd	0.0031071894
253	0x3d49ad97	0.049237814
254	0xbd34f993	-0.044183325
255	0x3d26a686	0.040686153

mean.bias f4 [2]
0	0x3d551f9f	0.05203211
1	0x3da48d1e	0.080347285

value.weight f4 [1, 256]
0	0x3e9c3ea5	0.30516544
1	0xbeb9e180	-0.36304855
2	0xbf049e1f	-0.51803774
3	0xbe3fa13c	-0.1871385
4	0xbf04b13f	-0.51832956
5	0xbeba6944	-0.36408436
6	0xbea6e09a	-0.32593232
7	0x3c6e877c	0.014558669
8	0x3f227373	0.6345741
9	0x3edcac65	0.43100277
10	0x3c91b9bb	0.017788759
11	0xbebccd9a	-0.36875612
12	0xbe9a3dce	-0.30125278
13	0xbebbf9d5	-0.36714044
14	0x3d0be012	0.034149237
15	0x3ac348cd	0.0014899016
16	0xbe9ce280	-0.30641556
17	0x3cc42ca3	0.023947066
18	0xbebf610f	-0.37378737
19	0x3d36139b	0.04445229
20	0x3c1f2cfd	0.009715316
21	0xbe7dd6b2	-0.24788931
22	0xbe6c7b6e	-0.2309396
23	0xbe53b463	-0.20674281
24	0xbed0fde7	-0.40818712
25	0xbe65acd4	-0.2242921
26	0xbe8b37bd	-0.27190962
27	0x3ebd880b	0.37017855
28	0x3f1411a4	0.5783942
29	0xbeff918e	-0.49915737
30	0x3eebd361	0.46059707
31	0xbe96df87	-0.29467413
32	0xbe8a8234	-0.27052462
33	0xbe8cdc92	-0.27512032
34	0x3e859370	0.26089048
35	0x3f080c49	0.53143746
36	0x3cf338ad	0.029690111
37	0xbeb1b974	-0.34711802
38	0xbe96e1e2	-0.2946921
39	0xbe9c98dd	-0.30585375
40	0x3ea0b024	0.31384385
41	0x3d5f70c5	0.054550905
42	0x3ededc02	0.43527228
43	0x3c459756	0.012060007
44	0xbec45c14	-0.383515
45	0x3d4ab129	0.04948536
46	0x3ee6dbf7	0.45089695
47	0xbe86d0dc	-0.26331222
48	0xbe8612f2	-0.2618633
49	0x3d5378a1	0.051628713
50	0x3c81650c	0.015795253
51	0x3eb07764	0.34466088
52	0x3eb7a10f	0.35865065
53	0xbe87770b	-0.2645801
54	0xbea5277a	-0.3225668
55	0x3ec32bb7	0.3811929
56	0xbe702704	-0.23452383
57	0x3ea0d884	0.31415188
58	0xbeb450ed	-0.3521799
59	0xbe636cfc	-0.22209543
60	0x3f056020	0.520998
61	0x3efd2dc5	0.49448982
62	0x3f22fb6a	0.6366488
63	0x3c2f9b38	0.010718159
64	0x3f056547	0.5210766
65	0x3ec94536	0.39310616
66	0x3f17968d	0.592141
67	0xbeb7c068	-0.35888982
68	0x3e9324fd	0.28739157
69	0x3f0532d1	0.52030665
70	0xbe949af2	-0.29024464
71	0xbe922cc3	-0.28549775
72	0xbe3ad14c	-0.18243903
73	0xbe8a7781	-0.270443
74	0x3f01be70	0.5068121
75	0x3ed908cc	0.42389524
76	0x3ebd5b75	0.3698384
77	0xbe51fe46	-0.20507154
78	0x3e3fda81	0.18735696
79	0xbe3ff268	-0.18744814
80	0xbe95020c	-0.29103124
81	0xbe862025	-0.261964
82	0xbe51fff2	-0.20507792
83	0x3f053218	0.5202956
84	0x3ed97e3f	0.4247913
85	0xbe9cfc2e	-0.30661148
86	0x3e9faff5	0.31188932
87	0xbe98b1f6	-0.29823273
88	0xbe3e7e64	-0.18602902
89	0xbf3c7b5d	-0.7362574
90	0xbe31f60a	-0.17379013
91	0x3cf7cd42	0.030249242
92	0xbe9c2022	-0.30493265
93	0xbeeac4ca	-0.45853263
94	0x3e998415	0.29983583
95	0xbe439a47	-0.19101821
96	0xbea5bbf5	-0.32369962
97	0x3ed2a4cc	0.41141355
98	0x3f19576b	0.59899014
99	0x3d3b0b9c	0.04566537
100	0x3f0d3830	0.5516386
101	0x3c8fec54	0.017568745
102	0xbeb9401d	-0.36181727
103	0xbf1122d2	-0.56693757
104	0x3ed01cf2	0.40647084
105	0x3eb2efb4	0.34948504
106	0x3ef7d9fa	0.4840849
107	0xbf0d49f1	-0.5519095
108	0xbe8695bb	-0.2628611
109	0x3c9d86fe	0.019229408
110	0x3f14b652	0.580907
111	0xbeb6ca2c	-0.3570112
112	0x3ccb8607	0.024844183
113	0x3eca15fe	0.39469904
114	0x3efd3429	0.49453858
115	0xbe8efda8	-0.279279
116	0xbe496be8	-0.19670069
117	0xbee2afab	-0.4427465
118	0xbe1fb07f	-0.15594672
119	0x3f0f21da	0.5591103
120	0xbea774ee	-0.32706398
121	0xbe4410ca	-0.1914703
122	0x3ebf4575	0.3735768
123	0x3d503e03	0.05084039
124	0xbebc0cc8	-0.367285
125	0xbee18e66	-0.44053954
126	0x3efe91f1	0.4972072
127	0xbf18c415	-0.596742
128	0xbea0727b	-0.31337342
129	0xbe39de15	-0.18151124
130	0x3f16a305	0.588425
131	0xbe8777f6	-0.2645871
132	0xbe4f8b17	-0.20267902
133	0xbe8efb4d	-0.27926102
134	0x3eeadebb	0.45873055
135	0xbe87ee36	-0.26548928
136	0xbeef5e5f	-0.46751687
137	0x3ed315e1	0.4122763
138	0xbe6dc495	-0.23219521
139	0x3f0dae4e	0.5534409
140	0x3cdc5b24	0.026898928
141	0x3f224a00	0.63394165
142	0x3f09df26	0.5385612
143	0x3ea8ccfc	0.3296889
144	0x3ef84d45	0.48496452
145	0x3ec1be17	0.3784034
146	0xbec14dc7	-0.37754652
147	0x3f051ebc	0.5200002
148	0x3f130dbf	0.5744285
149	0xbe245614	-0.16048461
150	0xbed4b0dc	-0.41541183
151	0xbe8f3424	-0.27969468
152	0xbea73293	-0.32655773
153	0xbf014c99	-0.50507504
154	0x3c9ac186	0.018891107
155	0x3ec21f5f	0.3791456
156	0x3ed6c6e5	0.4194862
157	0xbee01716	-0.43767613
158	0x3f0df908	0.55458117
159	0xbec7687a	-0.38946897
160	0x3ecb98cc	0.39765012
161	0x3f3db002	0.7409669
162	0xbe3be4fe	-0.18349072
163	0x3f27f523	0.65608424
164	0x3d51c622	0.051214345
165	0xbe776f2a	-0.241635
166	0x3eba53c6	0.3639204
167	0x3f109164	0.5647185
168	0xbe8fa967	-0.2805893
169	0xbeb9400a	-0.3618167
170	0x3d36ba09	0.04461101
171	0x3d2e6f1f	0.042586442
172	0xbe8849ce	-0.26618809
173	0xbe71c241	-0.23609258
174	0xbe6c9e71	-0.23107316
175	0xbef13b48	-0.4711554
176	0xbed07b84	-0.40719235
177	0xbe815fe7	-0.2526848
178	0xbe825f98	-0.25463557
179	0xbe8f3fa5	-0.27978244
180	0xbe8174e5	-0.25284496
181	0xbebdfdd4	-0.37107718
182	0xbe8f31c2	-0.2796765
183	0xbe6e4e1a	-0.23271981
184	0x3ec34c68	0.3814423
185	0x3cc2bc4c	0.023771428
186	0x3ea41bde	0.3205251
187	0xbee4f637	-0.44719097
188	0xbe76e185	-0.24109466
189	0xbf0a030c	-0.539109
190	0x3ecfc89e	0.40582746
191	0x3eb30284	0.34962857
192	0xbe9de59c	-0.3083924
193	0x3eeea2f6	0.46608704
194	0x3e995681	0.2994881
195	0xbe382311	-0.17982127
196	0xbe8ff7a1	-0.28118613
197	0xbea3ded7	-0.3200595
198	0x3f605bd7	0.87640136
199	0x3ebbab65	0.366542
200	0x3f0ccb30	0.5499754
201	0xbea4199f	-0.32050797
202	0x3e3cd0c8	0.18439019
203	0xbe9bde15	-0.30442873
204	0xbef4fb10	-0.47847795
205	0xbe9fc602	-0.31205755
206	0xbeb76836	-0.35821694
207	0x3f0218b5	0.5081895
208	0x3f11091e	0.56654537
209	0xbdf59256	-0.11990802
210	0xbe423fc7	-0.18969642
211	0xbef62019	-0.48071364
212	0x3ef31721	0.47478583
213	0x3f01f14d	0.5075882
214	0xbeaaa322	-0.33327585
215	0xbe487ad3	-0.19578104
216	0xbe7e15d2	-0.24813011
217	0x3f01352c	0.5047176
218	0x3ede3c20	0.43405247
219	0xbe49766c	-0.1967408
220	0x3eb4151e	0.3517236
221	0xbe3afc40	-0.18260288
222	0xbf09ef63	-0.538809
223	0x3d7288c9	0.05921248
224	0x3ef0f2f2	0.47060353
225	0xbe932ee3	-0.2874671
226	0x3f2084c0	0.6270256
227	0xbe8c6040	-0.27417183
228	0x3d0c0a66	0.034189604
229	0xbe9d422c	-0.30714548
230	0xbef04019	-0.46923903
231	0xbe86bbec	-0.26315248
232	0xbed4b2c0	-0.41542625
233	0xbe758325	-0.23975809
234	0x3efad256	0.489886
235	0x3ebbc860	0.36676311
236	0x3f92a098	1.1455259
237	0x3ea52444	0.3225423
238	0xbe8b73b8	-0.27236724
239	0xbebd271b	-0.36943898
240	0x3ec1ab0b	0.37825808
241	0x3ec4fce8	0.38474202
242	0x3d31b02b	0.043380897
243	0xbe34e26e	-0.17664501
244	0xbe99fb11	-0.3007436
245	0xbea0b020	-0.31384373
246	0x3ed8c52d	0.42337933
247	0x3d2d4545	0.04230239
248	0xbe72b09d	-0.23700185
249	0xbf228a43	-0.6349222
250	0x3ea29014	0.31750548
251	0x3eeb0657	0.45903274
252	0x3cf901f2	0.030396435
253	0x3f0b42e2	0.5439893
254	0xbe4312cb	-0.19050138
255	0xbd0b44d8	-0.0340012
