SAC_LunarLander_ep200.pth (torch, 279784 bytes, 8 tensors)

fc1.weight f4 [256, 8]
0	0x3bd562a5	0.0065120035
1	0x3e66c7d6	0.22537169
2	0x3e8e37ef	0.2777705
3	0x3e9de702	0.30840307
4	0xbecc1a4d	-0.39863816
5	0xbee39042	-0.44445997
6	0xbe62841c	-0.22120708
7	0x3e532878	0.20620906
8	0xbe7c269a	-0.246241
9	0xbc35473a	-0.011064345
10	0xbc993163	-0.018700307
11	0x3d5e3775	0.054252107
12	0xbf1e7303	-0.61894244
13	0xbebb7303	-0.36611184
14	0x3f07629f	0.5288486
15	0xbea7fe83	-0.32811365
16	0x3de5a13e	0.11212395
17	0x3e52034a	0.20509067
18	0x3e98b271	0.2982364
19	0x3e94ccde	0.2906255
20	0xbf404915	-0.75111514
21	0xbec7fe62	-0.39061266
22	0xbd94a8df	-0.07258772
23	0x3e87a582	0.2649346
24	0x3e392913	0.18082075
25	0xbe88b328	-0.26699185
26	0xbebd8968	-0.37018895
27	0xbd4e8be7	-0.05042639
28	0x3ecd1e34	0.40062106
29	0x3e78665e	0.242578
30	0x3e14403e	0.14477631
31	0x3dc07112	0.093965665
32	0x3ef04b99	0.46932676
33	0xbcb6aafa	-0.022298325
34	0xbea3a993	-0.31965312
35	0x3e0f2ab8	0.1398114
36	0x3ec33bdb	0.38131604
37	0xbe9c91c5	-0.30579963
38	0xbed39602	-0.41325384
39	0x3eb9bffa	0.3627928
40	0x3e985b8a	0.2975734
41	0xbead7a04	-0.33882153
42	0x3eee0615	0.46489015
43	0x3d7c7884	0.06163837
44	0xbeafe537	-0.34354565
45	0x3da3042c	0.0795978
46	0x3e5475d8	0.20748079
47	0xbecdc00b	-0.4018558
48	0x3d7ddd47	0.061978605
49	0xb9c4a347	-0.00037505684
50	0xbd6210c4	-0.05519177
51	0x3f13eb3e	0.57780826
52	0x3dd818e4	0.105516225
53	0x3f12379f	0.5711612
54	0x3e5df8b1	0.216769
55	0xbe662498	-0.22474897
56	0x3e984288	0.2973826
57	0x3eef0fa6	0.46691626
58	0x3de6276e	0.11237989
59	0xbec46c5c	-0.38363922
60	0x3e3d2866	0.18472442
61	0x3db4216d	0.08795438
62	0x3cfa53bc	0.030557506
63	0xbe2cf321	-0.16889621
64	0xbf03faff	-0.51554865
65	0xbdbe0844	-0.0927892
66	0x3c1a8599	0.009431266
67	0x3e488c7a	0.19584838
68	0xbe9d3208	-0.30702233
69	0x3d4028c2	0.04691387
70	0x3ec00ad3	0.37508258
71	0xbca1bb7c	-0.01974272
72	0x3e8bf4f3	0.2733532
73	0x3b3a373a	0.0028414265
74	0xbe69e35b	-0.22840635
75	0x3cc56d7e	0.024100062
76	0x3eedf786	0.46477908
77	0x3f3dcf34	0.7414429
78	0xbe1bd6fa	-0.15218726
79	0xbe860945	-0.26178947
80	0x3eacdbd7	0.33761474
81	0x3eb07207	0.34461996
82	0x3d8e9e99	0.06963844
83	0x3eb45493	0.35220775
84	0x3f037b79	0.5136028
85	0x3d292aa7	0.041300442
86	0xbed9e5d7	-0.42558166
87	0xbe9bde68	-0.3044312
88	0xbe476a7c	-0.19474214
89	0x3e796bbb	0.24357502
90	0xbdb085e0	-0.08619285
91	0x3e83d652	0.2574945
92	0x3eabcf14	0.33556426
93	0x3ebdcf87	0.37072393
94	0xbe71a3eb	-0.23597686
95	0x3dbf628b	0.093449675
96	0x3e643886	0.22287187
97	0x3eac5b28	0.33663297
98	0x3e7779f2	0.24167612
99	0x3de9d0bf	0.11416768
100	0xbe927cfe	-0.28610986
101	0xbe9be92c	-0.30451334
102	0xbdf27476	-0.118386194
103	0x3edd34cb	0.4320434
104	0xbe17ab06	-0.14811334
105	0xbdea51be	-0.11441372
106	0x3e95b977	0.2924306
107	0xbb6510df	-0.0034952683
108	0xbf12b2cf	-0.5730409
109	0x3f2238ca	0.63367903
110	0x3ed81014	0.42199767
111	0xbee37faf	-0.44433352
112	0xbe900313	-0.28127345
113	0xbeba1c07	-0.36349508
114	0x3dadbe1a	0.084835246
115	0xbee7fc91	-0.4530988
116	0x3d7d0066	0.061767958
117	0x3ec55f06	0.3854906
118	0xbd80ddc6	-0.062923
119	0xbebea709	-0.37236813
120	0x3e594d00	0.2122078
121	0xbe74b81b	-0.23898356
122	0x3d45399c	0.048150644
123	0x3d0d04e5	0.034428496
124	0x3ed80611	0.42192128
125	0x3f13cc53	0.5773365
126	0x3e8b5e1b	0.27220234
127	0xbeb763d8	-0.35818362
128	0x3d258701	0.040411953
129	0x3e9229f8	0.28547645
130	0x3e4aa7c5	0.19790561
131	0x3f111b95	0.5668271
132	0x3ca0e309	0.019639509
133	0xbe0e3f3d	-0.13891311
134	0xbe1ca9ad	-0.15299101
135	0xbe017abf	-0.1264448
136	0x3d71597e	0.058923237
137	0xbe15b121	-0.1461835
138	0x3e99fe4f	0.30076835
139	0xbe88fc91	-0.26755193
140	0x3f1505e5	0.5821212
141	0x3f03a5da	0.51424944
142	0x3d1a16f9	0.037619565
143	0xbe8a8c45	-0.27060142
144	0xbe834942	-0.2564183
145	0xbd72683e	-0.059181444
146	0xbe9541cc	-0.29151762
147	0xbecdb664	-0.40178216
148	0xbec9dd58	-0.39426684
149	0xbe046233	-0.12928085
150	0x3e8024d3	0.25028095
151	0xbeb06e76	-0.34459275
152	0x3ef29a5b	0.4738339
153	0xbe5e8b2c	-0.21732777
154	0x3e08db68	0.13364947
155	0x3ece8a1b	0.4033974
156	0xbe74e44e	-0.23915216
157	0x3e30e0fe	0.17273328
158	0xbf245cf5	-0.6420434
159	0xbd00e706	-0.03147032
160	0xbe03199f	-0.12802742
161	0x3ea111df	0.31458947
162	0x3ee1cc10	0.44101
163	0xbe136556	-0.14394125
164	0xbe4af669	-0.1982056
165	0x3d8cc8bf	0.06874227
166	0xbebdd375	-0.3707539
167	0xbea37000	-0.31921387
168	0x3d389b1b	0.045069795
169	0xbefd3e20	-0.4946146
170	0x3dd4e9e4	0.103961736
171	0x3e4ee75f	0.20205449
172	0x3d780f2b	0.06056134
173	0x3e0c8b4c	0.13725013
174	0x3d95f2ae	0.07321678
175	0x3ec0173b	0.37517723
176	0xbe3163f4	-0.17323285
177	0x3d20c7c7	0.039253023
178	0x3e8f5f7a	0.2800253
179	0x3e83c4cb	0.2573608
180	0xbf25f97b	-0.648338
181	0xbe9379c0	-0.28803825
182	0xbc95a029	-0.018264847
183	0xbe148563	-0.14504008
184	0xbc83c71f	-0.01608616
185	0xbe72817f	-0.23682211
186	0x3ee32a04	0.44367993
187	0xbe62bdc4	-0.22142702
188	0xbe46cb2a	-0.19413438
189	0x3e92fa31	0.28706506
190	0xbe88773e	-0.26653475
191	0x3e587307	0.2113763
192	0x3e823352	0.2542978
193	0x3e90d73b	0.28289208
194	0xbea92398	-0.33034968
195	0xbe2c88bc	-0.16849035
196	0xbda11ecc	-0.07867202
197	0x3e070cfe	0.1318855
198	0xbd676c30	-0.05649966
199	0x3bdc8613	0.00672985
200	0x3e7ce922	0.24698308
201	0x3ebd84ff	0.3701553
202	0xbe145ace	-0.14487764
203	0xbf0bfa0b	-0.5467841
204	0x3ec24e69	0.37950447
205	0xbe7f3640	-0.24923038
206	0x3e2ad54d	0.1668293
207	0xbe9941e5	-0.29933086
208	0xbdab1789	-0.08354098
209	0xbe88e09d	-0.26733866
210	0x3eb11096	0.34582967
211	0xbe873364	-0.26406395
212	0xbd9ef06b	-0.077607
213	0xbe633022	-0.2218633
214	0xbe839e32	-0.2570663
215	0x3dd4fd38	0.1039986
216	0x3f0570d6	0.521253
217	0x3d50c814	0.05097206
218	0x3f138c74	0.5763619
219	0xbe8e6e29	-0.2781842
220	0x3be5fbda	0.0070185484
221	0xbdb8df13	-0.09026923
222	0xbd073685	-0.03301098
223	0xbf1a9ff7	-0.60400337
224	0x3e995892	0.29950386
225	0x3e4a9bd2	0.19786003
226	0xbe8957e3	-0.26824865
227	0xbe88c074	-0.2670933
228	0x3dc7b0b3	0.097504996
229	0xbe188f8c	-0.14898509
230	0x3d837049	0.06417901
231	0x3d800621	0.06251169
232	0x3ea01383	0.31264886
233	0xbe3be9ae	-0.1835086
234	0xbe9ad99e	-0.30244154
235	0xbe26349c	-0.16231006
236	0x3ec6555b	0.38736996
237	0x3e33528d	0.1751196
238	0x3efa8882	0.48932272
239	0x3e707d56	0.23485312
240	0x3ec69b91	0.38790563
241	0xbf02ccee	-0.5109395
242	0xbde6f3f8	-0.11277002
243	0xbe39bdd9	-0.18138827
244	0x3dc98570	0.09839904
245	0x3dd1d6ae	0.10246025
246	0xbe70f986	-0.23532686
247	0xbecd77f4	-0.4013058
248	0xbc84c617	-0.016207738
249	0x3e9adfc9	0.3024886
250	0xbd104a4d	-0.03522711
251	0x3d9efd0f	0.07763111
252	0x3f1da640	0.615818
253	0x3eca7dc2	0.3954907
254	0x3ec7d83f	0.3903217
255	0xbdfde88b	-0.1239787

fc1.bias f4 [256]
0	0xbe63d984	-0.22250944
1	0xbd9f291f	-0.07771515
2	0x3e181ce2	0.14854768
3	0x3df9e27c	0.122014016
4	0x3ea0166f	0.31267115
5	0xbc43a763	-0.011941764
6	0x3dc1940e	0.09452067
7	0xbe963fa2	-0.29345423
8	0xbdb64766	-0.08900337
9	0xbeb09a78	-0.3449285
10	0x3db75e0c	0.08953485
11	0x3cc715cc	0.024302386
12	0x3e16be1f	0.14720963
13	0xbcff3b27	-0.031156136
14	0xbe5f2d87	-0.21794711
15	0xbe0672db	-0.13129751
16	0x3e8caa98	0.27473903
17	0x3e295455	0.16536076
18	0x3e33fb81	0.1757641
19	0xbd53f628	-0.051748425
20	0xbde37edc	-0.11108181
21	0x3e73a6c6	0.23794088
22	0x3cc56c08	0.024099365
23	0x3eaedb0c	0.34151495
24	0x3e18438b	0.14869516
25	0xbe7516e0	-0.23934507
26	0xbe7e52b1	-0.24836232
27	0xbe0e9bb4	-0.13926584
28	0xbe8879fd	-0.2665557
29	0xbe3aa391	-0.18226458
30	0xbcb34841	-0.02188504
31	0xbddc6f23	-0.10763385
32	0x3e51f0c1	0.20501997
33	0x3da43ee0	0.08019805
34	0xbd8225d9	-0.06354875
35	0x3eaaa6fc	0.33330524
36	0x3e9677e2	0.29388338
37	0xbc00a898	-0.007852696
38	0xbca3ec24	-0.020010062
39	0xbe6091ac	-0.2193057
40	0x3e5b0c65	0.21391447
41	0xbeb472d4	-0.35243857
42	0x3e15c803	0.1462708
43	0x3d7ac15e	0.061219566
44	0x3e1f953a	0.15584269
45	0x3e77f428	0.24214232
46	0x3ebe40ee	0.37158912
47	0xbe11755a	-0.14204922
48	0x3e626278	0.22107875
49	0x3e27ecf2	0.16398981
50	0xbe76a0ac	-0.24084729
51	0xbeac4bea	-0.33651668
52	0xbe247194	-0.16058952
53	0x3d9ff97b	0.078112565
54	0xbe355912	-0.17709759
55	0x3e7e3865	0.248262
56	0x3ea31210	0.31849718
57	0xbe34bb9d	-0.17649694
58	0xbd7601b7	-0.06006023
59	0x3e7ac499	0.24489059
60	0xbd345875	-0.04402967
61	0xbe244932	-0.16043547
62	0x3d8a1003	0.06741335
63	0xbd6434ab	-0.05571429
64	0xbd7ddad1	-0.061976258
65	0x3e7717e4	0.24130207
66	0xbd8862af	-0.066594474
67	0xbca32589	-0.01991536
68	0xbe2f8756	-0.1714147
69	0x3e36193e	0.17783067
70	0xbe2d6a1c	-0.16935009
71	0xbdc43a5d	-0.095814444
72	0x3e7861a7	0.24256001
73	0xbc576d6e	-0.013148649
74	0xbda471ae	-0.08029495
75	0x3e3cd880	0.18441963
76	0x3e66362f	0.22481607
77	0x3d6d1bce	0.057887845
78	0xbd5497a8	-0.051902443
79	0xbc00d329	-0.0078628445
80	0x3df47602	0.11936571
81	0x3cd40eb1	0.025885912
82	0x3d7bc179	0.061463807
83	0xbe3195f1	-0.17342354
84	0xbd183d7f	-0.037168022
85	0xbb065374	-0.002049652
86	0x3e990e15	0.29893556
87	0x3ded66b7	0.11591857
88	0xbe5af0a9	-0.21380867
89	0x3deede97	0.116635494
90	0xbeaa4911	-0.3325887
91	0xbe5c833a	-0.21534434
92	0xbe4d8fa2	-0.20074323
93	0xbcf9538e	-0.03043535
94	0xbe88f8ae	-0.26752228
95	0xbdebf622	-0.115215555
96	0xbe03c63f	-0.12868594
97	0xbd7a0d38	-0.061047763
98	0x3c9ab9e6	0.018887471
99	0xbe645ac2	-0.22300246
100	0xbe313450	-0.17305112
101	0x3dd70121	0.10498262
102	0x3e20fb8a	0.15720955
103	0x3e78a3eb	0.2428128
104	0x3e98bf59	0.29833487
105	0x3c44aaac	0.012003582
106	0x3de5509c	0.11197016
107	0x3e74f576	0.23921761
108	0x3b6d7a90	0.0036236383
109	0x3e66fd14	0.22557479
110	0x3e3532e5	0.17695196
111	0xbe3ace71	-0.18242814
112	0xbe03c677	-0.12868677
113	0xbdacbc91	-0.08434404
114	0x3d9edfc9	0.077575274
115	0xbe45e84d	-0.19326897
116	0xbe090c62	-0.1338363
117	0xbe03361f	-0.12813614
118	0x3da9d85e	0.08293222
119	0xbe340b49	-0.1758243
120	0x3e33404a	0.17504993
121	0xbe3cf373	-0.18452244
122	0x3e9640c2	0.2934628
123	0x3d65cd6b	0.056104105
124	0x3b071bee	0.0020616013
125	0x3e1719d2	0.14755943
126	0x3ea943ec	0.33059633
127	0x3c0f87ef	0.008760436
128	0x3db9d39c	0.090735644
129	0xbdf6798b	-0.12034901
130	0xbd402646	-0.0469115
131	0xbe46c9c3	-0.19412903
132	0xbe0d3fb1	-0.13793828
133	0xbbd4143c	-0.0064721387
134	0x3d9ab280	0.075535774
135	0xbe8b585c	-0.2721585
136	0x3e976277	0.2956731
137	0x3df1562c	0.11784014
138	0x3e3eb833	0.18624954
139	0x3e0c7e67	0.13720094
140	0xbdd1e2ac	-0.10248312
141	0xbce90c4a	-0.028448243
142	0xbcc22a2a	-0.023701746
143	0xbd7ea6c6	-0.062170766
144	0x3ea0b80e	0.31390423
145	0xbe3ba8d9	-0.18326129
146	0xbab960b5	-0.0014143201
147	0x3d715289	0.058916602
148	0x3c6664eb	0.014062147
149	0xbd248a06	-0.040170692
150	0xbe5cf5d8	-0.21578157
151	0xbe7b4b2b	-0.24540393
152	0x3eb3e721	0.35137275
153	0xbe42a283	-0.19007306
154	0xbc2cb5aa	-0.010541359
155	0x3dd06179	0.101748414
156	0x3e33017b	0.17481034
157	0xbe36c237	-0.17847525
158	0xbe15c970	-0.14627624
159	0x3eaa1931	0.33222345
160	0x3e079c21	0.13243152
161	0x3ea311c2	0.31849486
162	0x3e2b3c80	0.16722298
163	0x3e511bd9	0.2042078
164	0xbe939ac4	-0.28829014
165	0xbe6e7419	-0.23286475
166	0x3d08c9ea	0.033395685
167	0xbd6bb1c4	-0.057542577
168	0x3e6b7748	0.22994721
169	0x3d8ecca5	0.069726266
170	0x3ebadbbc	0.3649577
171	0x3e9d0d57	0.3067424
172	0xbe291fda	-0.16516057
173	0x3d853e18	0.06505984
174	0x3db9e4f3	0.09076872
175	0xbe1b069b	-0.15139239
176	0x3d92e990	0.07173455
177	0x3e265bfb	0.16246025
178	0x3ebc8521	0.3682032
179	0xbe5e1738	-0.21688545
180	0x3daf098f	0.08546745
181	0x3c819bcc	0.01582136
182	0xbcdb24ec	-0.026751004
183	0x3e3195d8	0.17342317
184	0x3eb56e70	0.3543582
185	0x3e2c59c6	0.16831121
186	0xbd2a13af	-0.041522678
187	0x3e515651	0.20443083
188	0xbe0db626	-0.13839015
189	0x3e6d04a9	0.23146309
190	0x3d319f63	0.043364894
191	0xbd58c4d4	-0.052922085
192	0x3eaa6ad7	0.33284637
193	0x3e909284	0.28236783
194	0xbe59791f	-0.2123761
195	0xbdf02367	-0.117255025
196	0xbddea0a1	-0.10870481
197	0x3e4a7385	0.1977063
198	0x3eafaa9b	0.3430985
199	0x3e81b498	0.25333095
200	0x3db8517d	0.08999918
201	0x3e6a4319	0.22877158
202	0x3e96b1c4	0.294325
203	0x3e6f7e6e	0.23388073
204	0x3e1d6ef5	0.15374358
205	0x3e04948c	0.12947291
206	0xbe4536f3	-0.19259243
207	0xbde4bf8f	-0.111693494
208	0x3ba88613	0.005142936
209	0xbe3c0d0c	-0.18364352
210	0xbd167b30	-0.036738575
211	0xbd4073f1	-0.04698557
212	0xbe5bc2be	-0.21461007
213	0xbe8f3017	-0.27966377
214	0x3e10c574	0.14137822
215	0xbcb45b3e	-0.022016164
216	0x3e2d6d6a	0.1693627
217	0xbe0ade6e	-0.13561413
218	0xbddf3e9d	-0.109006144
219	0xbd7fe81b	-0.062477212
220	0xbe52d6b8	-0.20589721
221	0xbe871d3d	-0.26389495
222	0xbdc8226e	-0.09772192
223	0xbe1f9a5a	-0.15586224
224	0x3e9c7ec4	0.30565464
225	0x3e645c13	0.22300749
226	0x3eafc8a3	0.3433276
227	0xbd0708e5	-0.032967467
228	0x3e88c0fb	0.26709732
229	0x3e24b2bb	0.16083805
230	0x3e8ba84e	0.27276844
231	0xbe281e95	-0.16417916
232	0x3dd238b8	0.102647245
233	0x3d957e02	0.07299425
234	0xbd8ccfc2	-0.06875564
235	0x3d47b3e4	0.04875554
236	0x3d17f3ff	0.037097927
237	0xbe34f173	-0.1767023
238	0xbe463b87	-0.19358645
239	0x3e84034e	0.2578377
240	0x3cf185a5	0.029482672
241	0xbdff5d77	-0.12468999
242	0x3e693df1	0.22777535
243	0x3eafa0eb	0.34302458
244	0x3e777847	0.24166976
245	0x3e8d5301	0.2760239
246	0x3e8e0609	0.2773898
247	0xbe4ae617	-0.19814335
248	0x3d058c51	0.03260452
249	0xbe9edb15	-0.3102652
250	0x3e0dc37f	0.13844107
251	0xbe1c0408	-0.15235913
252	0x3ea556fe	0.32292932
253	0x3a6a8a81	0.00089470303
254	0x3ce93b89	0.028470771
255	0x3c59abc9	0.013285586

fc2.weight f4 [256, 256]
0	0xbd2d38aa	-0.042290367
1	0xbe54739d	-0.20747228
2	0xbdd1a17e	-0.1023588
3	0x3d9af761	0.07566715
4	0xbd74c075	-0.059753854
5	0x3d881609	0.06644828
6	0xbdc3a57e	-0.095530495
7	0x3dc541e2	0.09631707
8	0xbe989359	-0.29799917
9	0xbf01c749	-0.5069471
10	0x3d593af2	0.05303473
11	0x3b71af66	0.0036878227
12	0xbd2dba32	-0.042413898
13	0xbccb410c	-0.02481129
14	0x3d8c6089	0.0685435
15	0x3e6a7426	0.2289587
16	0x3c7cf2d2	0.015438752
17	0x3c76a398	0.015053652
18	0xbc837078	-0.01604484
19	0x3d3cf4b7	0.046131816
20	0x3dc8367f	0.09776019
21	0x3d1311fc	0.035905823
22	0xbdea473c	-0.11439368
23	0x3cf75269	0.030190663
24	0x3d8c2aa7	0.06844073
25	0xbd2b5be8	-0.041835696
26	0x3e8f816f	0.28028437
27	0x3dde943e	0.10868119
28	0xbe8f5fad	-0.28002682
29	0xbe218058	-0.15771616
30	0x3e05abed	0.13053866
31	0x3dafb639	0.08579678
32	0xbd660585	-0.056157608
33	0x3d61ecc5	0.05515744
34	0xbdc0fe40	-0.09423494
35	0xbccf1b8a	-0.025281686
36	0x3dfbf63b	0.12302824
37	0xbcbf19b1	-0.02332768
38	0x3c738d80	0.014865279
39	0x3e0239f1	0.12717415
40	0xbb550264	-0.0032502646
41	0x3deccd11	0.11562551
42	0x3bc21e4d	0.0059240223
43	0x3d111824	0.035423413
44	0xbe388599	-0.18019713
45	0x3d347968	0.044061095
46	0x3d879932	0.066210166
47	0x3d3c7aed	0.04601567
48	0xbbade705	-0.0053070807
49	0xbdd4ceee	-0.10391031
50	0x3db56190	0.08856499
51	0xbdf9fc93	-0.12206378
52	0xbc560630	-0.013062999
53	0xbda25dae	-0.07928024
54	0xbdfc3f88	-0.12316805
55	0xbc5b4195	-0.013382335
56	0x3d2b1dc0	0.04177642
57	0x3defcf94	0.11709514
58	0x3d1b955a	0.03798423
59	0x3b2e1827	0.002656469
60	0xbc283e8c	-0.010268819
61	0x3d6fa709	0.058508907
62	0xbdcf0255	-0.10107867
63	0xbe26a309	-0.1627313
64	0xbd9f18d3	-0.07768407
65	0xbe3b1939	-0.1827134
66	0x3cc260a6	0.023727726
67	0x3d8c5f97	0.0685417
68	0xbe85e0dd	-0.2614812
69	0x3d6786a5	0.05652489
70	0x3e937ed4	0.288077
71	0xbe28ef4f	-0.16497539
72	0xbd647eb0	-0.05578488
73	0x3d88cc40	0.066795826
74	0x3de997aa	0.11405881
75	0x3d8365d2	0.06415905
76	0x3cd926ec	0.026507817
77	0x3d6d1345	0.057879705
78	0x3da8e414	0.082466274
79	0xbe3f8d3c	-0.1870622
80	0x3db53850	0.088486314
81	0xbdf8f82d	-0.12156711
82	0x3d810b07	0.063009314
83	0x3cc501bf	0.024048684
84	0xbc04e532	-0.008111285
85	0x3d4b2a37	0.049600806
86	0x3ce5857a	0.028017748
87	0xbc007231	-0.007839725
88	0xbd964c04	-0.073387176
89	0xbcd4453d	-0.025911922
90	0xbd961f5b	-0.07330199
91	0x3de088fc	0.10963628
92	0x3c369e47	0.011146135
93	0xbd5362c6	-0.05160787
94	0x3df17b4c	0.11791095
95	0xbd6ee896	-0.05832728
96	0x3dd94d11	0.106104024
97	0xbe358960	-0.17728186
98	0xbd792b06	-0.060832046
99	0xbeee8fc4	-0.4659406
100	0xbe005f35	-0.12536319
101	0x3d35c87c	0.04438065
102	0x3a06222a	0.0005116785
103	0xbc834bf0	-0.01602742
104	0xbda9bf31	-0.0828842
105	0x3d85828d	0.06519041
106	0xbe205d4c	-0.1566059
107	0x3daffce9	0.08593161
108	0x3e681cd5	0.22667249
109	0x3dda9fb3	0.106749915
110	0xbc689589	-0.014195808
111	0xbef360c6	-0.4753477
112	0x3d578801	0.052619938
113	0xbf1cb77d	-0.6121748
114	0x3c0bab42	0.008524718
115	0xbd445be0	-0.04793918
116	0xbd51ec02	-0.051250465
117	0xbdcec67b	-0.10096451
118	0xbd3e89d7	-0.046518173
119	0xbec4aaff	-0.3841171
120	0xbd3afdb5	-0.04565211
121	0xbe32e9c8	-0.17471993
122	0xbe1129cc	-0.141761
123	0x3d623b61	0.05523241
124	0x3dc3cb9f	0.09560322
125	0xbdbc702d	-0.09201083
126	0x3d98d1ee	0.07461916
127	0xbd8fe33d	-0.07025764
128	0xbd0f488d	-0.0349813
129	0xbdfff46a	-0.1249779
130	0xba58452e	-0.00082500547
131	0x3c715f3a	0.014732176
132	0x3dd86512	0.10566153
133	0x3d17a303	0.037020694
134	0xbe13c739	-0.14431466
135	0x3d38948b	0.045063537
136	0x3cbe81ba	0.023255218
137	0xbe35ef14	-0.17766982
138	0x3b9654a7	0.004587728
139	0x3e24c40e	0.16090414
140	0xbce53189	-0.027977722
141	0xbeae8920	-0.34088993
142	0xbe45f52c	-0.19331807
143	0x3db35406	0.087562606
144	0x3cea0124	0.028564997
145	0xbe1c1914	-0.15243942
146	0x3d9ddb84	0.07707885
147	0x3dcad92a	0.09904702
148	0x3dfa1d23	0.12212589
149	0xbab08c9b	-0.0013469638
150	0xbe720da7	-0.2363802
151	0x3e4d63e8	0.20057642
152	0x3c9e2545	0.01930488
153	0xbeb96f13	-0.36217555
154	0xbdcc79f0	-0.09984195
155	0x3c459f32	0.012061881
156	0xbc8e6b00	-0.017385006
157	0x3dae35bc	0.08506343
158	0x3e432655	0.19057591
159	0xbd15a05d	-0.036529887
160	0x3d058703	0.03259946
161	0xbdc5e6cc	-0.09663162
162	0x3ca64ae5	0.020299384
163	0xbd9f2a21	-0.07771707
164	0x3dc4b493	0.09604754
165	0x3de3c794	0.11122051
166	0x3d6af4e0	0.057362437
167	0xbe4d9f1b	-0.20080225
168	0xbdbba593	-0.0916244
169	0x3d7cb5c0	0.061696768
170	0xbd80d793	-0.062911175
171	0xbd40d6a8	-0.047079712
172	0xbaa30594	-0.0012437575
173	0xbca43620	-0.02004534
174	0xbd042ce8	-0.03226939
175	0x3d2db3a2	0.04240764
176	0xbdabbcb0	-0.08385599
177	0xbe8c9c2d	-0.27462903
178	0x3d79a65c	0.06094967
179	0x3d1ff15f	0.03904855
180	0xbcd026e8	-0.025409177
181	0xbe82192b	-0.25409827
182	0x3d9b8a37	0.07594722
183	0x3c37710a	0.011196384
184	0x3d19dc94	0.037563875
185	0xbeb02de8	-0.34410024
186	0x3d06f896	0.032951914
187	0x3e6c7e9c	0.23095173
188	0x3d8fc5eb	0.07020172
189	0x3d062df7	0.03275868
190	0x3d54b9b4	0.051934913
191	0xbe03c01f	-0.12866257
192	0x3dfe1e93	0.12408175
193	0x3d9c2f9e	0.0762627
194	0xbcd8c66e	-0.026461806
195	0x3dfe6d93	0.124232434
196	0x3c0b0613	0.008485335
197	0x3d867232	0.0656475
198	0xbc27d2d2	-0.010243135
199	0xbb630bb4	-0.0034644427
200	0xbe0e68d1	-0.13907172
201	0xbe4fd031	-0.20294262
202	0x3c07104f	0.008243634
203	0x3cd47afc	0.02593755
204	0x3d1db03b	0.038498145
205	0xbc119ca8	-0.008887447
206	0x3e119fa0	0.14221048
207	0xbba3cad9	-0.0049985466
208	0xbd4a0245	-0.04931857
209	0x3d0826d4	0.033240154
210	0xbef55abf	-0.47920796
211	0x3bf3e350	0.0074428692
212	0xbe947c21	-0.29000953
213	0xbc97a3dc	-0.018510751
214	0x3da242da	0.07922907
215	0x3d6bd5ae	0.057576828
216	0xbcb4e48a	-0.022081632
217	0x3c8616c6	0.016368281
218	0x3d95bc10	0.07311261
219	0xbe40af68	-0.18816912
220	0xbe0833da	-0.1330103
221	0xbea4c8c7	-0.3218443
222	0xbe3e32a8	-0.18574011
223	0xbcbda78d	-0.023151184
224	0x3d0b3618	0.033987135
225	0x3d31a37f	0.043368813
226	0xbe4981d7	-0.19678436
227	0xbb855d1a	-0.0040699365
228	0xbc3cf751	-0.011533574
229	0x3cd213ae	0.02564415
230	0x3dadd8fa	0.084886506
231	0xbe14564c	-0.14486045
232	0xbe96a030	-0.29419088
233	0xbde076cc	-0.10960159
234	0xbe7e370b	-0.24825685
235	0xbd89b1e5	-0.06723384
236	0x3d84988b	0.06474408
237	0x3da2b3d2	0.07944454
238	0xbd9288d5	-0.07155005
239	0x3dc14728	0.094374
240	0x3c91f6d4	0.017817892
241	0x3d82ac40	0.0638051
242	0xbcdc981d	-0.026928002
243	0xbda2fd8d	-0.07958517
244	0xbce91420	-0.02845198
245	0xbd55af7b	-0.052169304
246	0x3d854a98	0.06508368
247	0xbd19ca7e	-0.037546627
248	0xbdbe7fba	-0.09301706
249	0xbd0d2c97	-0.034466352
250	0xbe838811	-0.25689748
251	0xbf0edee3	-0.5580885
252	0x3d861258	0.065464675
253	0xbe436289	-0.19080557
254	0xbed4253e	-0.41434664
255	0x3d979a4f	0.07402479

fc2.bias f4 [256]
0	0x3da6e8ce	0.08149873
1	0x3c72ec83	0.014826897
2	0x3d4a2982	0.04935599
3	0x3b219cc0	0.002466008
4	0x3c4af27a	0.0123869125
5	0x3c35b36c	0.011090141
6	0x3c9d146b	0.019174775
7	0xbc66750c	-0.014065992
8	0x3cf4427b	0.029816857
9	0xbd7b5300	-0.06135845
10	0x3d42f77c	0.0475993
11	0xbc14683f	-0.009058057
12	0x3d0d0f72	0.034438558
13	0x3db2d90b	0.08732804
14	0x3c4d2684	0.01252139
15	0xbd989f51	-0.07452262
16	0xbd78214c	-0.06057863
17	0xbc0b2d1a	-0.00849464
18	0x3d90e4e3	0.07074907
19	0xbd570136	-0.05249139
20	0xbcad5779	-0.021159874
21	0x3d79561e	0.060873143
22	0xbd055a33	-0.032556724
23	0x3d87db05	0.066335715
24	0x3d3410fc	0.04396151
25	0x3cb7f3e5	0.022455165
26	0x3cd5f234	0.026116468
27	0x3d5878a4	0.052849427
28	0x3c2e5437	0.010640196
29	0x3d9db80f	0.07701122
30	0xbc313e57	-0.010818086
31	0xbcde1b89	-0.02711274
32	0x3d4603ed	0.048343588
33	0x3a1061c5	0.0005507733
34	0x3b406ef5	0.002936301
35	0xbcd8cfca	-0.026466269
36	0xbce762b4	-0.028245308
37	0x3d3bc632	0.04584331
38	0x3d20e122	0.039277203
39	0x3d627f33	0.055297088
40	0x3d2af9da	0.041742183
41	0x3d8b6b8a	0.06807621
42	0x3d994602	0.07484056
43	0x3cac74dc	0.021051817
44	0xbd176d7c	-0.036969647
45	0x3d002356	0.0312837
46	0x3cd58904	0.02606631
47	0x3d476687	0.048681762
48	0xbc8ff432	-0.017572496
49	0xb92d9a8a	-0.00016556136
50	0xbcfa2c8d	-0.030538822
51	0x3da89ba2	0.082328096
52	0xbdac267c	-0.08405778
53	0xbd99b92c	-0.07506022
54	0xba1b0058	-0.0005912832
55	0xbcfa7221	-0.030571999
56	0x3d192be4	0.037395373
57	0xbc489b8d	-0.012244117
58	0x3c45b081	0.012066008
59	0x3d8b46a0	0.0680058
60	0x3d23985c	0.039940223
61	0xbc927dd7	-0.01788227
62	0xba77af24	-0.00094484
63	0x3d7e5c23	0.062099587
64	0xbc526383	-0.012841108
65	0xbd1eac3d	-0.038738478
66	0x3ca8981d	0.020580346
67	0x3d0e1434	0.034687236
68	0xbd9209a4	-0.07130745
69	0xbc83fa66	-0.01611061
70	0x3c5b9ac7	0.013403601
71	0xbce6ca35	-0.028172592
72	0xbd203092	-0.03910882
73	0x3d1e0a58	0.038584083
74	0xbd136e70	-0.035993993
75	0xbd66c0e6	-0.056336306
76	0x3d8bdfa0	0.068297625
77	0x3d4d3dc2	0.050107725
78	0x3d3c729d	0.04600774
79	0x3d67552a	0.056477703
80	0x3c425e88	0.011863358
81	0xbc7d59bf	-0.015463292
82	0x3d26c89d	0.040718663
83	0x3d2ee251	0.0426963
84	0x3c9080d4	0.017639555
85	0x3dc1bcb2	0.09459819
86	0xbd351821	-0.044212464
87	0x3cac96ec	0.021068059
88	0x3c8c4b18	0.017125651
89	0x3d9ff1e9	0.078098126
90	0x3c9019a5	0.017590353
91	0x3da0a7e2	0.07844521
92	0xbca83bad	-0.020536268
93	0x3c6e916a	0.014561037
94	0x3c479cea	0.012183407
95	0x3d294f46	0.041335367
96	0x3bb2a8b5	0.0054522404
97	0x3d348092	0.044067927
98	0x3d56e9bc	0.052469
99	0x3b939593	0.0045039146
100	0x3c1582b5	0.009125401
101	0x3c143371	0.009045468
102	0x3d9814b8	0.07425827
103	0xbcf00b3e	-0.029302236
104	0x3d95a694	0.07307163
105	0x3c58fbf7	0.013243667
106	0xbd5461fd	-0.05185126
107	0xbd06439f	-0.032779332
108	0xbd7050d5	-0.058670837
109	0xbc0a1ed1	-0.008430199
110	0x3c1c5e40	0.009543955
111	0x3cbe2e68	0.023215488
112	0xbd017356	-0.031604134
113	0x3bf1dea0	0.0073812753
114	0x3ca245fb	0.01980876
115	0xbcc83a2e	-0.024441805
116	0xbb0318f6	-0.0020003892
117	0x3da54b2d	0.08070979
118	0x3caeaef3	0.021323657
119	0x3d515435	0.051105697
120	0xbd796304	-0.060885444
121	0xbac72ae3	-0.0015195276
122	0x3d6ea71a	0.05826483
123	0xbb813ff9	-0.0039443937
124	0xbd2e327b	-0.04252861
125	0x3d0adede	0.03390395
126	0x3d486af6	0.04893013
127	0xbbb78a4e	-0.005601204
128	0x3db58405	0.08863071
129	0x3c5947f9	0.0132617885
130	0xbd11b737	-0.035575118
131	0xbc48ad6f	-0.012248381
132	0xbb4d2478	-0.0031302255
133	0x3c670f31	0.014102743
134	0x3c98d0da	0.018654276
135	0x3cd73d05	0.026274214
136	0xbc8bb62b	-0.017054638
137	0xbc17395d	-0.009229985
138	0x3d4782bf	0.048708674
139	0x3d2f9fe2	0.042877086
140	0xbd8968c5	-0.06709436
141	0x3d79ae83	0.060957443
142	0xbc7ec3c4	-0.015549604
143	0xbdbe0b09	-0.092794485
144	0x3c453312	0.012036102
145	0x3d37b1fa	0.044847466
146	0xbd46c8e9	-0.048531447
147	0x3d429ead	0.047514606
148	0x3d762357	0.060092296
149	0x3d8fbcd7	0.0701844
150	0xbd6cfd5b	-0.057858806
151	0x3cfca0e7	0.030838443
152	0xbd2d5758	-0.042319626
153	0xbbb47711	-0.005507358
154	0x3d53d16a	0.051713385
155	0x3d2009c4	0.039071813
156	0x3d8017b1	0.06254519
157	0xbd6be54e	-0.05759173
158	0x3ae20e83	0.0017246756
159	0xbd0dc92c	-0.03461568
160	0xb954c429	-0.00020290971
161	0x3b18b7a7	0.0023302825
162	0x3c7bb03c	0.015361842
163	0xbcbdf9f9	-0.023190485
164	0x3cae72dd	0.021295005
165	0xbd5d7058	-0.054062217
166	0xbd445971	-0.04793686
167	0x3d34ffe4	0.04418935
168	0x3c9e6925	0.019337246
169	0x3d915224	0.07095745
170	0xbcc3f9c3	-0.023922807
171	0x3ccb4cbf	0.024816869
172	0x3cc20d63	0.023688024
173	0x3c9731ba	0.018456329
174	0x3c97fad9	0.01855223
175	0xbc41644b	-0.011803697
176	0xbd014d18	-0.031567663
177	0x3db6f56a	0.08933528
178	0xbd1ba9a2	-0.03800357
179	0x3d7205e0	0.059087634
180	0xbd8bdf08	-0.06829649
181	0xbae31cf7	-0.0017327358
182	0xbb68c533	-0.003551793
183	0x3c8c288e	0.017109182
184	0x3d4c9b78	0.049952954
185	0x3cf3a7dc	0.029743128
186	0x3d7bb761	0.06145418
187	0xbd0ce260	-0.034395576
188	0xbd24473a	-0.04010699
189	0x3ca3c6c1	0.019992234
190	0x3d73eac4	0.05955006
191	0xba8b7d4b	-0.0010642199
192	0xbd0caec9	-0.034346376
193	0xbdb2f73f	-0.08738565
194	0x3d2f0563	0.042729747
195	0xbd892ffb	-0.06698605
196	0x3cbc57cf	0.02299109
197	0xbb2051eb	-0.002446289
198	0x3d8582fa	0.065191224
199	0x3d37e1b4	0.04489298
200	0x3d45dd5a	0.0483068
201	0x3d36a23a	0.044588305
202	0x3c949a1a	0.018139888
203	0x3d3a1463	0.0454296
204	0x3c74b62b	0.01493601
205	0xbce436d5	-0.027858177
206	0xbd3c8ab9	-0.046030734
207	0x3d271bfe	0.04079818
208	0x3d1f64b5	0.0389144
209	0x3d22a0aa	0.039704002
210	0x3ce71a96	0.02821092
211	0xbcccf196	-0.02501754
212	0x3c891f6b	0.016738614
213	0xbd33f20c	-0.043932006
214	0x3ccf5917	0.025311036
215	0x3d99e539	0.07514424
216	0xbc9a2c14	-0.018819846
217	0xbce91d8e	-0.028456476
218	0xbd09dbae	-0.03365677
219	0x3dc6f933	0.097155
220	0x3da9cc1e	0.082908854
221	0x3db08aab	0.08620199
222	0xbd934e3d	-0.07192657
223	0x3d5b8071	0.05358929
224	0xbd4af9a0	-0.049554467
225	0x3d800e38	0.06252712
226	0x3d201596	0.039083086
227	0xbdb1711f	-0.08664154
228	0x3d34f0a0	0.04417479
229	0x3bbd5737	0.005778219
230	0xbc8ccae9	-0.017186599
231	0x3d61f6c5	0.05516698
232	0xbca6eaf5	-0.020375708
233	0xbcd3fe41	-0.025878074
234	0xbcff1f7c	-0.031142943
235	0x3d4ea240	0.050447702
236	0x3da80e31	0.08205832
237	0xbc875d2c	-0.01652392
238	0xbd5937a9	-0.053031597
239	0xbd078b3c	-0.03309177
240	0x3c76629a	0.015038157
241	0x3c5bf03c	0.013423976
242	0xbdef928d	-0.11697874
243	0x3db1650a	0.0866185
244	0xbc99f669	-0.018794255
245	0x3da7d6c1	0.08195258
246	0x3dc9e1fc	0.09857556
247	0xbca1ad62	-0.019735996
248	0x3d75c1e8	0.059999377
249	0xbc234b13	-0.00996663
250	0x3d8f9b57	0.070120506
251	0x3d13d3b4	0.036090568
252	0xbd4f210c	-0.050568625
253	0xbc585efc	-0.01320624
254	0x3cbde3db	0.023179939
255	0x3d933da9	0.07189495

mean.weight f4 [2, 256]
0	0xbe121661	-0.1426635
1	0x3d891530	0.06693494
2	0xbe598e32	-0.2124565
3	0xbf8d1bd4	-1.1024117
4	0x3e2c43e3	0.16822772
5	0x3e32ed1e	0.17473266
6	0x3e240c14	0.16020232
7	0xbefc08f7	-0.4922559
8	0xbe0f17de	-0.13973948
9	0xbce414a4	-0.027841873
10	0x3dbc5811	0.09196485
11	0xbe826128	-0.2546475
12	0xbdf54334	-0.119757086
13	0xbea0c943	-0.3140355
14	0x3e278a76	0.16361412
15	0xbdaad675	-0.08341686
16	0xbd1248a4	-0.035713807
17	0x3c42b30e	0.01188351
18	0xbddbe614	-0.10737243
19	0xbd154f3b	-0.036452513
20	0x3cef350d	0.029200101
21	0xbdb4b473	-0.088234805
22	0x3dbe30e2	0.092866674
23	0x3cb7f12c	0.022453867
24	0xbe01a5b4	-0.12660867
25	0xbe487884	-0.19577223
26	0xbe896f94	-0.2684294
27	0x3e90ead4	0.2830416
28	0xbe658296	-0.22413096
29	0xbd6144df	-0.05499732
30	0x3cfe92fd	0.031075949
31	0x3eb1c536	0.34720773
32	0xbdf24452	-0.11829437
33	0x3cd8927f	0.026437042
34	0x3dbb8be4	0.091575414
35	0x3e055f76	0.13024697
36	0xbd02fbfd	-0.031978596
37	0x3d419e9a	0.047270395
38	0xbd37c8c9	-0.044869218
39	0x3f4905e8	0.7852464
40	0xbd9121c9	-0.07086522
41	0xbdcd2c0c	-0.10018167
42	0x3f8a950f	1.0826739
43	0xbdf91344	-0.12161878
44	0xbc928aef	-0.017888514
45	0xbbda339e	-0.0066589853
46	0x3d152bf3	0.036418866
47	0x3cc25b7e	0.023725267
48	0xbc697cff	-0.014250993
49	0x3e0735be	0.13204095
50	0x3f0105f0	0.50399685
51	0x3eae3b22	0.3402949
52	0xbee08850	-0.43853998
53	0xbec1e226	-0.3786785
54	0xbc2d9a82	-0.01059592
55	0xbe5f3481	-0.21797372
56	0x3f114202	0.56741345
57	0xbe23fb0d	-0.16013737
58	0x3e17f3bb	0.1483907
59	0x3e0387d9	0.1284479
60	0xbeb67c09	-0.35641506
61	0xbe131605	-0.14363869
62	0xbe74f4eb	-0.23921554
63	0x3dbb8eb1	0.091580756
64	0xbe7bd0fc	-0.2459144
65	0x3eabeaf1	0.33577684
66	0xbd5f5e79	-0.054533456
67	0x3ea502ea	0.32228786
68	0xbdd5e103	-0.10443308
69	0xbe2c5378	-0.16828716
70	0xbb979170	-0.004625492
71	0xbe06df86	-0.13171205
72	0xbe912b66	-0.28353423
73	0x3e2caca8	0.16862738
74	0xbeb24458	-0.34817767
75	0xbede4b17	-0.43416664
76	0xbd9265de	-0.07148336
77	0x3e938ea4	0.28819764
78	0xbe06128c	-0.13093013
79	0xbd9949b7	-0.07484763
80	0xbe4ac7e5	-0.19802816
81	0xbe466a98	-0.193766
82	0xbe17e8e5	-0.14834936
83	0xbf35a0b0	-0.70948315
84	0xbd97167f	-0.07377338
85	0xbf8a260d	-1.0792862
86	0xbea3d2a7	-0.31996652
87	0x3bad38f1	0.005286329
88	0xbda869a3	-0.082232736
89	0xbee8079e	-0.4531831
90	0x3e856cbb	0.26059517
91	0xbd2dc6bb	-0.042425852
92	0x3e3d373f	0.18478106
93	0x3e644ace	0.2229416
94	0xbfb0233f	-1.3760756
95	0x3ef48c5f	0.47763345
96	0x3cd248f0	0.025669545
97	0x3e2024ac	0.15638989
98	0xbd013a77	-0.031549897
99	0xbd6702cf	-0.056399163
100	0x3e63f00c	0.2225954
101	0x3d6e6614	0.058202818
102	0xbe886fdf	-0.2664785
103	0x3c320244	0.010864798
104	0x3dcef17a	0.10104652
105	0x3dc4ffae	0.096190795
106	0x3c6e5dc3	0.014548722
107	0xbdd7ead0	-0.10542834
108	0xbd4026da	-0.04691205
109	0xbe991f63	-0.2990676
110	0xbd989b4d	-0.07451496
111	0x3e34e4cf	0.17665409
112	0xbe75b707	-0.239956
113	0xbf1a9ea3	-0.6039831
114	0x3d0c636f	0.034274515
115	0xbde2b739	-0.11070103
116	0xbea1afb8	-0.31579375
117	0xbea8b59d	-0.3295106
118	0x3defcf88	0.11709505
119	0xbdf51563	-0.1196697
120	0x3d66a158	0.056306213
121	0xbe94c496	-0.29056233
122	0xbe7d5479	-0.24739255
123	0xbe65a3a2	-0.22425702
124	0xbe202a23	-0.15641074
125	0x3e84caf7	0.259361
126	0x3ba1115b	0.004915399
127	0xbe5790ef	-0.21051382
128	0xbd9f8c09	-0.077903815
129	0x3e9bb363	0.304103
130	0xbe0d9340	-0.13825703
131	0xbe2c705f	-0.16839741
132	0xbc769b15	-0.015051623
133	0x3e0fe91a	0.14053765
134	0x3ca853a6	0.0205477
135	0xbe150853	-0.14553957
136	0x3e06814f	0.13135265
137	0x3cb63499	0.022241877
138	0xbe667db6	-0.22508892
139	0xbe6b3513	-0.22969465
140	0xbe8c511c	-0.27405632
141	0x3ceaa1db	0.028641632
142	0x3e46e483	0.19423108
143	0xbe86b883	-0.26312646
144	0xbe063174	-0.13104802
145	0xbe82d77f	-0.25555035
146	0x3d352444	0.04422404
147	0xbf04fdfa	-0.5195004
148	0x3e8845ab	0.26615652
149	0x3e6ad660	0.2293334
150	0x3cfa26ea	0.030536134
151	0xbec9c65a	-0.39409143
152	0x3e00f8d0	0.12594914
153	0x3dba1c69	0.0908745
154	0x3dea7b46	0.11449294
155	0x3cc7a627	0.02437122
156	0x3dd13302	0.10214807
157	0xbef64129	-0.48096588
158	0x3d618fd2	0.0550688
159	0x3e21f418	0.1581577
160	0x3de2a09b	0.11065789
161	0x3ec5d56f	0.386394
162	0xbe33ea70	-0.175699
163	0xbee60651	-0.44926694
164	0x3c037eb7	0.008025817
165	0xbdcd8a2d	-0.100361206
166	0xbeb6533e	-0.35610384
167	0x3ea5aa08	0.32356286
168	0xbe558b1b	-0.20853846
169	0xbe0918ba	-0.13388339
170	0x3eb9a6a4	0.3625995
171	0xbe181f55	-0.14855702
172	0x3df3b813	0.11900344
173	0xbe1220be	-0.14270303
174	0xbe17950f	-0.14802955
175	0xbe139718	-0.14413106
176	0xbdc16c14	-0.094444424
177	0xbc257022	-0.010097535
178	0xbd35601f	-0.04428112
179	0x3e0dc23a	0.13843623
180	0x3ea552b8	0.32289672
181	0x3d26eecd	0.040755082
182	0xbf19a56c	-0.6001804
183	0x3dfad401	0.12247468
184	0x3cd44425	0.0259114
185	0x3e654aa0	0.22391748
186	0x3e39b238	0.18134391
187	0xbeb2e399	-0.34939268
188	0xbe932fa8	-0.28747296
189	0x3f068e24	0.5256064
190	0x3e17ab51	0.14811446
191	0x3d5bdb48	0.05367592
192	0x3e4c4134	0.19946748
193	0xbe868d65	-0.2627975
194	0xbdb7ea92	-0.089802876
195	0x3d337e52	0.04382164
196	0x3f63c7b7	0.88976616
197	0x3ce68fc2	0.028144721
198	0xbd3a8d14	-0.0455447
199	0xbdf2bf6f	-0.11852919
200	0x3e23ff46	0.16015348
201	0x3e1516ac	0.1455943
202	0x3c92a774	0.017902113
203	0xbeb40da1	-0.35166648
204	0xbe3af872	-0.18258837
205	0xbe40cc85	-0.18828018
206	0x3ed55b33	0.41671142
207	0xbe20209a	-0.15637437
208	0x3e696ff8	0.22796619
209	0x3e42bcfa	0.19017401
210	0x3dae684c	0.08515987
211	0xbd211c15	-0.03933342
212	0x3e60aef8	0.21941745
213	0x3e314649	0.17311968
214	0x3eac784a	0.33685523
215	0xbe9893f5	-0.29800382
216	0xba013414	-0.000492872
217	0x3ea236b8	0.31682372
218	0x3e62511b	0.22101252
219	0xbeaf3421	-0.3421946
220	0xbe00334c	-0.12519568
221	0xbeda5455	-0.42642465
222	0x3e606ed3	0.21917276
223	0xbe8016ab	-0.25017294
224	0xbd09302f	-0.033493217
225	0x3e9e9ad2	0.30977494
226	0x3d4b523c	0.04963897
227	0xbbc4ab79	-0.0060018864
228	0xb8f3b151	-0.00011620171
229	0xbf152b85	-0.5826953
230	0xbd5ab3c9	-0.053394113
231	0xbe20d4ea	-0.1570622
232	0x3ec6cd47	0.3882849
233	0x3bdebe15	0.006797562
234	0x3e679928	0.22617018
235	0x3eead01f	0.4586191
236	0x3eceb50d	0.40372506
237	0xbea1eb24	-0.3162471
238	0xbd18b8c7	-0.037285592
239	0x3eb0d35a	0.34536248
240	0xbe011005	-0.12603767
241	0x3db9ea33	0.09077873
242	0x3f33baca	0.7020689
243	0xbd4f65e6	-0.050634287
244	0x3d35416b	0.04425184
245	0xbeac04a2	-0.33597285
246	0xbe238083	-0.15966992
247	0xbe5deaff	-0.21671675
248	0x3e22afe1	0.15887405
249	0xbe42d571	-0.19026734
250	0x3e72b16d	0.23700495
251	0xbdd6d758	-0.10490292
252	0x3ecfc29c	0.40578163
253	0x3ecd8216	0.4013831
254	0xbeb93794	-0.36175215
255	0x3da4164a	0.08012064

mean.bias f4 [2]
0	0xbc2a1737	-0.010381511
1	0xbd742871	-0.05960888

log_std.weight f4 [2, 256]
0	0xbf037868	-0.513556
1	0xbd881f38	-0.066465795
2	0x3c88397f	0.016628979
3	0x3de4729f	0.11154675
4	0xbd98e41a	-0.07465382
5	0xbd662716	-0.05618962
6	0x3d95bee6	0.073118016
7	0xbdaff6b5	-0.085919775
8	0xbb190493	-0.0023348674
9	0x3cd6c104	0.026215084
10	0xbdb3ce71	-0.0877961
11	0xbc9d2e49	-0.01918711
12	0xbc86ae4d	-0.016440535
13	0xbc42e5df	-0.011895626
14	0xbe3ed7d6	-0.18637022
15	0x3e20a9e3	0.15689807
16	0xbd6e3a6a	-0.058161177
17	0xbde3b8b1	-0.111192115
18	0xbdbd1e92	-0.092343464
19	0xbc1a6b94	-0.009425063
20	0xbd1a26b8	-0.03763458
21	0x3d3bde1c	0.045866117
22	0xbe0323fb	-0.12806694
23	0xbdc28b41	-0.09499217
24	0x3db2fb8e	0.087393865
25	0x3d736fd7	0.05943283
26	0x3dda43fe	0.106575
27	0x3dee7cd6	0.11644904
28	0x3d53a662	0.051672347
29	0xbd5fac50	-0.05460769
30	0xbdc9f50e	-0.098611936
31	0xbd937c2f	-0.072014205
32	0xbd6c830f	-0.057742175
33	0x3cd30d4f	0.025763182
34	0xbe0f14be	-0.13972756
35	0xbe520d3c	-0.20512861
36	0xbd91617e	-0.07098673
37	0xbd1408da	-0.036141254
38	0xbdda1fde	-0.106506094
39	0x3ef1dcdd	0.47238818
40	0xbeae823c	-0.34083736
41	0x3db4283b	0.08796736
42	0x3eb157e8	0.3463738
43	0xbc5f64c4	-0.013634864
44	0x3d8adb79	0.06780142
45	0x3dba5e1d	0.09099982
46	0x3cb40974	0.021977164
47	0x3cc89c78	0.024488673
48	0xbe3ef639	-0.18648614
49	0x3dd19ae9	0.10234625
50	0xbdde29fe	-0.10847853
51	0x3e55cfa5	0.20879991
52	0x3e4bdf60	0.1990943
53	0xbd783fa7	-0.06060758
54	0xbcb77b15	-0.022397557
55	0x3d57f517	0.05272397
56	0x3ea4bc65	0.32174984
57	0x3e3f1d06	0.18663415
58	0xbdfc7cb1	-0.123284705
59	0xbeb2d3bf	-0.34927174
60	0x3e0bfada	0.13669911
61	0xbda072d9	-0.078344055
62	0x3cdeef79	0.027213799
63	0xbea140ce	-0.31494755
64	0xbd3ebb47	-0.04656532
65	0x3d8f576b	0.069990955
66	0xbe31f814	-0.1737979
67	0x3ecfac1d	0.40561
68	0x3e411ee8	0.18859446
69	0x3d7b071e	0.061286084
70	0xbe18b837	-0.14914022
71	0xbc98354f	-0.018580107
72	0x3e02501b	0.1272587
73	0xbe78ad68	-0.24284899
74	0xbd0c2f1a	-0.034224607
75	0x3e77eb3c	0.24210829
76	0xbdb65a40	-0.089039326
77	0x3dadc354	0.084845215
78	0xbcb58e0b	-0.022162458
79	0x3ddf5b7b	0.109061204
80	0xbe1e97d2	-0.15487602
81	0x3dea07ac	0.114272445
82	0xbdefa8a8	-0.117020905
83	0x3db3a979	0.08772559
84	0xbe123c56	-0.14280829
85	0x3ec38562	0.381877
86	0x3e2dd099	0.16974105
87	0xbe4b2e3e	-0.19841859
88	0xbd888126	-0.06665258
89	0xbd2afa74	-0.041742757
90	0xbc7a52a6	-0.015278494
91	0xbdb9a471	-0.09064568
92	0xbd4c58e3	-0.049889456
93	0xba1b3395	-0.0005920467
94	0x3e98528c	0.29750478
95	0x3e5ea0ad	0.2174098
96	0xbd52f1a1	-0.051499967
97	0x3e00ee97	0.12591015
98	0xbd7bacbe	-0.061444037
99	0x3c52c89e	0.012865214
100	0xbd77d56e	-0.060506277
101	0x3d1b1715	0.03786381
102	0x3de6de4f	0.11272871
103	0xbcbf7863	-0.023372835
104	0x3d9e4b0f	0.0772916
105	0xbe3aa91b	-0.18228571
106	0x3e4cb435	0.19990619
107	0x3e734992	0.23758534
108	0x3d587e24	0.052854672
109	0x3dd0ab0f	0.10188877
110	0x3ce5e92c	0.028065287
111	0x3e0c4e8c	0.13701838
112	0xbe57a008	-0.21057141
113	0xbc7c0fcb	-0.015384625
114	0xbd1bd6ed	-0.038046766
115	0xbd991b17	-0.0747587
116	0xbc1c309d	-0.009533075
117	0x3e448fdf	0.19195507
118	0xbe401fe4	-0.18762165
119	0xbd3bebf0	-0.045879304
120	0x3a77edc8	0.00094577344
121	0xbadd4de8	-0.001688418
122	0x3df0875c	0.11744568
123	0x3d41a8fe	0.047280304
124	0xbd698d20	-0.057019353
125	0xbd9fcd83	-0.0780287
126	0xbd978618	-0.07398623
127	0xbe1423e9	-0.14466824
128	0xbe1fd177	-0.15607248
129	0xbdd9d359	-0.106360145
130	0xbe820d8e	-0.25400966
131	0x3c72989a	0.014806891
132	0xbe72917e	-0.23688313
133	0x3d6fed75	0.058576066
134	0x3c9931f6	0.018700581
135	0xbe37d144	-0.17950922
136	0xbe599973	-0.21249942
137	0x3d043823	0.0322801
138	0x3db0047f	0.085946076
139	0xbe8f5f1a	-0.28002244
140	0x3e273633	0.16329269
141	0x3e28cbfc	0.16484064
142	0xbd90da76	-0.07072918
143	0x3e8321e9	0.2561181
144	0xbe858602	-0.26078802
145	0xbdc6394b	-0.096788965
146	0xbd417f65	-0.047240634
147	0x3e32a129	0.1744429
148	0xbd183d6a	-0.037167944
149	0x3d1cd4fe	0.038289063
150	0xbd31cedf	-0.04341018
151	0xbde4a2e7	-0.11163884
152	0xbc7c74ae	-0.015408678
153	0x3d68bfa4	0.056823388
154	0xbe24edee	-0.16106388
155	0xbdadb769	-0.08482248
156	0x3cac6111	0.021042379
157	0x3e333bdf	0.17503308
158	0x3dd09741	0.101850994
159	0xbd696b97	-0.05698737
160	0xbe8ab595	-0.2709166
161	0x3d52ef2b	0.05149762
162	0x3d894e50	0.0670439
163	0x3e95f0fe	0.29285425
164	0x3c9bd6da	0.019023348
165	0xbe3c54b6	-0.1839169
166	0xbc9c8582	-0.01910663
167	0x3e2ceb5e	0.1688666
168	0x3d22f1fa	0.039781548
169	0xbd22bdf3	-0.03973193
170	0x3dfc33d9	0.12314577
171	0xbe03707b	-0.12835877
172	0xbd9c752b	-0.076395355
173	0x3e3c660d	0.18398304
174	0xbdfaabcf	-0.12239801
175	0x3e421261	0.18952323
176	0x3cfc01e8	0.030762628
177	0xbdd90ec7	-0.10598522
178	0xbccd9cf0	-0.025099248
179	0xbd6ff410	-0.058582366
180	0xbcfc6844	-0.030811436
181	0xbd6391c2	-0.055558927
182	0x3d07b05c	0.033127174
183	0xbdd4f7cb	-0.10398825
184	0xbdf38006	-0.11889653
185	0xbdab3b24	-0.083608896
186	0xbdb2af80	-0.0872488
187	0xbcd7f791	-0.026363166
188	0x3e3226d4	0.17397624
189	0x3ec41303	0.38295755
190	0xbe525f17	-0.20544086
191	0x3cca4f5f	0.02469605
192	0x3c0447d8	0.0080737695
193	0x3e11984a	0.1421825
194	0x3d64ef87	0.055892494
195	0x3d2f40e1	0.042786483
196	0x3e782a37	0.24234854
197	0x3c3c5936	0.011495879
198	0xbe343183	-0.17597012
199	0x3caabde4	0.0208425
200	0xbe255492	-0.16145542
201	0xbdaf210d	-0.08551226
202	0xbd872af7	-0.06599992
203	0xbd497e6d	-0.049192835
204	0xbdbe692a	-0.09297402
205	0xbc90e510	-0.01768735
206	0xbe970d0a	-0.29502136
207	0xbdacc18d	-0.084353544
208	0x3e156ace	0.14591524
209	0xbd9002fc	-0.07031819
210	0xbd91271d	-0.070875384
211	0x3d0c6ba9	0.03428236
212	0xbd86e995	-0.06587521
213	0xbdd04905	-0.10170177
214	0xbe1829af	-0.14859651
215	0xbc555ab4	-0.013022114
216	0xbe6c0082	-0.23047069
217	0x3db26546	0.087107226
218	0x3c44734b	0.011990379
219	0x3c998ab0	0.01874289
220	0x3db6badf	0.089223616
221	0xbd5b7ae2	-0.053583987
222	0x3d7318bb	0.059349757
223	0xbe287663	-0.16451411
224	0xbd4c048a	-0.049809016
225	0x3de7f2fd	0.11325643
226	0x3d9808e6	0.07423572
227	0x3cbc8b9d	0.023015792
228	0xbdba1ed4	-0.09087911
229	0x3de1b149	0.110201426
230	0xbe5191ad	-0.20465727
231	0x3d9ca0fb	0.07647892
232	0x3cbcb344	0.0230347
233	0xba2f8de6	-0.0006696865
234	0x3dc2af97	0.09506147
235	0xbe152a85	-0.14567001
236	0x3dd0504b	0.10171565
237	0x3e9a95d5	0.30192438
238	0xbd20e8fa	-0.039284684
239	0xbd1b6bf4	-0.03794475
240	0xbbd62272	-0.006534868
241	0xbde86d8a	-0.11349018
242	0x3d9bfc54	0.07616487
243	0xbd901050	-0.07034361
244	0xbc6aaed8	-0.014323913
245	0x3d37e5c7	0.044896867
246	0x3d0dc8f5	0.034615476
247	0x3e67bcff	0.2263069
248	0x3e43ca66	0.19120178
249	0xbe03b90c	-0.12863559
250	0x3d28a449	0.0411723
251	0x3de38a1e	0.11110328
252	0xbe3bff63	-0.18359141
253	0x3d1952b6	0.037432395
254	0x3e1f7dcc	0.15575331
255	0x3c7227ed	0.014780027

log_std.bias f4 [2]
0	0xbd531907	-0.05153754
1	0xbd654b45	-0.055979986
