SAC_LunarLander_ep10.pth (torch, 280195 bytes, 8 tensors)

fc1.weight f4 [256, 8]
0.15241584 0.04698524 -0.3026797 -0.3193074 -0.2862383 0.31434122 0.0764903 -0.21451831
-0.3591727 0.25813296 -0.08795311 -0.16659302 0.20353706 0.23723604 -0.2871755 -0.3239939
0.17734604 -0.029281497 0.075988755 0.25304654 0.34899852 0.09434826 0.2108035 0.10079812
-0.004972135 -0.23541868 0.3271356 0.26374266 -0.22323097 -0.3116195 0.14493693 0.33643788
0.17051753 -0.10212719 0.04623733 0.18454276 -0.1773591 -0.22849531 0.28921616 -0.3173922
-0.26105785 0.20883362 -0.22434886 0.0132044805 0.12039701 -0.07265935 -0.19910651 -0.08200744
0.08818851 -0.10768496 -0.0042246967 0.19716485 -0.124250226 -0.13371465 0.026933152 0.14544946
-0.25281888 -0.29231152 -0.0603093 -0.21175927 0.16410665 -0.08955695 -0.1371449 -0.27915153
-0.21415451 0.021586947 0.111406974 -0.34710443 -0.17460997 -0.2556965 -0.32913175 0.36399665
0.11286112 0.050331682 -0.2695119 0.042736217 -0.025243232 -0.16535603 -0.21983731 0.10366816
-0.15773475 0.31965294 -0.3046121 0.068300396 0.016545836 -0.33704844 -0.06749767 -0.15539816
0.2639696 -0.33811736 -0.1694509 0.07288411 0.045314666 -0.19817856 0.1133508 -0.20637438
0.13275303 0.10095507 -0.10106991 -0.2256745 0.14620104 -0.1209815 0.22731204 -0.07069722
-0.12965022 0.3581313 0.03969394 -0.23913947 -0.2923755 0.09923219 -0.3585984 0.29209995
-0.20922239 -0.12335035 0.21600126 -0.004069984 -0.16079625 -0.2644614 0.2837648 -0.32722452
-0.11752296 0.2978702 -0.2996332 -0.35732368 0.1655011 -0.065744095 -0.1262035 -0.20812678
-0.13632745 -0.24345309 -0.15492125 -0.29707223 -0.22930434 0.05541662 0.25981337 -0.122805
0.34441417 0.2925206 0.09758555 0.113060325 -0.37046874 0.2508323 -0.35335857 0.026953036
0.024329579 -0.10811236 0.34384966 0.35631457 0.18960658 -0.13456655 0.14646181 -0.0032898143
0.1916564 0.016956005 -0.04372763 -0.23627631 0.14821494 0.19356266 0.18857546 0.3026344
-0.24721591 0.098521955 0.27967784 0.3541293 -0.051471256 0.28643346 -0.2904849 0.16276507
0.2862494 0.12662154 -0.009227978 0.012281231 -0.2859094 0.07027111 -0.16013986 0.1988428
0.23467773 0.32780555 -0.048150066 -0.23386021 -0.23301293 0.20970558 -0.3504155 0.22829854
-0.054194525 0.15443915 0.09992055 -0.054979045 -0.11294286 -0.24789849 0.16389045 0.07242263
0.28522176 0.16043156 0.30555052 -0.1416494 0.18487291 -0.33108088 0.19363275 0.117341
0.20605372 0.18145967 -0.07100324 -0.21414654 0.019987665 -0.13762785 0.11868693 0.28012416
-0.16821624 -0.33708617 -0.27598748 0.087570086 -0.24970551 -0.18705249 -0.06933986 0.12801203
-0.16221617 0.038219664 -0.3267491 -0.15671754 -0.21630585 0.049735732 -0.07478568 0.1661802
0.199303 0.24029505 -0.13041723 -0.15714936 0.08284863 -0.28630373 0.32084486 0.04081232
0.3272444 -0.32799748 0.14690435 -0.12252516 -0.15453969 -0.30627882 0.20412272 -0.17285758
0.088468164 0.22918235 -0.07942557 -0.32020923 0.37385193 -0.23502904 -0.31470513 -0.2536342
-0.32400233 0.22406384 -0.13432609 0.33719805 -0.29220977 0.10968644 0.25818235 -0.21458453
00000000: e612 1c3e 9873 403d d5f8 9abe 427c a3be
00000010: d48d 92be 55f1 a03e f2a6 9c3d b0aa 5bbe
00000020: 7ce5 b7be 012a 843e c320 b4bd 5c97 2abe
00000030: 056c 503e 01ee 723e ab08 93be 87e2 a5be
00000040: 339a 353e c0df efbc fe9f 9b3d 518f 813e
00000050: efaf b23e a939 c13d dfdc 573e 3f6f ce3d
00000060: 4bed a2bb 9811 71be 517e a73e 4709 873e
00000070: a996 64be 978c 9fbe 596a 143e 9641 ac3e
00000080: 269c 2e3e 0f28 d1bd 5b63 3d3d c7f8 3c3e
00000090: a09d 35be adfa 69be 2414 943e 3b81 a2be
000000a0: 60a9 85be 7bd8 553e b5bb 65be 9b57 583c
000000b0: b592 f63d 6dce 94bd 94e2 4bbe 84f3 a7bd
000000c0: 2d9c b43d ef89 dcbd 536f 8abb 95e5 493e
000000d0: e776 febd 7eec 08be eaa2 dc3c b4f0 143e
000000e0: 7a71 81be dba9 95be e206 77bd 6cd7 58be
000000f0: 930b 283e a269 b7bd b66f 0cbe f3ec 8ebe
00000100: 524b 5bbe 1cd7 b03c 5729 e43d acb7 b1be
00000110: f5cc 32be a7ea 82be f583 a8be c55d ba3e
00000120: bb23 e73d 9828 4e3d 77fd 89be 2c0c 2f3d
00000130: e5ca cebc 1753 29be 081d 61be f94f d43d
00000140: 3885 21be 8da9 a33e 1ef6 9bbe 14e1 8b3d
00000150: 228b 873c 9d91 acbe 383c 8abd b220 1fbe
00000160: 0627 873e b81d adbe 8984 2dbe 4444 953d
00000170: df9b 393d 52ef 4abe 7724 e83d ce53 53be
00000180: 69f0 073e 88c1 ce3d befd cebd 3717 67be
00000190: bab5 153e 26c5 f7bd 7dc4 683e b4c9 90bd
000001a0: 07c3 04be fc5c b73e 1d96 223d fae0 74be
000001b0: 3eb2 95be 3f3a cb3d 369a b7be 208e 953e
000001c0: 653e 56be 1c9f fcbd 6f2f 5d3e 805d 85bb
000001d0: c6a7 24be 7c67 87be 9f49 913e f989 a7be
000001e0: e1af f0bd 7182 983e 8669 99be 21f3 b6be
000001f0: 1f79 293e d7a4 86bd 7e3b 01be 301f 55be
00000200: 6c99 0bbe c44b 79be ada3 1ebe da19 98be
00000210: c2ce 6abe 8afc 623d 4206 853e 3081 fbbd
00000220: 0e57 b03e 43c5 953e efda c73d 2c8c e73d
00000230: 14ae bdbe 176d 803e 6aeb b4be 9dcc dc3c
00000240: d34e c73c 036a ddbd 100d b03e dd6e b63e
00000250: 3a28 423e d0cb 09be 16fa 153e ed99 57bb
00000260: 9341 443e 52e7 8a3c be1b 33bd 6bf2 71be
00000270: a8c5 173e 4a35 463e ed19 413e e5f2 9a3e
00000280: 2b26 7dbe e1c5 c93d ef31 8f3e 7050 b53e
00000290: 86d3 52bd 68a7 923e 70ba 94be e3ab 263e
000002a0: 488f 923e 14a9 013e f230 17bc 3737 493c
000002b0: b862 92be 4dea 8f3d b4fb 23be 729d 4b3e
000002c0: 5c4f 703e 21d6 a73e 0139 45bd 0d79 6fbe
000002d0: f19a 6ebe 0fbd 563e a969 b3be 18c7 693e
000002e0: 14fb 5dbd 4c25 1e3e 25a3 cc3d b531 61bd
000002f0: 964e e7bd 1ad9 7dbe e6d2 273e 5152 943d
00000300: 9608 923e 2c48 243e 1e71 9c3e 8a0c 11be
00000310: 534f 3d3e 6f83 a9be aa47 463e 7a50 f03d
00000320: bfff 523e 90d0 393e 266a 91bd 3b49 5bbe
00000330: 2cbd a33c 51ee 0cbe 2212 f33d 6f6c 8f3e
00000340: e140 2cbe 8f96 acbe 3b4e 8dbe f257 b33d
00000350: cdb2 7fbe b08a 3fbe 0e02 8ebd 9615 033e
00000360: ff1b 26be 398c 1c3d a84b a7be 907a 20be
00000370: 487f 5dbe b2b7 4b3d 3c29 99bd 242b 2a3e
00000380: 1616 4c3e e80f 763e 188c 05be c3eb 20be
00000390: 8bac a93d 6796 92be c745 a43e d22a 273d
000003a0: 948c a73e 49ef a7be 186e 163e 79ee fabd
000003b0: a73f 1ebe 94d0 9cbe 8c05 513e 9401 31be
000003c0: cc2e b53d c7ae 6a3e e0a9 a2bd 77f2 a3be
000003d0: 8569 bf3e 74ab 70be 0821 a1be 58dc 81be
000003e0: a2e3 a5be fe70 653e c78c 09be 39a5 ac3e
000003f0: 859c 95be 49a3 e03d 7a30 843e 0cbc 5bbe

fc1.bias f4 [256]
0.05195765 -0.25694272 -0.31571013 0.27042776 0.20108208 0.3614905 -0.024507523 0.07475087
0.16215965 0.36097893 -0.3246191 -0.2589362 0.08688225 0.2720763 -0.17977963 -0.27249426
-0.34175494 -0.118485406 -0.09718472 0.030649537 0.3027271 -0.051033437 0.03376247 0.21136646
0.23526616 -0.03364596 -0.07151718 0.07155516 0.34751338 0.19284342 -0.21286215 0.16419688
-0.21406095 0.32615215 -0.14907606 -0.16924642 -0.19612359 -0.30828503 0.20169994 -0.184527
0.047375526 -0.2196838 -0.25448665 -0.17388578 0.32295772 -0.03340881 -0.29916796 -0.2263799
-0.20689033 -0.2763538 0.08904757 -0.26748264 0.0918847 0.05911082 0.23310383 0.15639667
-0.093126014 0.053234458 -0.1651313 -0.112367064 0.25584096 0.2999176 -0.008490721 0.19298863
-0.017955959 0.34371266 0.34857625 0.13042833 0.10394892 -0.22067803 0.33018783 0.08557453
-0.12909989 0.26072845 -0.07733978 0.07674807 -0.09256809 0.06380982 0.18712196 0.12182611
-0.31500682 0.0033114213 -0.26416343 0.2848589 -0.18736382 0.21952735 -0.28400555 0.114951275
-0.014567381 -0.14524183 -0.31948146 -0.024325503 0.22943665 -0.12983589 -0.09367459 0.010952076
-0.20171203 0.18770985 0.32154268 -0.036571685 -0.1889742 -0.3342723 0.35927284 -0.21112046
-0.20925498 0.10157395 -0.23136044 0.27440324 -0.3001075 0.067133114 -0.33811256 -0.2453977
-0.28144473 -0.044051375 0.27902982 0.32053006 0.17368968 0.1523675 0.20788848 0.16292028
-0.20634925 0.32385868 0.117714256 0.05948382 0.21030527 -0.27696198 -0.22198586 -0.30575708
-0.16372527 0.12982321 0.08045199 0.34981614 -0.07819136 0.18260276 -0.17232053 -0.059145506
-0.034958463 -0.065204784 -0.10182324 0.12506856 0.076632515 -0.20805426 0.2083203 -0.096446835
0.008706522 0.29119125 0.2672203 0.13565168 0.24977873 -0.032541405 0.19129767 0.038140822
0.20513715 0.31519625 -0.045766473 -0.09354485 0.17685899 0.30781868 -0.13450918 -0.25419414
-0.31278378 -0.1575947 0.25301754 0.16190617 -0.18792081 0.24154589 0.003841911 0.023206282
-0.1810006 0.2976769 0.111519635 0.2233124 0.35437566 0.1330837 -0.060119778 0.3376524
0.19196454 0.19673315 -0.030146321 0.17463951 0.18070911 -0.069651105 -0.0728815 -0.012490004
-0.14952919 -0.15484473 0.31157684 0.05773177 0.11433795 0.31394246 -0.33516517 -0.07441
0.34156242 -0.09045492 -0.23483878 -0.116270155 0.15512992 -0.32114556 0.15167879 -0.0772788
0.121658914 0.18733305 0.28982794 -0.31806505 -0.19757639 0.022879222 -0.0045811827 0.36118513
0.22547178 -0.20594001 0.2864372 0.33292997 0.08341045 0.24792607 -0.26431558 0.14273869
0.21069355 0.18882997 -0.27579686 0.13053179 0.22410163 0.32514432 -0.2568153 0.19526182
-0.3261846 0.33722547 -0.14020549 -0.21607567 0.22578196 -0.15211432 -0.03405735 -0.05255553
-0.011701862 -0.018077008 -0.22688812 -0.27861053 -0.040137667 0.32449028 0.05503088 -0.046229225
-0.17845793 0.3380123 -0.22419457 -0.31248334 0.24058834 -0.018257922 0.09418776 -0.13809793
-0.00095566944 0.11645996 0.31608883 0.14900789 0.12774159 0.08262194 -0.34777257 0.33436474
00000000: 8bd1 543d ff8d 83be c2a4 a1be 8275 8a3e
00000010: 76e8 4d3e 4815 b93e 00c4 c8bc fc16 993d
00000020: 2e0d 263e 3bd2 b83e 7a34 a6be 4993 84be
00000030: 52ef b13d 964d 8b3e 2718 38be 5e84 8bbe
00000040: 81fa aebe 7aa8 f2bd c808 c7bd bd14 fb3c
00000050: 0cff 9a3e 7008 51bd 844a 0a3d 7370 583e
00000060: 9de9 703e 59d0 09bd 9977 92bd 838b 923d
00000070: 46ed b13e bf78 453e 89f8 59be 3a23 283e
00000080: cb32 5bbe 6afd a63e 65a7 18be ef4e 2dbe
00000090: 9fd4 48be 89d7 9dbe 6e8a 4e3e a5f4 3cbe
000000a0: d70c 423d caf4 60be 134c 82be 1d0f 32be
000000b0: b75a a53e add7 08bd 8b2c 99be 22d0 67be
000000c0: 0fdb 53be 3f7e 8dbe 935e b63d 7cf3 88be
000000d0: 0c2e bc3d 301e 723d c5b2 6e3e 7326 203e
000000e0: dab8 bebd 600c 5a3d 2e18 29be b420 e6bd
000000f0: 96fd 823e cd8e 993e aa1c 0bbc d09e 453e
00000100: 6018 93bc 1bfb af3e 9678 b23e 018f 053e
00000110: 2ce3 d43d 6cf9 61be 610e a93e b341 af3d
00000120: c332 04be 337e 853e 5264 9ebd 182e 9d3d
00000130: 5794 bdbd b9ae 823d e69c 3f3e f87f f93d
00000140: 9348 a1be 6e04 593b 6e40 87be 07d9 913e
00000150: 4ddc 3fbe c7cb 603e 2d69 91be 936b eb3d
00000160: 06ac 6ebc 46ba 14be 1393 a3be 4746 c7bc
00000170: 71f1 6a3e b3f3 04be 77d8 bfbd 5670 333c
00000180: 998d 4ebe 0337 403e 3ea1 a43e 31cc 15bd
00000190: 7482 41be bd25 abbe 9cf2 b73e f62f 58be
000001a0: f046 56be 0106 d03d c0e9 6cbe 957e 8c3e
000001b0: b1a7 99be 167d 893d 171d adbe 8949 7bbe
000001c0: 8619 90be 376f 34bd ffdc 8e3e 841c a43e
000001d0: b5db 313e 3a06 1c3e b8e0 543e 93d4 263e
000001e0: 384d 53be ced0 a53e 2c14 f13d 4ea5 733d
000001f0: 445a 573e f6cd 8dbe 4350 63be 318c 9cbe
00000200: 99a7 27be 60f0 043e 03c4 a43d 1a1b b33e
00000210: cb22 a0bd 38fc 3a3e cb74 30be 8f42 72bd
00000220: 9b30 0fbd 168a 85bd b488 d0bd f911 003e
00000230: 82f1 9c3d 2d0c 55be eb51 553e eb85 c5bd
00000240: cda5 0e3c 0517 953e 19d1 883e 46e8 0a3e
00000250: ffc5 7f3e 234a 05bd 89e3 433e 8d39 1c3d
00000260: 790f 523e 6761 a13e a075 3bbd 7194 bfbd
00000270: 861a 353e 699a 9d3e c6bc 09be bc25 82be
00000280: 3225 a0be 8160 21be 848b 813e bbca 253e
00000290: 506e 40be ce57 773e 92c8 7b3b 1a1b be3c
000002a0: 3958 39be 1b69 983e 6864 e43d 01ac 643e
000002b0: ba70 b53e 1847 083e 2840 76bd c6e0 ac3e
000002c0: 5a92 443e 6a74 493e 6bf5 f6bc b3d4 323e
000002d0: cf0b 393e 3da5 8ebd e542 95bd e0a2 4cbc
000002e0: 2e1e 19be 9e8f 1ebe 0087 9f3e 2678 6c3d
000002f0: 042a ea3d 11bd a03e c59a abbe 4564 98bd
00000300: 45e1 ae3e 6e40 b9bd 9479 70be 0c1f eebd
00000310: 61da 1e3e 316d a4be af51 1b3e 5944 9ebd
00000320: 4f28 f93d 3cd4 3f3e 5464 943e 6cd9 a2be
00000330: 7751 4abe 356d bb3c bf1d 96bb 42ed b83e
00000340: 13e2 663e f0e1 52be e6a7 923e cc75 aa3e
00000350: 19d3 aa3d 55e0 7d3e 5f54 87be 172a 123e
00000360: 0dc0 573e a55c 413e 3f35 8dbe 20aa 053e
00000370: e67a 653e 5179 a63e 4c7d 83be b7f2 473e
00000380: ab01 a7be d1a8 ac3e 0792 0fbe f142 5dbe
00000390: 6333 673e dbc3 1bbe b87f 0bbd 7844 57bd
000003a0: 2bb9 3fbc 3c16 94bc 5c55 68be 0aa6 8ebe
000003b0: 6567 24bd 9723 a63e 0f68 613d db5a 3dbd
000003c0: adbd 36be f30f ad3e 4393 65be d1fd 9fbe
000003d0: ca5c 763e a391 95bc 83e5 c03d 8b69 0dbe
000003e0: e485 7aba 8f82 ee3d 65d6 a13e 8695 183e
000003f0: b1ce 023e b135 a93d 3f0f b2be db31 ab3e

fc2.weight f4 [256, 256]
0.05841892 0.019855838 0.004786532 -0.04435455 -0.044859644 0.013187435 -0.058621008 0.02412926
-0.026522262 -0.0041365987 0.029371297 -0.015303161 0.023262976 -0.034695882 -0.022469474 0.023177331
-0.058267824 0.047353156 -0.042092405 0.010617226 0.032912668 0.028908568 0.058808 0.04509598
0.023878954 0.023420934 0.013083134 0.02794964 0.027369196 -0.00220016 -0.010811728 -0.05453504
0.0022133158 -0.026672766 -0.03327913 0.0039590993 -0.006152928 0.0043553766 0.04732605 0.05834022
-0.0012713053 0.038689256 -0.022157893 0.03179674 -0.04136001 -0.03578966 0.055759948 0.05671749
0.060605023 0.03359905 -0.008093729 -0.047890123 -0.031994972 0.0022207114 0.00016523521 0.057620406
-0.0024750163 -0.035696287 0.021655986 0.05945516 0.0038557963 0.058172327 -0.060592286 0.038970467
0.045569252 0.027596137 0.047124013 -0.04137464 0.047767237 0.023850732 -0.0032996796 0.04282121
-0.06041773 0.031644844 0.04554979 0.032851942 -0.0036437397 0.014524035 0.050000943 -0.0032495554
-0.034088627 -0.04939446 -0.05552561 -0.026032504 -0.03629709 0.014026928 0.030466152 -0.026754774
0.05601663 -0.015829986 -0.012909988 -0.011244043 -0.02232339 0.041805845 -0.017477777 0.015388092
-0.050206374 -0.049161244 0.013565509 -0.025310446 0.018883929 0.0062865987 -0.041031413 0.009640381
-0.040070254 0.05700094 -0.038505744 -0.004883911 0.0077102683 0.006683687 -0.0033128131 0.01108447
-0.03333471 -0.030785207 -0.04179503 0.013404227 0.055555284 0.011180671 0.03173304 0.014696964
-0.030107943 0.042949565 0.010626847 0.054042242 0.026454575 0.048452962 0.030820865 0.0009390153
-0.047576338 0.04822144 -0.036034524 -0.051269013 0.015242051 -0.06417154 -0.046210635 -0.033698972
0.028349737 -0.019981964 -0.012809852 0.0038622352 0.014757906 -0.006686988 0.015982915 -0.009466583
0.02777207 0.02352129 -0.021870567 -0.043560613 0.009201841 0.053668622 -0.031448707 -0.017849525
0.013493437 -0.019857548 0.057328574 -0.034103803 -0.030745186 0.042743925 -0.033197884 0.0016564503
0.06474413 0.038797364 -0.022936609 -0.010169787 0.023869783 -0.037070077 0.051479977 -0.027423093
0.024077227 -0.046998035 -0.01850784 0.03790399 -0.022856833 -0.047686208 -0.038750872 0.007321903
-0.030447662 -0.042675674 0.04449894 0.031752594 0.050074585 0.039897457 0.041190565 -0.05810175
0.056406986 -0.049018517 -0.043855157 -0.03365133 0.030388506 -0.059500705 -0.031995356 0.019156719
-0.024717629 0.06149236 0.018151665 -0.022654785 -0.015655722 0.030785624 -0.004112924 -0.04991609
-0.013035774 0.04455147 -0.028293619 -0.0608734 0.053511392 -0.06364324 0.03834657 0.029589161
0.033546 0.012686252 0.022337435 -0.06660408 -0.012013437 0.017926702 -0.038300708 -0.017070327
-0.033304658 0.028191153 0.026203267 -0.013330113 -0.05142514 -0.041597277 0.02937694 -0.03768068
0.028821817 0.03772829 0.037277117 0.0005100099 0.05790985 0.027959237 0.014795094 -0.018476581
-0.03205035 0.042719126 -0.007843085 0.030874051 0.034671597 0.037773874 -0.045101516 0.03063176
-0.048356712 -0.04763695 0.018577056 0.0595427 -0.012375844 0.04597253 -0.01915046 0.03192334
-0.0006400372 -0.047017954 -0.020490775 0.012642748 0.032511365 0.06326126 0.034344245 -0.03387213
00000000: ad48 6f3d b6a8 a23c 57d8 9c3b 1ead 35bd
00000010: bfbe 37bd 1d10 583c 951c 70bd baaa c53c
00000020: 3745 d9bc 4e8c 87bb 139c f03c 1cba 7abc
00000030: ff91 be3c 451d 0ebd e711 b8bc 63de bd3c
00000040: 3eaa 6ebd 62f5 413d 1669 2cbd e0f3 2d3c
00000050: 6fcf 063d a9d1 ec3c a8e0 703d 90b6 383d
00000060: cc9d c33c 42dd bf3c a45a 563c a5f6 e43c
00000070: 5d35 e03c 8f30 10bb ad23 31bc 2260 5fbd
00000080: 470d 113b d880 dabc b24f 08bd 55bb 813b
00000090: 809e c9bb 8cb7 8e3b f6d8 413d 28f6 6e3d
000000a0: eda1 a6ba a078 1e3d 7884 b5bc 4c3d 023d
000000b0: 1d69 29bd 2e98 12bd 8b64 643d 9950 683d
000000c0: f93c 783d 289f 093d 8f9b 04bc 6f28 44bd
000000d0: 290d 03bd 5b89 113b fd42 2d39 6003 6c3d
000000e0: e233 22bb 4536 12bd e567 b13c 4187 733d
000000f0: 87b1 7c3b 1b46 6e3d 9e2f 78bd 7f9f 1f3d
00000100: d3a6 3a3d 4b11 e23c 1c05 413d 7478 29bd
00000110: 94a7 433d 9c62 c33c 703f 58bb 4b65 2f3d
00000120: 9578 77bd 069e 013d 6b92 3a3d c28f 063d
00000130: cfcb 6ebb 38f6 6d3c cacd 4c3d 7ef6 54bb
00000140: 84a0 0bbd d851 4abd d26e 63bd 1e42 d5bc
00000150: 42ac 14bd 33d1 653c 2794 f93c d42c dbbc
00000160: b271 653d e3ad 81bc 6a84 53bc ef38 38bc
00000170: 8bdf b6bc 9b3c 2b3d 8e2d 8fbc 561e 7c3c
00000180: 33a5 4dbd 4d5d 49bd de41 5e3c da57 cfbc
00000190: 78b2 9a3c d0ff cd3b 8e10 28bd b0f2 1d3c
000001a0: b520 24bd d179 693d 33b8 1dbd 3709 a0bb
000001b0: 6ba6 fc3b d502 db3b c81b 59bb a39b 353c
000001c0: fa89 08bd 4231 fcbc 4431 2bbd 679d 5b3c
000001d0: f08d 633d 222f 373c 81fa 013d 89cb 703c
000001e0: efa4 f6bc e2eb 2f3d 3a1c 2e3c 665b 5d3d
000001f0: 44b7 d83c 9d76 463d 0a7c fc3c 4028 763a
00000200: 68df 42bd d883 453d f098 13bd 75ff 51bd
00000210: ccb9 793c 5e6c 83bd 5d47 3dbd ef07 0abd
00000220: b53d e83c 37b1 a3bc 6ae0 51bc 8e1d 7d3b
00000230: 25cb 713c 851e dbbb 9aee 823c ba19 1bbc
00000240: 4182 e33c b8af c03c e729 b3bc 9d6c 32bd
00000250: 52c3 163c a1d3 5b3d 5cd0 00bd 2b39 92bc
00000260: 9413 5d3c 4cac a2bc 5ed1 6a3d 6eb0 0bbd
00000270: 54dd fbbc 4114 2f3d 81fa 07bd 401d d93a
00000280: 9298 843d fce9 1e3d 8ee5 bbbc 2e9f 26bc
00000290: 908a c33c cbd6 17bd abdc 523d 65a6 e0bc
000002a0: 9b3d c53c 0381 40bd c19d 97bc 3741 1b3d
000002b0: 413e bbbc 9d52 43bd 3cb9 1ebd 93ec ef3b
000002c0: 606d f9bc b0cc 2ebd 8544 363d 020f 023d
000002d0: 021b 4d3d 846b 233d 70b7 283d 1afc 6dbd
000002e0: 030b 673d a4c7 48bd 77a1 33bd fad5 09bd
000002f0: 51f1 f83c 03b7 73bd 900d 03bd 8dee 9c3c
00000300: a07c cabc 6adf 7b3d cdb2 943c 8796 b9bc
00000310: 6e40 80bc 2232 fc3c b5c5 86bb d074 4cbd
00000320: 0094 55bc 9a7b 363d 05c8 e7bc 6356 79bd
00000330: c32e 5b3d 6357 82bd 4b11 1d3d f864 f23c
00000340: 8867 093d ffd9 4f3c fffc b63c b867 88bd
00000350: 02d4 44bc 05db 923c 34e1 1cbd 12d7 8bbc
00000360: 776a 08bd 22f1 e63c 3ca8 d63c 8c66 5abc
00000370: 2ba3 52bd e861 2abd e9a7 f03c 0f57 1abd
00000380: bb1b ec3c fb88 1a3d e4af 183d 2fb2 053a
00000390: e132 6d3d c50a e53c 1f67 723c 335c 97bc
000003a0: 3a47 03bd 40fa 2e3d 4880 00bc 94eb fc3c
000003b0: ce03 0e3d c7b8 1a3d 5ebc 38bd 75ef fa3c
000003c0: b011 46bd f61e 43bd e92e 983c 0ce3 733d
000003d0: 0dc4 4abc b14d 3c3d 6de1 9cbc 0cc2 023d
000003e0: 2bc8 27ba e695 40bd 45dc a7bc 8723 4f3c
000003f0: a32a 053d 1f8f 813d 8dac 0c3d 81bd 0abd

fc2.bias f4 [256]
-0.04761776 -0.05580385 -0.020256013 0.018482529 0.05171009 -0.046328437 0.031967945 0.026781186
-0.0036588719 -0.003675632 0.00943967 0.04302752 -0.03621915 -0.03223926 -0.040635936 0.01961308
-0.032153867 -0.02456288 -0.04425028 0.013639358 0.051007427 0.03569269 -0.05030912 0.051758077
-0.0065342663 -0.048687384 -0.044337243 -0.015032522 -0.030954054 0.013247304 0.013005953 -0.031692367
-0.007122274 -0.012843961 0.03332122 0.020545872 0.02972757 0.029588649 -0.023491798 -0.008168309
-0.016754307 -0.02722174 -0.04962685 0.051830813 -0.055435367 0.031660173 0.052917488 0.025804032
-0.0385646 -0.00047929605 -0.057598528 -0.05343026 -0.02364603 -0.04467721 0.019958973 -0.034277204
-0.0038234757 0.011258318 -0.039208934 0.023035506 0.017849294 -0.05218557 -0.021271117 0.039765205
-0.058870785 0.029848117 -0.006185327 -0.04733853 -0.011196773 0.027334318 -0.012880979 -0.05007775
-0.016272156 0.066255964 -0.038116597 0.002457709 0.02905253 0.060457002 -0.01992268 -0.05615912
0.044483863 0.049666755 0.044940498 0.059769973 -0.043538168 0.053669523 -0.050924666 -0.026478823
-0.019946268 0.07151912 -0.01008304 0.04888827 -0.057501473 0.034632362 -0.013568142 -0.021699226
0.013157871 -0.054811336 -0.004386766 -0.0028708302 0.0020684171 -0.034326963 -0.01661271 0.0147187775
0.0014411089 0.044433657 0.00057368045 -0.049712148 -0.009832397 -0.022769116 -0.03951035 0.004736977
0.036157288 -0.007998437 0.014822401 0.017853523 -0.005313662 0.0009335005 0.0021572136 0.0040824166
-0.029677106 -0.00014760467 -0.04234358 0.028793627 0.053344257 0.013884623 -0.048538003 0.042959947
-0.015113518 0.022751156 -0.0031135976 0.04956452 0.021423077 -0.013893616 0.003007381 0.040205933
-0.046254832 -0.0204237 -0.024850423 -0.00016449469 -0.04750891 0.037078198 -0.028670715 -0.030041335
0.061780542 -0.013171067 0.045415793 0.04469182 -0.007894767 0.035602115 0.045891777 0.03460251
-0.004871027 0.040074248 -0.025051212 -0.06255365 -0.03331326 0.0053449767 0.05585581 -0.017483493
-0.047177345 0.017175512 -0.032386392 -0.008628063 -0.03302102 0.052752305 -0.0520096 -0.05792214
-0.0013629177 -0.039415993 -0.052990753 0.009506355 -0.019574838 -0.034432065 0.04961043 -0.026136143
-0.03005278 0.03550693 0.064511865 -0.006732606 0.05746988 -0.008529711 -0.023615442 0.05485202
0.02554062 0.059515875 0.018518347 0.03137241 0.04144044 0.05937623 0.038938977 -0.020985158
0.0050700065 -0.03501985 0.00010951282 0.061406378 -0.033567563 -0.0115292175 -0.014415715 -0.06041401
-0.03377957 -0.012817758 0.0044443817 0.008901522 -0.027593033 0.01269859 0.051215563 -0.05824162
0.04067192 -0.030504871 -0.022521654 0.03495534 0.049323745 0.028723657 0.053779908 -0.027214436
-0.06400078 0.0022240672 -0.00435411 -0.023021314 -0.026582705 0.0597627 -0.037143756 0.03755927
-0.059579216 0.05631203 -0.003966625 -0.017580273 -0.024795365 -0.04015556 0.02105244 0.022188822
-0.043084115 -0.043904338 0.0258559 0.056644186 -0.0023471194 0.02683532 0.024466943 -0.03014117
0.061133564 -0.015992088 0.06429467 -0.03490583 -0.04226322 0.018228628 -0.00051643746 0.010388267
0.00884432 -0.06017773 0.02181851 0.052374005 0.023061981 -0.021662425 0.06171482 0.027587572
00000000: d70a 43bd 9492 64bd f0ef a5bc ac68 973c
00000010: f6cd 533d e3c2 3dbd d2f0 023d 3864 db3c
00000020: afc9 6fbb dfe2 70bb d8a8 1a3c a03d 303d
00000030: 885a 14bd 500d 04bd de71 26bd 9cab a03c
00000040: c6b3 03bd 1838 c9bc c83f 35bd 9d77 5f3c
00000050: 2aed 503d 8032 123d f010 4ebd 4700 543d
00000060: 661d d6bb 6c6c 47bd f89a 35bd f84a 76bc
00000070: 5b93 fdbc 380b 593c ec16 553c dbcf 01bd
00000080: f761 e9bb 7a6f 52bc d57b 083d d14f a83c
00000090: 3c87 f33c e563 f23c df71 c0bc 5fd4 05bc
000000a0: 5440 89bc 2000 dfbc 8645 4bbd 8c4c 543d
000000b0: 3210 63bd 19ae 013d 02c0 583d fa62 d33c
000000c0: eaf5 1dbd 074a fbb9 6fec 6bbd b0d9 5abd
000000d0: 52b5 c1bc 73ff 36bd 0081 a33c 4166 0cbd
000000e0: 4793 7abb cf74 383c 8c99 20bd f5b4 bc3c
000000f0: af38 923c 89c0 55bd c440 aebc d7e0 223d
00000100: 7e22 71bd 0a84 f43c 49ae cabb 0ce6 41bd
00000110: ab72 37bc 38ec df3c be0a 53bc 541e 4dbd
00000120: 2f4d 85bc 35b1 873d 2620 1cbd 8411 213b
00000130: 92ff ed3c c3a1 773d e334 a3bc 1b07 66bd
00000140: b634 363d 5e6f 4b3d 8713 383d 5cd1 743d
00000150: 1455 32bd 93d4 5b3d 6296 50bd 1eea d8bc
00000160: 5b66 a3bc 9e78 923d 5633 25bc 113f 483d
00000170: aa86 6bbd aada 0d3d ea4c 5ebc 93c2 b1bc
00000180: 1c94 573c da81 60bd dcbe 8fbb 8a24 3cbb
00000190: 488e 073b 6e9a 0cbd 6117 88bc 0727 713c
000001a0: 97e3 bc3a 1100 363d 0b63 163a f79e 4bbd
000001b0: 1018 21bc 4c86 babc 9bd5 21bd a538 9b3b
000001c0: aa19 143d e00b 03bc a8d9 723c 8d41 923c
000001d0: 3a1e aebb 28b6 743a 0a60 0d3b cbc5 853b
000001e0: 671d f3bc 54c6 1ab9 7670 2dbd 9de0 eb3c
000001f0: 827f 5a3d 547c 633c c9cf 46bd c5f6 2f3d
00000200: b09e 77bc a260 ba3c 800d 4cbb 2b04 4b3d
00000210: 737f af3c 0da2 63bc 7b17 453b faae 243d
00000220: b575 3dbd 9a4f a7bc 1d93 cbbc 357c 2cb9
00000230: b498 42bd 4fdf 173d d9de eabc 3f19 f6bc
00000240: 980d 7d3d 76cb 57bc e905 3a3d c50e 373d
00000250: 0e59 01bc 86d3 113d 04f9 3b3d 5dbb 0d3d
00000260: 239d 9fbb e524 243d 3338 cdbc 211c 80bd
00000270: 7c73 08bd ea24 af3b 10c9 643d 8b39 8fbc
00000280: 083d 41bd a9b3 8c3c 98a7 04bd b85c 0dbc
00000290: 0d41 07bd cd12 583d 0508 55bd c43f 6dbd
000002a0: eea3 b2ba aa72 21bd d50c 59bd 8bc0 1b3c
000002b0: 695b a0bc a308 0dbd 4e34 4b3d 771b d6bc
000002c0: 3f31 f6bc b76f 113d cc1e 843d 319d dcbb
000002d0: 8965 6b3d 33c0 0bbc 2c75 c1bc 83ac 603d
000002e0: 903a d13c ebc6 733d cab3 973c 5b80 003d
000002f0: 73bd 293d 7d34 733d 7a7e 1f3d 11e9 abbc
00000300: 4c22 a63b f970 0fbd 3faa e538 4185 7b3d
00000310: 247e 09bd 0be5 3cbc e42f 6cbc ae74 77bd
00000320: 725c 0abd 9301 52bc 2da2 913b b0d7 113c
00000330: c90a e2bc bf0d 503c 69c7 513d c48e 6ebd
00000340: 9997 263d 5ae5 f9bc 557f b8bc 552d 0f3d
00000350: b207 4a3d e04d eb3c 5248 5c3d cff0 debc
00000360: d712 83bd a8c1 113b ecac 8ebb 3297 bcbc
00000370: f9c3 d9bc bcc9 743d 0d24 18bd c0d7 193d
00000380: 5609 74bd 71a7 663d 76fa 81bb 8104 90bc
00000390: a61f cbbc 287a 24bd 2b76 ac3c 55c5 b53c
000003a0: f878 30bd 09d5 33bd c1cf d33c bc03 683d
000003b0: 21d2 19bb bfd5 db3c e66e c83c 9dea f6bc
000003c0: 3067 7a3d d701 83bc edac 833d 6af9 0ebd
000003d0: 331c 2dbd 3454 953c 8861 07ba 8d33 2a3c
000003e0: c4e7 103c ec7c 76bd bbbc b23c 2086 563d
000003f0: 7bec bc3c 6675 b1bc aec8 7c3d 55ff e13c

mean.weight f4 [2, 256]
0.013690813 0.051207595 0.01949687 -0.005288911 0.011484912 -0.031718854 0.07272887 -0.032820202
0.01645035 0.07677434 0.020794049 -0.06573536 0.038368694 0.021225713 -0.08389786 0.0069226758
0.019423537 -0.015902607 -0.053038325 0.00022491085 -0.051082373 -0.013603305 0.039506473 0.03009829
0.08787928 -0.016483214 -0.08679013 -0.027725494 -0.0157207 -0.06698305 -0.048171107 -0.015780013
0.02710935 -0.07288721 0.020239426 0.018677175 -0.03100132 0.00096690614 0.021647723 -0.045679994
0.055751044 0.07637591 -0.07705336 -0.016512394 0.002717111 0.038871937 0.047649708 -0.077165894
0.0692689 0.052474238 0.023607776 0.035804413 -0.023715394 0.057786636 -0.015793107 -0.05990142
0.08208786 -0.06350228 -0.025749607 0.020190218 -0.07100479 -0.057400957 -0.080634855 4.5612196e-05
0.048186917 0.06124962 -0.07573141 -0.060134795 -0.03320505 -0.051769115 -0.009513506 -0.05978774
-0.03382249 0.0109913 -0.08113352 0.03146674 -0.0007359815 -0.06249253 0.0062964223 -0.03721911
-0.032226056 -0.055698156 0.0057333116 -0.048295002 -0.029033706 -0.030838992 0.049538214 -0.023513597
-0.024652533 0.04423292 0.033043385 -0.05992073 0.049852278 -0.058372047 0.06401041 -0.031216752
-0.0323175 0.056946456 0.019143926 0.028169561 -0.020388074 -0.032581426 -0.07635805 0.01225469
-0.03763559 0.021666491 -0.033978146 0.01910095 0.012968092 0.037686385 0.033159204 0.08343519
-0.024566723 -0.06254255 0.030715156 0.016254904 -0.05591836 0.03860765 0.010014605 -0.03466755
-0.026757585 -0.01961195 -0.08843105 0.06856035 -0.001094304 -0.0070534414 -0.023846712 -0.069897145
-0.05554516 -0.035778623 0.07198017 0.013131841 -0.04806622 0.061152205 0.07973688 0.09521734
-0.029918885 0.035903633 0.048583053 -0.0755614 -0.017096078 0.031837784 0.030689372 -0.005959512
-0.056470193 -0.07171697 -0.045614086 0.088475585 0.073118776 -0.08749153 -0.07436503 0.024994021
0.06654368 -0.029048072 -0.010765476 0.02756513 -0.013512116 -0.061279666 -0.011624946 0.0013880329
-0.072404206 0.02894989 -0.053836133 0.06782338 -0.024133176 -0.04078279 0.041861467 -0.037864305
0.018273795 0.041815683 0.039590526 -0.0011409845 0.007627728 -0.049805924 0.031405605 -0.062215712
-0.07152214 0.0073156226 0.07312449 -0.055756208 -0.039733764 -0.018739687 -0.026055994 -0.0058706133
-0.06380981 -0.0500692 0.08160126 0.06490983 0.051195346 -0.07189954 0.0010842548 -0.071165785
0.079624645 0.019491829 -0.04285471 0.017559623 0.022411138 0.013393834 0.060497195 0.004980539
-0.02071651 -0.039786406 -0.043992896 0.002315268 -0.039524507 -0.0369955 -0.07125384 -0.03555485
-0.011484568 -0.06384808 -0.042849563 -0.05595361 0.046053335 -0.043736335 0.04588275 -0.013280989
-0.01378629 -0.047826327 0.011159532 -0.04483682 -0.043306686 -0.03747176 -0.09239654 -0.0051541626
0.04305855 0.012090721 0.053441934 -0.08562276 -0.061809037 -0.038244125 -0.00593885 -0.06831334
0.0036110154 -0.01920415 0.03773561 0.086155094 -0.035866823 0.039041895 -0.03898572 0.029095203
-0.027518405 -0.048084915 -0.058524907 -0.03561864 -0.0701554 0.0279192 -0.030196356 -0.0034698462
-0.052235555 -0.032163717 0.059899595 0.0582084 -0.02087315 0.004972541 0.016562887 0.010913815
00000000: 6f4f 603c 0ebf 513d e6b7 9f3c 9a4e adbb
00000010: 362b 3c3c a1eb 01bd e0f2 943d 7a6e 06bd
00000020: e2c2 863c dd3b 9d3d 4858 aa3c 43a0 86bd
00000030: 7e28 1d3d 8ce1 ad3c a4d2 abbd 9dd7 e23b
00000040: 1c1e 9f3c 2f46 82bc b73e 59bd 0cd6 6b39
00000050: c03b 51bd 66e0 5ebc 8ad1 213d b090 f63c
00000060: 0dfa b33d ce07 87bc 06bf b1bd 9320 e3bc
00000070: b3c8 80bc 692e 89bd 114f 45bd 1645 81bc
00000080: 6d14 de3c e445 95bd 27cd a53c e000 993c
00000090: 7bf6 fdbc f977 7d3a 9156 b13c f21a 3bbd
000000a0: 355b 643d f96a 9c3d 27ce 9dbd 0045 87bc
000000b0: 8f11 323b 2e38 1f3d 572c 433d 2709 9ebd
000000c0: dadc 8d3d 3aef 563d 1865 c13c a6a7 123d
000000d0: c946 c2bc aeb1 6c3d 8c60 81bc 315b 75bd
000000e0: ae1d a83d 7c0d 82bd d7f0 d2bc f565 a53c
000000f0: f66a 91bd 441d 6bbd e323 a5bd b94f 3f38
00000100: a55f 453d e2e0 7a3d 1219 9bbd e74f 76bd
00000110: 0502 08bd da0b 54bd 89de 1bbc fde3 74bd
00000120: 7489 0abd db14 343c 5529 a6bd 45e3 003d
00000130: e2ee 40ba 2bf8 7fbd 3852 ce3b 1173 18bd
00000140: 78ff 03bd c023 64bd 81de bb3b fbd0 45bd
00000150: 18d8 edbc 0ea2 fcbc 95e8 4a3d 969f c0bc
00000160: 1cf4 c9bc 942d 353d 8058 073d 706f 75bd
00000170: e731 4c3d 8717 6fbd e417 833d 46ba ffbc
00000180: 5b5f 04bd b040 693d b9d3 9c3c dac3 e63c
00000190: e404 a7bc 1a74 05bd 9c61 9cbd e5c7 483c
000001a0: c727 1abd ed7d b13c ab2c 0bbd 9879 9c3c
000001b0: 1f78 543c 0a5d 1a3d f2d1 073d 12e0 aa3d
000001c0: 2740 c9bc 4f16 80bd 5a9e fb3c 0129 853c
000001d0: a60a 65bd 0e23 1e3d 4c14 243c 90ff 0dbd
000001e0: b932 dbbc 3da9 a0bc 571b b5bd 5e69 8c3d
000001f0: c06e 8fba 8e20 e7bb 2e5a c3bc 3c26 8fbd
00000200: 5283 63bd 9b8c 12bd 576a 933d ef26 573c
00000210: 16e1 44bd bc7a 7a3d 174d a33d 4f01 c33d
00000220: 7318 f5bc b00f 133d 06ff 463d efbf 9abd
00000230: 130d 8cbc 5668 023d 4768 fb3c 0348 c3bb
00000240: 4a4d 67bd 59e0 92bd d6d5 3abd b032 b53d
00000250: 4cbf 953d c22e b3bd b14c 98bd 43c0 cc3c
00000260: 0e48 883d 39f6 edbc ae61 30bc 44d0 e13c
00000270: ec61 5dbc 6300 7bbd 8f76 3ebc a8ee b53a
00000280: a848 94bd 5228 ed3c 4783 5cbd fce6 8a3d
00000290: f0b2 c5bc db0b 27bd ee76 2b3d 9a17 1bbd
000002a0: edb2 953c ec46 2b3d ad29 223d 168d 95ba
000002b0: 05f2 f93b 4c01 4cbd 2aa3 003d e7d5 7ebd
000002c0: 337a 92bd e4b7 ef3b 4bc2 953d 9f60 64bd
000002d0: dfbf 22bd f983 99bc 6173 d5bc 465e c0bb
000002e0: b8ae 82bd 5d15 4dbd 901e a73d 72ef 843d
000002f0: 36b2 513d 1140 93bd 8e1d 8e3a 5ebf 91bd
00000300: 3f12 a33d 54ad 9f3c 6c88 2fbd 33d9 8f3c
00000310: 9097 b73c d071 5b3c e8cb 773d ca33 a33b
00000320: acb5 a9bc 12f7 22bd e531 34bd c0bb 173b
00000330: 73e4 21bd 9888 17bd 89ed 91bd f6a1 11bd
00000340: c529 3cbc c8c2 82bd 0683 2fbd 9d2f 65bd
00000350: 6ca2 3c3d df24 33bd 8def 3b3d 8198 59bc
00000360: e4df 61bc 8ae5 43bd 78d6 363c d0a6 37bd
00000370: 5a62 31bd fd7b 19bd 663a bdbd 40e4 a8bb
00000380: 2a5e 303d 2918 463c eee5 5a3d fc5a afbd
00000390: 792b 7dbd dfa5 1cbd af9a c2bb dde7 8bbd
000003a0: c9a6 6c3b 0652 9dbc a890 1a3d 1572 b03d
000003b0: 17e9 12bd 65ea 1f3d 7eaf 1fbd 1059 ee3c
000003c0: 476e e1bc b0f4 44bd d0b7 6fbd dae4 11bd
000003d0: a2ad 8fbd ceb6 e43c 595e f7bc 5c66 63bb
000003e0: f3f4 55bd 1abe 03bd 4759 753d ee6b 6e3d
000003f0: 2bfe aabc b2f0 a23b e4ae 873c dccf 323c

mean.bias f4 [2]
0.008754284 -0.036963973
00000000: 216e 0f3c 8967 17bd

log_std.weight f4 [2, 256]
-0.0131619675 -0.046451215 0.028519074 -0.051333684 0.05082598 0.046042625 0.030979147 -0.01027635
0.051647585 0.049610678 -0.04599499 -0.034769263 0.010274178 -0.03122785 -0.042839058 -0.003248407
-0.034377687 -0.036388937 -0.025341721 0.00017851475 0.05981765 -0.048285738 0.059773795 -0.031085696
0.016250808 -0.047874346 -0.0043409243 0.008256766 0.05411944 -0.023574337 0.053462237 0.010649115
0.042796038 0.035301078 0.008247411 0.0355524 0.01788822 -0.052433968 0.042587094 -0.007385455
0.0015781908 0.030978547 -0.018743157 -0.044372708 0.04561982 -0.06615641 -0.017986028 -0.033186946
0.061971415 0.014718423 0.051451422 0.03799467 -0.05984999 -0.038260624 0.047433313 0.048775215
0.0010354094 0.0289318 0.056885783 -0.0066786385 0.04171728 0.0073671113 -0.021468373 -0.011010422
0.03982229 -0.068523586 -0.044442784 0.040668286 0.012324012 -0.047804255 0.013221332 -0.028622504
-0.017377062 -0.032302067 0.040000457 0.020987857 0.02200127 -0.042641375 0.057571217 -0.01616291
-0.032706358 -0.016800156 -0.057995733 0.0395331 0.06249194 -0.010714347 -0.010593707 -0.016249554
0.007741788 -0.003994872 -0.049533896 -0.05828627 -0.0368559 0.022087354 0.05398395 -0.035573237
0.056227636 -0.035606217 -0.04982408 0.040952113 -0.062292606 0.03924658 0.008450606 0.03016726
0.052157663 0.04108203 -0.06292691 0.04805621 0.033295453 -0.015788935 -0.042289563 -0.021565665
-0.052617967 0.037707556 -0.005977708 0.013010925 -0.038925704 -0.0124407895 0.039774403 0.0035542613
0.007859108 0.02854983 0.024478273 -0.054783378 -0.026777238 -0.052532528 0.051298134 -0.026191166
0.046691485 -0.017119901 -0.06005438 -0.056036707 0.045808922 -0.05727825 0.03390617 0.025038756
-0.031153854 0.03632794 0.038115516 -0.05384206 0.044470288 -0.046121936 -0.061110634 -0.024695734
0.052521378 0.015155167 -0.04209671 -0.04540948 0.038527958 -0.0027942786 -0.047462538 -0.0574532
-0.0027868638 -0.00550194 0.030952683 -0.02929311 0.015304865 -0.025526902 -0.048576403 -0.028109591
-0.014062524 0.022765376 -0.043994494 0.03254474 0.053818226 0.0047998773 -0.057698615 0.025219083
0.034289893 -0.016021945 -0.05234419 0.055041406 0.024045857 0.005087332 -0.04791869 -0.035396006
-0.036440674 -0.048957624 -0.0528485 0.01150955 -0.019106837 -0.049420297 -0.038614344 -0.003749736
0.0068114395 0.03991883 -0.0076625436 -0.018621337 0.011033173 0.05692493 0.05768146 -0.017392471
-0.0044020326 -0.056564864 -0.051557597 -0.066355385 -0.020248525 -0.050535105 0.012212816 0.033291698
-0.021492995 -0.053720947 -0.028345177 0.061375037 0.01696768 -0.04349954 -0.020292817 -0.032148533
0.009189827 -0.062033903 -0.028380344 -0.0057321494 0.013144535 -0.045546126 -0.017062452 0.036322355
0.015554138 0.052305955 -0.02692587 -0.05473187 -0.025735114 0.050940286 0.036822025 -0.028289862
-0.053394414 0.018297605 0.015568875 -0.02872657 0.0068771713 -0.021843325 -0.04610271 0.05683384
-0.05601369 0.016452435 -0.019236352 -0.017173901 -0.060885053 -0.0035108128 -0.06471078 -0.06584598
-0.024354566 0.062146325 0.002706537 0.007765606 -0.03384938 -0.0070783594 -0.03730877 0.010809211
0.015713627 -0.029300146 0.007787958 -0.063386284 0.05373193 0.0008162261 -0.04436195 0.044459164
00000000: 4ba5 57bc a143 3ebd d5a0 e93c 4543 52bd
00000010: e72e 503d 3197 3c3d fbc7 fd3c 235e 28bc
00000020: 6b8c 533d 9134 4b3d 3e65 3cbd 376a 0ebd
00000030: 0755 283c 8cd1 ffbc 0278 2fbd 3ae3 54bb
00000040: 9ecf 0cbd 910c 15bd 7199 cfbc b02f 3b39
00000050: 5a03 753d 44c7 45bd 5ed5 743d 6ea7 febc
00000060: 6a20 853c e417 44bd 503e 8ebb 6347 073c
00000070: 59ac 5d3d f81e c1bc 38fb 5a3d a079 2e3c
00000080: e64a 2f3d dd97 103d 2620 073c 659f 113d
00000090: 518a 923c 00c5 56bd ce6f 2e3d b001 f2bb
000000a0: 4cdb ce3a b9c6 fd3c 408b 99bc 28c0 35bd
000000b0: d9db 3a3d 037d 87bd 6f57 93bc 09ef 07bd
000000c0: bdd5 7d3d 8a25 713c babe 523d 4da0 1b3d
000000d0: 4325 75bd 2cb7 1cbd 6f49 423d 85c8 473d
000000e0: 93b6 873a 6202 ed3c 1101 693d 7bd8 dabb
000000f0: bddf 2a3d cf67 f13b 71de afbc 0f65 34bc
00000100: b31c 233d 1856 8cbd a309 36bd ca93 263d
00000110: a7ea 493c 65ce 43bd 499e 583c be79 eabc
00000120: 575a 8ebc 2c4f 04bd 85d7 233d baee ab3c
00000130: 023c b43c b9a8 2ebd cccf 6b3d 1468 84bc
00000140: 1af7 05bd 7ba0 89bc ef8c 6dbd 76ed 213d
00000150: 8cf7 7f3d 3a8b 2fbc 3a91 2dbc c91d 85bc
00000160: d3ae fd3b 6ae7 82bb 0ee4 4abd 95bd 6ebd
00000170: 36f6 16bd 8af0 b43c 461e 5d3d 3eb5 11bd
00000180: f34e 663d d3d7 11bd 5614 4cbd 67bd 273d
00000190: 8826 7fbd 06c1 203d 6974 0a3c 5421 f73c
000001a0: 46a3 553d a145 283d d3df 80bd 97d6 443d
000001b0: d060 083d cc57 81bc d237 2dbd 7aaa b0bc
000001c0: f085 57bd 3d73 1a3d a6e0 c3bb c62b 553c
000001d0: 8f70 1fbd 74d4 4bbc 7cea 223d 9cee 683b
000001e0: 7dc3 003c 55e1 e93c a986 c83c 8964 60bd
000001f0: f05b dbbc 592c 57bd fe1d 523d db8e d6bc
00000200: 923f 3f3d 093f 8cbc 95fb 75bd bf86 65bd
00000210: 23a2 3b3d 999c 6abd 32e1 0a3d 141e cd3c
00000220: 5e36 ffbc 9bcc 143d 041f 1c3d 7e89 5cbd
00000230: 7a26 363d 5bea 3cbd 254f 7abd b54e cabc
00000240: a820 573d 614d 783c 9a6d 2cbd 4aff 39bd
00000250: 7ecf 1d3d 3720 37bb 1468 42bd 0c54 6bbd
00000260: d1a3 36bb 9e49 b4bb 7b90 fd3c 1bf8 efbc
00000270: 42c1 7a3c cb1d d1bc 0df8 46bd 1646 e6bc
00000280: 8066 66bc 747e ba3c 9233 34bd a24d 053d
00000290: 8070 5c3d 4a48 9d3b 6255 6cbd 4098 ce3c
000002a0: 8f73 0c3d 7440 83bc dd66 56bd 1973 613d
000002b0: d1fb c43c a2b3 a63b 6346 44bd 67fb 10bd
000002c0: d142 15bd ca87 48bd ab77 58bd 8d92 3c3c
000002d0: f185 9cbc f06c 4abd 132a 1ebd 21be 75bb
000002e0: 7f32 df3b ed81 233d 1316 fbbb c68b 98bc
000002f0: 7bc4 343c 1e2a 693d 6543 6c3d a87a 8ebc
00000300: ed3e 90bb 8fb0 67bd 0f2e 53bd 55e5 87bd
00000310: 3ce0 a5bc e6fd 4ebd 4318 483c e05c 083d
00000320: 1412 b0bc 7f0a 5cbd 2534 e8bc 6464 7b3d
00000330: ceff 8a3c 932c 32bd 1f3d a6bc 2eae 03bd
00000340: ee90 163c 4317 7ebd e57d e8bc c1d4 bbbb
00000350: 2d5c 573c 938e 3abd 8ec6 8bbc c0c6 143d
00000360: c9d6 7e3c c53e 563d a493 dcbc 862e 60bd
00000370: 72d2 d2bc c3a6 503d b1d2 163d 24c0 e7bc
00000380: 1ab4 5abd dce4 953c 9814 7f3c fc53 ebbc
00000390: e559 e13b c6f0 b2bc 32d6 3cbd 9aca 683d
000003a0: 9c6e 65bd 42c7 863c 8e95 9dbc 48b0 8cbc
000003b0: 9b62 79bd aa15 66bb 1687 84bd 42da 86bd
000003c0: 3a83 c7bc 258d 7e3d 2860 313b a076 fe3b
000003d0: a6a5 0abd 95f1 e7bb 15d1 18bd 1e19 313c
000003e0: ddb9 803c dc06 f0bc 2032 ff3b abd0 81bd
000003f0: 0316 5c3d 02f8 553a e0b4 35bd d01a 363d

log_std.bias f4 [2]
0.024243327 -0.06539095
00000000: f199 c63c b1eb 85bd
