SAC_LunarLander_ep400.pth (torch, 279784 bytes, 8 tensors)

fc1.weight f4 [256, 8]
00000000: 8039 b7bd cae3 313e 02cb fa3e 5774 d73e
00000010: cfc9 75be 3420 2abf ba93 11bf 8e9e 5c3e
00000020: fa94 8abe e48d 80bc ed78 22be 8eb2 893d
00000030: e65e 49bf 8ce2 04be 7f21 023f 0b28 a0be
00000040: 1df2 e03d 44d0 e83d 85fa cc3e 2cff 073f
00000050: 3880 81bf 2a93 fcbe 0072 8dbe 230a b23d
00000060: a821 973e 8b03 b9be 8ae4 e4bc be30 503d
00000070: 2655 2f3f 7766 073f 2856 b2bc 1d96 b13c
00000080: bc81 8d3e dc7e 30bd 4d28 a5be 7d31 393e
00000090: d214 183f 1c3c 01bf 20ec eabe 7778 9b3e
000000a0: 2959 193e a21e 29be 9015 393f 9609 87bd
000000b0: 64ef d7be cedc df3d 0f73 843e e3eb b0be
000000c0: 0e5c 873d 1c3f 5bbd 6f3e 3bbe b88a 5f3f
000000d0: 5d68 01be 507b 3d3f 979d 1d3e 1e93 82be
000000e0: cdce 4f3e bd69 003f 7e8b f93d 931e aabe
000000f0: e70e 5a3e e180 f53b 14d8 c3b9 0d0a 7cbe
00000100: d187 06bf 71a3 4c3d fda2 57bc f8cc a23e
00000110: 6e3e d9be f160 0cbd c639 c03e dae7 98bb
00000120: ada5 d33e 2578 2e3e 2c84 31be 5035 33be
00000130: 8dff ce3e f2f5 5b3f 98cd 29be a04c 4dbe
00000140: 0005 9c3e 7868 cc3e 2ec5 08be 9014 cf3e
00000150: 0da0 ee3e 8b79 49bd efaa e2be 93c5 9cbe
00000160: 6041 9fbe 7d99 793e bf45 1cbe ca1f dc3e
00000170: 24b8 943e 0fb3 8d3e 996f 2fbe 108d 333e
00000180: 412b 9f3e 4426 8b3e 2722 a83e 1328 f43d
00000190: cdc1 b3be 9fbd c3bd ea84 1cbe 6653 ca3e
000001a0: ab30 183e 8e8d 3dbe 6c6c 423f 1cce 9b3d
000001b0: 2318 2fbf 1be5 583f c348 c43e a8eb 02bf
000001c0: 0163 64be 1423 f7be 19ef 20be c124 cfbe
000001d0: bf6e 813d 8d51 fb3e f56e b63d 4799 82be
000001e0: 85a7 733e c344 c1be e9b9 7b3d b173 a1bd
000001f0: b719 1d3f 8bff d13e 560a 8a3e 9a1c 81be
00000200: dfd8 943d b595 0c3e 4dcc fb3d 7f2b 4f3f
00000210: 6fcb febc f116 42be 551d 18be 0568 05be
00000220: ad68 963d daff 47be 991c eb3e 34c3 35be
00000230: 4302 143f fcc6 e53e b04c 00be 4572 5bbe
00000240: 63a2 70be dce1 06be 79e6 b3be d831 e7be
00000250: 61c7 8dbe b4b1 9e3d 6f50 843e 0155 b5be
00000260: 6e9c 143f 17e2 21be a419 123e 57ca a73e
00000270: 568a 25be 4280 3e3e 31e1 3ebf c8cf 4ebc
00000280: adf8 cebd 7004 c13e 670f 553f 9409 3abe
00000290: 6853 1bbe dd7f df3d f5d1 15be 59d6 e5be
000002a0: 6998 763d cf9b 1ebf dbd4 ae3e 14f9 043e
000002b0: 40c5 5b3d 0cef 9e3d 873c ea3c 6e1e ad3e
000002c0: a53d 15bd 5fee d3bd 1cc7 533d 1e1d 733f
000002d0: 866f 85bf 3e0b 19be e2a6 1c3d 178e 1cbe
000002e0: 4ed1 393d 54a6 96be 9902 353f 9bf2 dabe
000002f0: f301 cebd ddaf 983e a78c c6be 4415 d43d
00000300: cd84 de3e ce33 ef3d b667 0cbf 1b8b 00be
00000310: 4a42 62be c8e9 513e ab21 48be aad7 00be
00000320: fbbe 453e ddcd a13e 2e1a fbbd 92ec f9be
00000330: 3b7c 233f d7e1 88be ccf5 773e 7862 82be
00000340: 39f7 1cbe a2ca 2cbf c959 9b3e 12cc 89be
00000350: 88f4 4fbe 328e 9fbe 42db 74be 459d 603e
00000360: 8341 163f 8ec7 60bc efdd 263f 31e3 02bf
00000370: f39b dc3d b0fb 95bd 2275 17bd bda6 25bf
00000380: a783 af3d 495f 9e3e ed87 e0be 8acc a5be
00000390: a76b 9b3d 9293 a5be 2d06 92bd 1b8b 723d
000003a0: aec5 023c d61d bbbc 0b86 0fbf 5b2a bbbe
000003b0: eff2 ab3e fd26 543d 758a c73e 30b8 393e
000003c0: a090 f83e bb4d 0abf c1bf 39bd a1e0 51be
000003d0: 08b6 70bd 838a 813e b36f 5abe 467b 0fbf
000003e0: 09e9 813b eb27 a93e 253a eebd 6761 3b3d
000003f0: e90b 203f 16b5 1c3f 007a ba3e 718d 10be
-0.08946514 0.17372051 0.48983008 0.42080948 -0.24002765 -0.6645539 -0.5686604 0.21544859
-0.27066785 -0.015692659 -0.15866442 0.0672351 -0.7866043 -0.12977046 0.5083236 -0.3128055
0.109836794 0.113678485 0.4003488 0.53123736 -1.0117254 -0.49331027 -0.27626038 0.0869334
0.29517865 -0.36135516 -0.027941007 0.050827734 0.684893 0.52890724 -0.021769598 0.021678025
0.27638042 -0.043089733 -0.3225731 0.18085285 0.5940677 -0.50482345 -0.45883274 0.30365345
0.14975418 -0.16515592 0.72298527 -0.06593625 -0.42174828 0.10930787 0.25869033 -0.34554967
0.06609355 -0.053526983 -0.18285535 0.87321043 -0.12637468 0.74016285 0.15392147 -0.25502867
0.20293732 0.50161344 0.12184809 -0.3322645 0.21294747 0.00749217 -0.0003735429 -0.24613209
-0.5255099 0.049960557 -0.013161418 0.31797004 -0.42430443 -0.034272138 0.37544078 -0.0046663107
0.41337338 0.17038019 -0.17335576 -0.17500806 0.40429345 0.8592216 -0.16582334 -0.20048761
0.30472565 0.39923453 -0.13356468 0.40445375 0.46606484 -0.049188178 -0.44271037 -0.30619487
-0.31104565 0.24374957 -0.15260981 0.42993003 0.29046738 0.27675673 -0.17132415 0.1753428
0.31087688 0.27177632 0.32838556 0.11921706 -0.35108796 -0.09557652 -0.15285078 0.39516753
0.14862315 -0.1851103 0.7594669 0.076076716 -0.68396205 0.8472459 0.38336763 -0.5114083
-0.22303392 -0.4826895 -0.15716209 -0.40457729 0.06319951 0.49085656 0.08907882 -0.25507566
0.23794372 -0.37747774 0.061456595 -0.078833945 0.6136736 0.41015276 0.2696101 -0.25217134
0.072679274 0.13728984 0.12294827 0.80925745 -0.031102864 -0.18954064 -0.1485494 -0.13027962
0.07344184 -0.19531193 0.45920256 -0.17750245 0.5781595 0.44878376 -0.12529254 -0.21430309
-0.23499446 -0.13172096 -0.35136774 -0.45155215 -0.27691177 0.07748738 0.25842616 -0.35416415
0.5805119 -0.15808903 0.14267594 0.3277156 -0.16166052 0.18603614 -0.74562365 -0.012622781
-0.10106025 0.37698698 0.8322663 -0.18167716 -0.15168536 0.1091306 -0.14630874 -0.44890097
0.060203943 -0.61956495 0.3414677 0.12985641 0.05365491 0.07760438 0.028593315 0.33812279
-0.036435742 -0.103482 0.051703557 0.94966304 -1.0424659 -0.14945695 0.03824509 -0.15288578
0.045365624 -0.29423773 0.7070709 -0.42763218 -0.100589655 0.29821673 -0.38779184 0.103556186
0.43460694 0.11679803 -0.5484575 -0.12553065 -0.220956 0.20499337 -0.19544093 -0.1258227
0.19311135 0.31602374 -0.12260853 -0.488133 0.63861436 -0.26734802 0.24214858 -0.2546575
-0.15328683 -0.67496693 0.30341938 -0.26913506 -0.20308125 -0.31163174 -0.23911765 0.21934994
0.5869371 -0.013719453 0.65182394 -0.51127917 0.107719325 -0.07323396 -0.03697694 -0.6470755
0.085700326 0.30932072 -0.43853703 -0.32382613 0.075888924 -0.3233915 -0.07130084 0.059214693
0.007981701 -0.022841375 -0.5606391 -0.36555752 0.3358378 0.051794995 0.38972822 0.18136668
0.4854784 -0.5402486 -0.045348886 -0.20495845 -0.05876735 0.2530099 -0.21331672 -0.56047475
0.0039645475 0.33038267 -0.11632184 0.045747187 0.62518173 0.61213815 0.36421204 -0.14116456

fc1.bias f4 [256]
00000000: 19d9 acbd 2c9b 74bc 270c 963d 3d47 9a3d
00000010: 6a42 8e3e 1b40 22bd b4dd a83d 404a b7be
00000020: ac97 2dbd 1950 c3be 93df 883d 426e a23b
00000030: 39ef 3e3d d6e5 0dbd b98f c4be aefa 64be
00000040: d3a5 203e f683 353e 40b7 de3d 95d6 d6bd
00000050: 724e e7bb df31 353e 761f 3a3d afa9 7e3e
00000060: 4c97 3dbb 3fbe 92be 4229 3fbe f94e d9bd
00000070: 4e15 44be 5b34 51be f7e0 47bd f79e c3bd
00000080: 1725 423e 1ada b0ba fd3b 8bbc f6e6 5a3e
00000090: 8dee 583e 0a73 a63d 29e0 2dbd 3f9f 80be
000000a0: d8a3 943d f634 9abe 0dbe 1c3d 3531 8b3d
000000b0: 835c cf3d 2b59 1b3e 4753 853e 2469 49be
000000c0: 4c02 cc3d df67 d93d 560c 4abe 6ab5 b6be
000000d0: 61ff 3cbe 62ab 543d 3f37 c4bd a45a a83d
000000e0: ffc5 2f3e 9c1b b1bc 6636 0a3c b3d0 ff3d
000000f0: b802 05bb 9d63 01be ab46 ea3a a425 43be
00000100: 1d58 89bd 0db2 473e 46a1 4d3a 2f66 c33c
00000110: 1452 34be cb03 713d 6e84 cbbd c944 08be
00000120: ccb6 fe3d 23d4 a0bb c2bf 77bb 16a1 ad3d
00000130: 4f8a 593e 92a9 c03c 5d5c 1cbc a8e8 583d
00000140: 6370 d43d 0f72 7d3c e2a1 043c 9c7f 6bbe
00000150: 3226 8a3d 732c ad3d 362d 3a3e c7bc d93c
00000160: 58eb 2dbe a046 843c 2d36 b3be 8bfb 5dbe
00000170: 823d 89be 6e96 623d fa50 10be 052e 3abe
00000180: 3e94 adbd 2c65 0fbd 293d 893c 9625 cabd
00000190: c924 ccbd 69d7 3e3d 651d cb3d 7439 483e
000001a0: 968e 243e fc3f 02bd 53e1 4a3d 9e99 703e
000001b0: 77c4 a03d cea7 143e de71 1b3d b299 babd
000001c0: 0409 bbbd 7e9d 3abe 1fbb 10bc b2bd 67bd
000001d0: 70af 8fbd 217f 0cbd 7229 233d 1296 37be
000001e0: 378b 053e 4bb6 ccbd 08ad 883e ed6b 2abc
000001f0: 89e0 463c 1fa2 713d 740b 1b3e 9401 a23c
00000200: 31c3 e13d 68a9 163d da31 adbd 576f 51be
00000210: c230 56bd 0e55 ddbc 8df5 b43d 2e17 92be
00000220: 439f 1d3e 1664 a93d 5f8f 283e c6c4 643d
00000230: 6878 84bd 02c8 2a3d 4e6b 533c acf6 23bd
00000240: 8904 8e3e de35 2abe be9a 39bc d360 c4bd
00000250: a37c 983c 3a2b ec3c 679c 7fbe 0560 15be
00000260: 4a0f 8a3e 44d8 93bd 8d4d 32bc a4f0 b73c
00000270: 8a54 2b3e f8c1 16be 4387 55bd c2cc 783e
00000280: 4792 d93c 1d20 5c3e 65f9 783d fd93 d53d
00000290: 99ad 81be e0cf 39be 924d f53b 2a54 a8bc
000002a0: ec24 283e 09fb 033e 8504 853e 20b5 353e
000002b0: a908 34be 4f69 13bb 0c25 b13d 571c 7f3d
000002c0: 1504 58bd 396c 073d e84f 583e 2e9f 6bbe
000002d0: 7345 4abc e166 fe3b cb87 01bd a227 fb3d
000002e0: e122 8c3e becc b43d 1a7a 39bc 5e75 443e
000002f0: b165 5ebc 2be1 1e3e 495a a3bd fc67 9abb
00000300: 1878 913e 34d0 2e3e 783f 0bbe 3250 00be
00000310: 566c 57bd 5f7b 613c b3d5 3f3e 50f7 033e
00000320: 2496 ac3d a45b 223e 0a4d 883e a6f2 5b3e
00000330: f82f 843d 5810 443d ce32 a2bd fb35 88bd
00000340: 54f9 bdba 0a56 debd 03d7 e63c bb65 623c
00000350: de62 12be a6a0 4ebe 936b c83d 051d 1e3d
00000360: dfb8 aa3d 2886 33be 4a00 a2bd dfdf 0d3d
00000370: 611a c5bd 8d3a 64be 4c3f 9dbd e639 c1bd
00000380: a7a9 1e3e 52d2 153e c54d 7f3e 7769 c0bc
00000390: 8f57 023e b0aa 153e e8f7 c93d a28a 94bc
000003a0: 24b4 8d3d a050 873d 67e5 d9bc 7149 67bc
000003b0: 776b 75bd edce b1bd 9b7e 29be 7551 d73d
000003c0: 142a 4bbb b58d a0bc 25eb 993a 3ba5 623e
000003d0: 70ba 923d 376a f23d 0753 6d3e cd83 78be
000003e0: 52e3 1f3d 2fc5 adbd ae42 ab3d 8aa6 76bd
000003f0: 7134 7c3e 53e9 45bc e165 763d 4ee3 d63c
-0.084398456 -0.014929574 0.073265366 0.07533119 0.27785045 -0.039611917 0.082454115 -0.35798836
-0.042380974 -0.38147047 0.066832684 0.0049569914 0.04661486 -0.034643017 -0.38390902 -0.22361252
0.15688257 0.1772612 0.10874796 -0.10490147 -0.007058912 0.17694806 0.04544016 0.24869417
-0.0028929291 -0.2866077 -0.18668082 -0.10610766 -0.19148752 -0.20430128 -0.048798528 -0.095518045
0.18959461 -0.0013492734 -0.016996378 0.21377167 0.2118475 0.08127411 -0.042450104 -0.25121495
0.07257813 -0.3011853 0.038267184 0.06796495 0.10125067 0.15170734 0.26040098 -0.19669014
0.099613756 0.10615515 -0.19731268 -0.35685283 -0.18456794 0.051921256 -0.0958085 0.08220413
0.17165373 -0.02161961 0.008435821 0.12490978 -0.002029581 -0.12635656 0.0017873844 -0.19057328
-0.067062594 0.19501515 0.0007844161 0.023852436 -0.17609435 0.058841508 -0.09937368 -0.1330749
0.124372095 -0.004908101 -0.0037803506 0.0847799 0.21244167 0.023518357 -0.0095435055 0.052956253
0.103729986 0.015469088 0.0080952365 -0.22997898 0.067455664 0.08455744 0.18181309 0.026579274
-0.16984308 0.016146958 -0.3500227 -0.21677987 -0.2680474 0.055319242 -0.1409339 -0.18181618
-0.084755406 -0.035008594 0.016752796 -0.0987045 -0.09967954 0.04659215 0.09917716 0.19553167
0.16070017 -0.0317993 0.049531292 0.234961 0.07849973 0.14517137 0.03795039 -0.09111346
-0.09132579 -0.18224141 -0.008833676 -0.056577392 -0.07015884 -0.034300927 0.039834447 -0.17928341
0.13041387 -0.09995707 0.26694512 -0.010401708 0.012138494 0.0589925 0.15141088 0.019776143
0.11023558 0.036782652 -0.08456774 -0.20452629 -0.052292593 -0.027018096 0.088358976 -0.2853331
0.15392785 0.08271043 0.16460942 0.05585172 -0.06468278 0.04169465 0.012904001 -0.040030167
0.27737835 -0.16622111 -0.011328397 -0.0958878 0.018614119 0.028829206 -0.24962007 -0.1458741
0.2696479 -0.07218984 -0.010882747 0.022453614 0.16731468 -0.1472243 -0.05213095 0.24296859
0.026559008 0.21496625 0.060784716 0.10428617 -0.25327757 -0.18145704 0.0074860537 -0.020547945
0.16420335 0.12888731 0.2598001 0.17744875 -0.17581429 -0.0022493189 0.08649644 0.062282886
-0.052738268 0.033062194 0.21124232 -0.23009941 -0.01234566 0.007763729 -0.031623643 0.12263419
0.2737036 0.08828114 -0.011320615 0.19185397 -0.01357405 0.15515582 -0.07976205 -0.004712103
0.28411937 0.1707161 -0.1359843 -0.12530592 -0.05259355 0.013762324 0.18733864 0.12887311
0.084270746 0.1585527 0.26621276 0.21479282 0.06454462 0.04786715 -0.079198465 -0.06650921
-0.0014493861 -0.108562544 0.028178697 0.0138182 -0.14295527 -0.2017847 0.09786143 0.038601894
0.083360426 -0.17531645 -0.079102114 0.03463733 -0.09624172 -0.2228796 -0.076780885 -0.094348714
0.15494405 0.14631012 0.2493201 -0.02348779 0.12728713 0.14615893 0.098617375 -0.018132512
0.06919125 0.06607175 -0.026598645 -0.014116631 -0.05991694 -0.08682046 -0.16552202 0.105135836
-0.0031000422 -0.019598821 0.0011743052 0.22133343 0.071644664 0.11836665 0.23176204 -0.24269028
0.03903515 -0.084848754 0.083623275 -0.060217418 0.2462938 -0.012079555 0.060155753 0.026231434

fc2.weight f4 [256, 256]
00000000: 0d1b 163e b6aa eabe 580f c9bd fa71 d73d
00000010: ddcc 48bd 1d7e 763d 22a2 9abd 396e 16be
00000020: 3597 8bbe 275b 37bf 4041 4f3d adac d3bc
00000030: 5325 28bd b4aa d0bc 4acd 94bb 1195 b43e
00000040: 3734 8fbb d725 be3b 57ce bd3c a35c 1e3e
00000050: 084d ab3d 62b2 c83d 0f69 c1be e90d 323d
00000060: ccea c53c dc2a 37be 3834 e13e 3099 2fbd
00000070: e3f1 02bf 0a6a a4be ad79 44bd 85c0 303c
00000080: 2371 11bd 4107 a13d 5753 32bd 3b24 253c
00000090: 6e1a ea3d 7710 9bbd be0e 1bbd 86c2 f63d
000000a0: 4be1 90bc 24a6 8a3d 606c 21bd 5875 3c3e
000000b0: a595 8ebe c6db 9c3d 88a5 de3d ab6c 733d
000000c0: 1fd0 27be ffe5 ddbd 1c36 0d3d 0a37 d5be
000000d0: e92c 42be e6a5 f5be 5f10 9fbd ca82 45bb
000000e0: cab5 c43d e20e cc3d eb09 533e 014f 443d
000000f0: 4d47 5c3c 1815 cc3c bd35 06be 4032 b3be
00000100: bf07 bfbd 4899 7dbe ab33 be3d c6c8 033d
00000110: 3945 a7be 5cd8 f43c 9423 993e 9d0b a3bd
00000120: 69c3 e8bc b96c 333d 48a1 a93d 2ed1 363d
00000130: 2edd 773c 8fbb 033d 82bb 9d3b d6b4 afbe
00000140: c075 a83d 200e 41bd 0839 0a3d 74b1 e93b
00000150: 9f6a 193d 5385 953d af16 c43c 87dd a03d
00000160: 9de1 6abe a4dd 2a3a 609c 74be 7cc9 cb3d
00000170: b8dc e03d af13 46bd 0aba d23d 911f f7bb
00000180: 7b0a 2cbd 2acd 7ebe 128b 3abe 7a76 04bf
00000190: 0361 f1be 1b39 ebbd c432 f1bc ff61 11bd
000001a0: ff3e c2bd 9912 ad3c 0042 64bb d6b3 b03d
000001b0: 7e64 863e 44f7 a6bd a581 2bbd d681 28bf
000001c0: 842d d73c 36e6 24bf d081 84bd 26cb 3cbe
000001d0: 5341 51bd 93d6 aebd 40b1 87bc fdfe 07bf
000001e0: 02c6 0d3b 2b4f 0ebe de06 76be c233 873d
000001f0: 8fea b43d 45d9 843c 506f ac3d f2fb d2bd
00000200: 7e06 ffbc 2c44 0ebe 971c b4bc b8be c63c
00000210: d3ee 243e 7b10 80bc 0bbc e0bd c2f9 c83c
00000220: 1be7 c03c 5cf8 2abd ba97 b63c 0f09 c53e
00000230: 0fce 313c 87b4 bbbe c889 b03c 7292 4a3e
00000240: 5e3c 5d3d 7d5b 7cbd cae5 363e c85e a93d
00000250: a479 f83d b4ff 04bd 86ea 9cbe 4891 9c3e
00000260: 238a 3c3d c04a 39bf ba3b 83be d05f 8d3c
00000270: b222 133c a382 e23d 084b cd3e 699e d6bb
00000280: 5ce2 dd3d 36dd cbbd 5e68 323c 7b5c 46be
00000290: bd5b 593c 4559 5e3d 7a1b 1dbc 5ef5 aa3e
000002a0: 3d6e cbbd b421 593c 5c53 b4bc b7d9 ffbc
000002b0: c421 b1bd e2e2 333c 5283 9bbd b66a 053d
000002c0: e0cb fbbd 6230 57be 9921 273d 06ad 6fbd
000002d0: 0183 e7bc 32df b9be 07a5 083c 2f79 833c
000002e0: 81af 1b3d f762 86be afbf 913c 2188 663e
000002f0: 3f00 1b3d ba38 073d f0ad de3d 86d0 22be
00000300: c070 c03c b573 bc3d 690d 1a3e f0f2 103e
00000310: 1f85 83bc f5db 2e3d 3fa5 debb c151 753c
00000320: 1c4d 16be 381f abbe 7553 a83c 0405 9e3c
00000330: 2a89 f23b 82c0 81bd e03a fabc a36a bbbd
00000340: e578 c63d 1c20 403e 1ddc 3abf 9c4f 2b3e
00000350: 4cca 60be 609c 243d 1fd4 703d 21cd 273e
00000360: 10e8 19be 7366 053e 5ec6 7d3d c53b 6bbe
00000370: 727c 55be 57e3 e2be 03b5 a7be 351a 88bd
00000380: c0aa 233d c647 863e c54b 75be 20e7 58bd
00000390: f94f cb3a 3d56 bbbc 7486 a43d 2141 2ebe
000003a0: 95e7 8cbe d409 44be 8af6 3f3c 8d0d e0be
000003b0: 6cda 963c 6541 2c3d 120e febc ed9d cf3d
000003c0: fde4 13bb b1b1 9e3d a6f6 babc 83d3 99bd
000003d0: 848d 4c3c 4df0 8abd af4a ca3d 8fdf 4fbe
000003e0: 0d26 27bd a96d e7bd 9737 cebe 337c 76bf
000003f0: e434 e43d 21d6 64be 0275 89be d5ce 483d
0.14658757 -0.45833367 -0.0981738 0.10519786 -0.049023498 0.060178865 -0.07550456 -0.14690484
-0.272638 -0.7162346 0.050599337 -0.025839174 -0.04105122 -0.025472023 -0.004541074 0.3526998
-0.004370238 0.0058028507 0.02316968 0.15465026 0.08364302 0.09799649 -0.37775466 0.043470297
0.024159811 -0.17887443 0.43985152 -0.0428707 -0.5115034 -0.3211215 -0.0479676 0.010788088
-0.035508286 0.07862712 -0.04353651 0.010079439 0.11430822 -0.075715 -0.037855856 0.12048821
-0.017685553 0.0676997 -0.039409995 0.18404138 -0.27848545 0.07659106 0.10871416 0.059429806
-0.16387986 -0.10834884 0.03447543 -0.41643554 -0.18962444 -0.47978133 -0.077667944 -0.003013777
0.09604986 0.09963776 0.20609252 0.047926906 0.013444734 0.024912402 -0.13106437 -0.34999275
-0.09327649 -0.24765503 0.09287199 0.032173894 -0.3267 0.029888324 0.29909956 -0.079611994
-0.028413491 0.043804858 0.08282715 0.044633083 0.015128417 0.03216129 0.0048136124 -0.34317654
0.08225584 -0.04713261 0.033745795 0.0071317498 0.037455197 0.0730082 0.023936598 0.07854753
-0.22937627 0.00065180124 -0.23887777 0.099505395 0.10979599 -0.048358615 0.102893904 -0.007541605
-0.042002182 -0.24882951 -0.18217114 -0.5174328 -0.47144327 -0.114855014 -0.029443152 -0.035493847
-0.09484672 0.021127032 -0.0034829378 0.08628051 0.26248544 -0.08152631 -0.041871686 -0.65823114
0.02626682 -0.64413774 -0.06470072 -0.1843687 -0.05108769 -0.085370205 -0.016564012 -0.53123456
0.0021632914 -0.13897388 -0.24026057 0.06601669 0.08833801 0.016216883 0.08419669 -0.10301961
-0.031131025 -0.13893193 -0.021986289 0.024260864 0.16106729 -0.015632858 -0.10973366 0.024533156
0.0235477 -0.04174076 0.022289146 0.38483474 0.010852351 -0.3666117 0.021550074 0.19782427
0.05401265 -0.061610688 0.17861095 0.08270031 0.12132576 -0.03247042 -0.30647677 0.3057959
0.046030175 -0.72379684 -0.25631505 0.017257601 0.00898044 0.11060073 0.40096307 -0.0065496457
0.1083419 -0.09954302 0.010889141 -0.19371216 0.013266501 0.054284353 -0.00958907 0.33390325
-0.09933136 0.013252664 -0.022012405 -0.031231744 -0.086490184 0.010979386 -0.07593407 0.03257247
-0.122947454 -0.2101455 0.040803526 -0.058514617 -0.02826071 -0.36303097 0.008340127 0.016048996
0.03800917 -0.2624738 0.017791597 0.22512867 0.03784203 0.033013083 0.1087302 -0.15899858
0.023491263 0.09201757 0.15044178 0.14155173 -0.016054688 0.042690236 -0.006794601 0.014973105
-0.14677852 -0.33422256 0.020547608 0.019289501 0.007401605 -0.06335546 -0.030545652 -0.09151199
0.096910276 0.18762249 -0.72992116 0.16729587 -0.2195217 0.040188193 0.058796044 0.16386844
-0.15029931 0.13027363 0.061956756 -0.22972019 -0.20848253 -0.44314072 -0.32755288 -0.066456236
0.03995776 0.26226634 -0.23954685 -0.052954793 0.0015511505 -0.02286827 0.080334574 -0.17017032
-0.27520433 -0.19144374 0.011716494 -0.43760338 0.018414699 0.042054553 -0.031012569 0.10137544
-0.0022566908 0.07748736 -0.02282269 -0.07511046 0.012484912 -0.06784115 0.09877526 -0.20300125
-0.040807772 -0.11300213 -0.40276787 -0.9628326 0.111429006 -0.22347309 -0.26847082 0.049025375

fc2.bias f4 [256]
00000000: f99f cd3d 22dd 843c b714 843d 9c84 51bc
00000010: 7bdb 553d c4e4 003d 87d3 463d 3a8c 22bd
00000020: 8455 6c3d 0053 7bbd 4844 843d b457 b1bc
00000030: e1b0 ba3d 86e7 ee3d d18e cebc 086a 4cbd
00000040: 4c21 78bd e7c2 f73c 9e00 9a3d 3601 57bd
00000050: c91b 32bb 451e 5b3c b90a b7bc fd37 ac3d
00000060: c0c6 2b3d dd5c 93bc d2e2 973c 1f24 8f3d
00000070: bf99 473d ea1b af3d 14cc b8bc 9b67 1dbc
00000080: d490 873d 6417 f8bb 2ba3 af3c 7ba6 a2bc
00000090: ff29 d3bb 96cf 2e3d ce9e 823d 4cad 9c3d
000000a0: 5c30 133d 9fdc ec3d f957 773d 5d97 563d
000000b0: 66f5 b5bc dd98 5d3c 0489 d53c 8766 473d
000000c0: 7020 02bc 647f 893c b8e2 21be bc6f f73d
000000d0: ac6a f9bd a3ac 0abe 5800 1bba 96f4 09be
000000e0: 4cc8 203d 0323 3abd 3006 b23c c79c 733d
000000f0: 971e a43c 6776 07bc 05a5 22bc eff4 8b3d
00000100: 91be 06bd 272b 85bc c6a0 513d f360 a2bc
00000110: fd6d 4cbe 174c 3b3a ff87 f93c 5ff4 5a3c
00000120: 59bc fe3c 1605 703d ac69 063c dc56 83bd
00000130: 2644 d33d 8e71 3b3d 8b8d 633d 6a85 543d
00000140: a120 2f3b b9bb 453b 3178 5f3d 782c 7c3d
00000150: 1cc0 033d 8f7a d33d 73ad 93bc c666 393d
00000160: 369c 31bd 47dd c03d d1ff 113d 354a 1c3d
00000170: f1fc 05bd ea02 69b9 59f9 893a 7036 4e3d
00000180: aeab 1c3d fe4f 6a3d 6c64 ae3d eb90 cd3b
00000190: 92da 223b 7133 143c 26eb e43d cd05 05bd
000001a0: b345 8f3d d6d9 753c bb05 de39 e075 173c
000001b0: d550 70bd 2214 e6bc 85af 293c 41e8 3e3d
000001c0: b3f1 19bd 71a6 f43c de45 323d 8dc8 e9bc
000001d0: 6c1f 4b3d f233 d53d 9159 453d 539a 1f3d
000001e0: b432 83bd 5e23 6d3d 8bc3 953d 2f2a 9fbc
000001f0: 85f5 4bbc 4b9a a1bc 8026 a53d 8345 a43c
00000200: 2fde f13d ecc8 8c3d ca8e 39bd 908e a83d
00000210: 5485 2f3c 0c4a ac3c 979d 7d3c 1d67 ff3c
00000220: d4c6 373b 960b f9bc 4d5e 503c 8341 bd3d
00000230: 7108 8bbd b911 843d 0e99 a33b b9c1 fcbd
00000240: 7ee1 ce3c 1878 233d 0cc1 53bd bebd ee3c
00000250: dcf8 6c3d d7e1 d13d 5bfd 6cbd c964 893d
00000260: 718a 143d 2eee 7fbc 75e6 1f3d c3c1 7b3d
00000270: d3b2 013d 6902 99bd d96a a43c d2bd 65bd
00000280: bdc2 c23c 4f2d d43c 3a77 523d dda4 a6bc
00000290: 0053 863c 0079 7cbd 52c9 dbba e561 883d
000002a0: b5d4 183c 75d9 a93d 7273 41bb eaf7 7f3d
000002b0: 5bdd 82bc 3b74 dd3c 2d5d 693d 82bc 9f3c
000002c0: 890f f53b ec5e 883d 747d 8ebc 34f6 833d
000002d0: a9af bdbd fec6 a0bb 6e72 bdba be2b dd3c
000002e0: 741f a63d d3a4 a3bb 26a7 123d c1ef c6bd
000002f0: 9a69 cdbc 0b27 463d 9973 973d 8225 2b3d
00000300: ca38 2cbc bdb8 00bd 2471 5b3d fb2f 89bd
00000310: f5f2 e53c eb51 20bb 3895 be3d a0e3 3f3d
00000320: a524 663d 9a84 b83c 5102 163d b3a7 823d
00000330: 3b2f 3bbc bd83 f63b b6c8 80bc cebd a23d
00000340: 5257 843d 1696 153d ae6b 3c3d 96f1 ccbc
00000350: 1f59 ed3c e526 d5bc 2b89 683c 93c1 9c3d
00000360: b1f0 37bc 392b dcbc 912c a8bd c9e1 c73d
00000370: ab60 953d c8e5 3e3d b5a1 e5bd e529 b23b
00000380: 7544 57bd a7f8 fd3c c7c6 d73d ff52 acbd
00000390: 9d38 933d c40c b33a 80c7 2d3b d97c bc3d
000003a0: 0014 cabb 41fe d3bc c824 e83b a51b ea3b
000003b0: 5fe1 943d 5bc1 17bc a937 59bd d68d fd3b
000003c0: aef2 803d 899e f53b 9d37 babd f545 a53d
000003d0: 69f6 99bc 72d4 933d b6a3 c73d 8f1c 4d3c
000003e0: 7b44 753d bcd2 3aba cdc4 5e3d f1b0 2f3d
000003f0: c859 84bc 4108 893b 8b99 c33c be2a 2d3d
0.10040278 0.016218726 0.064492635 -0.012787964 0.052211266 0.031468168 0.048541572 -0.03968451
0.05769874 -0.06135845 0.06458336 -0.021648265 0.09115768 0.11665253 -0.025214585 -0.049905807
-0.06057863 0.030244304 0.07519649 -0.05249139 -0.0027177206 0.013373916 -0.02234398 0.084091164
0.04193759 -0.017988617 0.018540774 0.069893114 0.048730608 0.08550246 -0.02255825 -0.009607221
0.06619421 -0.0075711478 0.02144011 -0.019854775 -0.0064442153 0.042678438 0.06377946 0.07650241
0.03593479 0.11565518 0.06038663 0.052390445 -0.022211742 0.013525215 0.02606631 0.048681762
-0.007942304 0.016784377 -0.15809143 0.120818585 -0.12178549 -0.13542418 -0.0005912832 -0.13472208
0.039253518 -0.045443546 0.021731466 0.059475686 0.020034118 -0.008267975 -0.009927039 0.06833827
-0.032896582 -0.016255928 0.051178716 -0.01982162 -0.19963832 0.0007144822 0.030460356 0.013363927
0.03109567 0.0585986 0.008203905 -0.064130515 0.10315733 0.04576259 0.055554908 0.051885046
0.002672233 0.0030171706 0.054557983 0.061565846 0.03216563 0.103261106 -0.018027043 0.045264028
-0.043361865 0.09417205 0.035644356 0.038156707 -0.032711927 -0.00022221697 0.0010526582 0.050344884
0.038249664 0.057205193 0.08515248 0.006273379 0.0024849516 0.009045468 0.111776635 -0.032476235
0.06995716 0.015005549 0.0004234741 0.009244412 -0.058670837 -0.028085772 0.0103567885 0.046608213
-0.037584018 0.029864522 0.04352366 -0.028538013 0.049590513 0.104102984 0.04818112 0.038965534
-0.06406155 0.057895057 0.073126875 -0.019429294 -0.012448673 -0.019726893 0.08063984 0.020052677
0.11809956 0.0687426 -0.04530219 0.08230317 0.01071294 0.021031402 0.015479467 0.031177098
0.0028042095 -0.030401032 0.012717796 0.09241011 -0.067887194 0.06448693 0.004992611 -0.12341637
0.025254007 0.039909452 -0.051697776 0.02914321 0.05785452 0.10248154 -0.057858806 0.06708676
0.03626484 -0.015620751 0.03903814 0.061464082 0.03166468 -0.07471163 0.02007048 -0.05608923
0.0237745 0.025900511 0.051383235 -0.020342285 0.016397 -0.061638832 -0.0016768372 0.06659297
0.009328057 0.0829343 -0.0029518274 0.06249229 -0.015974691 0.027032962 0.056973625 0.019499067
0.0074786586 0.0665873 -0.017393805 0.06443444 -0.0926202 -0.004906534 -0.0014453658 0.026998397
0.08111468 -0.004994014 0.035803936 -0.09713698 -0.025074769 0.048377078 0.073950954 0.041783817
-0.010511586 -0.03142618 0.053574696 -0.06698605 0.028069953 -0.002446289 0.09305805 0.04684794
0.05618729 0.022524167 0.036623303 0.06379642 -0.011424835 0.0075230286 -0.015720706 0.079463586
0.064619675 0.036520086 0.04600113 -0.02501754 0.02897316 -0.026019523 0.01419286 0.07654109
-0.011226819 -0.026876079 -0.08211625 0.09759862 0.072938286 0.046605855 -0.11212484 0.005437123
-0.05255552 0.031002356 0.10535961 -0.08414268 0.071885325 0.0013660421 0.0026516616 0.092035
-0.006166935 -0.025878074 0.007084463 0.0071444088 0.072695486 -0.009262408 -0.053031597 0.0077378554
0.062962875 0.0074957055 -0.09092639 0.08069984 -0.018794255 0.07218255 0.09748022 0.012519016
0.05987976 -0.0007126739 0.054386903 0.042893354 -0.016156092 0.004181892 0.023876926 0.04227709

mean.weight f4 [2, 256]
00000000: a6ad 7ebe b1f8 be3c 4846 2dbe 7dde eabf
00000010: 9bd5 363e 7056 b13e cba3 2b3e 02c2 0ebf
00000020: 4e67 53be a414 e4bc 5e5a c43c 23f5 94be
00000030: e5f3 f8bd 49d2 14bf 736e 2c3e 3ebc 8abd
00000040: a448 12bd 4293 87bc 8735 13be 3b4f 15bd
00000050: 16db c13d b870 d9bd 484e de3d 89c4 60bb
00000060: fd34 8fbe 59a0 bbbe 5dd9 61be 431b fb3e
00000070: 7629 8bbe 592b d7bd 863c 673d b7b5 a73e
00000080: bb2c 9abe 7d96 cc3b 20ff 8a3d 6f12 213e
00000090: 8cc7 0fbd a5cc 383d 666b b3bd 092e e53f
000000a0: 92b2 c6bc acf0 fcbd 0455 d73f bb46 b5bd
000000b0: 4952 97bd 0fa8 d53c f32b 153d 7e5b c23c
000000c0: bbaf fe3d 0a45 023e 14e8 043f 8f0e f33e
000000d0: 731d f5be 0a3f 00bf 829a 2dbc 9a33 9ebe
000000e0: 553d cd3f d806 31be 2ff5 493e 1503 1f3e
000000f0: 3cff b2be 94b9 2fbe 1080 8fbe 371d e53d
00000100: ada2 83be b7a1 f33e 9d27 c3bc bea7 113f
00000110: 1006 d3be 7d4b 95be 8855 4bbd 66e5 c1be
00000120: 32fc dcbe 2153 5e3e 538d e7be ef80 13bf
00000130: 6142 a5bd 3f9e 9f3e 6c18 59be 2f0a f4bd
00000140: fd02 3bbe 0e9c a4bc b5d6 8cbe 3e0b 4abf
00000150: 50a1 47be 12ad 43c0 4415 86bf 382e 573c
00000160: b3f6 4abe 86e4 0abf 8a42 853e d228 05be
00000170: f756 4a3e cf19 583e 4267 c4bf 237f 053f
00000180: 2338 ecbb 5bd5 4e3e 3073 c23c f85c 74bd
00000190: 3ca4 a93e 1466 6e3d 10fb cfbe caf6 fc3b
000001a0: d85f 483e 479b e13d abf7 8bba 9e9a cebd
000001b0: da26 40bd 2bd2 a8be e451 33bc e972 423e
000001c0: e001 f0be 6c89 40bf 88c5 df3d 289b b5bd
000001d0: 0d29 d8be 75d1 cdbe 8aac f13d fccd 26be
000001e0: 99a9 593d 0a49 efbe a3c6 87be 7fc5 70be
000001f0: 04a6 edbd 1c18 c43e 64a9 893c 9c26 49be
00000200: 176c 913d e193 933e 011e e6bd 6772 4cbe
00000210: 0e3c 99bd bdf6 473e b447 8f3c c3ad 1dbe
00000220: 7a21 103e 950c a73d 1687 81be 0a65 6abe
00000230: e0a9 bdbe 0387 963d 6b04 5b3e aec4 b1be
00000240: c9fa fbbd a9cc 5bbe 67df 2d3d d61b 1bbf
00000250: 44ab 8d3e 47c2 743e ea26 fa3c db4c 05bf
00000260: 4020 c63e 42e2 0f3e f48a bb3d e7a6 873d
00000270: 693b 723e 6644 15bf 8dac 9d3d 9d65 803e
00000280: 7c42 b13d b066 113f 78c2 66be 1030 d4be
00000290: 0684 1b3e 3eed 01be 8983 9bbe 0912 0d3f
000002a0: a91a 56be acff 32be bb03 e03e 63d0 24be
000002b0: 8c79 483e 067c 42be 45f5 22be c760 4bbe
000002c0: 62cc f6bd 2c90 1a3a 3ab6 9cbd 1fe6 9e3e
000002d0: bd70 bd3e e31f 273d 6312 30bf ef39 fe3d
000002e0: 7e18 67be 6d35 ac3e 5eb2 123e 283b b8be
000002f0: a40f f8be cb5f ab3f b367 3b3e 4f6a 9b3e
00000300: b1a2 ab3e 24b9 b4be 66b3 30be 527e 333d
00000310: 2cfa ce3f c28f e63c 4265 b6bd fa2d 36be
00000320: eefb 313e 262a 3d3e 85dd a1bc fa22 96be
00000330: 714f 79be 1f51 82be 7679 c73e 94ce 4abe
00000340: 0791 303f 6f00 943e e19e 9a3d 151c 21bd
00000350: 902b a93e 73dc 683e f2be f83e 42f0 91be
00000360: 4a59 5f39 b88b db3e cffd fb3e ddca bdbe
00000370: 7ed6 45be f748 cfbe d143 c03e 2af1 97be
00000380: f531 0cbd cbf6 a13e 1706 663d 8d8e 8abd
00000390: 59b2 2e3d 4355 18bf 97a9 fcbc 38c0 88be
000003a0: 08c8 e83e 15be de3b 3831 c43e 0c41 573f
000003b0: f83a f33e e73f 9fbe c7b8 18bd be9e 053f
000003c0: f420 0bbe 14e2 7f3e 7e27 2a3f da36 bcbd
000003d0: 6b41 353d d3ea 8bbe 5ba2 a6be 2ca4 94be
000003e0: 648e 373e 522a 5ebe e2ab 683e 49ae 1abe
000003f0: daaf c13e 3604 173f c8c9 b9be 168f a13d
-0.24870929 0.023311945 -0.16921341 -1.8349148 0.17854922 0.3463626 0.16761701 -0.5576478
-0.20644876 -0.027841873 0.023968872 -0.29093274 -0.12155894 -0.5813337 0.16839008 -0.067741856
-0.035713807 -0.01654971 -0.14375888 -0.036452513 0.094656155 -0.106172025 0.10854775 -0.0034296832
-0.27970114 -0.36645773 -0.22055574 0.49044237 -0.2718007 -0.10506315 0.056454204 0.32755825
-0.30112252 0.0062435255 0.067869425 0.15729688 -0.035102412 0.04511704 -0.08760719 1.7904674
-0.02425507 -0.12350592 1.682282 -0.088513814 -0.073887415 0.026081113 0.036418866 0.023725267
0.12435862 0.12721649 0.51916623 0.47472045 -0.4787403 -0.5009619 -0.01059592 -0.30898744
1.6034342 -0.17287767 0.19722436 0.1552852 -0.34960353 -0.17160636 -0.2802739 0.11187213
-0.2571005 0.47584316 -0.0238226 0.5689658 -0.41215563 -0.29159155 -0.049642116 -0.3787033
-0.4316116 0.21711399 -0.4522501 -0.5761861 -0.080693014 0.3117542 -0.21200722 -0.11916005
-0.18262859 -0.020093944 -0.27507558 -0.78923404 -0.1949513 -3.0574384 -1.047524 0.013133578
-0.19820671 -0.5425495 0.26027328 -0.13003853 0.19759737 0.21103595 -1.5344012 0.5214712
-0.0072088405 0.20198576 0.023736566 -0.059658974 0.33133113 0.058202818 -0.40621233 0.0077198492
0.19567811 0.11015945 -0.0010678669 -0.10088085 -0.04691205 -0.32972845 -0.010944817 0.18989147
-0.4687643 -0.7520969 0.10926348 -0.08867484 -0.4221882 -0.40198866 0.11800487 -0.16289514
0.053140257 -0.46735412 -0.26518735 -0.23512839 -0.116039306 0.38299644 0.016804405 -0.19643635
0.071006946 0.2882376 -0.112361915 -0.19965516 -0.07482158 0.19527717 0.017490245 -0.15398316
0.1407527 0.08156697 -0.25298375 -0.22890106 -0.37043667 0.0734997 0.21388404 -0.34720367
-0.12303693 -0.2146479 0.04244938 -0.6058935 0.27669728 0.23902236 0.030536134 -0.520704
0.3869648 0.14051154 0.091573626 0.06623631 0.23655476 -0.5830749 0.07698927 0.25077525
0.08655259 0.56797314 -0.22535121 -0.4144292 0.15187082 -0.12688157 -0.3037379 0.55105644
-0.20908608 -0.17480344 0.43752846 -0.16095118 0.19577616 -0.18992624 -0.15913875 -0.19861136
-0.12050702 0.0005896117 -0.076519445 0.31034943 0.37000075 0.040801894 -0.68778056 0.12413394
-0.22567937 0.3363451 0.14325854 -0.35982633 -0.48449433 1.3388609 0.18301277 0.30354545
0.3352256 -0.352975 -0.17255935 0.04382164 1.6170096 0.028144721 -0.08906032 -0.17790976
0.1738126 0.1847311 -0.019758949 -0.2932356 -0.2434671 -0.25452515 0.38959855 -0.19805366
0.68971294 0.2890658 0.07549835 -0.03933342 0.33041048 0.22740345 0.4858318 -0.28503615
0.000213002 0.42880034 0.49217078 -0.37068835 -0.19320104 -0.40485355 0.3755174 -0.2967618
-0.03422733 0.316336 0.05615815 -0.06765471 0.042650554 -0.595051 -0.030842585 -0.2670915
0.45465112 0.006797562 0.383188 0.8408363 0.47505927 -0.3110344 -0.037285592 0.52195346
-0.1358679 0.24988586 0.6646651 -0.091901496 0.04425184 -0.27327594 -0.32545742 -0.29031503
0.17925411 -0.21695831 0.22721818 -0.15105547 0.37829477 0.589908 -0.3628676 0.078886196

mean.bias f4 [2]
00000000: 5151 6abc 1edb 82bd
-0.014301614 -0.063894495

log_std.weight f4 [2, 256]
00000000: 44f9 1fbf 28fd 1fbe 10ad 84bd a520 813f
00000010: d326 84bd f64a 833d 64e2 46bd 8088 6fbe
00000020: 6ec4 4e3c 04c1 d63c 9a5a 34be 4ccb 5e3e
00000030: 46ca 25be cdc9 9ebe 4e96 febd 4507 423e
00000040: 6a3a 6ebd 6f22 413d 39d6 39be 946b 1abc
00000050: 2b57 383d 886a 2b3d bcdf 2cbe f417 72be
00000060: b481 0c3e 0008 41bd 2c3b e33e 8dff 863e
00000070: 93ba 863d 2bf5 8f3d 75e4 92bd 4cb2 babd
00000080: 14ad 8abd dcc3 233e 8a7c 6abe 13a3 4bbe
00000090: 8ca7 babd 6439 10bd f26d a8bd 9c7f 1a3f
000000a0: cd5f 72be 99da 443d 1244 243f 3895 8ebe
000000b0: c3a8 ad3b 71a5 fd3c 7409 b43c 789c c83c
000000c0: 07c9 9abe efdd ac3c c58f d1bc a715 c63e
000000d0: b503 043f 4b7b a4bd 157b b7bc be6b 94bd
000000e0: f0cd 183f bb1f a03e 31b0 8abd 79e8 e8be
000000f0: 507a 9b3d b3a1 41be 77ea d43c c654 06be
00000100: 33ff e6bd 979e f1bc 892e a1be 3f56 da3e
00000110: 57c6 c13e 46f3 223c 5876 9ebe 07f3 ae3c
00000120: 40ce 9d3e 4e08 53be 801b ccbd 1e4c 893e
00000130: ccdc 0ebe e6a6 d93d 3b11 46be 8d12 073d
00000140: 688e 93be 990f 2c3e 4f63 29be de88 77bd
00000150: 0336 18be d8e3 b03f f383 6a3e 8123 5cbe
00000160: 6f15 36be acc9 ce3d a9b5 d7bd d53c 3bbe
00000170: 42c4 ed3d 2749 96bd 34b9 293e 3476 8d3d
00000180: fc37 08bd 4f1a 253e 83cb e73b 8482 d13d
00000190: bbc9 5a3c 1517 1b3d aec6 863e 825a c0bc
000001a0: d32c 5a3e 2642 6cbe 0e96 3b3e 65b7 7d3e
000001b0: 247e 583d 0467 c93d 87be 163c 8d0a 533e
000001c0: 58b1 09bf ba24 58be 89ef 773a bb80 47be
000001d0: 19c5 5c3d 9471 063e 838c 5abe e260 bfbd
000001e0: 7447 0fbb ad21 ee3d 0346 1a3e 4a1e 6c3d
000001f0: 424c 03be a2b8 71bd 5cd8 13be 0b99 54be
00000200: 451a 5fbe 6f99 29bd 47b5 4dbe 39b1 94bd
00000210: 66ad 47be 6a86 a63d a383 a43c a698 8abe
00000220: 226b 95be 17ba 983d 5651 c73c 4e67 dbbe
00000230: a31a a83e a375 9e3e 8f73 16be 9e7d f43e
00000240: 08d0 babe 098b 6cbe fd11 3ebd f069 aa3e
00000250: 8b8e d8ba 0a36 033d dfce 31bd 8a15 a8be
00000260: 943e 36be 7fd1 083e a49d 5dbe e7b3 46be
00000270: 1ab0 7e3e 8a72 b8bd 6f27 c33c a676 8fbe
00000280: 2a11 46be b2f2 ec3d 2c14 913b e247 933e
00000290: 27f1 0d3e 83d7 eabe c00d 1abe f36f c83e
000002a0: a827 723d 7851 6f3c 6c5f 443e ca3e 53be
000002b0: 5672 8a3b d04a a13d b349 73be afcb 813e
000002c0: 25ae dcbd 2b7e 66be f4cf 9c3d 8559 ffbd
000002d0: c0f1 2bbe c318 63bd 0c3a f73e 397d 28be
000002e0: 1125 40bd 2b79 a23d bdf5 f3bd 3d51 80bd
000002f0: 6e00 f53e 5219 1b3f c52f 74be 00be 13bc
00000300: cd3b ea3d c651 913e fca9 6f3d e140 2f3d
00000310: b238 273f 3659 3c3c 4cc8 2abe b488 dfbc
00000320: c372 e5bd 9ba0 22be fe78 e1bd 9764 2abe
00000330: 0ba5 3abd 06a0 88bd 6176 98be 1036 0fbe
00000340: d3cd 383e 5641 a0bd 1f0f 13bd a96b 0c3d
00000350: e9bf 23be d96f a63b 7508 a63c 4b78 87be
00000360: 2981 9ebe c880 af3d 7e6f 09be 4914 e4bc
00000370: 6ce2 ae3d 1384 863e cf40 05bb 40f9 46be
00000380: 5696 4cbd 43ec 323e e39d 393e f1ef 0f3e
00000390: c37d 24be f61d 0a3a 2432 94be 127b cb3d
000003a0: b0ed 5e3e e68d 2fba 9d4c 243d c922 ac3d
000003b0: 9443 203e f7b7 5a3e fae8 20bd f712 3a3e
000003c0: d5bb 77bd 1ab0 77bb e757 5b3d 86d4 a5be
000003d0: d8ae 6abc 3098 45be 273d 79bd 4429 613e
000003e0: 80f4 443e bd6b 22be ab91 01bd cf67 e33a
000003f0: 084e 7ebe f07e c43d 7592 123e 16b0 c73d
-0.62489724 -0.15623915 -0.064783216 1.0088087 -0.06452718 0.06410782 -0.048555747 -0.23391914
0.012620075 0.026215084 -0.17612687 0.21757239 -0.16190442 -0.31013337 -0.12431012 0.18948086
-0.058161177 0.04715198 -0.18148126 -0.009425063 0.045005005 0.041849643 -0.16882223 -0.2364195
0.13721353 -0.04712677 0.44381082 0.26366845 0.06578555 0.07029184 -0.07172481 -0.09116039
-0.06771293 0.15992683 -0.2289907 -0.19886427 -0.09113988 -0.035210982 -0.082240954 0.60350966
-0.23669358 0.048060033 0.6416637 -0.2784822 0.005299659 0.030962678 0.021977164 0.024488673
-0.30231497 0.02110192 -0.02558125 0.38688394 0.51568156 -0.08031329 -0.022397557 -0.07247113
0.59689236 0.31274208 -0.06771887 -0.45489863 0.07591689 -0.1890934 0.025990708 -0.13118276
-0.11279144 -0.029494567 -0.31480816 0.42643926 0.37846634 0.009945696 -0.30949664 0.021356119
0.3082142 -0.20608637 -0.09966183 0.26815885 -0.13951415 0.106275365 -0.1934251 0.032976676
-0.28819585 0.16802825 -0.1654179 -0.06043326 -0.14864354 1.3819532 0.22901897 -0.21497919
-0.17781614 0.100970596 -0.10532696 -0.18284924 0.11609699 -0.073381715 0.16574556 0.06907311
-0.033256516 0.16123317 0.007073821 0.10229972 0.01335376 0.03786381 0.26323456 -0.023480657
0.21306162 -0.23072109 0.1831896 0.2477699 0.052854672 0.09834102 0.009200699 0.20609494
-0.5378623 -0.2110776 0.0009457996 -0.194827 0.053898904 0.13129264 -0.21342663 -0.09344651
-0.0021862658 0.11627517 0.1506577 0.057646073 -0.12822059 -0.05901397 -0.14438003 -0.20761506
-0.21787365 -0.04140609 -0.20088683 -0.07260365 -0.1949974 0.08131106 0.0200823 -0.27069587
-0.29183298 0.07457369 0.024330776 -0.42852253 0.32832822 0.30949125 -0.1469252 0.47752088
-0.3648684 -0.23099913 -0.046403874 0.3328395 -0.0016521973 0.032033958 -0.04341018 -0.32828933
-0.17797309 0.13361166 -0.21642166 -0.19404565 0.24871865 -0.090062216 0.023822514 -0.2802021
-0.19342485 0.11569728 0.0044274535 0.2876578 0.13861524 -0.45867547 -0.15044308 0.3914791
0.05911985 0.014606826 0.19177026 -0.20629421 0.0042250557 0.078755975 -0.23758583 0.2535071
-0.10775403 -0.22509067 0.076568514 -0.12468246 -0.16791439 -0.055443536 0.48286474 -0.16454019
-0.04691035 0.07933267 -0.11912105 -0.06265495 0.4785189 0.6058551 -0.23846348 -0.0090174675
0.11437187 0.283827 0.05851172 0.042786483 0.65320885 0.011495879 -0.1667797 -0.027286865
-0.1120353 -0.15881579 -0.110094056 -0.16639934 -0.045567553 -0.06671147 -0.29777816 -0.13985467
0.18047266 -0.07824962 -0.035903092 0.03428236 -0.15991177 0.0050792512 0.020267705 -0.26458964
-0.30957916 0.08569485 -0.13421437 -0.027841704 0.0853928 0.2627264 -0.0020332818 -0.19431019
-0.04994806 0.17472939 0.18126635 0.14056374 -0.160636 0.0005268747 -0.28944504 0.09935583
0.21770358 -0.0006696865 0.040112127 0.08405072 0.15650779 0.2135924 -0.039284684 0.18171297
-0.060481865 -0.0037794174 0.053550627 -0.32388705 -0.014323913 -0.19296336 -0.060849335 0.21988398
0.19233894 -0.15861411 -0.03163306 0.0017349663 -0.24834454 0.09594524 0.14313681 0.097503826

log_std.bias f4 [2]
00000000: f4c4 2cbe 4bc0 cfbd
-0.16872007 -0.10144099
