ppo/PPO_LunarLander_final.pth (torch, 279026 bytes, 8 tensors)

log_std f4 [1, 2]
-0.49896225 -0.574555
00000000: fb77 ffbe 0916 13bf

fc1.weight f4 [256, 8]
0.04479668 -0.03188876 0.015372827 -0.061501138 1.278063 0.049322624 0.40233603 0.14186497
0.33123773 0.2396092 -0.01201679 0.0091481 -0.1547184 -0.41471544 0.32947764 0.34177816
0.2027825 0.045458946 -0.05874001 0.11071302 -0.3072525 -0.32371402 -0.055877764 -0.03995097
-0.018204426 -0.028996022 -0.31685427 -0.4854918 0.51992714 0.018126937 0.22387405 0.05063835
-0.105955206 -0.58867097 0.5422448 -0.3881129 -0.500278 -0.4709362 0.3786 -0.045721173
0.6720172 0.050233044 0.13071328 0.004720558 0.17628524 0.10664338 -0.27905825 -0.06202369
0.11525693 0.5407872 -0.018424038 -0.49648014 0.07782236 0.31102344 -0.042963162 -0.048317444
0.12228765 0.044637956 -0.1813115 -0.025168162 0.097557284 -0.18467712 -0.101104565 0.16079752
0.20448194 0.0031139369 0.3864461 -0.10635828 1.03873 -0.35814822 0.34613645 -0.29533947
-0.33867544 -0.082344286 0.017196342 0.09635133 -0.027418997 -0.16708916 0.34183484 -0.120671734
-0.030460622 0.44936863 0.36095598 -0.38677117 0.07146388 0.18858013 0.048109863 -0.23357461
-0.5909289 0.06098717 -0.07722156 0.07161228 0.14185913 0.15510394 0.24875319 0.15563989
0.64474046 0.02531305 0.3874999 0.008251596 -0.26666453 0.0667692 0.053483997 0.33363065
0.70151335 -0.37275386 0.10830518 -0.30377978 0.16690964 0.051044106 0.17951228 0.0163439
-0.55522674 -0.59242404 0.11690548 -0.11854051 0.5687954 0.41423732 -0.02214675 -0.05879995
0.60294497 -0.36170566 0.26182804 0.03770539 -0.19918354 -0.15133893 0.07135656 0.050963163
0.4960619 -0.43680066 0.15688884 -0.5824542 -0.17414248 -0.048470683 0.03546392 0.0079687955
-0.14569709 0.46145943 -0.36672473 -0.4415452 -0.4975861 0.4109106 -0.0077858423 -0.2803205
-0.019014897 0.1983526 0.02697067 0.23923858 0.47508436 -0.27368733 -0.26866305 0.16711618
0.7341287 -0.07915944 0.288099 -0.22720237 -0.20385453 0.021659425 0.01640432 0.06988374
-0.5260239 0.39319333 -0.14836882 0.21407248 0.44510427 0.15163776 -0.2088081 -0.33494863
-0.103389956 0.4886886 0.0473108 0.015321416 0.5249121 -0.31659403 0.23627819 0.29018113
0.23110598 0.23410541 0.12920028 -0.3158741 0.23455483 -0.34525293 -0.0072956444 0.18017611
0.23545784 -0.5640252 -0.038734686 -0.33775666 -0.044581056 0.17257896 -0.07144057 -0.22708654
-0.13797452 0.43480727 -0.19616924 -0.4139175 0.64865017 -0.058848076 -0.21127239 0.21019709
-0.0022016657 0.5957421 0.11376666 -0.18526985 0.42258614 0.180784 -0.17676926 -0.20543578
-0.12626241 0.42425022 -0.37412822 -0.35699633 -0.41814545 0.054672077 -0.0055991686 -0.2210518
0.22376372 -0.367929 -0.4481651 -0.05674905 -0.15685228 -0.071079746 0.1560124 -0.0076414607
-0.02440914 -0.1538492 -0.06227978 -0.24134408 0.31798658 0.43223903 -0.24527298 -0.23867768
-0.3603065 -0.43212494 -0.23468117 -0.115540884 0.41792533 0.37927055 -0.21275398 0.3635146
-0.04966291 0.6510917 -0.07955226 0.07400636 -0.27398047 0.073748335 -0.0048026526 -0.45899782
0.2819802 -0.34563783 0.052186128 0.1685646 -0.54116416 -0.46485874 -0.32349172 -0.33111665
00000000: b97c 373d ca9d 02bd 4fde 7b3c 9ee8 7bbd
00000010: 9297 a33f 8506 4a3d fdfe cd3e 0d45 113e
00000020: fe97 a93e 1d5c 753e 12e2 44bc eae1 153c
00000030: 806e 1ebe 9555 d4be 4bb1 a83e 8cfd ae3e
00000040: 37a6 4f3e 2933 3a3d 5d99 70bd 82bd e23d
00000050: 3350 9dbe d8bd a5be 15e0 64bd a1a3 23bd
00000060: 7321 95bc 1189 edbc b93a a2be 6292 f8be
00000070: f219 053f f17e 943c 3d3f 653e 296a 4f3d
00000080: 0bff d8bd 24b3 16bf 8ed0 0a3f bcb6 c6be
00000090: 3812 00bf 8d1e f1be dcd7 c13e 2046 3bbd
000000a0: 5209 2c3f 2ac1 4d3d b4d9 053e e9ae 9a3b
000000b0: 1e84 343e d867 da3d b9e0 8ebe 8e0c 7ebd
000000c0: d30b ec3d 0871 0a3f 02ee 96bc a532 febe
000000d0: 5461 9f3d 773e 9f3e 24fa 2fbd 83e8 45bd
000000e0: f371 fa3d 4ad6 363d b9a9 39be 762d cebc
000000f0: 1dcc c73d 001c 3dbe e90f cfbd 1ba8 243e
00000100: b763 513e 3113 4c3b 43dc c53e 5fd2 d9bd
00000110: 1bf5 843f 345f b7be cc38 b13e bc36 97be
00000120: de66 adbe 1fa4 a8bd 58df 8c3c d953 c53d
00000130: ce9d e0bc 6c19 2bbe fa04 af3e be22 f7bd
00000140: 8e88 f9bc a513 e63e 39cf b83e df06 c6be
00000150: a85b 923d 261b 413e d90e 453d 2f2e 6fbe
00000160: 1e47 17bf afcd 793d 5626 9ebd 76a9 923d
00000170: 8543 113e 91d3 1e3e 28b9 7e3e 1060 1f3e
00000180: b60d 253f 505d cf3c 6366 c63e b431 073c
00000190: 4188 88be 4abe 883d 0912 5b3d a3d1 aa3e
000001a0: 6196 333f 98d9 bebe 1bcf dd3d 0689 9bbe
000001b0: 5cea 2a3e a013 513d 11d2 373e a4e3 853c
000001c0: 5723 0ebf 1aa9 17bf 246c ef3d 5ec5 f2bd
000001d0: 939c 113f ea16 d43e 1a6d b5bc 37d8 70bd
000001e0: 9a5a 1a3f 7c31 b9be 530e 863e f870 1a3d
000001f0: c5f6 4bbe 98f8 1abe 6323 923d c0be 503d
00000200: d3fb fd3e 56a4 dfbe 78a7 203e b81b 15bf
00000210: 6852 32be 3289 46bd 9e42 113d 8d8f 023c
00000220: 9e31 15be 6944 ec3e 58c3 bbbe 3612 e2be
00000230: 9bc3 febe e062 d23e 6120 ffbb 2b86 8fbe
00000240: 21c5 9bbc f21c 4b3e 98f1 dc3c f5fa 743e
00000250: 423e f33e bf20 8cbe 348e 89be 8120 2b3e
00000260: dcef 3b3f 581e a2bd b681 933e bda7 68be
00000270: 3ebf 50be 1b6f b13c 5a62 863c 351f 8f3d
00000280: 81a9 06bf a350 c93e ffed 17be d135 5b3e
00000290: b5e4 e33e ee46 1b3e cad1 55be 637e abbe
000002a0: 1dbe d3bd 6435 fa3e f8c8 413d ad06 7b3c
000002b0: a460 063f 9d18 a2be e9f2 713e 9f92 943e
000002c0: 0ca7 6c3e 54b9 6f3e 144d 043e 40ba a1be
000002d0: 242f 703e fec4 b0be 4d10 efbb 1680 383e
000002e0: dc1b 713e f563 10bf 43a8 1ebd 71ee acbe
000002f0: a09a 36bd 8ab8 303e 6f4f 92bd 6089 68be
00000300: 3149 0dbe 0f9f de3e 97e0 48be ffec d3be
00000310: f00d 263f ae0a 71bd ca57 58be e83d 573e
00000320: d249 10bb 8e82 183f 7ffe e83d 61b7 3dbe
00000330: 365d d83e 711f 393e 0003 35be c25d 52be
00000340: ef4a 01be 5337 d93e bc8d bfbe 39c8 b6be
00000350: 2917 d6be d4ef 5f3d 3b79 b7bb 675b 62be
00000360: 5122 653e 3161 bcbe e575 e5be b171 68bd
00000370: e29d 20be 4292 91bd b7c1 1f3e 3865 fabb
00000380: adf5 c7bc a58a 1dbe 1519 7fbd e722 77be
00000390: 23cf a23e 6f4e dd3e d728 7bbe ec67 74be
000003a0: 187a b8be 7b3f ddbe 4350 70be b3a0 ecbd
000003b0: 4ffa d53e c02f c23e 2edc 59be 961e ba3e
000003c0: 566b 4bbd f2ad 263f 4cec a2bd a590 973d
000003d0: 2b47 8cbe 5e09 973d 925f 9dbb c301 ebbe
000003e0: b55f 903e 71f7 b0be 1fc1 553d 339c 2c3e
000003f0: bc89 0abf f701 eebe b5a0 a5be 1f88 a9be

fc1.bias f4 [256]
-0.017712975 0.07973927 0.26801762 -0.012308656 0.15498269 0.03416973 0.12244771 0.30248892
-0.046083417 0.31819052 0.3028743 -0.017753078 -0.066706285 -0.058013845 -0.25250715 -0.17820549
-0.21543537 0.29427853 0.47402132 -0.13929528 0.097395435 0.24231778 0.34287822 -0.08245555
0.11881086 -0.038683258 0.3049712 0.22159575 0.3245759 0.18387696 0.33927622 0.306098
0.0015050322 0.24541491 0.31820068 -0.28371826 0.009790331 0.024626506 0.13530084 0.12820296
-0.033360917 0.28201154 0.30058214 0.27648258 0.33381236 0.004179191 -0.093784094 0.07609564
0.14538267 -0.14989543 0.12573257 0.12725057 0.3392187 0.27505383 0.25758705 0.29082647
-0.0718087 0.07645072 0.071176276 0.34540814 -0.0053077885 0.045804314 0.31893006 0.38285843
0.40008768 0.29783285 -0.10989465 0.13215882 0.17192215 0.225007 -0.045700673 -0.12703381
0.20156235 -0.017633406 0.010524545 0.29486117 -0.022316398 0.2693535 0.36785594 0.019552419
-0.2365139 -0.36679587 -0.2148167 0.09733791 0.061916474 -0.0039257356 -0.15583345 -0.14262758
0.31091946 0.19266896 -0.020327808 -0.12964262 -0.038446926 0.109261274 0.3711065 0.18613063
0.43960795 0.23144181 -0.2974553 -0.080509014 0.18501961 -0.19399974 -0.058724355 -0.010705447
-0.09861648 -0.24878967 0.3957665 0.3343727 0.06649193 0.044903647 0.2786489 0.11124656
-0.13112813 0.15510388 -0.123771824 0.23369671 -0.25970644 0.28463694 -0.05944253 -0.35649604
0.17486916 0.16150036 0.30657038 0.04159093 0.51054794 0.30218062 -0.005174573 0.07958645
-0.115605734 -0.13147639 -0.11445091 -0.04049585 0.08587741 0.23055696 0.16516304 0.34471765
0.39917424 -0.029335307 -0.27804977 0.12044516 0.31514287 0.40540335 -0.10210427 -0.021430826
0.22219871 0.4244712 0.2997001 0.1609281 -0.22400413 0.06794955 -0.064202815 -0.114709966
0.11673627 -0.06193797 -0.21179521 0.38318422 -0.0907399 0.076468304 0.27327102 0.2830567
-0.1004655 0.19768861 0.009868673 0.14651485 0.06560521 -0.17184484 -0.110871196 -0.06922587
-0.0214008 0.14431071 0.06862229 -0.17438836 0.252649 0.06650371 0.4033551 -0.45365995
0.08102316 0.12705322 -0.10616282 -0.110638 0.094674036 -0.023733914 0.13044603 0.10811217
-0.014952908 0.15176845 -0.05894307 -0.15012987 0.16978523 -0.16320708 0.31876123 0.36396003
0.27621266 -0.20844477 -0.16430683 -0.102517426 0.044096347 0.17149824 0.15599814 0.48904708
-0.12561773 -0.0039314968 0.097959496 0.2408935 -0.025263531 0.012402504 0.31438482 0.35964122
0.027486483 0.031240499 0.3286975 -0.18773246 0.34697953 -0.2447365 -0.17213626 0.12626511
0.0034375202 0.30801347 -0.01371982 -0.14542833 0.18071482 -0.19696511 0.20946884 -0.12108356
0.25777566 -0.17213175 -0.06497317 0.049923405 -0.03082773 -0.004954295 0.24073179 -0.17196454
-0.009662188 0.27106497 0.35270992 0.3200618 0.33211222 -0.1346774 0.24660504 0.42500862
-0.21042946 0.22020963 0.033915017 0.36458215 -0.3015135 0.044209804 0.21704417 0.44358566
0.015726136 0.21245584 -0.076970346 -0.13825591 0.007879094 0.4195524 0.4418298 0.21917185
00000000: cd1a 91bc 584e a33d 9b39 893e 3faa 49bc
00000010: c8b3 1e3e 8ff5 0b3d ddc5 fa3d d4df 9a3e
00000020: f7c1 3cbd dee9 a23e 5712 9b3e e76e 91bc
00000030: 4e9d 88bd ed9f 6dbd 9e48 81be 807b 36be
00000040: 179b 5cbe adab 963e ecb2 f23e 6ca3 0ebe
00000050: 4277 c73d 2722 783e bc8d af3e 75de a8bd
00000060: 1c53 f33d 5672 1ebd 2f25 9c3e ffe9 623e
00000070: d02e a63e 3e4a 3c3e 9db5 ad3e e1b8 9c3e
00000080: 8044 c53a 0c4e 7b3e 33eb a23e 8543 91be
00000090: a067 203c 87bd c93c 4e8c 0a3e a347 033e
000000a0: 75a5 08bd d163 903e e7e5 993e 208f 8d3e
000000b0: 74e9 aa3e 98f1 883b e011 c0bd 08d8 9b3d
000000c0: 32df 143e 307e 19be 0ac0 003e f94d 023e
000000d0: 13ae ad3e dbd3 8c3e 73e2 833e 35e7 943e
000000e0: 7110 93bd 3292 9c3d dec4 913d 56d9 b03e
000000f0: f5ec adbb 4e9d 3b3d cd4a a33e 0506 c43e
00000100: 4bd8 cc3e 8c7d 983e 7210 e1bd a454 073e
00000110: 5c0c 303e 3c68 663e a130 3bbd 2715 02be
00000120: 5c66 4e3e ef73 90bc 246f 2c3c 0bf8 963e
00000130: e1d0 b6bc b4e8 893e 9d57 bc3e 652c a03c
00000140: b330 72be abcc bbbe e9f8 5bbe 1959 c73d
00000150: 219c 7d3d 75a3 80bb ce92 1fbe f70c 12be
00000160: d630 9f3e 034b 453e 8186 a6bc 09c1 04be
00000170: 867a 1dbd 60c4 df3d ac01 be3e 0799 3e3e
00000180: 4b14 e13e 15ff 6c3e 104c 98be e9e1 a4bd
00000190: c875 3d3e dea7 46be f388 70bd e665 2fbc
000001a0: 70f7 c9bd b8c2 7ebe e8a1 ca3e e632 ab3e
000001b0: ec2c 883d e3ec 373d 12ab 8e3e 3dd5 e33d
000001c0: 7446 06be 8dd3 1e3e 157c fdbd 314e 6f3e
000001d0: 3ef8 84be efbb 913e 037a 73bd a686 b6be
000001e0: e710 333e 5a60 253e cbf6 9c3e 405b 2a3d
000001f0: 45b3 023f 6bb7 9a3e 778f a9bb 38fe a23d
00000200: b3c2 ecbd bfa1 06be 3d65 eabd fade 25bd
00000210: 7fe0 af3d 2017 6c3e 8020 293e d57e b03e
00000220: 9160 cc3e 9950 f0bc 8a5c 8ebe f4ab f63d
00000230: 685a a13e 0791 cf3e 0b1c d1bd b38f afbc
00000240: 0f88 633e 4a54 d93e 4b72 993e 56ca 243e
00000250: 5761 65be 2229 8b3d c47c 83bd 0fed eabd
00000260: 6d13 ef3d abb2 7dbd d8e0 58be b930 c43e
00000270: d7d5 b9bd 6a9b 9c3d 2eea 8b3e cfec 903e
00000280: dbc0 cdbd e26e 4a3e 37b0 213c fd07 163e
00000290: 065c 863d 18f8 2fbe 7010 e3bd 4bc6 8dbd
000002a0: bb50 afbc 30c6 133e d889 8c3d dd92 32be
000002b0: 365b 813e 1933 883d 8f84 ce3e 1e46 e8be
000002c0: 78ef a53d 3d1a 023e e46b d9bd 2d96 e2bd
000002d0: 76e4 c13d a06d c2bc a593 053e ea69 dd3d
000002e0: 0bfd 74bc 3069 1b3e 4a6e 71bd a5bb 19be
000002f0: 2edc 2d3e c21f 27be ac34 a33e f858 ba3e
00000300: bf6b 8d3e 8c72 55be 0d40 28be a8f4 d1bd
00000310: 5f9e 343d 3c9d 2f3e fabd 1f3e 6164 fa3e
00000320: efa1 00be c9d3 80bb fd9e c83d c9ac 763e
00000330: 77f5 cebc df33 4b3c 0cf7 a03e e522 b83e
00000340: 552b e13c 13ec ff3c 0a4b a83e f03c 40be
00000350: 4da7 b13e 349c 7abe 7d44 30be a44b 013e
00000360: 0548 613b f1b3 9d3e 19c9 60bc 2aeb 14be
00000370: 4e0d 393e 39b1 49be 007f 563e a8fa f7bd
00000380: 2cfb 833e 4e43 30be a710 85bd 7c7c 4c3d
00000390: 708a fcbc a357 a2bb 6582 763e 7917 30be
000003a0: 274e 1ebc 07c9 8a3e 6596 b43e 24df a33e
000003b0: 9d0a aa3e dfe8 09be 0886 7c3e bb9a d93e
000003c0: d27a 57be a27e 613e 79ea 0a3d 83aa ba3e
000003d0: fa5f 9abe 5715 353d d440 5e3e a91d e33e
000003e0: 19d4 803c 068e 593e a1a2 9dbd f592 0dbe
000003f0: 5117 013c 92cf d63e 8437 e23e 966e 603e

fc2.weight f4 [256, 256]
0.32824835 -0.060177688 0.008908521 0.20129558 0.056922883 -0.32106242 0.010734635 0.039449427
0.27379957 0.044458352 0.014646 -0.14628215 -0.14863668 -0.293546 -0.089175634 -0.17621493
-0.34872565 0.13833225 0.11027647 -0.18615428 -0.08977821 0.03602637 0.11410185 -0.33485013
0.027977545 0.17329787 0.08256334 0.02860414 -0.059781063 0.13146126 0.11022504 0.030540166
0.055637658 0.07046983 0.097348385 -0.091179274 0.23840925 0.080060035 -0.1653921 -0.003179913
-0.0013165304 0.04109052 0.0799429 -0.0027698302 0.07473129 -0.27266976 -0.15175521 -0.0822087
0.10018519 0.023388958 -0.08102167 -0.11318797 0.12510628 0.016239574 -0.0013468647 0.09936622
-0.12640035 0.13920091 0.09835338 0.15974234 0.15497582 -0.058116704 0.068246074 0.1232102
-0.014666356 0.100288935 -0.22323029 0.057744578 -0.026438216 -0.016298426 0.52290636 -0.11360983
0.19007324 0.2669797 0.9616057 0.04614233 -0.19579695 0.02729341 -0.060567904 -0.038212065
-0.0015579335 -0.013487629 -0.10603532 -0.0075696716 0.19171605 0.12735645 -0.04203961 -0.009501139
0.09633637 0.108254485 0.11761545 0.025365565 0.15189031 -0.04498752 0.11920112 0.06659127
0.067546226 0.037564732 -0.0026520826 0.042836223 0.32012913 0.23053408 -0.19832473 0.009032517
0.24277034 -0.03787937 0.08679554 0.071250774 0.062176835 0.15981714 0.13082339 -0.21954322
-0.40666834 0.07083495 0.1116943 0.023177333 0.0118449945 0.19162163 0.41464147 -0.23417097
0.0133284135 0.07600569 0.28179651 0.019410059 0.113052614 0.03649267 -0.042039372 -0.13189763
-0.12765177 -0.5433754 0.33652258 0.5253212 -0.03778348 0.039980285 0.18039025 0.025204007
0.031586163 0.21366632 0.25788203 0.08385987 0.103280574 0.114108734 -0.06430324 0.4447128
0.12194386 0.17363638 0.07120536 -0.20903894 0.16634333 0.031853765 -0.1368849 0.57858086
-0.16368881 0.08408936 -1.172158 0.040833674 0.0020832554 0.020130474 0.07682362 0.16450557
0.10167073 0.05045705 -0.09618185 0.25576344 0.12873213 -0.011929953 -0.09278582 -0.26401442
-0.034662794 -0.11144892 0.051414587 -0.5255561 0.12027871 -0.04040641 0.06302397 0.41105935
0.06297648 0.09165398 -0.3297668 0.29542089 0.17970663 -0.112360984 0.05479429 -0.09296119
0.11886688 -0.108184114 -0.13711421 0.2557938 -0.17340606 -0.16369824 0.0830196 0.05145371
0.05548834 -1.003602 -0.028882412 -0.27769995 -0.14791948 -0.059544984 -0.013862772 0.09533129
0.013748295 -0.059629828 -0.05593496 0.043317474 0.19887 0.15431856 0.1654698 0.08218373
-0.08175301 -0.04108458 0.08959 -0.32776496 -0.11444115 -0.022987245 0.3137032 0.08377158
0.18046843 0.13823101 0.31306762 -0.33680567 0.044802804 -0.86104184 -0.054125734 0.2704243
0.09092423 0.28492978 0.066202894 -0.022631053 -0.31339994 -0.10433804 0.10711121 0.25556478
0.20876555 0.007195118 0.07585809 0.09261517 0.01762887 0.062961094 0.063117154 0.14719833
-0.14221486 0.09762836 -0.10947588 0.052110557 -0.14393757 0.044979498 0.14901547 0.05051088
0.2747567 0.38274026 -0.006537382 0.24042717 -0.190729 0.029379763 0.094970696 -0.010368983
00000000: 2b10 a83e e17c 76bd 0cf5 113c 6e20 4e3e
00000010: f827 693d 4b62 a4be 53e0 2f3c b995 213d
00000020: 752f 8c3e f619 363d c7f5 6f3c fdca 15be
00000030: 3734 18be a94b 96be b7a1 b6bd b071 34be
00000040: 2b8c b2be f8a6 0d3e a1d8 e13d 3a9f 3ebe
00000050: a3dd b7bd 6390 133d 3bae e93d 7a71 abbe
00000060: 2a31 e53c ff74 313e f816 a93d 3b53 ea3c
00000070: fddc 74bd c89d 063e aabd e13d 5f2f fa3c
00000080: 50e4 633d 7c52 903d 975e c73d 33bc babd
00000090: 8e21 743e 84f6 a33d 8c5c 29be 1666 50bb
000000a0: 6e8f acba 884e 283d 1ab9 a33d 0a86 35bb
000000b0: b80c 993d 5f9b 8bbe b865 1bbe 095d a8bd
000000c0: e52d cd3d 339a bf3c b0ee a5bd 18cf e7bd
000000d0: dc1b 003e db08 853c 4889 b0ba 8480 cb3d
000000e0: 186f 01be af8a 0e3e 7f6d c93d 7f93 233e
000000f0: fbb1 1e3e c80b 6ebd 99c4 8b3d a155 fc3d
00000100: 284b 70bc 4964 cd3d 7b96 64be 9485 6c3d
00000110: f594 d8bc 4784 85bc 31dd 053f 45ac e8bd
00000120: 8fa2 423e 90b1 883e cb2b 763f bdff 3c3d
00000130: ff7e 48be 6e96 df3c 0d16 78bd 4184 1cbd
00000140: 9333 ccba 37fb 5cbc 0c29 d9bd 020b f8bb
00000150: 3651 443e bb69 023e ba31 2cbd aaaa 1bbc
00000160: 014c c53d 87b4 dd3d 5ee0 f03d 72cb cf3c
00000170: 2289 1b3e d544 38bd b81f f43d 0161 883d
00000180: ad55 8a3d 7add 193d 90ce 2dbb 0975 2f3d
00000190: f7e7 a33e 2011 6c3e a315 4bbe 1ffd 133c
000001a0: ca98 783e 6627 1bbd dcc1 b13d edeb 913d
000001b0: 23ad 7e3d 1ba7 233e 91f6 053e f0cf 60be
000001c0: d536 d0be ea11 913d fbbf e43d 64de bd3c
000001d0: 8211 423c 7638 443e e34b d43e 84ca 6fbe
000001e0: 6b5f 5a3c dfa8 9b3d a247 903e d801 9f3c
000001f0: 2188 e73d 5779 153d 7a31 2cbd 2c10 07be
00000200: 25b7 02be a61a 0bbf b04c ac3e 737b 063f
00000210: dac2 1abd 5ec2 233d 39b8 383e a278 ce3c
00000220: 7e60 013d 58cb 5a3e 1d09 843e b9be ab3d
00000230: c484 d33d d7b1 e93d 6bb1 83bd 65b1 e33e
00000240: b4bd f93d bccd 313e 1ed4 913d 4e0e 56be
00000250: e855 2a3e 1879 023d 8e2b 0cbe e01d 143f
00000260: 0a9e 27be 0b37 ac3d 4609 96bf 3641 273d
00000270: 3a87 083b aae8 a43c b455 9d3d 2674 283e
00000280: be38 d03d 0dac 4e3d fdfa c4bd 6df3 823e
00000290: 5bd2 033e d975 43bc 7e06 bebd e62c 87be
000002a0: 93fa 0dbd 553f e4bd 1a98 523d d88a 06bf
000002b0: af54 f63d 3181 25bd b612 813d 5f76 d23e
000002c0: d0f9 803d 15b5 bb3d 32d7 a8be 6841 973e
000002d0: 0405 383e 841d e6bd fa6f 603d 7062 bebd
000002e0: 7b70 f33d a28f ddbd ab67 0cbe 68f7 823e
000002f0: 5c91 31be 83a0 27be 2e06 aa3d 20c1 523d
00000300: be47 633d 0876 80bf cf9a ecbc b02e 8ebe
00000310: 3478 17be 71e5 73bd ae20 63bc 0d3d c33d
00000320: 8740 613c 683e 74bd 0e1c 65bd aa6d 313d
00000330: 94a4 4b3e af05 1e3e ea70 293e f24f a83d
00000340: 1f6e a7bd 4e48 28bd f67a b73d cfd0 a7be
00000350: 1f60 eabd bf4f bcbc b59d a03e 6f90 ab3d
00000360: b7cc 383e 6e8c 0d3e 664a a03e cb71 acbe
00000370: 2583 373d 3d6d 5cbf f2b2 5dbd 0e75 8a3e
00000380: 7c36 ba3d 51e2 913e 6295 873d c264 b9bc
00000390: f575 a0be 2faf d5bd 1f5d db3d 63d9 823e
000003a0: a3c6 553e 06c5 eb3b 7c5b 9b3d 06ad bd3d
000003b0: 6c6a 903c bff1 803d 9143 813d 29bb 163e
000003c0: c6a0 11be 61f1 c73d e434 e0bd e171 553d
000003d0: 5f64 13be 6c3c 383d 8397 183e 7fe4 4e3d
000003e0: e9ac 8c3e 88f6 c33e 8937 d6bb 8a32 763e
000003f0: 774e 43be d4ad f03c ff7f c23d abe2 29bc

fc2.bias f4 [256]
0.044938408 -0.0031988446 -0.09760473 0.012103478 -0.021109918 -0.08490934 -0.07925112 0.05868579
-0.04257883 0.03358578 0.0018227621 -0.0102675725 -0.051322065 -0.018975863 -0.035881955 -0.0632044
-0.057696633 -0.054334767 -0.061314415 -0.007205063 -0.028137855 0.014552094 0.06636763 -0.020127835
-0.048636347 -0.018057419 -0.07993874 0.04093267 0.04960588 -0.07452703 0.030334957 -0.04303057
-0.007856965 -0.04710746 0.1326735 0.009224277 0.04958997 0.013726775 -0.004206241 -0.03870172
0.14564428 -0.025670586 0.027293477 -0.05669281 0.007916542 0.014252525 0.0405476 -0.03250529
0.0015636906 -0.020600831 0.056477103 0.13943455 0.10354914 -0.016686488 -0.035277188 0.008910913
-0.06050788 0.14691655 -0.08496906 0.008868267 -0.011597623 -0.02579967 -0.004215063 0.038402807
-0.016526407 0.055065252 -0.05657297 0.013252562 -0.015878066 0.01735497 -0.009784429 0.042101104
-0.030093625 -0.04403782 -0.048013207 0.1141673 0.020108739 0.034857526 -0.043916054 0.062097285
0.010498204 -0.014604624 0.020770306 -0.05533336 0.08030567 -0.036227264 0.044169124 0.0022789307
0.07376516 0.11879351 0.06005179 -0.037007987 5.910863e-06 -0.03124033 0.050512716 -0.0019252632
0.02265049 0.120316476 0.108344674 0.005101155 -0.051991392 -0.046265032 -0.02833266 -0.03752841
0.11693746 0.06174736 -0.031835362 -0.064261414 -0.03335182 0.005497231 -0.0010781412 0.010173545
0.04717289 0.061911877 -0.05890781 0.032077655 0.037701733 -0.044225622 0.044638254 -0.051853843
0.03422733 0.032447185 0.07610891 -0.026405048 -0.047385782 -0.073239386 0.06270851 -0.09046895
-0.0634041 0.04841403 0.041076783 0.01865867 -0.017028844 -0.005750761 0.03399974 0.02187341
-0.049251713 0.04586646 -0.060159706 0.039140303 -0.034167252 -0.043333974 -0.06442975 0.0824056
0.097801805 0.0634654 0.019165019 0.010025082 -0.0038738067 0.028471917 -0.010130894 0.05427399
0.005249893 -0.045877103 0.024185482 0.04020124 0.06729766 -0.052102294 0.06213634 -0.028111713
0.10308299 0.05937619 0.053950544 0.06627944 -0.033242427 0.026608376 0.12792152 0.06696692
0.016490813 0.009645056 -0.011376168 -0.05731734 0.027585136 -0.0019563204 0.047488097 -0.08338502
0.01996971 0.034866236 -0.0023162568 -0.044304997 0.038407404 -0.0028465844 -0.07137459 -0.018278167
0.121234715 0.008649047 0.11444693 -0.006206492 0.020299423 -0.097489566 0.08842762 0.043276854
-0.013634338 0.03052023 0.038622767 0.044710983 -0.06774322 0.009102784 0.04567619 0.056022
0.039662823 -0.04398689 0.02877296 0.01360639 -0.01066548 -0.07285146 -0.037087243 -0.022862768
-0.03971261 0.05829987 -6.273907e-05 -0.035539728 0.10514765 -0.044495 -0.021040041 -0.017263565
0.05230363 -0.02613155 0.06258676 0.0085398555 0.1491266 -0.01493135 -0.044339772 -0.033905804
0.028796738 -0.008718124 -0.007238104 -0.0701778 -0.013584422 -0.0036933625 0.015014547 -0.08107472
0.02957579 0.0075731995 0.0039065615 0.10111802 0.0455622 0.07946197 1.146905e-05 -0.0045744893
0.12931752 0.116068155 0.0033071598 0.015948456 -0.0065210317 0.017142393 0.027233649 0.05294038
-0.02221262 -0.015493373 0.13437967 0.011785293 -0.022631854 -0.041707437 -0.039737444 -0.00840459
00000000: 5611 383d b5a3 51bb fde4 c7bd ab4d 463c
00000010: b5ee acbc f3e4 adbd 694e a2bd 8360 703d
00000020: 2467 2ebd 3e91 093d bfe9 ee3a 5239 28bc
00000030: 1637 52bd 4573 9bbc f5f8 12bd 4f71 81bd
00000040: 4e53 6cbd 228e 5ebd d324 7bbd 7318 ecbb
00000050: 5c81 e6bc e86b 6e3c c1eb 873d 21e3 a4bc
00000060: e836 47bd 27ed 93bc ecb6 a3bd 04a9 273d
00000070: 892f 4b3d a1a1 98bd 0481 f83c d340 30bd
00000080: 80ba 00bc c1f3 40bd 90db 073e 6c21 173c
00000090: da1e 4b3d 44e6 603c 82d4 89bb b285 1ebd
000000a0: c623 153e 1f4b d2bc 9296 df3c b836 68bd
000000b0: 62b4 013c 6c83 693c 3d15 263d 4424 05bd
000000c0: c0f4 cc3a 13c3 a8bc 8954 673d eec7 0e3e
000000d0: 9211 d43d 1ab2 88bc d07e 10bd 14ff 113c
000000e0: 1cd7 77bd 4b71 163e 4204 aebd 354c 113c
000000f0: f503 3ebc d459 d3bc 831e 8abb 434c 1d3d
00000100: 6362 87bc 1a8c 613d 0fb9 67bd 4621 593c
00000110: b812 82bc 032c 8e3c df4e 20bc 3572 2c3d
00000120: e886 f6bc 0061 34bd 7fa9 44bd 8cd0 e93d
00000130: 15bb a43c c4c6 0e3d 52e1 33bd b959 7e3d
00000140: a900 2c3c 3c48 6fbc 7d26 aa3c 3ca5 62bd
00000150: 4d77 a43d 0a63 14bd afea 343d 1d5a 153b
00000160: 3012 973d 034a f33d def8 753d b095 17bd
00000170: ed55 c636 b8eb ffbc 6ce6 4e3d 1d59 fcba
00000180: 858d b93c 7c68 f63d d0e3 dd3d 9727 a73b
00000190: edf4 54bd 6780 3dbd e519 e8bc 64b7 19bd
000001a0: e87c ef3d cdea 7c3d cc65 02bd 7d9b 83bd
000001b0: eb9b 08bd 1e22 b43b 6a50 8dba f1ae 263c
000001c0: 5c38 413d 4f97 7d3d 5149 71bd dc63 033d
000001d0: 226d 1a3d ed25 35bd 9ad6 363d b264 54bd
000001e0: f531 0c3d 57e7 043d fdde 9b3d 664f d8bc
000001f0: 9817 42bd 88fe 95bd 526d 803d c947 b9bd
00000200: 02da 81bd ca4d 463d 2140 283d 11da 983c
00000210: 1380 8bbc e170 bcbb 5043 0b3d de2f b33c
00000220: 2abc 49bd 78de 3b3d 066a 76bd 9551 203d
00000230: f6f2 0bbd f77e 31bd bff3 83bd 44c4 a83d
00000240: 504c c83d 26fa 813d f5ff 9c3c 3e40 243c
00000250: b1df 7dbb f03d e93c 0dfc 25bc 674e 5e3d
00000260: 4b07 ac3b a1e9 3bbd a220 c63c 0eaa 243d
00000270: 5bd3 893d 3769 55bd ad82 7e3d 894a e6bc
00000280: 2d1d d33d 7334 733d 3ffb 5c3d 84bd 873d
00000290: 3629 08bd cff9 d93c dcfd 023e f425 893d
000002a0: be17 873c 4c06 1e3c 1b63 3abc 96c5 6abd
000002b0: 39fa e13c 9c35 00bb e182 423d c4c5 aabd
000002c0: 8497 a33c e6cf 0e3d 57cc 17bb 2879 35bd
000002d0: 1551 1d3d c38d 3abb d72c 92bd 18bc 95bc
000002e0: e849 f83d bcb4 0d3c 2763 ea3d d45f cbbb
000002f0: fa4a a63c 9ca8 c7bd 8a19 b53d 1243 313d
00000300: 8f62 5fbc 9005 fa3c e832 1e3d dd22 373d
00000310: f5bc 8abd d823 153c f516 3b3d 5377 653d
00000320: 7c75 223d 992b 34bd 45b5 eb3c 56ed 5e3c
00000330: 44be 2ebc 2533 95bd cbe8 17bd b34a bbbc
00000340: b1a9 22bd d8cb 6e3d c892 83b8 1b92 11bd
00000350: a757 d73d 6440 36bd 2a5c acbc 526c 8dbc
00000360: 553c 563d d511 d6bc 7d2d 803d c0ea 0b3c
00000370: a5b4 183e 9fa2 74bc 9f9d 35bd d0e0 0abd
00000380: 23e7 eb3c 76d6 0ebc 9e2d edbb 61b9 8fbd
00000390: 3291 5ebc 570c 72bb 93ff 753c 810a a6bd
000003a0: ed48 f23c 9a28 f83b 9d02 803b f716 cf3d
000003b0: 6e9f 3a3d f5bc a23d 326b 4037 99e5 95bb
000003c0: d06b 043e 24b5 ed3d efbc 583b 56a6 823c
000003d0: 61ae d5bb 346e 8c3c 1a19 df3c 03d8 583d
000003e0: 3ef7 b5bc ebd7 7dbc d39a 093e 1a17 413c
000003f0: 7066 b9bc 6bd5 2abd bbc3 22bd 68b3 09bc

mean.weight f4 [2, 256]
-0.04702732 -0.018748792 0.06333758 -0.033460468 -0.033554997 -0.026561817 -0.0063399496 0.020602103
0.0485076 -0.04788571 0.058489535 -0.0017034668 -0.0013784256 -0.05338375 -0.055309623 -0.051691044
0.07131744 -0.006136349 0.0070878295 0.05575368 0.04043649 0.009543379 -0.044833682 -0.020604646
-0.05921948 -0.025074849 -0.054274715 0.060052656 -0.14374098 0.036989607 -0.00045730063 -0.037607603
-0.071354695 0.03752329 0.05003009 0.063775 -0.025306575 0.07629024 0.05036081 0.018734984
-0.15087251 0.00942347 0.005670002 -0.06045523 -0.020640278 -0.019148415 0.0060000434 -0.0022741647
-0.028743092 0.05970827 0.028195892 -0.028766453 -0.07754061 -0.04262979 -0.019108318 0.117011264
0.0065745236 0.04407223 0.038074907 0.06512223 -0.0175432 0.0132963825 -0.08944995 0.06344932
-0.038516738 0.0098857945 0.034725837 0.0052550295 0.100095265 0.18242726 -0.04192393 0.038927604
0.06371414 -0.066663265 -0.04168439 -0.060847048 0.07986295 -0.038981136 0.10419418 -0.03890228
-0.021270525 0.041847393 0.025166178 -0.048750907 0.1562359 -0.0076414966 0.12486228 0.04356541
0.0059794663 -0.008882054 0.0056552156 0.04586177 -0.02835312 -0.06452013 0.015520348 -0.055522967
-0.040841 0.006242101 -0.080328315 -0.041103672 -0.015418129 -0.04173536 0.048443455 -0.067928135
0.022661166 0.077773966 -0.08931022 0.13524412 -0.06262272 0.039267607 -0.012535123 0.014201802
-0.04769268 0.024370162 -0.01802964 0.0153673375 -0.0030918778 -0.09387753 -0.04186891 0.04160429
-0.033721693 0.049667764 -0.017958539 0.046416484 0.047246125 -0.07950937 0.12582287 0.06645548
0.060317513 0.013007037 -0.038561504 0.009770957 0.028266866 0.06535635 -0.022287432 0.07923698
-0.09957672 -0.047988374 0.047320258 -0.03225146 0.032533027 -0.13478482 0.0485371 -0.07552151
-0.11112009 0.017534897 0.066025324 0.018607486 -0.10867956 0.054278 0.016637368 0.038995665
-0.04315103 -0.0533231 -0.030557396 0.04480384 0.008483896 -0.08974942 0.0460337 -0.11807142
0.052562706 0.028669802 -0.056006733 -0.05947376 0.04903026 -0.024293168 0.047414232 -0.12238007
0.053896245 -0.05218549 -0.025268868 -0.055365115 0.06819045 0.0039681895 0.04853817 -0.0783339
-0.04176523 -0.0015409435 0.041059844 -0.046032626 0.038670372 -0.047836848 -0.06126731 -0.035604868
0.022167394 0.016349502 0.03998376 -0.002535704 0.041201122 0.0040831217 0.021616844 0.046538115
-0.06623203 -0.019904189 -0.021466078 -0.018004732 0.053265013 0.06738683 0.20750712 0.009259495
0.035796862 -0.074189894 0.07777971 -0.056028526 -0.04564399 -0.05747595 -0.066547364 -0.004183619
-0.013049479 0.18799126 -0.030611087 0.039364003 0.038202945 -0.07397728 -0.038976632 -0.06392793
0.0667653 0.014793312 0.013155596 -0.053354215 -0.04893972 0.025316143 0.031970546 0.0033644212
-0.037647814 -0.040001787 -0.14512059 0.010987394 -0.05386467 0.061914105 -0.087432645 0.058568597
0.042935427 -0.06627824 -0.036000848 0.022128103 0.26946548 -0.049706686 0.0015115206 0.06733418
0.065536186 0.0020564098 0.037857994 0.06933294 0.030416705 0.002421327 0.014920078 0.042016894
0.02606073 0.044958264 -0.056910608 0.09599584 0.0031071894 0.050852023 -0.044063304 0.040686153
00000000: b89f 40bd 1197 99bc 22b7 813d d80d 09bd
00000010: f770 09bd 2b98 d9bc 5abf cfbb bec5 a83c
00000020: e8af 463d ce23 44bd b992 6f3d dc46 dfba
00000030: 4aac b4ba eba8 5abd 588c 62bd fdb9 53bd
00000040: e10e 923d 6d13 c9bb 0641 e83b f95d 643d
00000050: bca0 253d d55b 1c3c 86a3 37bd 13cb a8bc
00000060: 2090 72bd c569 cdbc 2a4f 5ebd c6f9 753d
00000070: d630 13be 6a82 173d dac1 efb9 6e0a 1abd
00000080: 6922 92bd 05b2 193d 5aec 4c3d 789c 823d
00000090: bc4f cfbc 0f3e 9c3d 2347 4e3d 1c7a 993c
000000a0: 537e 1abe e664 1a3c 6dcb b93b e79f 77bd
000000b0: cd15 a9bc 23dd 9cbc 039c c43b 270a 15bb
000000c0: a276 ebbc a990 743d 12fb e63c a0a7 ebbc
000000d0: 9dcd 9ebd 939c 2ebd 0c89 9cbc 9aa3 ef3d
000000e0: 1a6f d73b 1585 343d 6ff4 1b3d ce5e 853d
000000f0: c2b6 8fbc 12d9 593c 8931 b7bd b8f1 813d
00000100: bac3 1dbd 07f8 213c ae3c 0e3d 6232 ac3b
00000110: bffe cc3d 36ce 3a3e 6db8 2bbd 8d72 1f3d
00000120: 8f7c 823d c086 88bd 40bd 2abd c13a 79bd
00000130: 308f a33d afaa 1fbd c263 d53d ff57 1fbd
00000140: 863f aebc 2c68 2b3d 4d29 ce3c 08af 47bd
00000150: 4efc 1f3e 8565 fabb ccb7 ff3d a571 323d
00000160: 66ef c33b 0986 11bc 634f b93b 8dd9 3b3d
00000170: cd44 e8bc 2123 84bd 0f49 7e3c 0d6c 63bd
00000180: e448 27bd 8a8a cc3b 2c83 a4bd 535c 28bd
00000190: 529c 7cbc b2f2 2abd a56c 463d e81d 8bbd
000001a0: e9a3 b93c f547 9f3d 47e8 b6bd 6f7d 0a3e
000001b0: 5740 80bd 12d7 203d 1e60 4dbc adae 683c
000001c0: 6659 43bd efa3 c73c e5b2 93bc 49c7 7b3c
000001d0: 1aa1 4abb dd42 c0bd bc7e 2bbd 4369 2a3d
000001e0: c21f 0abd 6d70 4b3d c91d 93bc 361f 3e3d
000001f0: 2785 413d cfd5 a2bd b6d7 003e d019 883d
00000200: 7f0f 773d 781b 553c abf2 1dbd 5d16 203c
00000210: ea8f e73c 8dd9 853d 2294 b6bc ff46 a23d
00000220: e1ee cbbd 758f 44bd e3d2 413d 1b1a 04bd
00000230: 5a41 053d 0805 0abe d7ce 463d 05ab 9abd
00000240: ee92 e3bd 58a5 8f3c 4938 873d ba6e 983c
00000250: 6493 debd 9c52 5e3d 174b 883c ebb9 1f3d
00000260: 22bf 30bd 5369 5abd 8153 fabc 3b84 373d
00000270: 0a00 0b3c 8bce b7bd d58d 3c3d 6ecf f1bd
00000280: fe4b 573d efdc ea3c 5167 65bd c29a 73bd
00000290: f4d3 483d 7702 c7bc 6d35 423d 67a2 fabd
000002a0: 4fc2 5c3d 74c0 55bd a800 cfbc 88c6 62bd
000002b0: 6fa7 8b3d 9607 823b f6cf 463d 866d a0bd
000002c0: 0512 2bbd 7cf9 c9ba 5e2e 283d b58c 3cbd
000002d0: d364 1e3d 92f0 43bd 6ef3 7abd 69d6 11bd
000002e0: 6598 b53c 64ef 853c 03c6 233d 0e2e 26bb
000002f0: 82c2 283d b5cb 853b cf15 b13c c09e 3e3d
00000300: a9a4 87bd 1c0e a3bc a1d9 afbc a97e 93bc
00000310: 6a2c 5a3d 1b02 8a3d bf7c 543e 23b5 173c
00000320: bb9f 123d dff0 97bd f84a 9f3d 2b7e 65bd
00000330: 31f5 3abd e76b 6bbd fc49 88bd bd16 89bb
00000340: 7bcd 55bc c880 403e 1ac4 fabc 263c 213d
00000350: b17a 1c3d 6681 97bd f6a5 1fbd a6ec 82bd
00000360: 3fbc 883d a65f 723c 928a 573c f389 5abd
00000370: 0475 48bd cd63 cf3c 8cf3 023d 9f7d 5c3b
00000380: 9834 1abd ead8 23bd 7e9a 14be 7804 343c
00000390: 33a1 5cbd a599 7d3d e30f b3bd a0e5 6f3d
000003a0: 0fdd 2f3d e3bc 87bd a075 13bd ff45 b53c
000003b0: 61f7 893e 3d99 4bbd 371e c63a 81e6 893d
000003c0: d637 863d d5c4 063b fc10 1b3d 6efe 8d3d
000003d0: 742c f93c 20af 1e3b 5873 743c e819 2c3d
000003e0: 507d d53c 2826 383d 191b 69bd 7899 c43d
000003f0: fda1 4b3b 364a 503d b97b 34bd 86a6 263d

mean.bias f4 [2]
0.053025525 0.076116785
00000000: 4b31 593d 1ee3 9b3d

value.weight f4 [1, 256]
0.3131642 -0.397052 -0.61356395 -0.19408979 -0.62842745 -0.41264296 -0.346667 0.014558669
0.64595133 0.44178027 0.017788759 -0.41624925 -0.3167227 -0.39824945 0.034149237 0.0014899016
-0.33222434 0.023947066 -0.43931746 0.04445229 0.009715316 -0.2618052 -0.23963894 -0.21565004
-0.44881156 -0.23662551 -0.28927767 0.37862915 0.58239627 -0.56030935 0.46821725 -0.31092143
-0.28448045 -0.2920643 0.26704994 0.53837717 0.029690111 -0.37883502 -0.3214705 -0.33137462
0.32237646 0.054550905 0.44416788 0.012060007 -0.4192103 0.04948536 0.4582465 -0.27484733
-0.277103 0.051628713 0.015795253 0.35115385 0.3708685 -0.27622068 -0.3402563 0.42283928
-0.24947579 0.32180893 -0.39598608 -0.2370463 0.52666837 0.49981138 0.64565504 0.010718159
0.52832764 0.40015492 0.59928244 -0.4125004 0.28739157 0.5610922 -0.30831957 -0.30222657
-0.19075729 -0.28680417 0.51494753 0.43395478 0.37696156 -0.21584797 0.23425037 -0.19525944
-0.3145383 -0.2736048 -0.2186036 0.52740914 0.4467728 -0.32320103 0.31762022 -0.31588796
-0.1936802 -0.7572192 -0.1817363 0.030249242 -0.32134536 -0.50279754 0.3072877 -0.20060953
-0.34683138 0.4208091 0.61176056 0.04566537 0.55919826 0.017568745 -0.40132532 -0.61509603
0.41441807 0.35573038 0.4954125 -0.6140123 -0.28078112 0.019229408 0.5893661 -0.42509353
0.024844183 0.40225756 0.50347865 -0.29040197 -0.20631146 -0.482705 -0.16295718 0.5663708
-0.3507458 -0.20142576 0.3815918 0.05084039 -0.44484362 -0.47878298 0.52412844 -0.6576945
-0.33403307 -0.19192396 0.5962877 -0.27993366 -0.21296994 -0.29113427 0.4656639 -0.28174338
-0.5108762 0.42073372 -0.24486832 0.55928814 0.026898928 0.6431441 0.54607636 0.33745125
0.4960746 0.38507217 -0.42388517 0.52717894 0.58497673 -0.16897154 -0.46293688 -0.29527318
-0.351553 -0.59187365 0.018891107 0.38798073 0.4293555 -0.47565475 0.5620404 -0.41405228
0.40529057 0.7487872 -0.1913518 0.6640686 0.051214345 -0.25588173 0.37273493 0.572643
-0.29655087 -0.38596195 0.04461101 0.042586442 -0.283452 -0.24900953 -0.24452327 -0.51345366
-0.4485903 -0.26590195 -0.26783183 -0.29114217 -0.26768285 -0.40419632 -0.2979239 -0.2453803
0.39025462 0.023771428 0.3277684 -0.5200584 -0.25359336 -0.58966696 0.41639823 0.35945824
-0.32887113 0.47297716 0.3122754 -0.18817918 -0.29833737 -0.34627944 0.8971912 0.3761467
0.5549447 -0.34509233 0.19525489 -0.3215835 -0.5238877 -0.32984236 -0.38185304 0.5181898
0.5746941 -0.15285605 -0.1991538 -0.5807925 0.4827191 0.5130121 -0.36505967 -0.20451666
-0.26142603 0.5157088 0.443459 -0.20612508 0.36061096 -0.19191714 -0.7028865 0.05921248
0.47879273 -0.30734512 0.6328546 -0.28827012 0.034189604 -0.33442584 -0.5071607 -0.28180355
-0.4679106 -0.25519723 0.4965854 0.3769045 1.2200161 0.3301403 -0.28324088 -0.40490282
0.38534945 0.39263022 0.043380897 -0.18611224 -0.32239756 -0.3416365 0.4304186 0.04230239
-0.25051326 -0.73754704 0.32696062 0.4863494 0.030396435 0.5525004 -0.19893353 -0.0340012
00000000: 0f57 a03e 664a cbbe 8712 1dbf 79bf 46be
00000010: 9fe0 20bf f045 d3be 567e b1be 7c87 6e3c
00000020: 115d 253f 0631 e23e bbb9 913c 9f1e d5be
00000030: 7a29 a2be 5ae7 cbbe 12e0 0b3d cd48 c33a
00000040: 4f19 aabe a32c c43c 38ee e0be 9b13 363d
00000050: fd2c 1f3c 550b 86be e963 75be 5dd3 5cbe
00000060: a1ca e5be f54d 72be 341c 94be aedb c13e
00000070: ec17 153f 6f70 0fbf 2cba ef3e 1831 9fbe
00000080: 6ca7 91be 7489 95be c5ba 883e 16d3 093f
00000090: ad38 f33c aaf6 c1be c897 a4be efa9 a9be
000000a0: 870e a53e c570 5f3d f969 e33e 5697 453c
000000b0: bca2 d6be 29b1 4a3d 499f ea3e cab8 8cbe
000000c0: 72e0 8dbe a178 533d 0c65 813c 70ca b33e
000000d0: 7ae2 bd3e cc6c 8dbe 1336 aebe 647e d83e
000000e0: 9576 7fbe 24c4 a43e b0be cabe 44bc 72be
000000f0: bdd3 063f 47e7 ff3e a649 253f 389b 2f3c
00000100: 7b40 073f 1be1 cc3e 936a 193f 4133 d3be
00000110: fd24 933e bda3 0f3f 10dc 9dbe 71bd 9abe
00000120: e155 43be ffd7 92be 9ad3 033f 522f de3e
00000130: 1b01 c13e 4007 5dbe 54df 6f3e 17f2 47be
00000140: 2a0b a1be ee15 8cbe 9fd9 5fbe 4904 073f
00000150: 68bf e43e 9b7a a5be 1e9f a23e 11bc a1be
00000160: 1a54 46be 1ed9 41bf 1519 3abe 42cd f73c
00000170: 6187 a4be 57b7 00bf d054 9d3e 966c 4dbe
00000180: e293 b1be 4a74 d73e 579c 1c3f 9c0b 3b3d
00000190: 9e27 0f3f 54ec 8f3c 837a cdbe ef76 1dbf
000001a0: 9b2e d43e 4b22 b63e b5a6 fd3e e92f 1dbf
000001b0: 8bc2 8fbe fe86 9d3c b2e0 163f dca5 d9be
000001c0: 0786 cb3c b4f4 cd3e fae3 003f 91af 94be
000001d0: 5043 53be 1c25 f7be 3fde 26be adfd 103f
000001e0: f494 b3be 8e42 4ebe 0060 c33e 033e 503d
000001f0: 8bc2 e3be 0b23 f5be 482d 063f ab5e 28bf
00000200: 6206 abbe b787 44be 50a6 183f 7753 8fbe
00000210: cb14 5abe 8d0f 95be 806b ee3e ab40 90be
00000220: c8c8 02bf 696a d73e c3be 7abe 822d 0f3f
00000230: 245b dc3c 17a5 243f a9cb 0b3f 69c6 ac3e
00000240: 7dfd fd3e 2e28 c53e 7a07 d9be 33f5 063f
00000250: 09c1 153f e006 2dbe 1006 edbe 0c2e 97be
00000260: c1fe b3be 0885 17bf 86c1 9a3c 69a5 c63e
00000270: 7cd4 db3e 0589 f3be e1e1 0f3f a9fe d3be
00000280: 3f82 cf3e 85b0 3f3f baf1 43be 6600 2a3f
00000290: 22c6 513d ee02 83be 1dd7 be3e bb98 123f
000002a0: 84d5 97be ce9c c5be 09ba 363d 1f6f 2e3d
000002b0: 9f20 91be 5bfc 7ebe 4f64 7abe b371 03bf
000002c0: a1ad e5be 4d24 88be 4121 89be 9610 95be
000002d0: ba0d 89be d2f2 cebe 7b89 98be f944 7bbe
000002e0: 74cf c73e 4cbc c23c 42d1 a73e 8c22 05bf
000002f0: fdd6 81be 6af4 16bf 2632 d53e e90a b83e
00000300: cc61 a8be 102a f23e 90e2 9f3e 0bb2 40be
00000310: adbf 98be 8a4b b1be 53ae 653f 4d96 c03e
00000320: db10 0e3f f1af b0be e6f0 473e 98a6 a4be
00000330: 811d 06bf 19e1 a8be 3e82 c3be 16a8 043f
00000340: 271f 133f 4c86 1cbe f9ee 4bbe d1ae 14bf
00000350: f526 f73e c354 033f 1ae9 babe d16c 51be
00000360: a2d9 85be 7e05 043f 0f0d e33e 7412 53be
00000370: 00a2 b83e ed85 44be 5ff0 33bf c988 723d
00000380: 5224 f53e 575c 9dbe c202 223f 2498 93be
00000390: 660a 0c3d dd39 abbe 49d5 01bf 8e48 90be
000003a0: fa91 efbe 36a9 82be 7140 fe3e a0f9 c03e
000003b0: 7d29 9c3f 2608 a93e f304 91be 6c4f cfbe
000003c0: 864c c53e d406 c93e 2bb0 313d 3594 3ebe
000003d0: 4b11 a5be fbea aebe d45f dc3e 4545 2d3d
000003e0: 4643 80be e2cf 3cbf 6267 a73e ca02 f93e
000003f0: f201 f93c ab70 0d3f 3bb5 4bbe d844 0bbd
