ppo/PPO_LunarLander_ep7000.pth (torch, 279103 bytes, 8 tensors)

log_std f4 [1, 2]
000000 95 57 01 bf f3 ea 0b bf
       -0.50524265 -0.5465538

fc1.weight f4 [256, 8]
000000 0f 26 17 3d 25 25 f7 bc c6 37 bb 3c e0 4d 7a bd
       0.03690153 -0.03016908 0.022853743 -0.061109424
000010 52 1f a3 3f ef f3 3f 3d cc b9 cd 3e 19 c6 11 3e
       1.2743933 0.046863493 0.40180814 0.14235725
000020 f9 03 ab 3e a4 da 75 3e e6 22 3e bc 1d c5 03 3c
       0.33401468 0.24009186 -0.011605 0.008042601
000030 1b 45 1b be 12 bf d3 be fd 24 a9 3e 4e fc ae 3e
       -0.1516308 -0.41356713 0.33036032 0.34176868
000040 08 7c 50 3e 2b 77 3b 3d 80 35 73 bd e8 7a e3 3d
       0.20359814 0.045767944 -0.059377193 0.11107427
000050 09 30 9e be 5f 68 a7 be 06 3d 66 bd 22 44 27 bd
       -0.30896023 -0.32696816 -0.05621054 -0.04083646
000060 98 25 b1 bc ab f0 ed bc 18 0d a1 be 48 da f7 be
       -0.021624371 -0.029045423 -0.31455302 -0.48408723
000070 e8 cd 04 3f b3 23 9a 3c bc 10 65 3e 55 a8 55 3d
       0.5187669 0.01881585 0.22369665 0.052162487
000080 65 11 d4 bd 6a 81 15 bf 09 3f 0b 3f e5 43 c6 be
       -0.1035488 -0.58400595 0.5439306 -0.38723674
000090 7a cd fd be 4a c4 f3 be 36 a4 c1 3e bf e9 39 bd
       -0.4957083 -0.47610694 0.37820596 -0.045388933
0000a0 8d bb 2c 3f 66 8a 60 3d 77 a1 04 3e 2a e8 05 3b
       0.6747368 0.054819487 0.12952219 0.002043257
0000b0 7a 02 31 3e 6a 20 d0 3d 71 fb 8d be 5a cd 8c bd
       0.17286101 0.101624325 -0.27730897 -0.06875105
0000c0 51 51 e5 3d 67 86 0a 3f 23 c6 a1 bc 5c 91 fe be
       0.111971505 0.5411133 -0.0197478 -0.49720275
0000d0 5a 58 a2 3d 70 4c a0 3e 3a e7 31 bd a6 77 4e bd
       0.07927008 0.31308317 -0.043433405 -0.050407074
0000e0 25 3d f4 3d ec 48 33 3d f5 a3 38 be af c1 c3 bc
       0.11925725 0.043770716 -0.18031295 -0.023896066
0000f0 5a fc c4 3d 98 c6 3d be 59 25 d1 bd 9e 7c 24 3e
       0.09618445 -0.18532789 -0.102122016 0.16063163
000100 69 24 40 3e db 0d 94 b9 4b 0d c9 3e 34 2b d5 bd
       0.1876389 -0.00028239083 0.39267954 -0.10408631
000110 c9 97 84 3f 74 cf bb be d5 10 b0 3e b0 89 98 be
       1.0358821 -0.36681712 0.34387842 -0.29792547
000120 67 24 ac be b5 bf a6 bd 4e 54 89 3c cf 28 c4 3d
       -0.33621523 -0.08142034 0.016763832 0.09578096
000130 8c 72 dc bc e0 48 2b be 2e 57 af 3e 27 06 f8 bd
       -0.026910089 -0.16727018 0.342462 -0.121105485
000140 3c d6 04 bd 86 4a e6 3e 85 87 b8 3e de f2 c5 be
       -0.032430872 0.44978732 0.36040893 -0.38661855
000150 b3 41 92 3d 1e cd 3c 3e 4b 5b 55 3d b8 a2 66 be
       0.071414374 0.18437621 0.052089017 -0.2252301
000160 1f d5 17 bf 4b b1 6a 3d e7 00 a1 bd 37 e6 93 3d
       -0.5930957 0.057297986 -0.078615 0.07221644
000170 fd 28 12 3e cd 7f 21 3e dd aa 7f 3e 10 d7 1e 3e
       0.14273448 0.15771408 0.24967523 0.15511727
000180 1d c2 25 3f 1e 61 0f 3d 77 5e c6 3e 49 48 53 bb
       0.6474932 0.035004728 0.38743946 -0.003223913
000190 f0 36 86 be a6 43 8e 3d ec 1d 59 3d ff d6 aa 3e
       -0.2621379 0.06946497 0.05300705 0.33367154
0001a0 30 6c 34 3f bf b8 ba be e2 b8 e4 3d cd 49 9e be
       0.7047758 -0.36469075 0.11168076 -0.3091568
0001b0 a7 4c 30 3e d6 d9 51 3d dc dd 38 3e 18 83 8f 3c
       0.1721674 0.051233135 0.18053383 0.017518565
0001c0 8f 66 0c bf 36 16 14 bf a9 97 e5 3d ab 2d 02 be
       -0.5484399 -0.5784639 0.112105675 -0.12712733
0001d0 90 37 13 3f d1 ce d8 3e 5b 53 58 bc 07 ee 5f bd
       0.57506657 0.42345288 -0.013203467 -0.05467036
0001e0 45 ee 19 3f 07 14 b4 be 1d 53 83 3e c8 4a 0e 3d
       0.60129195 -0.3517153 0.25649348 0.034739286
0001f0 0c 83 4e be 2d 5a 1b be 3c 48 92 3d 2f 8b 54 3d
       -0.20167178 -0.15171118 0.07142684 0.05189055
000200 9e a2 00 3f b9 67 db be 22 e7 1a 3e 82 0d 17 bf
       0.50248134 -0.42852572 0.15127233 -0.59004986
000210 27 fa 3c be c5 bd 70 bd 6d 6b 18 3d 12 32 05 3c
       -0.184548 -0.05877473 0.037211824 0.0081296135
000220 f4 2c 13 be 2d f0 eb 3e 87 28 bc be e5 c4 e1 be
       -0.14372617 0.46081677 -0.3674967 -0.4409553
000230 d3 e2 ff be 08 cf d1 3e d8 99 20 bc a2 3f 91 be
       -0.4997774 0.40978265 -0.009802304 -0.2836886
000240 bc e6 cc bc 58 86 4a 3e a8 da e6 3c 81 30 76 3e
       -0.025012366 0.1977781 0.028180435 0.2404194
000250 bc 3e f1 3e e8 f6 8a be 49 cb 89 be f1 a7 2a 3e
       0.47118175 -0.271415 -0.26912907 0.16665627
000260 c4 c3 3c 3f b8 69 9c bd fd 08 95 3e cb 23 6a be
       0.73736215 -0.07637352 0.2910842 -0.22865216
000270 ab c0 4b be 95 a4 b4 3c 9c af ac 3c 81 51 91 3d
       -0.19897716 0.022051135 0.02107983 0.07095624
000280 92 96 06 bf 52 81 c9 3e 0d df 15 be 9a 6f 5a 3e
       -0.525735 0.39356476 -0.14635868 0.21331635
000290 6c 1b e4 3e 13 98 1c 3e fb c6 50 be 63 7e ab be
       0.4455217 0.15292387 -0.20388405 -0.33494863
0002a0 2e 6b de bd 58 00 fa 3e 5c c9 3e 3d 7d 72 71 3c
       -0.10860287 0.48828387 0.04657875 0.014736769
0002b0 cd b2 05 3f ce 58 9f be 41 75 78 3e ef 5c 96 3e
       0.52225953 -0.3112244 0.24263479 0.29367778
0002c0 b1 a6 68 3e 1d 60 6f 3e 92 55 05 3e 18 5d a1 be
       0.22719838 0.23376508 0.13020924 -0.31516337
0002d0 d2 b4 6e 3e de 73 b0 be 96 9e f0 bb 9b a0 39 3e
       0.23311165 -0.344634 -0.0073431237 0.18127672
0002e0 55 da 75 3e d3 3a 0d bf 45 01 1e bd 33 30 af be
       0.24009068 -0.55167884 -0.03857543 -0.3421646
0002f0 68 44 01 bd d2 ca 37 3e 01 ff 8b bd 60 89 68 be
       -0.031559378 0.17948464 -0.068357475 -0.22708654
000300 5f d7 10 be da 71 df 3e 24 ca 4b be 2d 37 d5 be
       -0.14144658 0.4364155 -0.1990133 -0.41643658
000310 3a 57 25 3f ea 1d 56 bd 94 d7 51 be cc c4 59 3e
       0.6458622 -0.052274622 -0.20492393 0.21266478
000320 15 cb d0 bb 6e 4e 18 3f a1 59 eb 3d c2 96 3e be
       -0.0063718655 0.59494674 0.11491705 -0.18612197
000330 ee 5d d8 3e b9 95 35 3e c5 39 3c be 21 fd 52 be
       0.42259163 0.17732896 -0.18381412 -0.20604374
000340 11 09 05 be 1a 1f d9 3e 0b d5 bf be 04 a5 b6 be
       -0.1299174 0.4240654 -0.37467226 -0.35672772
000350 58 d7 d5 be 0d c8 5d 3d 8a b0 a4 bb 7e 6a 5f be
       -0.41765857 0.05414586 -0.005025928 -0.21817967
000360 80 d1 66 3e 65 77 bb be 7f c8 e5 be c9 9c 5d bd
       0.22540855 -0.36614528 -0.4487953 -0.0541046
000370 dd 98 26 be f7 7f 93 bd 0a 6c 1e 3e 8a 8a 01 bc
       -0.1626925 -0.07202142 0.15470901 -0.007906565
000380 fc 1c a5 bc cb 57 1e be 8e 36 7b bd 68 51 78 be
       -0.020155422 -0.15463178 -0.061331324 -0.24249804
000390 97 b1 a6 3e 1f fd dc 3e ec 3d 77 be ff f3 70 be
       0.32557365 0.43161866 -0.24144715 -0.23530577
0003a0 86 2e b7 be 98 6d dd be 0b bf 70 be 7b 98 e5 bd
       -0.35777682 -0.43247676 -0.23510377 -0.11210724
0003b0 a7 4a da 3e 34 d2 bf 3e c5 1e 5d be 7b 91 b9 3e
       0.4263508 0.3746506 -0.21593769 0.36243805
0003c0 5f 77 60 bd 48 6a 26 3f 04 77 a1 bd e4 ff 96 3d
       -0.05480134 0.6500592 -0.078840286 0.07373026
0003d0 d6 13 8d be 33 be 96 3d 52 06 f5 bb c3 01 eb be
       -0.27554196 0.07360496 -0.00747756 -0.45899782
0003e0 b6 3b 89 3e 62 91 b4 be ab 8c 8d 3d 9c a2 30 3e
       0.26803368 -0.35267168 0.06911596 0.1724953
0003f0 c9 a4 0c bf 94 17 ea be da 1b a7 be a7 ce aa be
       -0.5493894 -0.45721114 -0.32638437 -0.33360788

fc1.bias f4 [256]
000000 22 a1 a0 bc 76 94 a4 3d 48 97 88 3e 81 92 47 bc
       -0.019608084 0.08036129 0.26677918 -0.012180925
000010 14 55 20 3e 74 07 10 3d 95 05 f5 3d 85 a9 9a 3e
       0.15657455 0.035163358 0.11963955 0.30207458
000020 4e ac 56 bd ad cd a2 3e 87 cc 9b 3e e6 ae a0 bc
       -0.052410416 0.31797543 0.3042948 -0.019614648
000030 86 a6 83 bd 77 04 6d bd 73 38 79 be 4f 73 35 be
       -0.06428246 -0.057865586 -0.2433794 -0.17719768
000040 11 dc 53 be 24 b5 95 3e 35 e9 f1 3e 85 1e 0c be
       -0.20689417 0.29239762 0.47248235 -0.13683517
000050 8d 31 ce 3d ab 9b 77 3e 98 82 af 3e dd 57 a2 bd
       0.10068045 0.24180476 0.34279323 -0.07926915
000060 91 14 f9 3d f6 01 34 bd 87 43 9b 3e b6 e8 60 3e
       0.12162126 -0.043947183 0.30324957 0.21963772
000070 a8 7e a6 3e d2 b5 3a 3e 97 e6 ac 3e f0 20 9b 3e
       0.32518506 0.18233421 0.33769676 0.30298567
000080 8e 08 60 ba 16 39 7c 3e 22 e1 a2 3e 6d 4e 92 be
       -0.00085461966 0.24631152 0.31812388 -0.2857546
000090 de 6f f2 3b b5 46 cf 3c bf ab 07 3e 07 9f 01 3e
       0.0073985895 0.02530227 0.1324911 0.1265832
0000a0 52 8c 04 bd d2 41 90 3e 29 d3 99 3e c5 e6 8d 3e
       -0.032360382 0.28175217 0.30043915 0.27715126
0000b0 ca d9 aa 3e 29 33 19 3b 78 33 c3 bd 46 65 9b 3d
       0.33369285 0.002337644 -0.09531301 0.07587676
0000c0 38 18 13 3e 13 23 1a be 4a 5c 02 3e 97 0d 02 3e
       0.14364707 -0.15052442 0.12730518 0.12700497
0000d0 f8 9c ad 3e 13 a7 8c 3e 2b 6c 83 3e 50 b1 94 3e
       0.3390882 0.27471218 0.25668463 0.2904153
0000e0 5b 78 90 bd 43 17 9a 3d 21 6b 94 3d fd b9 af 3e
       -0.07054206 0.07523968 0.07246996 0.34321585
0000f0 89 ea c1 bb 3e 45 37 3d 99 29 a3 3e 49 e2 c3 3e
       -0.0059178513 0.04474377 0.31867674 0.3825858
000100 51 65 cc 3e 84 0c 99 3e 6d 08 db bd 46 d4 06 3e
       0.39921048 0.2989236 -0.106949665 0.13166913
000110 9b 80 30 3e 24 f8 65 3e 6a 9a 3f bd ba 99 04 be
       0.17236559 0.2245794 -0.04677812 -0.12949267
000120 16 ad 4d 3e 10 39 ab bc 29 c2 ea 3b 9c c7 96 3e
       0.20085558 -0.020901233 0.007164259 0.29449165
000130 bb 30 c7 bc 69 2f 8a 3e 4a 94 ba 3e 47 9d ab 3c
       -0.024315229 0.26989296 0.3644126 0.02094902
000140 b6 e2 6f be de 0b ba be dc 39 5c be da 1f cc 3d
       -0.23426327 -0.3633718 -0.21506447 0.09967013
000150 2c e6 81 3d e2 57 a3 bb 36 68 20 be ee e3 12 be
       0.0634273 -0.0049848417 -0.15664753 -0.14344761
000160 83 34 9f 3e 80 21 45 3e d8 df 92 bc f1 f1 05 be
       0.3109475 0.1925106 -0.017929003 -0.13080575
000170 6a 86 1f bd c6 66 de 3d 21 ca bd 3e 7f 3d 3a 3e
       -0.038946547 0.10859446 0.37068275 0.18187521
000180 43 d0 e0 3e dc c8 69 3e 69 3f 95 be bc 67 a1 bd
       0.4390889 0.22830528 -0.2914994 -0.07881114
000190 d1 b3 3b 3e ef 75 3d be 69 c2 77 bd 0b e0 2d bc
       0.18330313 -0.1850202 -0.06048814 -0.010612498
0001a0 8e d6 c7 bd 6c 2a 7c be ae 8b ca 3e 31 a4 aa 3e
       -0.0975772 -0.24625558 0.39559692 0.33328393
0001b0 08 31 87 3d 1e 97 31 3d 46 72 8e 3e 0c 94 e4 3d
       0.06601149 0.043357007 0.2782156 0.1116105
0001c0 5e d9 03 be 49 3b 1e 3e 27 49 f2 bd 93 14 6f 3e
       -0.12875888 0.15452303 -0.11830359 0.23347692
0001d0 30 13 8a be 04 78 93 3e 11 25 76 bd 4c dd b2 be
       -0.26967764 0.28802502 -0.060093943 -0.3493446
0001e0 44 66 36 3e d0 bf 21 3e 87 97 9c 3e b3 e6 3b 3d
       0.17812449 0.15795827 0.30584356 0.04587431
0001f0 4b 8e 02 3f e5 80 9a 3e ec 15 31 bc 40 39 a1 3d
       0.5099837 0.30176464 -0.010808449 0.07872248
000200 05 34 ef bd d3 66 06 be 74 52 ea bd ce 42 2b bd
       -0.11679844 -0.13125162 -0.11441508 -0.041811757
000210 ad 6d b2 3d 71 48 74 3e 7b 6f 2b 3e 95 6d b0 3e
       0.08712325 0.23855759 0.16741745 0.34458604
000220 80 33 cc 3e e6 ea e9 bc 2d 67 8d be 83 09 f4 3d
       0.3988304 -0.028554391 -0.2761778 0.11915877
000230 a1 02 a1 3e bd 8a d0 3e 17 ad d3 bd 88 a8 8a bc
       0.31447318 0.4073085 -0.10335749 -0.016926065
000240 5a 84 63 3e 05 9a d8 3e 34 cf 98 3e f9 70 24 3e
       0.22218457 0.42305008 0.29845583 0.1605872
000250 86 1b 67 be c1 40 8c 3d 7e 25 8c bd 7d 26 f2 bd
       -0.22569093 0.06848288 -0.068430886 -0.11823747
000260 3b dd ef 3d 49 b8 6f bd f6 31 55 be 16 d5 c3 3e
       0.11712118 -0.058525357 -0.2081984 0.3824851
000270 3e a1 b9 bd f9 e1 9f 3d e7 9c 89 3e 64 79 8f 3e
       -0.09063958 0.07806773 0.2687752 0.280223
000280 15 31 cd bd 44 70 4a 3e 64 0f 3a 3c a5 a1 14 3e
       -0.10019127 0.19769388 0.0113562085 0.14514787
000290 33 99 86 3d f6 76 2f be 1d 7e eb bd e6 8f 94 bd
       0.06572189 -0.17135224 -0.114986636 -0.07254009
0002a0 2c 68 b8 bc b9 17 14 3e 0c da 8b 3d b3 75 33 be
       -0.02251061 0.14462174 0.068286985 -0.17525367
0002b0 35 ec 80 3e bd 7a 79 3d 5b 5a ce 3e cb 72 e8 be
       0.25180212 0.060908068 0.4030331 -0.4540008
0002c0 8e 16 a0 3d f5 1f 02 3e 1d d2 d1 bd f4 c1 e6 bd
       0.07816802 0.12707503 -0.10245154 -0.112674624
0002d0 3e aa c9 3d 43 b4 b1 bc c6 f0 04 3e 56 8e cf 3d
       0.09846924 -0.0216924 0.12982473 0.1013457
0002e0 4b b6 7b bc b0 a1 19 3e 20 b4 71 bd 14 b5 1d be
       -0.015363286 0.15003085 -0.05900967 -0.15401107
0002f0 93 c4 2b 3e ca 20 27 be f6 eb a2 3e e5 21 ba 3e
       0.16774206 -0.16321102 0.3182065 0.36353984
000300 ee 5f 8d 3e 8e b1 4f be 1b da 25 be fd c5 d4 bd
       0.2761225 -0.20282575 -0.16196482 -0.10389326
000310 97 d8 3b 3d 14 fa 2c 3e 03 d4 20 3e fc ee f9 3e
       0.045860853 0.16892272 0.15705876 0.48815143
000320 90 37 fe bd 17 c6 88 bb ce 0d cb 3d 91 20 75 3e
       -0.124129415 -0.004174005 0.099147424 0.23938204
000330 28 3c a4 bc 4d 42 32 3c 44 8c a0 3e 6c b2 b7 3e
       -0.020048216 0.010880065 0.31357014 0.35878313
000340 d4 d4 f8 3c 43 69 0c 3d 22 49 a8 3e d3 81 3b be
       0.030374922 0.034280073 0.32868296 -0.18311243
000350 2b f0 b0 3e 75 e9 7b be 40 37 31 be f9 59 00 3e
       0.34558234 -0.24600776 -0.17306232 0.12534322
000360 fc 6f 43 3a 53 94 9e 3e 37 56 65 bc 50 4c 0f be
       0.00074553466 0.30972537 -0.013997606 -0.13993955
000370 df 3e 3b 3e 1b d5 42 be 0e a5 55 3e 51 97 f1 bd
       0.18285702 -0.19026606 0.20863745 -0.117964394
000380 f3 0b 84 3e f5 e2 2f be f2 26 88 bd c7 96 4e 3d
       0.25790367 -0.17176421 -0.06648053 0.05043676
000390 9e a8 de bc 11 23 c6 bb a0 19 78 3e 8f e6 2d be
       -0.027180012 -0.0060466607 0.24228525 -0.16982482
0003a0 7e 54 0a bc 9b 1f 8a 3e ff 6f b4 3e 35 7b a2 3e
       -0.008442996 0.26977238 0.35241696 0.31734625
0003b0 54 70 a9 3e ba c8 07 be 87 92 7c 3e 6b 2c d9 3e
       0.33093512 -0.13260165 0.24665271 0.424167
0003c0 2d 4a 54 be e3 3e 62 3e 90 5f fc 3c d5 20 ba 3e
       -0.20731421 0.22094302 0.030807287 0.36353174
0003d0 92 f4 9a be 0d 5f 32 3d 02 d0 5b 3e a0 f9 e2 3e
       -0.30264717 0.04354768 0.21466067 0.44331074
0003e0 3f 74 7f 3c ed 1d 5c 3e e2 a6 a0 bd 0f 00 07 be
       0.01559168 0.21495791 -0.0784433 -0.13183616
0003f0 e4 f0 01 3c af 5e d6 3e 9b 0a e2 3e d3 7d 60 3e
       0.007930968 0.41869113 0.44148716 0.21922998

fc2.weight f4 [256, 256]
000000 ff 9f a7 3e f5 99 78 bd 65 2d 1c 3c d8 32 4d 3e
       0.32739255 -0.0606937 0.009532307 0.20038927
000010 be 85 68 3d 3d ef a4 be 8a d2 23 3c b6 30 23 3d
       0.05676817 -0.32213774 0.009998927 0.039841376
000020 40 19 8f 3e 5f 0b 34 3d 57 23 61 3c 1c 6c 17 be
       0.27948952 0.043956157 0.013741336 -0.14787334
000030 a8 34 19 be 70 9b 96 be 94 9a c2 bd 77 6c 2b be
       -0.14961493 -0.29415464 -0.0950214 -0.16740595
000040 f5 fc b4 be 4e 38 0d 3e a4 90 e3 3d ce e9 3e be
       -0.3534924 0.1379101 0.111115724 -0.18643877
000050 60 f5 ba bd 3a ca 12 3d 22 2a ea 3d 80 89 a7 be
       -0.09128833 0.03583739 0.114338174 -0.32722092
000060 1a e2 ee 3c 83 98 31 3e 0d be a8 3d 3b 2b de 3c
       0.029160548 0.17343335 0.08239374 0.027120223
000070 be 9e 75 bd fc c1 06 3e d4 da e0 3d 4d c8 dd 3c
       -0.05996584 0.13159937 0.10979238 0.02707305
000080 32 78 63 3d b8 e7 8f 3d f4 8a c7 3d a4 01 b9 bd
       0.05553455 0.07026619 0.097433 -0.09033516
000090 c9 d9 73 3e 21 96 a3 3d b2 f0 29 be 1e 1f 8b bb
       0.23813547 0.07987619 -0.16595724 -0.004245653
0000a0 0b ef 22 bb e8 8a 25 3d 5b c0 a2 3d 1a 04 50 bb
       -0.002486172 0.040415674 0.07946845 -0.0031740726
0000b0 c7 18 99 3d 1d ea 8a be 02 7c 1a be a1 b9 a8 bd
       0.07475429 -0.2713174 -0.15086368 -0.08238531
0000c0 8b 77 d0 3d 5d 13 c4 3c 46 c7 a6 bd c7 ac e9 bd
       0.10179051 0.023935014 -0.08143477 -0.11409908
0000d0 ed a2 ff 3d b1 57 7f 3c ab b0 c5 ba 39 f9 ca 3d
       0.124822475 0.015584872 -0.0015082558 0.09910817
0000e0 f6 a8 01 be 98 5a 0d 3e 6f 8a c7 3d 71 0c 22 3e
       -0.1266211 0.1380409 0.09743201 0.15825059
0000f0 63 16 1e 3e 3e b8 6c bd 24 e9 8a 3d aa 93 fa 3d
       0.15438227 -0.057792895 0.06782749 0.12235196
000100 06 0e 76 bc d1 d7 cb 3d f3 62 63 be 0d 02 6c 3d
       -0.015017992 0.09953273 -0.22205715 0.057619143
000110 ea 0d d4 bc 45 52 73 bc 29 fd 05 3f 70 5c e9 bd
       -0.025885541 -0.014851158 0.52339417 -0.11394584
000120 06 69 40 3e 98 d9 8a 3e 6a 15 76 3f 87 51 3d 3d
       0.18790063 0.27119136 0.96126425 0.04622033
000130 3c 05 49 be c6 ea e4 3c 28 b7 79 bd df bf 1d bd
       -0.19630903 0.02794398 -0.060965687 -0.03851306
000140 75 9a a5 bb b7 05 67 bc 7b a5 df bd e1 01 d2 bb
       -0.005053813 -0.014100484 -0.10920235 -0.0064089154
000150 c0 c3 43 3e 85 ee 00 3e ed 68 31 bd 5a 3b 1f bc
       0.19117641 0.12590988 -0.043312956 -0.00971874
000160 ea 3e c4 3d fd b4 dc 3d 22 f7 ee 3d 70 a1 cb 3c
       0.095823124 0.10776708 0.116682306 0.024857253
000170 1f bb 1a 3e 9a c5 3d bd 3b d6 f2 3d 2b 5e 87 3d
       0.15110444 -0.046331026 0.118572675 0.06609758
000180 63 48 88 3d 6e 1e 17 3d 68 20 a5 bb 46 4e 30 3d
       0.06654432 0.036894254 -0.0050392635 0.043043397
000190 c7 73 a3 3e 52 f2 6b 3e 70 9f 3c be 56 b1 06 3c
       0.3192427 0.23041657 -0.18420196 0.008220991
0001a0 6e 97 78 3e a4 d9 2a bd f3 42 b0 3d 32 04 95 3d
       0.24276516 -0.041711465 0.086065196 0.07276191
0001b0 2e b7 82 3d 32 a2 23 3e 44 35 05 3e 92 86 5f be
       0.06382595 0.15979841 0.130086 -0.21828678
0001c0 fa 15 cf be 37 bc 92 3d a1 f6 e6 3d 78 a9 be 3c
       -0.40446454 0.071648054 0.112775095 0.023274168
0001d0 57 47 33 3c f5 d4 43 3e 80 17 d4 3e 80 40 71 be
       0.010942302 0.19124205 0.4142418 -0.23559761
0001e0 e0 55 57 3c 14 67 9b 3d 46 0c 90 3e f2 7c 93 3c
       0.013143033 0.0758802 0.28134364 0.018003915
0001f0 a9 01 e6 3d 01 a6 15 3d 3f c5 28 bd 9e 5b 07 be
       0.112307854 0.036535267 -0.041203734 -0.13218543
000200 df ce 03 be 66 0a 09 bf 2d ac ab 3e 70 a9 05 3f
       -0.12871884 -0.5353149 0.33529797 0.52211666
000210 f0 96 20 bd 03 ea 22 3d df 39 37 3e 8f 99 cd 3c
       -0.039206445 0.039773952 0.1789317 0.025097637
000220 ec b2 00 3d c7 89 5f 3e 09 48 84 3e 0f 6b ab 3d
       0.031420633 0.21829902 0.25836208 0.08370029
000230 88 ce d3 3d 4b 03 ea 3d 86 29 86 bd fb bd e4 3e
       0.10342127 0.11426409 -0.06550889 0.44676194
000240 38 2f f9 3d 13 fe 30 3e b7 c3 93 3d c8 13 55 be
       0.121672094 0.17284422 0.07215064 -0.20808327
000250 96 0a 27 3e e4 eb 00 3d f6 06 0a be 4e 11 15 3f
       0.16312632 0.031474963 -0.13479218 0.5822953
000260 1c 88 25 be 35 57 b0 3d cc 2a 93 bf 7e 62 24 3d
       -0.16165203 0.086103834 -1.1497436 0.040132992
000270 0c 73 0b 3a d4 89 a6 3c 53 03 9f 3d 59 e2 28 3e
       0.00053195725 0.020329393 0.07764306 0.16492595
000280 aa 54 cf 3d 9e 04 4e 3d 9c 2c c4 bd 9b 33 83 3e
       0.1012357 0.050297372 -0.09578821 0.2562531
000290 86 bf 02 3e 41 1f 2f bc 10 d9 ba bd 37 d2 85 be
       0.12768373 -0.010688604 -0.09123433 -0.26136944
0002a0 97 a0 14 bd 15 1e dd bd 7c 55 53 3d 81 2d 04 bf
       -0.036285963 -0.10796753 0.051595196 -0.51631933
0002b0 22 cd ec 3d b9 29 20 bd 50 f0 7e 3d 2f 48 d2 3e
       0.115625635 -0.03910229 0.0622409 0.41070697
0002c0 ae e5 7b 3d 18 e8 b8 3d 66 b3 a7 be 75 3a 96 3e
       0.061498336 0.09028643 -0.32754058 0.29341474
0002d0 21 ce 35 3e 57 95 e3 bd f8 89 5f 3d 3b 55 c3 bd
       0.17754413 -0.11112469 0.054574937 -0.09537741
0002e0 14 5f f1 3d 40 99 dd bd 5f a8 0b be 48 b8 82 3e
       0.11785713 -0.10820246 -0.13638447 0.2553122
0002f0 1d 43 2f be cb 55 26 be 60 1b ab 3d 94 d9 4e 3d
       -0.17115445 -0.16243665 0.08354831 0.050500467
000300 b5 0f 64 3d b0 a6 7b bf ac 99 db bc a4 56 8d be
       0.055679042 -0.9830122 -0.026806675 -0.27605164
000310 e9 46 18 be 63 b8 6f bd 74 b5 34 bc 39 ee c0 3d
       -0.148708 -0.058525454 -0.01102959 0.09420437
000320 52 ae 72 3c 6e e9 82 bd e1 52 6b bd 7a bc 34 3d
       0.014812069 -0.063921794 -0.057452086 0.044125058
000330 02 6b 4c 3e 6b 25 1d 3e 97 ba 29 3e 4f 29 a8 3d
       0.19962695 0.15346305 0.16575085 0.08211004
000340 69 55 a8 bd e9 f5 27 bd 8a 17 b8 3d 95 c0 a8 be
       -0.08219416 -0.041006003 0.08988865 -0.32959428
000350 78 e2 eb bd 18 53 c6 bc 18 7f a0 3e 78 e4 a9 3d
       -0.11517805 -0.024209544 0.31346965 0.0829553
000360 ad 5e 36 3e 0e d3 0c 3e ed 4f 9f 3e 63 5e af be
       0.17809553 0.13752386 0.31115666 -0.342517
000370 ff 20 31 3d 95 ca 57 bf 1b b7 5c bd 29 50 8b 3e
       0.04324436 -0.8429349 -0.05388556 0.27209595
000380 14 d2 ba 3d 27 79 92 3e e5 ff 85 3d f3 29 a5 bc
       0.091221005 0.28608057 0.06542949 -0.020161605
000390 2f fd 9e be a1 ba d7 bd 13 11 dc 3d 51 a6 81 3e
       -0.3105254 -0.105336435 0.10745444 0.25322202
0003a0 14 e8 55 3e 43 84 e3 3b 94 ae 9a 3d 8c 78 bf 3d
       0.20889312 0.006943257 0.075528294 0.09349164
0003b0 eb e8 8b 3c 7e a4 7e 3d 7a 2e 7e 3d d3 79 16 3e
       0.017078837 0.06216859 0.062056042 0.1469491
0003c0 ff 39 10 be 0e 2c c6 3d 38 8c df bd 0f 9b 55 3d
       -0.14084624 0.096763715 -0.109154165 0.05214983
0003d0 9d d2 14 be e8 84 34 3d d3 4c 17 3e f1 93 4b 3d
       -0.14533468 0.04407206 0.147754 0.049701635
0003e0 64 12 8c 3e e1 07 c7 3e 6e c8 06 bc 85 96 75 3e
       0.2735778 0.388732 -0.008226497 0.239832
0003f0 95 af 42 be 14 87 f1 3c a4 4f c3 3d ca 9e 29 bc
       -0.19012292 0.029483356 0.095366746 -0.0103528

fc2.bias f4 [256]
000000 71 d6 37 3d 99 83 3e bb 2e 92 c2 bd 6b d2 41 3c
       0.04488224 -0.0029070138 -0.09500538 0.011829953
000010 dd 81 a7 bc a1 f1 ab bd b5 a8 a1 bd 83 60 70 3d
       -0.020447666 -0.083956964 -0.078935064 0.05868579
000020 9c f6 31 bd 0b 20 07 3d bf e9 ee 3a 0c 51 2a bc
       -0.043448076 0.032989543 0.0018227621 -0.0103953
000030 c8 e5 52 bd 3d 63 9b bc f5 f8 12 bd 4f 71 81 bd
       -0.051488668 -0.018968219 -0.035881955 -0.0632044
000040 dc f2 69 bd 22 8e 5e bd 27 e4 76 bd 73 18 ec bb
       -0.057116374 -0.054334767 -0.060276177 -0.007205063
000050 5c 81 e6 bc 07 e0 6a 3c e4 93 87 3d f8 97 a0 bc
       -0.028137855 0.014335639 0.06620005 -0.019603714
000060 51 48 48 bd 1c 89 93 bc c0 1e a4 bd 0e f8 28 3d
       -0.04889709 -0.018009715 -0.080136776 0.04125219
000070 3f bb 46 3d a8 00 97 bd c4 0d f5 3c ca 7d 2e bd
       0.048518416 -0.07373172 0.02991379 -0.04260043
000080 b3 2a 01 bc dc 5b 3f bd bf 0f 08 3e 5b 6d 0f 3c
       -0.007883715 -0.046718463 0.13287257 0.0087541
000090 da 1e 4b 3d fb 1f 6e 3c 53 64 30 bb f5 a4 1e bd
       0.04958997 0.014533992 -0.0026915267 -0.038731534
0000a0 da 99 14 3e 1f 4b d2 bc 42 b7 dc 3c b8 36 68 bd
       0.14511815 -0.025670586 0.026942853 -0.05669281
0000b0 ac 18 04 3c 6c 83 69 3c 50 53 27 3d ed 1e 06 bd
       0.008062523 0.014252525 0.040850937 -0.032744337
0000c0 37 81 02 3b 13 c3 a8 bc 89 54 67 3d cf 01 0e 3e
       0.0019913444 -0.020600831 0.056477103 0.13867877
0000d0 9a 0c d3 3d 12 ea 8a bc b4 01 12 bd 72 53 2f 3c
       0.10305138 -0.016957317 -0.035646155 0.010701047
0000e0 5a 57 77 bd 4d 95 16 3e 42 47 ad bd 05 04 14 3c
       -0.06038604 0.14705391 -0.08460857 0.009034161
0000f0 80 f7 2d bc 1a c0 ca bc 55 9c 34 bb 43 4c 1d 3d
       -0.010618091 -0.024749804 -0.0027559001 0.038402807
000100 d7 44 86 bc 1d d6 60 3d 52 88 68 bd df 95 3f 3c
       -0.016390247 0.054891694 -0.05677063 0.011693447
000110 b8 12 82 bc bd 33 87 3c b5 ad 1a bc 2a ad 2f 3d
       -0.015878066 0.016504163 -0.009440829 0.04288975
000120 ff f7 f1 bc 8d c8 31 bd 74 80 44 bd 67 c0 e8 3d
       -0.029537199 -0.04340415 -0.047974065 0.11364823
000130 90 8c a7 3c b1 bb 0d 3d 54 53 34 bd 86 83 7d 3d
       0.020452768 0.034602825 -0.04402478 0.06189301
000140 79 58 30 3c fe bf 65 bc 63 48 a9 3c a1 8d 63 bd
       0.010763281 -0.014022825 0.0206644 -0.05555499
000150 93 75 a4 3d d8 4b 12 bd 65 e2 35 3d a5 c7 28 3b
       0.08030238 -0.03571686 0.04440536 0.0025753763
000160 79 97 97 3d 10 aa f1 3d b3 fc 75 3d b0 95 17 bd
       0.07401938 0.11800015 0.060055446 -0.037007987
000170 b3 49 12 b9 1b 97 03 bd d9 11 4f 3d a7 56 f7 ba
       -0.000139511 -0.032126527 0.05055413 -0.0018870429
000180 28 d0 b7 3c d4 04 f6 3d 9a 7a e0 3d 97 27 a7 3b
       0.022438124 0.1201264 0.109608844 0.005101155
000190 50 9d 55 bd 67 80 3d bd a8 4a db bc 52 b7 1a bd
       -0.052151978 -0.046265032 -0.026768997 -0.037772484
0001a0 f2 e7 ee 3d 93 4b 7a 3d 2d 85 04 bd 7c 85 84 bd
       0.11665334 0.06110723 -0.03235357 -0.064707726
0001b0 0a 5b 0c bd 1e 22 b4 3b c5 d6 a9 ba 9c c8 33 3c
       -0.03426651 0.005497231 -0.0012957683 0.010973122
0001c0 5c 38 41 3d 4e 20 7d 3d b3 90 73 bd 31 f4 04 3d
       0.04717289 0.061798386 -0.059464168 0.03245944
0001d0 ad 79 1a 3d 84 cc 37 bd 5d 32 38 3d 15 1d 54 bd
       0.037713695 -0.044872776 0.044969905 -0.051785547
0001e0 19 48 0b 3d 9f bf 04 3d 14 7a 9b 3d 66 4f d8 bc
       0.034004305 0.032409307 0.07591644 -0.026405048
0001f0 9b 32 3c bd e3 c3 97 bd 01 cc 80 3d e1 92 bc bd
       -0.0459467 -0.07410409 0.06288911 -0.092077024
000200 c8 87 80 bd bc 8c 48 3d 30 c3 21 3d bc d3 99 3c
       -0.06275898 0.04896234 0.039492786 0.01877772
000210 99 f2 8c bc 1a 15 b2 bb d3 a5 09 3d f8 9c b4 3c
       -0.017205523 -0.0054346444 0.033605408 0.022047505
000220 a4 15 4e bd 8f 74 39 3d 5f 47 75 bd d9 5e 20 3d
       -0.050313607 0.045277175 -0.059882518 0.039152954
000230 f6 f2 0b bd af d6 28 bd 93 95 83 bd fe 09 a9 3d
       -0.034167252 -0.041220363 -0.064250134 0.08253859
000240 66 78 c7 3d e5 aa 81 3d 02 74 96 3c a9 bf 10 3c
       0.09739761 0.06331424 0.018365864 0.008834758
000250 e8 4e 05 bb f0 8b f0 3c a7 f2 06 bc a8 1d 5e 3d
       -0.0020341221 0.029363602 -0.008236564 0.0542275
000260 33 aa a1 3b 8a b1 39 bd a2 20 c6 3c 8f 3e 25 3d
       0.0049336194 -0.04533533 0.024185482 0.040342864
000270 c8 57 89 3d 79 6b 59 bd 22 3b 7d 3d 5a 26 ec bc
       0.06706196 -0.05308101 0.06182397 -0.028826881
000280 03 74 d3 3d 51 22 66 3d 53 c7 5d 3d 2a 9c 89 3d
       0.10324862 0.05618507 0.05414517 0.06719239
000290 36 29 08 bd 5e 22 db 3c b2 f3 02 3e b9 c6 85 3d
       -0.033242427 0.026749786 0.12788275 0.06532044
0002a0 9c 8c 88 3c 61 1f 32 3c 1b 63 3a bc 96 c5 6a bd
       0.01666861 0.010871739 -0.011376168 -0.05731734
0002b0 3b a1 e3 3c 52 ab d7 ba d7 75 42 3d bd b5 ab bd
       0.027786842 -0.0016454256 0.047475662 -0.08384273
0002c0 80 fc 9d 3c 2c 77 0e 3d f2 40 17 bb d3 2f 36 bd
       0.01928544 0.03478162 -0.0023079482 -0.044479202
0002d0 48 65 1e 3d 2d f4 bf b9 06 98 91 bd 13 28 96 bc
       0.038670808 -0.00036612284 -0.07109074 -0.018329656
0002e0 51 d9 f7 3d bc b4 0d 3c 07 0b eb 3d 7e c7 cc bb
       0.12101997 0.008649047 0.11476713 -0.0062493673
0002f0 2d 15 aa 3c 45 07 c8 bd 81 54 b5 3d f2 5c 32 3d
       0.02076205 -0.097670116 0.088540085 0.04354567
000300 df b5 63 bc 98 ea f9 3c 26 93 1e 3d b7 ac 35 3d
       -0.013898342 0.03050737 0.03871455 0.044354167
000310 7d c8 89 bd aa 07 0e 3c 86 d2 2f 3d 6f ee 66 3d
       -0.06727693 0.008668819 0.04292538 0.05637973
000320 8d 62 22 3d 40 cc 36 bd a4 5d e5 3c e0 58 60 3c
       0.039644767 -0.04462838 0.027998753 0.013693064
000330 c1 4f 36 bc fc ca 94 bd 93 36 0e bd c7 52 c2 bc
       -0.011127413 -0.07265279 -0.034720015 -0.023721112
000340 54 02 26 bd d4 6a 6e 3d c7 d5 34 3a 64 07 13 bd
       -0.040529564 0.058207348 0.00068983104 -0.03589572
000350 86 80 d6 3d 04 db 34 bd b2 db a8 bc 6a f5 90 bc
       0.10473733 -0.044154182 -0.020612571 -0.017695148
000360 f7 c9 58 3d 1c 11 d5 bc 0b 7b 80 3d 5f ef 09 3c
       0.052926984 -0.026009135 0.062734686 0.008418887
000370 5e 7e 18 3e 8b 33 6a bc ec d8 31 bd d0 e0 0a bd
       0.14891955 -0.014294515 -0.043419763 -0.033905804
000380 c5 9c e8 3c 40 42 15 bc 0e 57 f5 bb bf ca 8e bd
       0.028395066 -0.0091100335 -0.0074871844 -0.069722645
000390 32 91 5e bc 0c 95 6a bb 08 44 6b 3c df b5 a5 bd
       -0.013584422 -0.0035794405 0.014359482 -0.0809133
0003a0 be af f9 3c 2b 32 ea 3b fe 70 86 3b b7 3c cf 3d
       0.030479308 0.007147094 0.004102825 0.10119002
0003b0 48 53 3d 3d 7f ae a1 3d 69 63 17 b9 36 2f 85 bb
       0.046222 0.078946106 -0.00014437515 -0.004064466
0003c0 a0 5f 04 3e aa 35 ee 3d ef bc 58 3b ea 46 85 3c
       0.12927103 0.11631329 0.0033071598 0.016269166
0003d0 9d 17 b9 bb 7b d9 9a 3c 53 23 da 3c 03 d8 58 3d
       -0.005648567 0.01890253 0.026628172 0.05294038
0003e0 70 42 b8 bc 9d 9e 65 bc 5f 67 09 3e 54 c2 49 3c
       -0.022492617 -0.014014867 0.13418339 0.012314398
0003f0 70 66 b9 bc 41 f1 2a bd 63 43 24 bd 68 b3 09 bc
       -0.022631854 -0.041733984 -0.040103327 -0.00840459

mean.weight f4 [2, 256]
000000 1b a9 3f bd 92 d1 9b bc f3 22 76 3d 44 e4 09 bd
       -0.04679213 -0.01902083 0.060091924 -0.033664957
000010 63 41 0e bd 06 67 de bc d5 6b e4 bb be c5 a8 3c
       -0.034730326 -0.027148735 -0.0069708624 0.020602103
000020 2e fe 49 3d 7f 48 44 bd b9 92 6f 3d 7c 49 47 bb
       0.04931467 -0.0479207 0.058489535 -0.003040879
000030 8f 16 de ba 05 9f 5a bd 58 8c 62 bd fd b9 53 bd
       -0.0016943979 -0.05337431 -0.055309623 -0.051691044
000040 34 20 8f 3d 6d 13 c9 bb 27 aa 01 3c f9 5d 64 3d
       0.06988564 -0.006136349 0.007914103 0.05575368
000050 bc a0 25 3d 44 92 0f 3c 77 aa 37 bd 4e f8 a8 bc
       0.04043649 0.0087629 -0.044840302 -0.020626213
000060 7b 7b 6c bd 90 e8 cd bc 7d ac 5e bd d8 3f 76 3d
       -0.057734948 -0.025135309 -0.054363716 0.06011948
000070 6e eb 13 be 49 28 15 3d 51 d7 79 b9 c5 5b 19 bd
       -0.14445278 0.036415372 -0.00023826702 -0.037441034
000080 3b 49 92 bd bb 53 18 3d 1c e3 49 3d f7 58 83 3d
       -0.07142874 0.037189227 0.049288854 0.06413453
000090 bc 4f cf bc 8c 41 98 3d f9 b4 4a 3d 1a df 99 3c
       -0.025306575 0.07434377 0.049488995 0.01878314
0000a0 22 88 1a be e6 64 1a 3c 84 5c d6 3b e7 9f 77 bd
       -0.15090993 0.00942347 0.0065417904 -0.06045523
0000b0 2c 54 ac bc 23 dd 9c bc 0e 50 be 3b e4 2c 2c bb
       -0.02103623 -0.019148415 0.005807883 -0.0026271874
0000c0 c3 36 eb bc a9 90 74 3d 12 fb e6 3c 80 da eb bc
       -0.028712636 0.05970827 0.028195892 -0.028790712
0000d0 af 08 9d bd 3b 61 2f bd 10 2a 9d bc f7 0f e8 3d
       -0.07667672 -0.042817336 -0.019185096 0.1133117
0000e0 c6 1a da 3b db 8e 31 3d 6b 89 1a 3d 6d df 83 3d
       0.0066560237 0.04334913 0.03772871 0.064390995
0000f0 c2 53 91 bc 3c 88 54 3c 4a cc b6 bd b8 f1 81 3d
       -0.017740134 0.012971934 -0.08925684 0.06344932
000100 db bb 1e bd 62 e8 20 3c 6c b5 0b 3d b7 94 c2 3b
       -0.03875337 0.009821029 0.034108564 0.0059381383
000110 bf fe cc 3d ad d6 36 3e 79 dd 2c bd 05 f6 1d 3d
       0.100095265 0.1785533 -0.0422034 0.0385647
000120 69 90 81 3d 27 14 88 bd 13 ee 2a bd a0 46 79 bd
       0.06326372 -0.06644469 -0.04173095 -0.06085837
000130 36 c4 a2 3d 79 a8 20 bd 9e a6 d2 3d 9b e6 1f bd
       0.079475805 -0.039223168 0.10285686 -0.039038282
000140 3c 46 af bc 33 bd 2a 3d 3a e4 c8 3c 92 c9 48 bd
       -0.021395795 0.04168434 0.02452289 -0.049020357
000150 7e b0 1c 3e a8 35 fb bb 47 d1 fd 3d 82 45 30 3d
       0.15301701 -0.0076663084 0.12393432 0.043035038
000160 32 67 b9 3b c6 c8 f9 bb 17 37 b1 3b 8d d9 3b 3d
       0.005658054 -0.007622811 0.0054081785 0.04586177
000170 fc 6b ec bc 19 6e 80 bd d3 98 74 3c 97 8e 63 bd
       -0.028860085 -0.062709995 0.014929014 -0.055555906
000180 41 16 29 bd 21 90 d4 3b 31 25 a4 bd 53 5c 28 bd
       -0.04128099 0.006486908 -0.08014906 -0.041103672
000190 87 25 80 bc b2 f2 2a bd 2b ca 3f 3d 38 a3 87 bd
       -0.015642894 -0.04173536 0.04682366 -0.066229284
0001a0 64 36 b8 3c 96 98 9e 3d d3 2d b5 bd 9f ce 08 3e
       0.022486873 0.07743947 -0.08846631 0.1336007
0001b0 07 a1 80 bd 12 d7 20 3d bd 7c 4f bc 8e 28 5b 3c
       -0.062807135 0.039267607 -0.012664017 0.013376368
0001c0 66 59 43 bd 5b a5 c7 3c 0b 94 92 bc e1 1e 75 3c
       -0.04769268 0.02437084 -0.017892858 0.014960975
0001d0 4e 3c 55 bb 09 66 bc bd 02 6c 2a bd fc 50 28 3d
       -0.0032537165 -0.09199149 -0.04160691 0.041092858
0001e0 7b d8 0b bd 9e 08 49 3d 4b 46 93 bc 36 1f 3e 3d
       -0.034142 0.049080484 -0.017977854 0.046416484
0001f0 27 c1 41 3d bb da 9f bd 64 be fe 3d b2 53 85 3d
       0.047303345 -0.078053914 0.12438658 0.06510104
000200 53 62 73 3d 62 01 54 3c 8a 75 20 bd 52 ad 17 3c
       0.05941994 0.012939783 -0.039174594 0.009257631
000210 a3 a3 e3 3c a3 a2 84 3d 6a cb b7 bc e7 0c a0 3d
       0.027787989 0.06476333 -0.022435863 0.07814961
000220 99 81 c8 bd 4d 96 44 bd 12 4a 40 3d 72 67 05 bd
       -0.09790344 -0.0479949 0.04694564 -0.032569356
000230 5a 41 05 3d 8f b1 09 be e4 d7 45 3d 8f 79 9a bd
       0.032533027 -0.1344664 0.048301592 -0.07542717
000240 d3 d8 e2 bd 3e 69 8c 3c c6 4c 85 3d e6 b2 95 3c
       -0.11076512 0.017140027 0.06508784 0.018273782
000250 5d 4e dd bd 86 f1 5c 3d 3e 63 8e 3c 4a 48 1c 3d
       -0.10805962 0.053941272 0.017381307 0.038154878
000260 f2 3a 31 bd 3d 6a 52 bd 81 53 fa bc 27 8d 36 3d
       -0.043269105 -0.051370848 -0.030557396 0.044568207
000270 32 c0 0b 3c e6 71 b4 bd 0b 82 3e 3d 12 18 f0 bd
       0.00852971 -0.08810787 0.046510737 -0.11723341
000280 ea 98 56 3d 99 9c d7 3c aa cc 64 bd b7 35 77 bd
       0.052391924 0.026319789 -0.055859245 -0.06035396
000290 f4 d3 48 3d 4a 3b c5 bc 08 a3 42 3d 15 84 fd bd
       0.04903026 -0.024076123 0.04751876 -0.12378708
0002a0 37 75 59 3d ec c6 58 bd a8 00 cf bc 88 c6 62 bd
       0.0530903 -0.05292408 -0.025268868 -0.055365115
0002b0 e6 03 8a 3d 34 6d 79 3b da 12 43 3d c1 a5 9c bd
       0.06739025 0.0038059475 0.0476254 -0.076488025
0002c0 71 65 24 bd ba 51 e6 ba 93 6c 25 3d df 8a 3d bd
       -0.040135805 -0.0017571964 0.040386748 -0.046275016
0002d0 87 b7 1b 3d 01 5e 42 bd 88 0a 7a bd 0f fc 12 bd
       0.038016822 -0.04745293 -0.0610452 -0.035884913
0002e0 61 61 b5 3c 64 ef 85 3c 9d 3e 22 3d cd de 1b bb
       0.02214116 0.016349502 0.039610494 -0.0023783923
0002f0 9f a8 26 3d 4a 50 ad 3b 92 70 b1 3c e5 c9 3f 3d
       0.040688153 0.005289112 0.021660123 0.0468234
000300 45 3e 87 bd a4 19 a2 bc 2c 11 af bc 27 8a 95 bc
       -0.06603674 -0.019787617 -0.021370493 -0.018254353
000310 04 78 57 3d 20 2d 88 3d 15 90 53 3e 24 0f 16 3c
       0.05260469 0.06649232 0.20660432 0.009158883
000320 98 f7 10 3d ea e0 98 bd db 5a 9d 3d fc 30 65 bd
       0.035392374 -0.07464774 0.07683345 -0.05595492
000330 63 34 34 bd 3d c0 6b bd d1 e1 87 bd 9a 7e 8c bb
       -0.043995272 -0.05755638 -0.06634868 -0.004287553
000340 d8 b0 5b bc 7d 14 3a 3e a7 e9 f9 bc 8c cc 27 3d
       -0.013408862 0.18171878 -0.030506922 0.040966555
000350 23 75 1d 3d 8b 8a 97 bd 56 ee 20 bd d3 37 83 bd
       0.03844179 -0.07399472 -0.039289795 -0.06407132
000360 f9 d1 87 3d 8c ee 77 3c 8f 39 53 3c 6f 24 5b bd
       0.06631846 0.015132558 0.012892141 -0.053501543
000370 b5 47 47 bd 74 89 cd 3c 47 2b f3 3c 9f 7d 5c 3b
       -0.04865237 0.025089957 0.029683722 0.0033644212
000380 83 13 1a bd af d4 25 bd 14 15 15 be 14 17 30 3c
       -0.037616264 -0.040486034 -0.14558822 0.01074769
000390 33 a1 5c bd 87 3f 78 3d 8d 4e af bd 36 88 6b 3d
       -0.05386467 0.06060746 -0.08559904 0.057502948
0003a0 9f df 2e 3d aa a3 87 bd 7c 2b 14 bd f7 02 b8 3c
       0.04269373 -0.06623013 -0.036174282 0.022462351
0003b0 e4 00 89 3e d0 11 4c bd 55 14 a0 3a 09 84 86 3d
       0.26758492 -0.049821675 0.0012213091 0.065681525
0003c0 4b 8f 85 3d 35 c9 03 3b fc 10 1b 3d 52 80 8c 3d
       0.065214716 0.0020108942 0.037857994 0.06860413
0003d0 b1 94 f5 3c b4 0a 18 3b a6 88 72 3c e8 19 2c 3d
       0.029978128 0.002319974 0.014803087 0.042016894
0003e0 bf ea cf 3c aa e9 39 3d dc fc 68 bd 88 01 bf 3d
       0.02538049 0.045388855 -0.05688177 0.09326464
0003f0 fd a1 4b 3b e0 9c 4f 3d 84 98 35 bd 86 a6 26 3d
       0.0031071894 0.050686717 -0.044334903 0.040686153

mean.bias f4 [2]
000000 c1 09 58 3d df 19 9f 3d
       0.052743677 0.077686064

value.weight f4 [1, 256]
000000 de 01 a0 3e 32 0e ca be e6 4a 19 bf 19 62 46 be
       0.31251425 -0.39463955 -0.5987991 -0.19373359
000010 4b ec 1d bf fe b0 cf be dd b1 b0 be 7c 87 6e 3c
       -0.6168868 -0.40564722 -0.345107 0.014558669
000020 c4 21 25 3f 83 b4 e1 3e bb b9 91 3c c4 3a d1 be
       0.6450465 0.44083032 0.017788759 -0.40865147
000030 80 9f a1 be 8e ef ca be 12 e0 0b 3d cd 48 c3 3a
       -0.31567 -0.3963589 0.034149237 0.0014899016
000040 05 8e a9 be a3 2c c4 3c e9 cd da be 9b 13 36 3d
       -0.33116165 0.023947066 -0.42735222 0.04445229
000050 fd 2c 1f 3c e6 86 85 be eb ec 74 be 18 51 5c be
       0.009715316 -0.26079482 -0.23918502 -0.2151531
000060 41 fb e3 be 99 8b 71 be 15 8d 93 be 74 70 c1 3e
       -0.4452763 -0.23588409 -0.28818575 0.37781107
000070 55 08 15 3f 9a 18 0d bf 2e 7f ef 3e 35 a0 9e be
       0.5821584 -0.55115664 0.46776718 -0.30981603
000080 f4 34 91 be 21 f6 94 be 45 55 88 3e 2c bd 09 3f
       -0.28360713 -0.2909403 0.26627555 0.5380428
000090 ad 38 f3 3c 22 5b c0 be 67 75 a3 be 67 c8 a8 be
       0.029690111 -0.3756953 -0.31925508 -0.32965395
0000a0 32 87 a4 3e c5 70 5f 3d e7 34 e3 3e 56 97 45 3c
       0.32134396 0.054550905 0.443763 0.012060007
0000b0 b2 79 d4 be 29 b1 4a 3d ca 3f ea 3e f1 5c 8c be
       -0.41499096 0.04948536 0.45751792 -0.2741466
0000c0 a1 56 8d be a1 78 53 3d 0c 65 81 3c 11 a0 b3 3e
       -0.27605155 0.051628713 0.015795253 0.35083058
0000d0 aa 70 bd 3e 17 09 8d be 55 a5 ad be 3c dd d5 3e
       0.37000018 -0.27545998 -0.339152 0.4177035
0000e0 63 78 7e be 65 3e a4 3e 5a b6 c7 be 14 b9 71 be
       -0.24850611 0.32078853 -0.3900631 -0.23605758
0000f0 fc b7 06 3f dc a1 ff 3e 71 0f 25 3f 38 9b 2f 3c
       0.5262449 0.49928176 0.64476687 0.010718159
000100 03 e7 06 3f 2c ae cc 3e 24 44 19 3f 9b 03 d0 be
       0.52696246 0.39976633 0.598696 -0.4062775
000110 fd 24 93 3e cc 48 0e 3f 6f 41 9d be e2 2c 9a be
       0.28739157 0.5557983 -0.30713984 -0.30112368
000120 65 cb 42 be e5 4a 92 be da 9f 03 3f 33 ac dd 3e
       -0.19022901 -0.28572765 0.5141579 0.4329544
000130 1a 9c c0 3e 1b 4d 5c be 07 e2 68 3e 7f 77 47 be
       0.37619096 -0.21513788 0.22742473 -0.19479178
000140 d3 33 a0 be 5c a3 8b be 3f e4 5e be ba e7 06 3f
       -0.3128954 -0.2727307 -0.21766756 0.52697337
000150 0b 99 e2 3e 3b fb a4 be bd 39 a2 3e ce 10 a1 be
       0.44257388 -0.32222924 0.31684676 -0.31458133
000160 a9 e0 45 be fb bf 41 bf 31 a8 39 be 42 cd f7 3c
       -0.19323982 -0.75683564 -0.18130566 0.030249242
000170 1c fb a3 be a9 93 ff be 61 cc 9c 3e 58 e0 4c be
       -0.3202752 -0.49917343 0.3062468 -0.20007455
000180 41 0d b1 be 23 03 d7 3e 36 5a 1c 3f 9c 0b 3b 3d
       -0.34580424 0.4199458 0.6107515 0.04566537
000190 d7 fc 0e 3f 54 ec 8f 3c 4b 33 cc be 3e 47 1c bf
       0.55854553 0.017568745 -0.39882883 -0.61046207
0001a0 5c e5 d3 3e ce f3 b5 3e 9d 25 fd 3e 5e 7b 1b bf
       0.41385925 0.3553757 0.4944276 -0.6073512
0001b0 bd 52 8f be fe 86 9d 3c d0 a7 16 3f b7 ee d4 be
       -0.27992812 0.019229408 0.5884981 -0.41588375
0001c0 07 86 cb 3c 75 b6 cd 3e dd b4 00 3f d7 5e 94 be
       0.024844183 0.40178266 0.50275975 -0.28978607
0001d0 c5 96 52 be 83 5a f5 be 34 76 26 be 89 d5 10 3f
       -0.20565327 -0.47920617 -0.16256028 0.5657583
0001e0 22 dc b2 be 35 8a 4d be dd ee c2 3e 03 3e 50 3d
       -0.34933573 -0.20072253 0.38072863 0.05084039
0001f0 96 3c dd be dc 70 f3 be 4e 3d 05 3f 18 9e 26 bf
       -0.43210286 -0.47547042 0.5204667 -0.6508498
000200 56 52 aa be 9e de 43 be 88 76 18 3f 90 d2 8e be
       -0.33265942 -0.1912789 0.59555864 -0.2789502
000210 a8 6c 59 be 3b a4 94 be 1d 27 ee 3e 0e ac 8f be
       -0.21232855 -0.29031548 0.46514216 -0.28060955
000220 45 ce 01 bf 65 24 d7 3e f7 0a 7a be b5 11 0f 3f
       -0.5070537 0.42019954 -0.24418245 0.55886394
000230 24 5b dc 3c 53 65 24 3f c3 a5 0b 3f 9b 3d ac 3e
       0.026898928 0.6421711 0.5454981 0.3364075
000240 96 87 fd 3e be bc c4 3e e6 e1 d5 be d9 c4 06 3f
       0.49517506 0.3842525 -0.4177391 0.52644116
000250 f0 ad 15 3f 2f 85 2c be 16 a4 e9 be b7 a0 96 be
       0.5846853 -0.1684768 -0.45633 -0.2941949
000260 2b 34 b3 be 34 39 14 bf 86 c1 9a 3c b4 39 c6 3e
       -0.35000739 -0.57899785 0.018891107 0.387159
000270 ae 8a db 3e a5 e0 f1 be 1e cc 0f 3f 18 3f d3 be
       0.42879242 -0.47241703 0.56170833 -0.41259074
000280 b8 1d cf 3e 2d 75 3f 3f 0f 74 43 be 34 d4 29 3f
       0.4045236 0.7478817 -0.19087242 0.6633942
000290 22 c6 51 3d e1 85 82 be 8c 59 be 3e 76 3d 12 3f
       0.051214345 -0.25492766 0.37177694 0.5712503
0002a0 a6 33 97 be 88 da c4 be 09 ba 36 3d 1f 6f 2e 3d
       -0.29531592 -0.38447976 0.04461101 0.042586442
0002b0 70 80 90 be 34 38 7e be 50 5e 79 be b4 8c 02 bf
       -0.2822299 -0.24826127 -0.24352384 -0.50995946
0002c0 c6 d9 e3 be 57 b6 87 be 54 9e 88 be 72 bd 94 be
       -0.44502085 -0.26506302 -0.26683295 -0.29050785
0002d0 93 86 88 be f8 ff cc be 36 f2 97 be 2e 72 7a be
       -0.26665172 -0.4003904 -0.2967698 -0.24457619
0002e0 c8 5a c7 3e 4c bc c2 3c fa 50 a7 3e 2e 86 02 bf
       0.38936448 0.023771428 0.32678968 -0.5098599
0002f0 46 75 81 be ff bc 15 bf 25 c5 d4 3e c5 99 b7 3e
       -0.25284785 -0.5849151 0.4155666 0.35859504
000300 f2 99 a7 be 87 ec f1 3e a0 32 9f 3e f3 35 40 be
       -0.32734638 0.4725077 0.3109331 -0.1877058
000310 f7 35 98 be 9e 65 b0 be 2d 29 65 3f da 22 c0 3e
       -0.29728672 -0.34452528 0.89515954 0.3752659
000320 09 d8 0d 3f 18 d8 af be a3 cc 46 3e d8 1b a4 be
       0.5540777 -0.34344554 0.19414 -0.32052493
000330 fc 18 05 bf e3 49 a8 be e6 63 c2 be 53 6f 04 3f
       -0.5199125 -0.3286887 -0.3796684 0.5173237
000340 f1 e7 12 3f e2 9f 18 be ea 42 4b be 0c 50 10 bf
       0.57385164 -0.1490474 -0.19849744 -0.5637214
000350 b2 f8 f6 3e 60 29 03 3f 1d da b9 be 9d df 50 be
       0.48236614 0.5123501 -0.3629922 -0.20397802
000360 f5 66 85 be ca cd 03 3f 01 9c e2 3e ec 90 52 be
       -0.26055112 0.51485884 0.44259647 -0.20563096
000370 68 2f b8 3e 71 f6 43 be 36 84 2e bf c9 88 72 3d
       0.35973668 -0.19136979 -0.6817049 0.05921248
000380 69 c9 f4 3e 3a d0 9c be 35 e8 21 3f a4 33 93 be
       0.47809914 -0.30627614 0.63244945 -0.28750336
000390 66 0a 0c 3d e3 5c aa be f7 ff 00 bf b1 97 8f be
       0.034189604 -0.33273992 -0.5039057 -0.2804542
0003a0 31 54 ec be a6 19 82 be f2 fb fd 3e 75 87 c0 3e
       -0.46157983 -0.25410193 0.49606282 0.37603346
0003b0 43 29 9b 3f 54 98 a8 3e 49 ae 90 be 69 12 ce be
       1.2121967 0.32928717 -0.2825797 -0.4024842
0003c0 67 10 c5 3e cb a7 c8 3e 2b b0 31 3d 5c ea 3d be
       0.38489076 0.39190516 0.043380897 -0.18546432
0003d0 d3 37 a4 be 34 e7 ad be 59 2b dc 3e 45 45 2d 3d
       -0.3207384 -0.33965456 0.43001822 0.04230239
0003e0 16 8f 7f be bc 0b 39 bf 5a ee a6 3e 6e 05 f7 3e
       -0.24956927 -0.7228353 0.32603723 0.4824633
0003f0 f2 01 f9 3c b9 3a 0d 3f 78 35 4b be d8 44 0b bd
       0.030396435 0.5516773 -0.19844615 -0.0340012
