ppo/PPO_LunarLander_ep6000.pth (torch, 279103 bytes, 8 tensors)

log_std f4 [1, 2]
0	0xbefdc7a5	-0.4956638
1	0xbf01d273	-0.50711745

fc1.weight f4 [256, 8]
0	0x3d1fbac3	0.03899647
1	0xbcd911f1	-0.026497813
2	0x3c8bda49	0.01707186
3	0xbd8ab0db	-0.06772014
4	0x3fa29f3f	1.2704848
5	0x3d3e3323	0.046435487
6	0x3ecdd803	0.40203866
7	0x3e127c76	0.1430529
8	0x3ea6b493	0.32559642
9	0x3e77d37a	0.24201766
10	0xbbe92c96	-0.0071159108
11	0x3c05f686	0.008176452
12	0xbe1dd846	-0.15414533
13	0xbed3fe77	-0.4140508
14	0x3ea90460	0.3301115
15	0x3eaebf0d	0.34130135
16	0x3e466baa	0.19377008
17	0x3d4108a5	0.047127385
18	0xbd62a4be	-0.05533289
19	0x3de3e34c	0.11127338
20	0xbe9fbed5	-0.3120028
21	0xbea73d08	-0.3266375
22	0xbd624c75	-0.055248696
23	0xbd24436c	-0.04010336
24	0xbc6c8535	-0.014436056
25	0xbd00caf9	-0.03144357
26	0xbea2f55a	-0.31827813
27	0xbef70bac	-0.48251092
28	0x3f04d653	0.5188953
29	0x3cb6fec7	0.022338284
30	0x3e65a87b	0.22427551
31	0x3d6072f2	0.05479712
32	0xbdbcc44c	-0.09217128
33	0xbf1437bc	-0.57897544
34	0x3f0975e1	0.53695494
35	0xbec6b9dd	-0.38813677
36	0xbef8fd73	-0.48630866
37	0xbef46f60	-0.47741222
38	0x3ec1e8c3	0.37872896
39	0xbd38c928	-0.045113713
40	0x3f2cdbc2	0.67522824
41	0x3d522faf	0.051315006
42	0x3e094ce9	0.13408245
43	0x3c4722d7	0.012154303
44	0x3e3575b0	0.17720675
45	0x3ddc6b47	0.10762649
46	0xbe8b1775	-0.27166334
47	0xbd88d9c5	-0.06682161
48	0x3ded47ba	0.115859464
49	0x3f0a4e4d	0.5402573
50	0xbcbbdc5d	-0.022932226
51	0xbefe000a	-0.49609405
52	0x3da22f34	0.079191595
53	0x3ea2857b	0.31742463
54	0xbd64f463	-0.055897128
55	0xbd80e881	-0.062943466
56	0x3e0265c3	0.12734132
57	0x3d2d3610	0.042287886
58	0xbe3c80af	-0.18408464
59	0xbcc19b25	-0.023633549
60	0x3dc76d2b	0.09737619
61	0xbe3c7dd7	-0.18407379
62	0xbdd0ae99	-0.10189552
63	0x3e25a37c	0.16175646
64	0x3e3cf19c	0.18451542
65	0x3c25ca1d	0.010118988
66	0x3ec82595	0.39091173
67	0xbde8726b	-0.113499485
68	0x3f83d265	1.0298582
69	0xbec30990	-0.38093233
70	0x3eaf5fc5	0.34252754
71	0xbe979bae	-0.29610962
72	0xbeb11dca	-0.3459304
73	0xbda316a4	-0.07963303
74	0x3caeb8ab	0.02132829
75	0x3dc663cd	0.09687004
76	0xbced39a7	-0.028958155
77	0xbe2d7324	-0.16938454
78	0x3eaf3ce8	0.34226155
79	0xbdfa59cc	-0.12224159
80	0xbcc43d28	-0.023954943
81	0x3ee61df0	0.44944715
82	0x3eb5bf2b	0.35497412
83	0xbec4e728	-0.38457608
84	0x3d917542	0.07102443
85	0x3e3bbd8b	0.18334024
86	0x3d5666c0	0.052344084
87	0xbe62be2c	-0.22142857
88	0xbf1a2402	-0.60211194
89	0x3d78c67c	0.060736164
90	0xbd9c9af1	-0.0764674
91	0x3d711b24	0.058863774
92	0x3e12617a	0.14294997
93	0x3e2699f8	0.16269672
94	0x3e7fa9d0	0.24967122
95	0x3e1d3c52	0.15355042
96	0x3f25c814	0.6475842
97	0x3d04e0a2	0.03244079
98	0x3ec8bfad	0.39208737
99	0xbc020887	-0.007936603
100	0xbe85fbb8	-0.2616861
101	0x3d914eb6	0.07095091
102	0x3d4f13b0	0.050555885
103	0x3eaa8596	0.33305043
104	0x3f31d3cc	0.694638
105	0xbebda2bc	-0.3703822
106	0x3e0a517a	0.13507643
107	0xbe9ad760	-0.30242443
108	0x3e3840b4	0.17993432
109	0x3d570d9d	0.052503217
110	0x3e3909a4	0.18070084
111	0x3ca82946	0.020527493
112	0xbf0d06cb	-0.5508849
113	0xbf0e52d4	-0.55595136
114	0x3df3b721	0.119001634
115	0xbe06e1b7	-0.13172041
116	0x3f1367f8	0.5758052
117	0x3edc0db7	0.42979214
118	0xbc1998cb	-0.009374808
119	0xbd664922	-0.05622209
120	0x3f17b746	0.5926403
121	0xbeb1c459	-0.34720114
122	0x3e8062c2	0.25075346
123	0x3ce20ea6	0.027594876
124	0xbe5b934e	-0.21442911
125	0xbe1e551c	-0.15462154
126	0x3d88214d	0.066469766
127	0x3d4aa208	0.04947093
128	0x3f00f146	0.50368154
129	0xbed5084d	-0.41607895
130	0x3e1f35aa	0.15547815
131	0xbf18572c	-0.59508014
132	0xbe3d6af0	-0.18497825
133	0xbd69be5c	-0.057066306
134	0x3cbace5c	0.022803478
135	0xbbc08c6a	-0.0058761137
136	0xbe073aaa	-0.13205972
137	0x3eebb234	0.46034396
138	0xbebdc129	-0.37061432
139	0xbee1aa9c	-0.44075477
140	0xbefde1c3	-0.49586305
141	0x3ed3fbf1	0.41403154
142	0xbc3f54c7	-0.011677927
143	0xbe9084cd	-0.2822632
144	0xbc9a785e	-0.018856224
145	0x3e48c4f5	0.19606383
146	0x3cccee11	0.025015863
147	0x3e77340b	0.24140947
148	0x3ef0b3bd	0.4701213
149	0xbe890ab4	-0.26765978
150	0xbe8a6ee0	-0.27037716
151	0x3e2c54db	0.16829245
152	0x3f3d9223	0.7405111
153	0xbdaf554a	-0.085611895
154	0x3e958e6f	0.2921023
155	0xbe5b4813	-0.21414213
156	0xbe4c36e3	-0.19942813
157	0x3c7bf79b	0.015378858
158	0x3c4954bb	0.012288268
159	0x3d869c43	0.06572773
160	0xbf0a585a	-0.54041064
161	0x3ec9e6b3	0.39433822
162	0xbe11ccc2	-0.14238265
163	0x3e575567	0.21028672
164	0x3ee33877	0.44379017
165	0x3e22c145	0.15894039
166	0xbe47b511	-0.19502665
167	0xbeab0f95	-0.33410326
168	0xbdd3f78d	-0.10349951
169	0x3ef8ea06	0.48616046
170	0x3d31e7bb	0.043433886
171	0x3c737bfb	0.014861102
172	0x3f040166	0.51564634
173	0xbe9beaa3	-0.3045245
174	0x3e7bcb58	0.24589288
175	0x3e97cb26	0.29647177
176	0x3e711548	0.23543274
177	0x3e6d8c37	0.23198019
178	0x3e013e0f	0.1262133
179	0xbea11925	-0.31464496
180	0x3e6f41a1	0.23364879
181	0xbeaf1c49	-0.34201267
182	0xbbdf68f6	-0.0068179322
183	0x3e3aafaa	0.18231073
184	0x3e7c5664	0.2464233
185	0xbf0a09a5	-0.53920966
186	0xbce576fd	-0.02801084
187	0xbeaef716	-0.34172887
188	0xbad67306	-0.0016361184
189	0x3e434c17	0.19071995
190	0xbd9540ad	-0.072877266
191	0xbe684535	-0.2268265
192	0xbe108205	-0.14112099
193	0x3ede8bdd	0.43466082
194	0xbe5421ae	-0.20715973
195	0xbed31f93	-0.41235027
196	0x3f257164	0.64626145
197	0xbd39d203	-0.0453663
198	0xbe5448ef	-0.20730947
199	0x3e5642eb	0.20923965
200	0x3a6dced8	0.00090716546
201	0x3f180bd5	0.59393054
202	0x3deacd52	0.11464943
203	0xbe40f881	-0.18844797
204	0x3ed7e6e6	0.4216835
205	0x3e2f016e	0.17090389
206	0xbe434779	-0.19070233
207	0xbe56c01c	-0.20971721
208	0xbdfc2996	-0.123126194
209	0x3ed8fc3a	0.42379934
210	0xbec11e5d	-0.37718478
211	0xbeb5d79c	-0.3551606
212	0xbed5b6ba	-0.41740972
213	0x3d68ee23	0.05686773
214	0xba92ea21	-0.0011208692
215	0xbe5fc149	-0.21851076
216	0x3e713583	0.2355557
217	0xbeb9e394	-0.3630644
218	0xbeebecda	-0.4607914
219	0xbd53131c	-0.051531896
220	0xbe2ad868	-0.16684115
221	0xbd98f33a	-0.07468267
222	0x3e1e6992	0.1546996
223	0xbbf1e038	-0.0073814653
224	0xbcfa3b68	-0.030545905
225	0xbe1f3321	-0.15546848
226	0xbd65449a	-0.055973627
227	0xbe782c92	-0.24235752
228	0x3ea743a6	0.326688
229	0x3edb2f4e	0.42809528
230	0xbe75683e	-0.23965546
231	0xbe6d12f8	-0.23151767
232	0xbeb49764	-0.35271752
233	0xbedf1861	-0.43573287
234	0xbe7df493	-0.24800329
235	0xbdd97b5e	-0.106192335
236	0x3edde0e8	0.43335652
237	0x3ebea763	0.3723708
238	0xbe5aeb9a	-0.21378937
239	0x3eb9c018	0.36279368
240	0xbd42d3a3	-0.047565114
241	0x3f262322	0.6489736
242	0xbda16614	-0.07880798
243	0x3d942d57	0.072352104
244	0xbe8d05af	-0.275434
245	0x3d98ba15	0.07457367
246	0xbc6610f9	-0.0140421325
247	0xbeeb01c3	-0.45899782
248	0x3e8134d2	0.2523561
249	0xbeb7bad8	-0.35884738
250	0x3da84e0f	0.082180135
251	0x3e34a4ab	0.17640941
252	0xbf0ecba0	-0.5577946
253	0xbeeb9fbe	-0.4602031
254	0xbea56089	-0.32300213
255	0xbeac9adc	-0.33711898

fc1.bias f4 [256]
0	0xbc9209dd	-0.017826969
1	0x3da48a45	0.08034185
2	0x3e88bcd7	0.26706573
3	0xbc4017ff	-0.011724471
4	0x3e22a41a	0.15882912
5	0x3d02a7b5	0.03189822
6	0x3debd987	0.115160994
7	0x3e9ac48c	0.30228078
8	0xbd4b04f8	-0.049565285
9	0x3ea271cb	0.31727442
10	0x3e9c1c44	0.30490315
11	0xbc91ee4d	-0.017813826
12	0xbd81eb19	-0.063436694
13	0xbd66ba07	-0.056329753
14	0xbe7139c6	-0.23557195
15	0xbe373200	-0.17890167
16	0xbe4e9991	-0.20175768
17	0x3e960a89	0.29304913
18	0x3ef10e19	0.47081068
19	0xbe15904e	-0.14605829
20	0x3dd30627	0.10303908
21	0x3e77095c	0.24124664
22	0x3eafb8c6	0.34320658
23	0xbda31af4	-0.07964125
24	0x3dee8304	0.11646083
25	0xbd324168	-0.043519408
26	0x3e9b8ea0	0.30382252
27	0x3e5e41fa	0.21704856
28	0x3ea6685a	0.3250149
29	0x3e3bd5da	0.18343297
30	0x3eacb064	0.33728325
31	0x3e9ca411	0.30593923
32	0xbad8e0f7	-0.0016546537
33	0x3e7d0a58	0.24710977
34	0x3ea248be	0.31696123
35	0xbe8e975b	-0.2784985
36	0x3ba7dd52	0.005122819
37	0x3ce5f9b8	0.028073177
38	0x3e00e7b1	0.12588383
39	0x3e0061f2	0.12537363
40	0xbcc6c2f9	-0.024262892
41	0x3e9060ab	0.28198752
42	0x3e98fb9a	0.29879457
43	0x3e8d60a8	0.27612805
44	0x3eaae47d	0.33377448
45	0x3b6a9f90	0.0035800673
46	0xbdcc5bf8	-0.09978479
47	0x3dab2d4d	0.0835825
48	0x3e1395ef	0.14412664
49	0xbe193ae9	-0.14963879
50	0x3e01d1e1	0.12677719
51	0x3e01b567	0.12666856
52	0x3eadccf6	0.33945435
53	0x3e8a0957	0.2696025
54	0x3e849507	0.2589495
55	0x3e9532c3	0.2914029
56	0xbd8eb2d2	-0.06967701
57	0x3d9d4fc7	0.07681232
58	0x3d98e654	0.074658066
59	0x3eb06254	0.34450018
60	0xbb4c10ed	-0.0031138018
61	0x3d26d245	0.040727872
62	0x3ea33265	0.31874385
63	0x3ec4025f	0.3828306
64	0x3ecb3914	0.39691985
65	0x3e99221f	0.29908845
66	0xbdcdf9b2	-0.10057391
67	0x3e077064	0.13226467
68	0x3e391d95	0.18077691
69	0x3e67242d	0.22572394
70	0xbd6e2a96	-0.058146082
71	0xbe0b1807	-0.13583384
72	0x3e4f4363	0.2024055
73	0xbca4b33b	-0.020104995
74	0x3c3a8d96	0.011386296
75	0x3e969af1	0.29415086
76	0xbcb3e593	-0.021960055
77	0x3e89cc92	0.26913887
78	0x3eb88766	0.360408
79	0x3c37fe71	0.011230097
80	0xbe74271d	-0.23843046
81	0xbeb95612	-0.3619848
82	0xbe652882	-0.22378734
83	0x3dd8488c	0.10560712
84	0x3d813c35	0.06310312
85	0xbbf9cb6d	-0.007623127
86	0xbe155bfc	-0.1458587
87	0xbe0a5fed	-0.13513155
88	0x3e9f93cc	0.31167448
89	0x3e45df76	0.19323525
90	0xbc8a1578	-0.01685594
91	0xbe02d838	-0.12777793
92	0xbd156a49	-0.036478315
93	0x3ddb0515	0.10694329
94	0x3ebda838	0.37042403
95	0x3e3dbbe4	0.18528706
96	0x3ee14175	0.43995252
97	0x3e66939c	0.22517246
98	0xbe95131f	-0.2911615
99	0xbd8a7974	-0.067614466
100	0x3e3ca875	0.18423636
101	0xbe3d2425	-0.1847082
102	0xbd69195f	-0.05690896
103	0xbc1c419b	-0.009537126
104	0xbdcee71b	-0.101026736
105	0xbe7d928a	-0.24762931
106	0x3ecac2dd	0.39601794
107	0x3ea88565	0.32914272
108	0x3d8bb65b	0.06821891
109	0x3d3a0e19	0.0454236
110	0x3e8ebc53	0.27878055
111	0x3de4e8ee	0.1117724
112	0xbe02449e	-0.12721488
113	0x3e1ccd6d	0.15312739
114	0xbdeb58b8	-0.11491531
115	0x3e6ecf50	0.23321271
116	0xbe8ab756	-0.27093
117	0x3e960d9e	0.29307264
118	0xbd7b122f	-0.061296638
119	0xbeaef005	-0.34167495
120	0x3e35c44d	0.17750664
121	0x3e235751	0.15951277
122	0x3e9c5636	0.30534524
123	0x3d1e3c1e	0.03863155
124	0x3f0285ef	0.50985616
125	0x3e9a99c2	0.30195433
126	0xbc42b1da	-0.011883223
127	0x3d948256	0.07251422
128	0xbdebd295	-0.11514775
129	0xbe08d652	-0.13363007
130	0xbde2a98f	-0.11067497
131	0xbd312efb	-0.043257695
132	0x3dabf651	0.083965905
133	0x3e728986	0.23685274
134	0x3e2f709c	0.17132801
135	0x3eaf71a9	0.34266403
136	0x3ecc3de7	0.39890978
137	0xbcb73efb	-0.022368899
138	0xbe8c35dd	-0.27384844
139	0x3dee4564	0.11634329
140	0x3ea0c6f9	0.31401804
141	0x3ece651a	0.4031151
142	0xbddb80fc	-0.10717961
143	0xbc978761	-0.01849717
144	0x3e65a4cf	0.2242615
145	0x3ed8ac13	0.42318782
146	0x3e982f00	0.29723358
147	0x3e21ea46	0.15812024
148	0xbe671e62	-0.22570184
149	0x3d8de68d	0.0692874
150	0xbd9d56f6	-0.07682602
151	0xbdf10015	-0.11767594
152	0x3dea0a96	0.114278
153	0xbd5dc9ef	-0.054147657
154	0xbe4cb0dd	-0.19989343
155	0x3ec4175d	0.38299075
156	0xbdba1ee4	-0.09087923
157	0x3daf2fe7	0.085540585
158	0x3e8a88cb	0.2705749
159	0x3e8f16e7	0.2794716
160	0xbdc35726	-0.095381066
161	0x3e4a9201	0.19782259
162	0x3c1553b0	0.009114191
163	0x3e1abb60	0.1511054
164	0x3d8e8a06	0.0695992
165	0xbe2ea614	-0.17055541
166	0xbdea0ad3	-0.11427846
167	0xbd99320e	-0.0748025
168	0xbcb19598	-0.021677777
169	0x3e19a70f	0.15005134
170	0x3d8ac3d1	0.0677563
171	0xbe38ad5f	-0.18034886
172	0x3e7ebb44	0.24876124
173	0x3d736c86	0.059429668
174	0x3ece4fa3	0.40295133
175	0xbee69d77	-0.4504201
176	0x3da48e4b	0.08034953
177	0x3e006130	0.12537074
178	0xbdd1fd1a	-0.102533534
179	0xbde3e943	-0.111284755
180	0x3dc53df6	0.09630959
181	0xbcb2d224	-0.021828718
182	0x3e056976	0.13028511
183	0x3dcf034e	0.10108052
184	0xbc5b977a	-0.013402814
185	0x3e16b2bd	0.1471662
186	0xbd75836b	-0.059939783
187	0xbe19e2ab	-0.15027873
188	0x3e2a5280	0.16633034
189	0xbe29bc16	-0.16575655
190	0x3ea21866	0.3165924
191	0x3eba0e51	0.36339048
192	0x3e8d2e44	0.2757436
193	0xbe476940	-0.19473743
194	0xbe25b3ce	-0.16181871
195	0xbdd29842	-0.10282947
196	0x3d33f61d	0.043935884
197	0x3e288693	0.16457586
198	0x3e1ce102	0.15320209
199	0x3ef993e1	0.48745635
200	0xbdfec5b8	-0.124400556
201	0x3a7979ff	0.0009516775
202	0x3dba8f06	0.09109311
203	0x3e6fd736	0.2342194
204	0xbcafd904	-0.021465786
205	0x3bf5b009	0.0074977917
206	0x3ea08ca6	0.31357306
207	0x3eb7de0e	0.35911602
208	0x3d06b566	0.03288784
209	0x3d0a68bf	0.0337913
210	0x3ea8a632	0.32939297
211	0xbe392b83	-0.18083005
212	0x3eb00742	0.34380537
213	0xbe77ad96	-0.24187312
214	0xbe2ded5a	-0.16985074
215	0x3dff0b62	0.12453343
216	0x3b0c7ab7	0.0021435448
217	0x3e9eeb64	0.31038964
218	0xbc7ae2b9	-0.015312844
219	0xbe0aaa92	-0.1354163
220	0x3e3b4ed9	0.18291797
221	0xbe397a36	-0.18113026
222	0x3e549875	0.20761283
223	0xbdf0e770	-0.11762893
224	0x3e846a60	0.25862408
225	0xbe31f923	-0.17380194
226	0xbd773f7a	-0.06036327
227	0x3d40c45b	0.04706226
228	0xbd017d92	-0.031613894
229	0x3b995f69	0.004680563
230	0x3e7adc16	0.24498019
231	0xbe2b64b5	-0.16737635
232	0xbc2c1b97	-0.010504625
233	0x3e892100	0.2678299
234	0x3eb402bb	0.35158333
235	0x3ea15676	0.31511277
236	0x3ea99f39	0.3312929
237	0xbe0bf2e8	-0.1366688
238	0x3e7a8fcb	0.24468915
239	0x3eda008e	0.42578548
240	0xbe54af00	-0.20769882
241	0x3e641f27	0.22277509
242	0x3d02d322	0.031939633
243	0x3eb98422	0.36233622
244	0xbe9a2f66	-0.30114287
245	0x3d4f8dc2	0.0506723
246	0x3e5a5e6c	0.21325082
247	0x3ee2e96c	0.44318712
248	0x3c985e2a	0.018599588
249	0x3e57f070	0.21087813
250	0xbd9b43e0	-0.075813055
251	0xbe04ab86	-0.12956056
252	0x3be56e6c	0.0070016887
253	0x3ed5835a	0.41701776
254	0x3ee2501a	0.44201738
255	0x3e5a6da7	0.21330892

fc2.weight f4 [256, 256]
0	0x3ea707a1	0.32623008
1	0xbd75a853	-0.05997498
2	0x3c342101	0.010994197
3	0x3e4de8d2	0.20108345
4	0x3d625e1e	0.05526554
5	0xbea4f5bc	-0.3221873
6	0x3c19d4fd	0.009389159
7	0x3d2869bc	0.04111646
8	0x3e8f2f82	0.27965933
9	0x3d2f0c64	0.042736426
10	0x3c448d0a	0.011996517
11	0xbe18e5c6	-0.14931402
12	0xbe192daf	-0.14958833
13	0xbe948985	-0.2901117
14	0xbdcf6760	-0.10127139
15	0xbe21d433	-0.15803604
16	0xbeb3784c	-0.35052717
17	0x3e0c0777	0.13674723
18	0x3de5ca76	0.11220257
19	0xbe3e3c7e	-0.18577763
20	0xbdc30219	-0.095218845
21	0x3d12a7aa	0.03580443
22	0x3debcd34	0.11513749
23	0xbea03876	-0.31293076
24	0x3cf13628	0.029444769
25	0x3e30c262	0.17261651
26	0x3da6a83f	0.08137559
27	0x3cde3b01	0.027127745
28	0xbd6fe395	-0.05856665
29	0x3e07472e	0.13210747
30	0x3ddde698	0.10834998
31	0x3d06ba1f	0.032892343
32	0x3d62ca4b	0.055368703
33	0x3d90c358	0.07068509
34	0x3dc834c4	0.09775689
35	0xbdb374c1	-0.087625034
36	0x3e74f828	0.23922789
37	0x3da0250a	0.07819565
38	0xbe28afd5	-0.16473325
39	0xbbc1ec95	-0.0059180954
40	0xbb962f8a	-0.004583304
41	0x3d2623a6	0.04056134
42	0x3da46d2f	0.080286376
43	0xbb5d24b5	-0.0033743803
44	0x3d9adb9a	0.07561417
45	0xbe8dd5be	-0.27702135
46	0xbe13af33	-0.14422302
47	0xbdabb716	-0.0838453
48	0x3dd21d5c	0.10259506
49	0x3ccc8432	0.02496538
50	0xbdabdbeb	-0.083915554
51	0xbde96323	-0.11395862
52	0x3dfd0cf0	0.12355983
53	0x3c8248b3	0.015903806
54	0x38785fb9	5.9216956e-05
55	0x3dcbade2	0.09945275
56	0xbe066805	-0.13125618
57	0x3e0a677d	0.1351604
58	0x3dc380d4	0.095460564
59	0x3e228e0b	0.15874498
60	0x3e1e3f88	0.15453923
61	0xbd693b6c	-0.056941435
62	0x3d8aaf85	0.06771759
63	0x3df97d33	0.12182083
64	0xbc7a2b82	-0.015269162
65	0x3dccc586	0.09998612
66	0xbe5a4cae	-0.21318313
67	0x3d6c6e22	0.05772222
68	0xbcdce5d3	-0.026965057
69	0xbc4fa0a8	-0.012672581
70	0x3f06f9d5	0.52724963
71	0xbdee1bba	-0.11626382
72	0x3e3f6dff	0.18694304
73	0x3e8d004d	0.27539292
74	0x3f750d6e	0.9572362
75	0x3d3c8870	0.046028554
76	0xbe5459ac	-0.20737332
77	0x3cfe96f9	0.031077849
78	0xbd753e49	-0.059873853
79	0xbd32f8ac	-0.043694183
80	0xbc068c32	-0.008212136
81	0xbc593bdd	-0.013258901
82	0xbdd2568f	-0.10270416
83	0xbbdd8943	-0.0067607476
84	0x3e438718	0.19094503
85	0x3dfe3a77	0.12413495
86	0xbd5c7e7d	-0.053831566
87	0xbc8dea42	-0.017323617
88	0x3dc53ae3	0.096303724
89	0x3dddba1c	0.10826513
90	0x3deaff9c	0.11474535
91	0x3cd30b7b	0.02576231
92	0x3e17b639	0.14815606
93	0xbd451ef5	-0.048125226
94	0x3df12b99	0.11775894
95	0x3d80c8b5	0.06288282
96	0x3d87da63	0.06633451
97	0x3d12a4be	0.03580164
98	0xbbb5bfd0	-0.0055465475
99	0x3d32ca70	0.04365009
100	0x3ea68d1c	0.32529533
101	0x3e66b896	0.22531351
102	0xbe29908e	-0.1655905
103	0x3bddf2e1	0.006773338
104	0x3e7a3517	0.24434315
105	0xbd20a0cb	-0.039215844
106	0x3dae7419	0.085182376
107	0x3d9784b4	0.07398358
108	0x3d82d79d	0.06388781
109	0x3e22c439	0.15895166
110	0x3e04deb5	0.12975581
111	0xbe5cc2a6	-0.21558627
112	0xbed35283	-0.4127389
113	0x3d940051	0.07226623
114	0x3de488f6	0.11158936
115	0x3cc8358a	0.024439592
116	0x3c05a3f3	0.008156764
117	0x3e42087e	0.18948552
118	0x3ed0eef5	0.4080731
119	0xbe653f44	-0.22387415
120	0x3c578452	0.013154106
121	0x3d9d8346	0.07691054
122	0x3e8f3b0e	0.27974743
123	0x3c5a47b5	0.01332276
124	0x3de3cc23	0.1112292
125	0x3d156448	0.03647259
126	0xbd61a2f4	-0.055087045
127	0xbe0690e6	-0.13141212
128	0xbe036428	-0.12831175
129	0xbf0670b0	-0.525157
130	0x3eaa5e83	0.33275232
131	0x3f064561	0.52449614
132	0xbd224d60	-0.03962457
133	0x3d1e5215	0.0386525
134	0x3e36fed6	0.1787065
135	0x3cca5c4e	0.024702217
136	0x3cfdfa1a	0.031003047
137	0x3e644dd3	0.22295313
138	0x3e838b82	0.25692374
139	0x3dac67ac	0.08418211
140	0x3dd1399c	0.10216066
141	0x3de682aa	0.11255391
142	0xbd82f710	-0.0639478
143	0x3ee1c963	0.44098958
144	0x3df947c2	0.1217189
145	0x3e2f934b	0.17146032
146	0x3d957ac6	0.07298808
147	0xbe537fc1	-0.20654203
148	0x3e27c235	0.16382678
149	0x3d039bf9	0.03213117
150	0xbe0980e5	-0.13428076
151	0x3f1615c5	0.5862697
152	0xbe22a4c8	-0.15883172
153	0x3dab6aed	0.08370004
154	0xbf8d2ac2	-1.1028674
155	0x3d1f419f	0.03888094
156	0xbbd4f574	-0.006498987
157	0x3cabfb1b	0.02099376
158	0x3d9d7853	0.07688966
159	0x3e290402	0.16505435
160	0x3dcdc97a	0.10048194
161	0x3d4cd928	0.050011784
162	0xbdc1e802	-0.0946808
163	0x3e801224	0.2501384
164	0x3e030403	0.12794499
165	0xbc16bbbb	-0.009200032
166	0xbdb2419b	-0.087039195
167	0xbe82c651	-0.25541928
168	0xbd148a4a	-0.036264695
169	0xbdd56836	-0.10420267
170	0x3d5439bb	0.05181287
171	0xbefdcdc7	-0.49571058
172	0x3de626c5	0.112378635
173	0xbd2376c0	-0.03990817
174	0x3d79cbd6	0.06098541
175	0x3ed2c02f	0.4116225
176	0x3d6b642f	0.05746859
177	0x3db1a016	0.08673112
178	0xbe9f2d74	-0.31089365
179	0x3e98c2d8	0.29836154
180	0x3e3213b9	0.17390336
181	0xbde6be6c	-0.11266789
182	0x3d615472	0.055012174
183	0xbddbd527	-0.10734015
184	0x3de90ebd	0.11379764
185	0xbddd0032	-0.10791053
186	0xbe0c6a0d	-0.1371233
187	0x3e81bde5	0.2534019
188	0xbe29bd8d	-0.16576214
189	0xbe21205e	-0.15735003
190	0x3dabcda0	0.08388829
191	0x3d480727	0.048834946
192	0x3d67363c	0.056448206
193	0xbf707e57	-0.9394278
194	0xbcb90ce9	-0.022589164
195	0xbe869789	-0.26287487
196	0xbe1750ab	-0.14776866
197	0xbd68eff7	-0.056869473
198	0xbc0ef9b9	-0.008726531
199	0x3dbdbed3	0.092649125
200	0x3c8e409e	0.017364796
201	0xbd9dd337	-0.07706302
202	0xbd616a9c	-0.05503331
203	0x3d37cd7a	0.044873692
204	0x3e525eb2	0.20543936
205	0x3e1bf86a	0.15231481
206	0x3e286645	0.16445263
207	0x3da6f5bf	0.08152341
208	0xbda802d2	-0.08203663
209	0xbd2673ab	-0.040637653
210	0x3dbb49e7	0.09144955
211	0xbea76330	-0.32692862
212	0xbdef66d1	-0.116895325
213	0xbcc462bd	-0.023972863
214	0x3e9f27aa	0.3108495
215	0x3daa40c3	0.083131336
216	0x3e2f1f8c	0.17101878
217	0x3e0b3c65	0.13597257
218	0x3e9e3693	0.30901012
219	0xbeb8247f	-0.35965344
220	0x3d3096f2	0.043112703
221	0xbf4e509d	-0.80591756
222	0xbd5b70e9	-0.053574476
223	0x3e8e3d2d	0.27781048
224	0x3db9f341	0.090796
225	0x3e91b0f1	0.28455308
226	0x3d84825d	0.06470177
227	0xbc933881	-0.01797128
228	0xbe9fb9bc	-0.31196392
229	0xbdec6d2f	-0.115442626
230	0x3ddce771	0.107863314
231	0x3e80fda9	0.25193527
232	0x3e57662a	0.21035066
233	0x3bcb636a	0.0062069194
234	0x3d99bf31	0.0750717
235	0x3dc0ba62	0.0941055
236	0x3c94e82d	0.018177116
237	0x3d76848f	0.06018501
238	0x3d79d029	0.060989533
239	0x3e16f20e	0.14740774
240	0xbe0c05df	-0.13674115
241	0x3dc468f7	0.09590333
242	0xbddd42ce	-0.108037576
243	0x3d4e7307	0.050402667
244	0xbe11ef46	-0.14251432
245	0x3d2ed087	0.042679336
246	0x3e10ae94	0.14129096
247	0x3d47fcbe	0.048825018
248	0x3e89c7ee	0.26910347
249	0x3ec44dfb	0.38340744
250	0xbc26ac15	-0.0101728635
251	0x3e7395ee	0.23787662
252	0xbe454e79	-0.19268216
253	0x3cf4fc83	0.029905563
254	0x3dc5764e	0.096417055
255	0xbc28eb45	-0.010309999

fc2.bias f4 [256]
0	0x3d377b64	0.04479541
1	0xbb385bec	-0.0028130962
2	0xbdca0713	-0.098646306
3	0x3c3e0e01	0.0116000185
4	0xbcb7006d	-0.02233907
5	0xbdb2c928	-0.08729774
6	0xbda0f138	-0.07858509
7	0x3d706083	0.05868579
8	0xbd3baa9f	-0.045817014
9	0x3d05b9ea	0.032648005
10	0x3aeee9bf	0.0018227621
11	0xbc5b8040	-0.013397276
12	0xbd53620f	-0.051607188
13	0xbc9c0b1e	-0.01904827
14	0xbd12f8f5	-0.035881955
15	0xbd81714f	-0.0632044
16	0xbd6f86c5	-0.058478136
17	0xbd5e8e22	-0.054334767
18	0xbd73d232	-0.05952663
19	0xbbec1873	-0.007205063
20	0xbce6815c	-0.028137855
21	0x3c6a1825	0.014287983
22	0x3d870bf0	0.06594074
23	0xbc9f582c	-0.019451223
24	0xbd46585a	-0.048424102
25	0xbc953e66	-0.01821823
26	0xbda488d2	-0.08033909
27	0x3d29ce66	0.041456603
28	0x3d4cacb7	0.0499694
29	0xbd9a653d	-0.07538841
30	0x3cf0daff	0.0294013
31	0xbd2e4299	-0.04254398
32	0xbc04d3ad	-0.008107108
33	0xbd3eac93	-0.0465513
34	0x3e0856b0	0.13314319
35	0x3c0e141e	0.0086717885
36	0x3d4b1eda	0.04958997
37	0x3c82fa78	0.015988573
38	0xb9fd3c51	-0.0004830086
39	0xbd1ef1c6	-0.038804792
40	0x3e13b4c3	0.14424424
41	0xbcd24b1f	-0.025670586
42	0x3cd8d69e	0.026469525
43	0xbd6836b8	-0.05669281
44	0x3c068337	0.008209995
45	0x3c69836c	0.014252525
46	0x3d27934d	0.04091196
47	0xbd069350	-0.032855332
48	0x3b0649a3	0.0020490668
49	0xbca8c313	-0.020600831
50	0x3d675489	0.056477103
51	0x3e0d8893	0.1382163
52	0x3dd24475	0.102669634
53	0xbc8cbd46	-0.017180096
54	0xbd124082	-0.03570605
55	0x3c5f8022	0.013641389
56	0xbd77a80b	-0.060462993
57	0x3e16dc79	0.14732541
58	0xbdb3de03	-0.0878258
59	0x3c1a2972	0.009409295
60	0xbc30a0e9	-0.0107805515
61	0xbcb78bac	-0.022405468
62	0xbb037cd5	-0.002006342
63	0x3d1d4c43	0.038402807
64	0xbc9365fe	-0.01799297
65	0x3d6150d8	0.05500874
66	0xbd633a37	-0.05547544
67	0x3c262522	0.010140689
68	0xbc8212b8	-0.015878066
69	0x3c837feb	0.016052207
70	0xbc12dd93	-0.00896396
71	0x3d31abd7	0.04337677
72	0xbcecb444	-0.028894551
73	0xbd312887	-0.04325154
74	0xbd4a21cb	-0.049348634
75	0x3de824f9	0.11335177
76	0x3ca918b7	0.020641668
77	0x3d0cbf89	0.03436235
78	0xbd2edf97	-0.0426937
79	0x3d7c775e	0.061637275
80	0x3c37624f	0.011192872
81	0xbc5f99fd	-0.0136475535
82	0x3ca9b023	0.020713871
83	0xbd636e9e	-0.055525415
84	0x3da7070c	0.08155641
85	0xbd1199a0	-0.0355469
86	0x3d36805e	0.044556014
87	0x3b2f580a	0.0026755356
88	0x3d9791b3	0.07400837
89	0x3de9401d	0.11389182
90	0x3d758701	0.059943203
91	0xbd1795b0	-0.037007987
92	0xb9e8ceb0	-0.00044404482
93	0xbd069cd2	-0.0328644
94	0x3d4ffa21	0.05077565
95	0xbb0791a1	-0.0020686167
96	0x3cada665	0.021197507
97	0x3df63ae8	0.12022954
98	0x3ddc3454	0.10752168
99	0x3ba72797	0.005101155
100	0xbd54bfa5	-0.05194058
101	0xbd3d8067	-0.046265032
102	0xbce3f20b	-0.027825376
103	0xbd175628	-0.0369474
104	0x3def072d	0.116712905
105	0x3d794442	0.06085611
106	0xbd082579	-0.03323886
107	0xbd873ef1	-0.06603802
108	0xbd0c41a2	-0.03424228
109	0x3bb4221e	0.005497231
110	0xbb50709a	-0.0031805397
111	0x3c07c058	0.008285604
112	0x3d41385c	0.04717289
113	0x3d7dd2f9	0.061968777
114	0xbd755ff2	-0.059905954
115	0x3d055b93	0.032558035
116	0x3d19cdee	0.037549905
117	0xbd37954f	-0.044820126
118	0x3d383145	0.044968862
119	0xbd523760	-0.05132234
120	0x3d0e0731	0.034674827
121	0x3d061c6a	0.03274194
122	0x3d9b9118	0.07596034
123	0xbcd84f66	-0.026405048
124	0xbd437edc	-0.047728404
125	0xbd97171b	-0.07377454
126	0x3d81c6f7	0.06336778
127	0xbdc26342	-0.09491588
128	0xbd7c53d2	-0.061603375
129	0x3d499f7f	0.049224373
130	0x3d2496b5	0.040182788
131	0x3c9939a0	0.018704236
132	0xbc8be5c2	-0.01707733
133	0xbba820d6	-0.0051308675
134	0x3d162506	0.036656402
135	0x3cb7c836	0.022434335
136	0xbd4e4fe5	-0.050369162
137	0x3d381a8b	0.04494719
138	0xbd7450f4	-0.059647515
139	0x3d246583	0.04013587
140	0xbd0bf2f6	-0.034167252
141	0xbd252efd	-0.040328015
142	0xbd83b581	-0.064311035
143	0x3da86960	0.08223224
144	0x3dc6b52b	0.09702524
145	0x3d81f7ce	0.06346093
146	0x3c813e20	0.015776694
147	0x3bddddee	0.006770841
148	0xbb844610	-0.0040366724
149	0x3cf7c35a	0.030244518
150	0xbc036668	-0.008020021
151	0x3d5e6404	0.0542946
152	0x3bc1917e	0.0059072366
153	0xbd40a0bd	-0.047028292
154	0x3cc620a2	0.024185482
155	0x3d264bed	0.040599752
156	0x3d896db8	0.0671038
157	0xbd5aebbb	-0.053447466
158	0x3d7d6d41	0.06187177
159	0xbceb10ad	-0.028694475
160	0x3dd3fc6a	0.103508785
161	0x3d67ac86	0.056561016
162	0x3d5d6c61	0.054058436
163	0x3d82b825	0.06382779
164	0xbd082936	-0.033242427
165	0x3cd9d8e9	0.026592689
166	0x3e03310b	0.12811677
167	0x3d83b4fb	0.06431004
168	0x3c89f589	0.016840713
169	0x3c3f81d3	0.011688667
170	0xbc3a631b	-0.011376168
171	0xbd6ac596	-0.05731734
172	0x3ce5ef15	0.028068105
173	0xbad54f3f	-0.0016274228
174	0x3d434df4	0.047681764
175	0xbdaa5b79	-0.08318228
176	0x3c9ad5b7	0.018900735
177	0x3d0dce9f	0.034620877
178	0xbb10a372	-0.0022070077
179	0xbd37401d	-0.044738878
180	0x3d1ef82d	0.038810898
181	0x3a61a6f0	0.00086079445
182	0xbd9180ff	-0.07104682
183	0xbc9831f8	-0.018578514
184	0x3df81424	0.121132165
185	0x3c0db4bc	0.008649047
186	0x3deb6b63	0.11495092
187	0xbbffaf22	-0.00780286
188	0x3cac7c6b	0.02105542
189	0xbdc6faaf	-0.09715783
190	0x3db5c6b1	0.08875788
191	0x3d334477	0.043766465
192	0xbc683c02	-0.014174463
193	0x3cfac342	0.030610684
194	0x3d1ed585	0.038777847
195	0x3d353bec	0.0442466
196	0xbd89304c	-0.06698665
197	0x3c2aa2b6	0.01041477
198	0x3d30cdb8	0.04316494
199	0x3d66fc36	0.05639287
200	0x3d1f6d45	0.038922567
201	0xbd37fb22	-0.044917233
202	0x3ce21f69	0.027602868
203	0x3c615fc9	0.013755747
204	0xbc2f83c5	-0.010712569
205	0xbd932078	-0.07183927
206	0xbd10dd7e	-0.03536748
207	0xbccfa9d3	-0.025349533
208	0xbd2ef359	-0.042712543
209	0x3d724543	0.059148084
210	0x3a8b6cfe	0.0010637341
211	0xbd1eac4b	-0.03873853
212	0x3dd66671	0.10468758
213	0xbd37d585	-0.044881362
214	0xbca566c8	-0.020190611
215	0xbc916230	-0.017747015
216	0x3d5b1216	0.053484045
217	0xbcdd89f1	-0.027043315
218	0x3d80db75	0.06291858
219	0x3c060865	0.008180712
220	0x3e18673b	0.1488313
221	0xbc638aa5	-0.013888036
222	0xbd3d0e02	-0.046155937
223	0xbd0ae0d0	-0.033905804
224	0x3cf0ceac	0.029395424
225	0xbc13dd7b	-0.009024973
226	0xbc34d3df	-0.011036842
227	0xbd8e8268	-0.06958467
228	0xbc5e9132	-0.013584422
229	0xbb5f6d5d	-0.0034092285
230	0x3c627df3	0.013823974
231	0xbda51f2d	-0.08062587
232	0x3ce18c4c	0.02753272
233	0x3be50627	0.006989259
234	0x3b7fde2e	0.0039042342
235	0x3dcfb258	0.10141438
236	0x3d38bdfc	0.04510306
237	0x3da10e2c	0.07864031
238	0xb991bfbe	-0.00027799414
239	0xbb1c297c	-0.0023828438
240	0x3e049b6f	0.12949918
241	0x3dee6aac	0.1164144
242	0x3b58bcef	0.0033071598
243	0x3c8a5123	0.016884392
244	0xbbab0f2b	-0.005220314
245	0x3ca78841	0.020450713
246	0x3cd82ddc	0.026389055
247	0x3d58d803	0.05294038
248	0xbcb7325a	-0.022362877
249	0xbc8fc7cc	-0.017551325
250	0x3e093e59	0.1340269
251	0x3c5d4e8a	0.013507495
252	0xbcb96670	-0.022631854
253	0xbd2e45fd	-0.042547215
254	0xbd24e884	-0.040260807
255	0xbc09b368	-0.00840459

mean.weight f4 [2, 256]
0	0xbd3f92ea	-0.046770968
1	0xbc9dba76	-0.01925395
2	0x3d71ed3f	0.059064146
3	0xbd0bbb8c	-0.034114406
4	0xbd05f656	-0.032705627
5	0xbcdfd8c2	-0.027325038
6	0xbbe83bde	-0.007087215
7	0x3ca8c5be	0.020602103
8	0x3d4fbad7	0.050715294
9	0xbd455bb2	-0.04818315
10	0x3d6f92b9	0.058489535
11	0xbb8336f3	-0.004004353
12	0xbb1ffd41	-0.0024412426
13	0xbd573a54	-0.05254586
14	0xbd628c58	-0.055309623
15	0xbd53b9fd	-0.051691044
16	0x3d8a9eea	0.06768592
17	0xbbc9136d	-0.006136349
18	0x3c231888	0.009954579
19	0x3d645df9	0.05575368
20	0x3d25a0bc	0.04043649
21	0x3c01a483	0.007912758
22	0xbd389cde	-0.045071475
23	0xbcaa7e2a	-0.020812113
24	0xbd681561	-0.056661014
25	0xbcce314f	-0.025169997
26	0xbd5e1240	-0.054216623
27	0x3d78738c	0.06065707
28	0xbe148a59	-0.145059
29	0x3d0fc68e	0.035101466
30	0xb9b4c5cc	-0.00034479646
31	0xbd18e883	-0.037331115
32	0xbd915f73	-0.070982836
33	0x3d15dabd	0.03658556
34	0x3d4a23fa	0.049350716
35	0x3d806f03	0.06271174
36	0xbccf4fbc	-0.025306575
37	0x3d918ba5	0.07106713
38	0x3d47cdde	0.048780315
39	0x3c979962	0.018505756
40	0xbe19fb0b	-0.15037172
41	0x3c1a64e6	0.00942347
42	0x3bd7b28f	0.006582565
43	0xbd779fe7	-0.06045523
44	0xbca0aa28	-0.019612387
45	0xbc9cdd23	-0.019148415
46	0x3bcb387a	0.006201801
47	0xbb5906db	-0.0033115658
48	0xbcea375c	-0.02859085
49	0x3d7490a9	0.05970827
50	0x3ce6fb12	0.028195892
51	0xbcee1b23	-0.029065674
52	0xbd9a8100	-0.07544136
53	0xbd32a869	-0.04361764
54	0xbc9bd1fe	-0.01902103
55	0x3ddcad2e	0.10775219
56	0x3bc8dd15	0.0061298707
57	0x3d336778	0.043799847
58	0x3d14e0f7	0.036347356
59	0x3d80b61e	0.06284736
60	0xbc95d4f6	-0.018290024
61	0x3c4ae4dc	0.012383666
62	0xbdb758d7	-0.08952492
63	0x3d81f1b8	0.06344932
64	0xbd1ffe4f	-0.039060887
65	0x3c1d2bf3	0.009592998
66	0x3d08758d	0.03331523
67	0x3be2484e	0.006905592
68	0x3dccfebf	0.100095265
69	0x3e314bb1	0.1731403
70	0xbd2e1a25	-0.042505402
71	0x3d1b396b	0.037896555
72	0x3d800536	0.06250994
73	0xbd875812	-0.06608595
74	0xbd2de017	-0.042450037
75	0xbd792121	-0.06082261
76	0x3da3f3ff	0.08005523
77	0xbd2169d4	-0.039407566
78	0x3dc60d01	0.09670449
79	0xbd2129d6	-0.03934654
80	0xbcabee70	-0.02098772
81	0x3d276075	0.040863473
82	0x3cc21d72	0.023695681
83	0xbd4c5da1	-0.04989398
84	0x3e18d5f6	0.1492537
85	0xbbfc432c	-0.007698437
86	0x3dfd9249	0.12381417
87	0x3d2befcf	0.041976746
88	0x3bafdb93	0.0053667515
89	0xbbab41fc	-0.005226372
90	0x3ba4afa8	0.0050258227
91	0x3d3bd98d	0.04586177
92	0xbcf29db5	-0.029616216
93	0xbd7f548c	-0.06233649
94	0x3c81a0c1	0.015823724
95	0xbd63d796	-0.05562552
96	0xbd2c45db	-0.042058807
97	0x3bf3c757	0.0074395346
98	0xbda93be7	-0.082633786
99	0xbd285c53	-0.041103672
100	0xbc854c7f	-0.016271828
101	0xbd2af2b2	-0.04173536
102	0x3d3a7fad	0.045531917
103	0xbd860a2d	-0.065449096
104	0x3cb55adf	0.022138057
105	0x3d9d271e	0.07673477
106	0xbdb5f7b4	-0.08885136
107	0x3e06c00d	0.13159199
108	0xbd8098fd	-0.0627918
109	0x3d20d712	0.039267607
110	0xbc60c444	-0.013718668
111	0x3c61f0a9	0.013790288
112	0xbd435966	-0.04769268
113	0x3cc65500	0.024210453
114	0xbc9ca9c8	-0.019123927
115	0x3c6caa6a	0.014444927
116	0xbb704cb4	-0.0036666812
117	0xbdbad13d	-0.0912194
118	0xbd2a139c	-0.041522607
119	0x3d24e7d5	0.040260155
120	0xbd09d3f8	-0.033649415
121	0x3d44e9a4	0.04807438
122	0xbc8f7325	-0.01751096
123	0x3d3e1f36	0.046416484
124	0x3d4199f9	0.04726598
125	0xbd9eea40	-0.077595234
126	0x3df7e213	0.12103667
127	0x3d865626	0.065594
128	0x3d6ebd57	0.058286037
129	0x3c5154af	0.012776538
130	0xbd218827	-0.039436486
131	0x3c0e7398	0.008694552
132	0x3cdc67dd	0.026904995
133	0x3d82229c	0.063542575
134	0xbcbb2951	-0.02284685
135	0x3d9d3637	0.07676356
136	0xbdc7aee3	-0.09750154
137	0xbd4509b2	-0.04810495
138	0x3d3dd388	0.04634431
139	0xbd085423	-0.033283364
140	0x3d05415a	0.032533027
141	0xbe0a1b51	-0.13486983
142	0x3d43a70a	0.047766723
143	0xbd98a174	-0.0745267
144	0xbde2f917	-0.11082666
145	0x3c88f9da	0.016720701
146	0x3d80a649	0.062817164
147	0x3c90e360	0.017686546
148	0xbddc64d0	-0.10761416
149	0x3d59e82b	0.05319993
150	0x3c95a1bb	0.018265596
151	0x3d18d233	0.037309837
152	0xbd311602	-0.04323388
153	0xbd4ca75e	-0.0499643
154	0xbcfa5381	-0.030557396
155	0x3d3782e4	0.04480256
156	0x3c005f13	0.007835167
157	0xbdb3959e	-0.087687716
158	0x3d39d884	0.0453725
159	0xbdecc7ae	-0.115615234
160	0x3d55c497	0.052189436
161	0x3cd2691f	0.025684891
162	0xbd64261b	-0.055700403
163	0xbd7906d4	-0.060797527
164	0x3d48d3f4	0.04903026
165	0xbcc4db8c	-0.02403047
166	0x3d454ff7	0.048171964
167	0xbdfcfab8	-0.12352508
168	0x3d548873	0.05188794
169	0xbd5b2534	-0.053502277
170	0xbccf00a8	-0.025268868
171	0xbd62c688	-0.055365115
172	0x3d8779a7	0.06615
173	0x3b67478e	0.0035290453
174	0x3d3ec883	0.04657794
175	0xbd9b0601	-0.075695045
176	0xbd22d47a	-0.039753415
177	0xbb281659	-0.0025648086
178	0x3d20f955	0.03930028
179	0xbd3f2e31	-0.04667491
180	0x3d192fe1	0.037399177
181	0xbd3ebe85	-0.046568412
182	0xbd795ea5	-0.060881276
183	0xbd13d22f	-0.03608912
184	0x3cb3c05f	0.021942316
185	0x3c85ef64	0.016349502
186	0x3d277c91	0.04089028
187	0xbab2b545	-0.0013634345
188	0x3d22cdf0	0.03974718
189	0x3bbef224	0.0058272053
190	0x3cb87f54	0.022521652
191	0x3d4439c6	0.04790666
192	0xbd862454	-0.06549898
193	0xbca55f9d	-0.020187194
194	0xbca76bbf	-0.02043712
195	0xbc9a9647	-0.018870486
196	0x3d544124	0.051819935
197	0x3d84f48a	0.064919546
198	0x3e51189f	0.20419548
199	0x3c1b4ece	0.009479238
200	0x3d0ef246	0.03489902
201	0xbd9933cd	-0.07480583
202	0x3d9875b1	0.07444323
203	0xbd658720	-0.05603707
204	0xbd33afcf	-0.043868836
205	0xbd6b28d9	-0.057412002
206	0xbd880cc2	-0.06643058
207	0xbbba8684	-0.005692305
208	0xbc693c3b	-0.0142355515
209	0x3e312086	0.17297563
210	0xbcf5ed9a	-0.030020524
211	0x3d2f5ea3	0.042814862
212	0x3d19aec7	0.037520196
213	0xbd98414c	-0.074343294
214	0xbd222d45	-0.039593954
215	0xbd83c787	-0.06434541
216	0x3d863b16	0.065542385
217	0x3c668162	0.014068933
218	0x3c5a330f	0.013317837
219	0xbd5bcecc	-0.053664014
220	0xbd433b3e	-0.04766392
221	0x3ccb9840	0.024852872
222	0x3cfcd11f	0.030861435
223	0x3b5c7d9f	0.0033644212
224	0xbd1b1e2f	-0.037870582
225	0xbd27bfc6	-0.040954374
226	0xbe15abd1	-0.14616324
227	0x3c2496a3	0.01004568
228	0xbd5ca133	-0.05386467
229	0x3d6fd979	0.058557007
230	0xbdae07f5	-0.084976114
231	0x3d655387	0.05598786
232	0x3d2b9850	0.041893303
233	0xbd886329	-0.06659538
234	0xbd16ee7a	-0.036848523
235	0x3cc03e5c	0.023467235
236	0x3e88a126	0.26685447
237	0xbd4d419f	-0.05011141
238	0x39bfd59e	0.00036589516
239	0x3d846e7b	0.06466385
240	0x3d84a4ce	0.064767465
241	0x3b2570fc	0.0025244346
242	0x3d1b10fc	0.037857994
243	0x3d89a56c	0.06721005
244	0x3cf43cdb	0.029814174
245	0x3b19ff7f	0.0023498235
246	0x3c6c5bf6	0.014426222
247	0x3d2c19e8	0.042016894
248	0x3cc426e7	0.023944331
249	0x3d40a80c	0.047035262
250	0xbd69005e	-0.056885116
251	0x3dba1323	0.09085681
252	0x3b4ba1fd	0.0031071894
253	0x3d4b7741	0.049674276
254	0xbd37b048	-0.04484585
255	0x3d26a686	0.040686153

mean.bias f4 [2]
0	0x3d58b128	0.052903324
1	0x3d9fc3be	0.07801007

value.weight f4 [1, 256]
0	0x3e9ea619	0.30986097
1	0xbec5dfff	-0.38647458
2	0xbf122305	-0.57084686
3	0xbe44b761	-0.19210579
4	0xbf166ed5	-0.58762866
5	0xbec842a3	-0.3911334
6	0xbeadf57d	-0.33976355
7	0x3c6e877c	0.014558669
8	0x3f240b64	0.6407988
9	0x3ee01cd8	0.43772006
10	0x3c91b9bb	0.017788759
11	0xbec9d6aa	-0.39421588
12	0xbe9fa10d	-0.3117756
13	0xbec6dd67	-0.38840792
14	0x3d0be012	0.034149237
15	0x3ac348cd	0.0014899016
16	0xbea690bc	-0.325323
17	0x3cc42ca3	0.023947066
18	0xbed1325a	-0.40858728
19	0x3d36139b	0.04445229
20	0x3c1f2cfd	0.009715316
21	0xbe83c42c	-0.25735605
22	0xbe72c644	-0.23708445
23	0xbe5a45e0	-0.21315718
24	0xbedfe2f0	-0.43727827
25	0xbe6e62f3	-0.23279934
26	0xbe912e84	-0.283558
27	0x3ebffaa5	0.37495914
28	0x3f14cabb	0.5812184
29	0xbf089c79	-0.5336376
30	0x3eedf7dc	0.46478164
31	0xbe9cba36	-0.30610818
32	0xbe8f4534	-0.27982485
33	0xbe92c972	-0.28669316
34	0x3e872290	0.26393557
35	0x3f092d10	0.53584385
36	0x3cf338ad	0.029690111
37	0xbebca2b4	-0.36842883
38	0xbe9feb41	-0.31234172
39	0xbea5950d	-0.3234028
40	0x3ea3346b	0.3187593
41	0x3d5f70c5	0.054550905
42	0x3ee19e80	0.44066238
43	0x3c459756	0.012060007
44	0xbed0c7dc	-0.4077748
45	0x3d4ab129	0.04948536
46	0x3ee8ff8a	0.4550746
47	0xbe8ae38e	-0.27126735
48	0xbe8b8049	-0.2724631
49	0x3d5378a1	0.051628713
50	0x3c81650c	0.015795253
51	0x3eb2b60e	0.34904522
52	0x3ebb54f9	0.36588266
53	0xbe8b7f94	-0.27245772
54	0xbeab60d1	-0.33472303
55	0x3ed05a7a	0.40694028
56	0xbe7a85b5	-0.24465068
57	0x3ea2eadb	0.31819806
58	0xbec14ffb	-0.37756333
59	0xbe6dfff6	-0.23242173
60	0x3f06187b	0.52381104
61	0x3efe750f	0.49698684
62	0x3f244c67	0.6417908
63	0x3c2f9b38	0.010718159
64	0x3f062ae3	0.5240919
65	0x3ecba718	0.3977592
66	0x3f18aa71	0.5963507
67	0xbec8fa41	-0.3925343
68	0x3e9324fd	0.28739157
69	0x3f0b52d5	0.54423267
70	0xbe9ab6f7	-0.30217716
71	0xbe980a2f	-0.2969527
72	0xbe4125a7	-0.1886202
73	0xbe902d9c	-0.28159797
74	0x3f02cdc9	0.51095253
75	0x3edc4241	0.43019298
76	0x3ebf6768	0.3738358
77	0xbe59a8b5	-0.21255763
78	0x3e583c34	0.21116716
79	0xbe459873	-0.19296436
80	0xbe9d0a7e	-0.30672067
81	0xbe8a677b	-0.27032074
82	0xbe5ba424	-0.21449333
83	0x3f0651a5	0.5246833
84	0x3ede237b	0.43386444
85	0xbea2ffd2	-0.318358
86	0x3ea10fec	0.3145746
87	0xbe9ee342	-0.3103276
88	0xbe443b2c	-0.19163197
89	0xbf413494	-0.7547085
90	0xbe37cdcf	-0.17949603
91	0x3cf7cd42	0.030249242
92	0xbea1c826	-0.31598014
93	0xbefae2a6	-0.49001044
94	0x3e9b68cb	0.30353388
95	0xbe4aaa64	-0.19791561
96	0xbeadeea0	-0.3397112
97	0x3ed5886e	0.4170565
98	0x3f1b1ff2	0.6059562
99	0x3d3b0b9c	0.04566537
100	0x3f0e5225	0.5559409
101	0x3c8fec54	0.017568745
102	0xbec72068	-0.38891912
103	0xbf19b38d	-0.600396
104	0x3ed2bfe1	0.41162017
105	0x3eb512cd	0.35365906
106	0x3efb4e7e	0.49083322
107	0xbf183e33	-0.5946991
108	0xbe8cc689	-0.2749522
109	0x3c9d86fe	0.019229408
110	0x3f15fd1f	0.5858936
111	0xbecb71bf	-0.3973522
112	0x3ccb8607	0.024844183
113	0x3ecc99dc	0.39961135
114	0x3effbd22	0.49948984
115	0xbe931fd3	-0.28735217
116	0xbe505506	-0.20344934
117	0xbef1660d	-0.4714817
118	0xbe24f659	-0.16109599
119	0x3f102b39	0.5631595
120	0xbeafa3ce	-0.3430466
121	0xbe4b4f2d	-0.19854422
122	0x3ec1b55a	0.37833673
123	0x3d503e03	0.05084039
124	0xbed16b6e	-0.40902275
125	0xbeef863b	-0.46782097
126	0x3f032a70	0.5123663
127	0xbf226637	-0.6343722
128	0xbea77c53	-0.3271204
129	0xbe417ca4	-0.18895203
130	0x3f17c195	0.5927976
131	0xbe8cf0f5	-0.27527586
132	0xbe56dab9	-0.20981874
133	0xbe9346a9	-0.28764847
134	0x3eecd7ae	0.462583
135	0xbe8daf08	-0.276726
136	0xbeff8182	-0.49903494
137	0x3ed5f956	0.4179179
138	0xbe76e162	-0.24109414
139	0x3f0e8438	0.556705
140	0x3cdc5b24	0.026898928
141	0x3f23a06e	0.6391667
142	0x3f0b0eb1	0.5431929
143	0x3eaae538	0.33378005
144	0x3efbd464	0.4918548
145	0x3ec3b3f4	0.3822323
146	0xbed02e80	-0.40660477
147	0x3f060171	0.5234595
148	0x3f14e252	0.5815784
149	0xbe2ac0a0	-0.16675043
150	0xbee1bf07	-0.44091055
151	0xbe94a1f8	-0.29029822
152	0xbeb00f8b	-0.34386858
153	0xbf0d77c8	-0.55260897
154	0x3c9ac186	0.018891107
155	0x3ec4cb7b	0.38436493
156	0x3eda04a7	0.42581674
157	0xbeee0790	-0.46490145
158	0x3f0f34a0	0.55939674
159	0xbed01c8e	-0.40646785
160	0x3ecdf893	0.4022871
161	0x3f3eac4c	0.74481654
162	0xbe41ac18	-0.18913305
163	0x3f294844	0.66125894
164	0x3d51c622	0.051214345
165	0xbe80c2f8	-0.2514875
166	0x3ebcf77e	0.36907572
167	0x3f1175bd	0.5682028
168	0xbe953044	-0.29138386
169	0xbec160bd	-0.37769118
170	0x3d36ba09	0.04461101
171	0x3d2e6f1f	0.042586442
172	0xbe8e683f	-0.27813908
173	0xbe7b0b69	-0.24516071
174	0xbe76109b	-0.24029772
175	0xbf005af6	-0.50138795
176	0xbedfa487	-0.43680212
177	0xbe861657	-0.2618892
178	0xbe86ed74	-0.26353037
179	0xbe934924	-0.2876674
180	0xbe86b3ab	-0.2630895
181	0xbec7ddf4	-0.39036524
182	0xbe959fda	-0.2922352
183	0xbe7745ef	-0.24147771
184	0x3ec61eae	0.38695282
185	0x3cc2bc4c	0.023771428
186	0x3ea5dfb5	0.32397237
187	0xbefbab84	-0.49154294
188	0xbe7fe958	-0.24991357
189	0xbf13013c	-0.5742376
190	0x3ed32c3c	0.41244686
191	0x3eb5ff21	0.3554621
192	0xbea502e0	-0.32228756
193	0x3ef0b1b7	0.47010586
194	0x3e9d21b5	0.3068978
195	0xbe3e2124	-0.1856733
196	0xbe96093e	-0.29303926
197	0xbeacbe47	-0.3373892
198	0x3f6340f5	0.8877099
199	0x3ebe9496	0.37222737
200	0x3f0d2aad	0.55143243
201	0xbeac646f	-0.33670375
202	0x3e446041	0.19177343
203	0xbea1dad0	-0.31612253
204	0xbf029a4c	-0.5101669
205	0xbea60bf0	-0.32430983
206	0xbebeabac	-0.3724035
207	0x3f038f25	0.51390296
208	0x3f121e74	0.5707772
209	0xbe132c1b	-0.14372294
210	0xbe4947ae	-0.1965625
211	0xbf08dca2	-0.5346166
212	0x3ef5d6c3	0.48015413
213	0x3f027a37	0.50967735
214	0xbeb5c91f	-0.35505006
215	0xbe4eae08	-0.20183575
216	0xbe83d797	-0.2575042
217	0x3f02ea8c	0.5113914
218	0x3ee12bf7	0.43978855
219	0xbe5047aa	-0.20339838
220	0x3eb6eae5	0.35726085
221	0xbe41f343	-0.18940453
222	0xbf24c8ee	-0.64369094
223	0x3d7288c9	0.05921248
224	0x3ef3609a	0.4753464
225	0xbe99febc	-0.3007716
226	0x3f219494	0.6311734
227	0xbe916ee4	-0.28404915
228	0x3d0c0a66	0.034189604
229	0xbea64078	-0.3247106
230	0xbefdf0e8	-0.4959786
231	0xbe8d5454	-0.276034
232	0xbee5d37f	-0.4488792
233	0xbe80006b	-0.2500032
234	0x3efcccd4	0.4937502
235	0x3ebef0b7	0.37293026
236	0x3f9918c3	1.1960682
237	0x3ea78fda	0.32726938
238	0xbe8f4cd2	-0.27988297
239	0xbec9093d	-0.3926486
240	0x3ec3e202	0.38258368
241	0x3ec754fe	0.3893203
242	0x3d31b02b	0.043380897
243	0xbe3bda5e	-0.18345019
244	0xbea188b5	-0.31549612
245	0xbeaa2367	-0.33230135
246	0x3edb2c5d	0.42807284
247	0x3d2d4545	0.04230239
248	0xbe7bdd51	-0.24596144
249	0xbf3248a5	-0.69642097
250	0x3ea5b453	0.3236414
251	0x3ef35e72	0.47532994
252	0x3cf901f2	0.030396435
253	0x3f0c7500	0.5486603
254	0xbe4914f0	-0.19636893
255	0xbd0b44d8	-0.0340012
