ppo/PPO_LunarLander_ep5000.pth (torch, 279103 bytes, 8 tensors)

log_std f4 [1, 2]
00000000: f32e fdbe fe64 e4be
-0.49449882 -0.446083

fc1.weight f4 [256, 8]
00000000: 4f91 243d 5da1 d1bc a2dd d13c 5e8f 92bd
00000010: 69f8 a13f 2d60 3f3d dd83 cd3e 3a90 113e
00000020: a0dc a93e 9dad 773e 6387 84bc af24 253c
00000030: 4f7f 1dbe 6c7c d6be c347 a93e 39d0 ae3e
00000040: 3d3e 433e 0ea9 363d c2c6 72bd bbb0 ec3d
00000050: cebc a2be b6dd a8be e8c7 5abd 8a7a 1abd
00000060: a36a 8ebc 7051 0dbd bc9d a0be f586 f6be
00000070: 00cf 043f b653 e23c db38 643e a97b 643d
00000080: dcfb c5bd 15b4 14bf b7f1 083f cde9 c5be
00000090: 85d8 fbbe 08c7 f4be eca2 c23e 14f3 2bbd
000000a0: 5e87 2c3f 41df 5b3d a011 0c3e 58c1 143c
000000b0: 6106 263e c406 eb3d 8d8e 88be 2d92 7cbd
000000c0: 6539 d53d b194 0a3f d56d acbc 5407 febe
000000d0: 4963 a53d d52b a53e ba26 95bd 62e0 a8bd
000000e0: 7361 fd3d f7da 293d 62e9 37be 0e60 cebc
000000f0: 7c4b c53d 1e10 3cbe 2e99 d2bd 1ad4 233e
00000100: 2d9b 343e f423 4f3b 9cfd c83e c1a8 debd
00000110: 7eef 823f f7df c5be d2b7 b03e 37ae 96be
00000120: 3736 afbe 3b97 9ebd 1905 983c c105 ca3d
00000130: 8dbb f5bc 96f3 2fbe 00b2 af3e fb93 f6bd
00000140: a1b8 f3bc 5883 e73e 964c b53e 5563 c3be
00000150: 69b7 903d 9df6 3c3e 1307 4d3d 1874 5bbe
00000160: fa1a 1bbf f113 653d 1fc2 a6bd 673b 8a3d
00000170: 93e2 1d3e bb80 2a3e 9aeb 7f3e 976a 1c3e
00000180: c632 283f 3604 093d 33d9 c13e 4a92 1cbc
00000190: 844e 82be ace3 8e3d 0623 493d 80eb aa3e
000001a0: f620 313f 8bb7 bdbe 71d8 043e 69c9 9bbe
000001b0: ef0d 333e 9ffb 5a3d aeb8 393e 74e3 db3c
000001c0: 5cfa 0bbf ce61 03bf f2cc f03d 2247 04be
000001d0: 62b4 0d3f 51ac e03e 323b 0bbc 2053 81bd
000001e0: 9d75 113f 9abb a7be dbcf 853e 6cf2 963c
000001f0: cdbd 70be f638 27be c90d 6b3d a472 353d
00000200: 569f 043f 5846 d0be bf0e 263e bbee 19bf
00000210: c13d 2dbe 4653 79bd bc8b 2c3c 7fb3 4fbc
00000220: 91ec 04be b0ad eb3e 379a bcbe 1dca e1be
00000230: c801 f9be bd4d d43e eed4 7dbc 5d89 8dbe
00000240: 5f2a a8bc bfeb 493e 254a d43c 2d0d 783e
00000250: 18f8 ed3e e2a0 87be 7391 8bbe 5963 2a3e
00000260: 57ba 403f 7747 b0bd 266f 8e3e c4ea 63be
00000270: 2829 51be 0cbd 2f3b 446c 643c 2c09 953d
00000280: 7b94 0abf d155 ca3e 06c2 0ebe 004d 5a3e
00000290: 4c6d de3e bd6f 263e bb98 4cbe 950f abbe
000002a0: b1d2 dcbd 8dd7 f83e ea20 183d 599b 7c3c
000002b0: e38d 033f 93d5 98be 8f0a 7b3e bfbb 963e
000002c0: cce1 6b3e fa0b 6d3e 399a 033e 02e6 a0be
000002d0: 1f0d 6e3e df13 adbe f474 03bc 5d1f 3b3e
000002e0: cc98 853e 4a19 04bf 46e4 34bd ceff b2be
000002f0: e186 093c 30e3 453e 3e17 87bd 3aef 69be
00000300: b8cc 07be c499 df3e a890 6ebe a3e9 d0be
00000310: c3d3 223f c72d 19bd b1a9 53be 5e13 593e
00000320: 43e9 22ba 7f0e 183f 50db e73d 06e6 48be
00000330: 771a d93e a17e 293e 1ca1 42be 6832 59be
00000340: 43a7 07be f13b d93e 1de5 bebe cd94 b5be
00000350: 3537 d3be db8a 6a3d 45b4 93bb 9d8c 5dbe
00000360: 977b 613e 98a2 babe ad7d e0be f84a 70bd
00000370: 1d99 2fbe 6e35 84bd ecbd 1d3e 13c9 0cbc
00000380: 2088 dcbc fd6a 1dbe db3b 57bd f029 78be
00000390: 6ceb a63e 5f58 db3e e25b 6ebe ba33 62be
000003a0: 56b1 b3be 9244 e0be 78c8 7fbe 193d dabd
000003b0: 0e5b e33e 5e68 b73e fec6 5fbe 9508 b83e
000003c0: fa49 4fbd ca27 263f 406c 9ebd 679b 8d3d
000003d0: 6984 8abe 897b 9f3d f66e 8bbc c301 ebbe
000003e0: 967b 683e 4e20 c2be 483a c93d 3ee2 383e
000003f0: fa45 14bf ab7a e4be 6af8 a9be f757 a9be
0.04017764 -0.02558964 0.025618378 -0.07156251 1.2653934 0.04672258 0.40139666 0.14215174
0.33176136 0.24187322 -0.016177839 0.010079547 -0.15380596 -0.418918 0.33062562 0.34143236
0.19066711 0.044594817 -0.05927158 0.11557146 -0.31784672 -0.32981652 -0.0534133 -0.03771452
-0.017384833 -0.034501493 -0.31370342 -0.4814984 0.51878357 0.027627807 0.22287314 0.055781994
-0.09667179 -0.58087283 0.5349383 -0.38654938 -0.4918863 -0.478081 0.38014925 -0.041979864
0.67394054 0.05367971 0.13678598 0.0090793 0.16213371 0.114759 -0.26671258 -0.06166284
0.10411338 0.54133135 -0.021048466 -0.49614966 0.08075578 0.32260004 -0.07282777 -0.082459226
0.123721026 0.041468587 -0.17960122 -0.025192287 0.09633538 -0.18365523 -0.10283123 0.15998879
0.1763732 0.0031607123 0.3925599 -0.10872031 1.0229337 -0.38647434 0.34515244 -0.2942979
-0.3422105 -0.07743689 0.018557118 0.09864379 -0.029996658 -0.17182764 0.3431549 -0.12039944
-0.029751124 0.45217395 0.35409993 -0.38161722 0.07066233 0.1845345 0.050055575 -0.21431005
-0.6058804 0.05592722 -0.081424944 0.06749611 0.15418462 0.1665067 0.24992219 0.15275036
0.65702474 0.03345128 0.37861022 -0.009556362 -0.25450528 0.06977019 0.049105667 0.33382797
0.6919092 -0.37054095 0.12973191 -0.304271 0.17485784 0.05346262 0.18136856 0.026841857
-0.54678893 -0.51321113 0.1175784 -0.1291776 0.5535337 0.43881467 -0.008498 -0.06314683
0.5682009 -0.32760316 0.26135144 0.018426143 -0.23509903 -0.16330323 0.057386193 0.044298783
0.5180563 -0.40678668 0.16216563 -0.601299 -0.16918088 -0.06087043 0.010531362 -0.012677073
-0.12980868 0.4603095 -0.36836407 -0.44099513 -0.4863417 0.4146556 -0.015492661 -0.27643862
-0.020528017 0.19718836 0.025914261 0.24223776 0.46478343 -0.2648993 -0.27259406 0.1663946
0.7528433 -0.08607381 0.27819175 -0.22257525 -0.20425856 0.0026815562 0.013941828 0.0727714
-0.54132813 0.39518598 -0.13941202 0.21318436 0.43442762 0.16253562 -0.19980137 -0.33410326
-0.10782374 0.48601952 0.037140764 0.015417897 0.51388377 -0.29850444 0.24515747 0.29440114
0.23035353 0.231491 0.128518 -0.31425482 0.23247193 -0.33804223 -0.008023489 0.18273683
0.26093137 -0.5160109 -0.04416301 -0.34960788 0.008393974 0.19324946 -0.0659623 -0.22845164
-0.13261688 0.43672 -0.2329737 -0.4080325 0.6360437 -0.037397172 -0.20670201 0.21198794
-0.0006214568 0.5939712 0.113211274 -0.19618997 0.42403004 0.16552211 -0.19006771 -0.21210635
-0.13247399 0.42428544 -0.37284175 -0.35465088 -0.41253057 0.05726133 -0.004507574 -0.21635671
0.22019802 -0.36452174 -0.43845883 -0.058665246 -0.17148252 -0.064555034 0.1540448 -0.008592862
-0.026920378 -0.15372844 -0.052547317 -0.24234748 0.32601488 0.4284086 -0.23277238 -0.22090045
-0.35096234 -0.43802315 -0.24978817 -0.10656185 0.44405407 0.35821813 -0.21853253 0.35944048
-0.05060766 0.64904463 -0.07735491 0.06914406 -0.27054146 0.07787234 -0.017020684 -0.45899782
0.22703394 -0.37915272 0.098255694 0.18055055 -0.57919276 -0.44624838 -0.33197337 -0.33074924

fc1.bias f4 [256]
00000000: a385 9abc dac3 a23d 9530 883e 54f4 52bc
00000010: 662a 243e e81a 273d c5d3 e33d 6c77 9a3e
00000020: 74bb 4ebd a7a6 a23e d6da 9b3e 0b57 aebc
00000030: 30a1 7fbd c3ac 5dbd 9010 68be 821d 3cbe
00000040: a7f3 46be 004f 983e e39c f03e 9226 07be
00000050: 96fb cb3d 032d 773e 066d af3e 61b7 8ebd
00000060: da87 ec3d 3502 23bd 9451 9a3e fbf3 603e
00000070: 5fa6 a73e 045b 393e ea28 ad3e 858a 9d3e
00000080: 3b85 8dbb b426 7d3e eb88 a23e 1823 8fbe
00000090: a905 423b e3ed ff3c f920 003e 1827 003e
000000a0: a42a f5bc c2c1 8f3e e636 983e cf8e 8d3e
000000b0: 8bba aa3e c0eb e8b9 2ce4 dabd 4fb9 b63d
000000c0: 48bf 0f3e dca8 19be 756d 073e 68ec 003e
000000d0: 9a3e ad3e 9b5b 8b3e 15b2 853e 98a5 943e
000000e0: caeb 8cbd f0a4 9c3d bc68 9a3d 7036 b03e
000000f0: 7c82 083b 21b7 1e3d b1da a23e 4979 c33e
00000100: 9951 cc3e ff34 9a3e e2a0 d2bd 4f3b 063e
00000110: a118 383e 3d53 613e b1f4 96bd f9c6 0fbe
00000120: e013 503e 8660 aebc ee62 7a3c d166 963e
00000130: 572b e9bc c549 8a3e 9d80 b73e 1c64 873c
00000140: 140c 73be fd1d babe 3db6 5abe ab3f db3d
00000150: 4ce4 833d 4e16 0abc 429e 11be 6ff0 08be
00000160: ac20 9f3e ca99 453e ee76 15bc 8835 05be
00000170: ef5d 13bd 0209 dc3d f7bb bd3e dd09 3c3e
00000180: 48e6 df3e 2f72 663e 3cb7 96be 3de8 98bd
00000190: fad4 3a3e d0da 3fbe 152b 8fbd 4a33 dcbb
000001a0: 56d8 c8bd 47b1 79be 1c0d ca3e 7e75 a83e
000001b0: 09a5 8a3d 61ba 463d 1bfc 8d3e 2a81 f03d
000001c0: ecc2 0dbe 9256 1d3e 6e5d dfbd 749f 703e
000001d0: c8cc 8cbe 65a9 963e eaa3 83bd 5d06 afbe
000001e0: cab1 3e3e 025d 233e d522 9b3e d7f4 e23c
000001f0: f149 023f c10a 9a3e 6040 38bc 37cb 9d3d
00000200: 94b2 f2bd 9fea 04be f1f6 e0bd b937 32bd
00000210: 9c7c b73d d3e0 733e fb45 2e3e ab59 af3e
00000220: b4da cb3e 78d8 edbc 3631 8cbe a812 e43d
00000230: 9793 a03e 642e d03e 1eb0 d6bd de8d 99bc
00000240: 313f 643e d88b d63e 9628 993e af3f 243e
00000250: 1a0c 60be 3636 8e3d b8fe 8cbd a4e6 fabd
00000260: 7fdf ed3d cdbe 40bd 25a5 51be c8f0 c23e
00000270: d2e8 b4bd f3ec b13d 1d26 8f3e 4ae3 8f3e
00000280: a191 bcbd dca8 493e 3d3a 1e3c 7af7 233e
00000290: a91b 9e3d 6c24 2bbe 85f0 e1bd 279c b0bd
000002a0: 27ca 8fbc b000 143e 0fa0 8a3d 716a 3abe
000002b0: bb07 853e d045 5d3d 65e6 cd3e 15e1 e4be
000002c0: db63 9e3d 3fff ff3d 85f5 d9bd c9eb e4bd
000002d0: bd99 c93d 3362 d9bc 23fa 053e 3f19 c73d
000002e0: 7bd4 aebb 5fa1 153e 1671 80bd d762 20be
000002f0: 237c 283e e0ec 2cbe 988d a13e 6263 b93e
00000300: 4e09 8d3e d643 4abe dfeb 20be a3aa e5bd
00000310: 2bab 423d cdf3 243e 95d8 1d3e b349 f93e
00000320: 85a6 f0bd 2768 65ba 3c6f bb3d 0508 6f3e
00000330: 8314 b1bc bdf1 893b 330f a13e 6a2d b73e
00000340: bd90 083d 4127 0f3d 491e a83e aa19 32be
00000350: 7219 b13e b374 79be 5dc6 2bbe 49ca fe3d
00000360: f762 eb3b c985 9d3e d2d4 84bc cd62 09be
00000370: f359 403e bb47 3dbe 4d9a 513e 9a29 f8bd
00000380: eee1 843e 722d 2abe 407e 79bd 977e 413d
00000390: 3c68 0abd 5271 9a3c 9ff3 7a3e e998 28be
000003a0: 252a 3fbc f558 8a3e 3da3 b33e a54b a33e
000003b0: fc35 aa3e 0675 09be 48b9 7b3e e742 d93e
000003c0: 6f0d 52be b2ff 633e c01e 003d 9972 b93e
000003d0: be72 99be aa99 533d ea7c 5b3e 3498 e23e
000003e0: 9f78 b73c bb7a 5c3e 9158 97bd 9e87 09be
000003f0: 4729 c13b 9a0b d63e a892 e13e 9dbf 5f3e
-0.018862551 0.07947512 0.26599565 -0.012875635 0.16031799 0.040797144 0.11124376 0.30169237
-0.050471738 0.3176777 0.30440396 -0.02128174 -0.06240958 -0.054119837 -0.22662568 -0.18370631
-0.19428883 0.29747772 0.46994695 -0.13198307 0.099600956 0.24138264 0.34262866 -0.069685705
0.11549349 -0.039797027 0.30140364 0.21968071 0.3274412 0.18101126 0.33820277 0.30769745
-0.004318861 0.24721795 0.31745085 -0.27956462 0.0029605424 0.031241363 0.12512578 0.12514913
-0.02992756 0.28077513 0.29729384 0.27648017 0.33345446 -0.00044426136 -0.106880516 0.089220636
0.14037812 -0.15005821 0.13225348 0.12590182 0.33836824 0.27218327 0.26112428 0.29032588
-0.06880911 0.07648647 0.07539508 0.34416533 0.0020829728 0.038748864 0.31807473 0.3817847
0.39906004 0.30118558 -0.10284592 0.13108562 0.17978145 0.22004409 -0.0737089 -0.14040746
0.20320082 -0.02128626 0.015282376 0.29375318 -0.028463049 0.27009407 0.35840312 0.016527228
-0.23735076 -0.36351004 -0.21358581 0.10705503 0.064400285 -0.008428169 -0.14220527 -0.13372968
0.31079614 0.19296947 -0.009122593 -0.13008702 -0.035978254 0.107439056 0.37057468 0.18363138
0.43730378 0.22504495 -0.29436672 -0.07466171 0.18245307 -0.18735814 -0.06990639 -0.0067199813
-0.09806888 -0.24384032 0.39463127 0.3290214 0.06769759 0.04851759 0.27731404 0.11743386
-0.13843888 0.15365055 -0.10906492 0.23498327 -0.27499986 0.29426113 -0.064277485 -0.34184542
0.18622509 0.15953448 0.30300012 0.02770464 0.50894076 0.3008633 -0.011245817 0.07704776
-0.11850467 -0.12980126 -0.109846 -0.043510173 0.08959314 0.23816232 0.17018883 0.342481
0.39815295 -0.029033884 -0.27381295 0.11136371 0.31362602 0.40660393 -0.104828104 -0.018744405
0.2228973 0.41903567 0.29913777 0.16039918 -0.21879616 0.06943934 -0.06884521 -0.122510225
0.11614894 -0.04705696 -0.20473154 0.38074327 -0.088334695 0.086877726 0.27958766 0.28103095
-0.09207464 0.19693321 0.00965744 0.16012374 0.077201195 -0.16713113 -0.110322036 -0.08623534
-0.017552448 0.14453387 0.0676881 -0.18204667 0.2598246 0.054021657 0.4021484 -0.44702974
0.0773389 0.12499856 -0.10642532 -0.11177785 0.098437764 -0.026536083 0.13083701 0.09721612
-0.0053353882 0.1461234 -0.062715694 -0.15662704 0.16453604 -0.16887236 0.3155334 0.36208636
0.2754616 -0.1975244 -0.15714978 -0.11214187 0.04752652 0.16108628 0.1541465 0.4868904
-0.11750511 -0.00087511766 0.09152076 0.23342903 -0.021616226 0.0042097257 0.3145691 0.35776836
0.03334116 0.034949545 0.32835606 -0.17392603 0.34589726 -0.24360923 -0.16774888 0.124409266
0.0071834284 0.30766132 -0.016214762 -0.13416596 0.18784313 -0.18484394 0.20469017 -0.1211731
0.2595362 -0.16618899 -0.060911417 0.047239866 -0.033790812 0.018852863 0.24506997 -0.1646458
-0.011667763 0.27020994 0.35085478 0.3189365 0.33244312 -0.13423547 0.24582398 0.42433855
-0.20512937 0.22265509 0.031279325 0.36220244 -0.29970354 0.051660217 0.2143437 0.44256747
0.022396384 0.21531193 -0.073899396 -0.1343064 0.005894813 0.41805726 0.44057202 0.21850438

fc2.weight f4 [256, 256]
00000000: 7d0d a73e 6661 7abd 950c 343c ff4e 4e3e
00000010: bd04 703d 164c a5be 5492 0a3c 5b11 263d
00000020: de67 903e a604 2e3d 1229 4e3c cfe4 1abe
00000030: 5ac2 17be f766 93be 90ba b0bd e106 14be
00000040: 17e5 b7be 6683 0a3e 9d2e e53d 7fde 3ebe
00000050: 7b3a c6bd d371 123d 9a52 ed3d 82aa 99be
00000060: f33d 003d 219d 313e f519 a53d 1f16 c23c
00000070: a296 68bd d241 073e 70ef da3d d3d1 0f3d
00000080: 227c 653d 3f7c 903d 416d ca3d 2b04 b3bd
00000090: a9a6 753e 153d a53d 7335 28be b2ac b0bb
000000a0: 5622 84bb 8ca8 213d 142f a03d 5439 8cbb
000000b0: 18b8 9a3d c0f5 8abe a947 03be 01ec aebd
000000c0: bc5f d03d f1f2 ca3c f749 97bd 3d59 e9bd
000000d0: 4681 fe3d 9628 7b3c 7cd1 54bb bbfc ca3d
000000e0: 3457 00be f5e6 043e 2ae8 c83d 8884 203e
000000f0: cb69 1e3e 0913 5fbd 7ca4 893d b981 f33d
00000100: 704a 81bc 1f85 cb3d 40f2 4ebe 7d45 6a3d
00000110: b3ac ecbc 89a5 3ebc 0bfa 093f 4e59 f4bd
00000120: f38a 3e3e cc70 8e3e f37d 763f 60c6 413d
00000130: cfb5 52be 0b85 063d 2269 79bd 6109 3bbd
00000140: 8949 0ebc 0790 ecbb ac76 ddbd 1faa b5ba
00000150: 4488 443e d020 f83d 0a60 3cbd fec9 8dbc
00000160: 0831 c33d ea65 db3d 4284 f53d 998c d23c
00000170: 2e6f 193e ec77 46bd 3335 ee3d de05 7b3d
00000180: 9894 833d dc17 153d da6e ea3b 0062 3f3d
00000190: 2515 a93e ad9c 673e dced 05be 5a48 ae3b
000001a0: 0a6d 7a3e d5a3 01bd 5cb3 ac3d 4586 9e3d
000001b0: 3267 853d 5edf 223e dfce 023e 49c8 59be
000001c0: fe7f c9be cdb0 973d 6f03 e33d 6f62 cd3c
000001d0: 3363 a73b e00f 423e 110a d13e d9b6 57be
000001e0: 504a 683c b5dc 9e3d 0c48 903e 7ec8 373c
000001f0: 5037 e33d 6de0 143d af6f 5ebd 8b82 06be
00000200: 64e7 02be 1502 fcbe 57cc aa3e 9f11 053f
00000210: a31c 2bbd e43b 1f3d 1147 393e 6379 db3c
00000220: b422 f13c 3aac 563e b204 843e 04ce b23d
00000230: 8c88 d33d 581c e43d 42a1 86bd 42cc e03e
00000240: f7c6 fb3d 62d1 2d3e f7e3 953d fb03 55be
00000250: e233 353e 87c7 033d ed30 09be 79ad 183f
00000260: e6f7 1cbe 137c a33d da40 83bf c0f4 193d
00000270: d6f5 f4bb 0d78 a43c 9146 9e3d 67d5 273e
00000280: 33b5 ce3d 56a7 483d 9cce c0bd d61e 823e
00000290: fb84 013e 1e7d 1abc 62e5 abbd 8b77 7cbe
000002a0: ae55 0dbd 10da c8bd 4190 563d faf5 eabe
000002b0: 9e21 dc3d 179b 21bd 2adf 763d fcc9 d33e
000002c0: e152 503d f9b4 af3d fd2a 97be 3b28 943e
000002d0: 94d0 2e3e f303 e0bd c2a0 5c3d 8743 d7bd
000002e0: 7f98 e53d e49a d2bd d4ea 08be dfac 823e
000002f0: 7f14 28be c240 1bbe dbe8 ae3d 1baf 393d
00000300: be15 5e3d cdd8 5dbf c407 9ebc 9c25 7ebe
00000310: 16ad 18be 337a 68bd 43d3 08ba dcdf ba3d
00000320: 46bb 913c 4de1 a2bd 64e3 64bd 24c7 3d3d
00000330: 4064 523e 11a5 153e a657 283e 8ee7 a53d
00000340: cfc1 a6bd 5c93 1abd d0ad bb3d ec83 a0be
00000350: 4f8c edbd 015c d5bc 4118 9f3e 9de5 a83d
00000360: c3ca 253e 11e8 0b3e d030 9c3e d5f7 b7be
00000370: f8bf 353d 3379 3dbf 6cef 58bd c6df 8d3e
00000380: 3f72 bf3d 05b9 923e dfb5 883d 9e8f 68bc
00000390: db2e a0be c6e7 edbd bcb3 df3d 9fdd 823e
000003a0: d1c2 533e ae75 d03b 6777 9c3d 5639 bf3d
000003b0: 19cb 8f3c 3ddf 763d 16a0 723d 24f6 163e
000003c0: e6cb 0cbe f0df c83d 877c dbbd 4c75 4f3d
000003d0: e3a2 06be be42 243d 2da0 0d3e 95d6 433d
000003e0: 6c5d 8c3e ba78 c83e d89d 2fbc e595 6f3e
000003f0: 22f5 3ebe 63e1 053d f7d7 c53d 464e 40bc
0.32627478 -0.061128043 0.010989328 0.20147322 0.05859827 -0.3228461 0.008457739 0.040543895
0.28204244 0.0424849 0.012583034 -0.15126346 -0.14820233 -0.28789493 -0.08629334 -0.14455749
-0.3591697 0.13526687 0.111905314 -0.18639563 -0.09679123 0.035753082 0.115880206 -0.300129
0.03130908 0.17345096 0.080615915 0.023692189 -0.05678428 0.13208702 0.106902 0.035112213
0.056026585 0.07054948 0.0988412 -0.08741029 0.23989357 0.08068291 -0.1642664 -0.0053916806
-0.0040324135 0.03946738 0.078214794 -0.004279295 0.07554644 -0.27140617 -0.12820305 -0.08541108
0.1017451 0.024774047 -0.073871545 -0.11393974 0.12427001 0.015329501 -0.0032473495 0.09911486
-0.12533265 0.12978728 0.09809907 0.15675557 0.15470044 -0.054461513 0.06720826 0.11889977
-0.015782565 0.099375 -0.20209599 0.057195175 -0.028890943 -0.011636146 0.5389716 -0.11931096
0.18607692 0.27820432 0.96285933 0.047308326 -0.20577167 0.032841723 -0.060891278 -0.04566324
-0.008684524 -0.007219318 -0.108136505 -0.0013859904 0.19192606 0.121156335 -0.045990027 -0.017308231
0.09530836 0.10712798 0.11988117 0.025701808 0.14983818 -0.04845421 0.11631241 0.061284892
0.064248264 0.036399707 0.007154328 0.04672432 0.33023944 0.22618361 -0.13079017 0.0053186836
0.24455658 -0.031650383 0.084326476 0.07740454 0.065138236 0.1590552 0.12774228 -0.21267809
-0.39355463 0.07406769 0.11084639 0.02507135 0.005108261 0.18951368 0.40827993 -0.21065845
0.014177874 0.0775694 0.28179967 0.011217235 0.110945344 0.03634684 -0.05430573 -0.13135736
-0.12783581 -0.49220338 0.33359024 0.5198001 -0.041775357 0.038875476 0.18093516 0.02679128
0.029435493 0.20964137 0.25784832 0.087307006 0.103287786 0.11138219 -0.06573726 0.43905836
0.12293809 0.16974404 0.073188715 -0.208023 0.17695573 0.032172706 -0.1339757 0.596397
-0.15328941 0.0798265 -1.0254166 0.037586927 -0.007475595 0.020076776 0.07728303 0.1639
0.10093155 0.04898771 -0.094144076 0.2541415 0.12648384 -0.009429244 -0.08393361 -0.24654977
-0.03450554 -0.09807217 0.052383665 -0.4589079 0.107485995 -0.039454546 0.06027142 0.4136504
0.05086029 0.0857944 -0.29524985 0.28936943 0.17071754 -0.10938253 0.053864248 -0.10510927
0.11210727 -0.10283449 -0.1337083 0.25522515 -0.16414069 -0.15161422 0.085405074 0.04533301
0.054219954 -0.86658937 -0.019290812 -0.24819034 -0.14909777 -0.056757163 -0.0005219469 0.09124729
0.017789494 -0.07953129 -0.05588092 0.046332493 0.20546055 0.14613749 0.16439685 0.08100806
-0.08142435 -0.03773819 0.091640115 -0.31350648 -0.11599027 -0.026044847 0.31073192 0.0824692
0.16190629 0.13662745 0.3050599 -0.35931268 0.04437253 -0.7401306 -0.052962705 0.27709788
0.093479626 0.28656784 0.06675314 -0.014194397 -0.31285748 -0.11616473 0.109229535 0.25559708
0.20679785 0.0063616848 0.07639962 0.09337108 0.0175529 0.06027149 0.0592347 0.14742333
-0.13749656 0.09808338 -0.10717111 0.050648972 -0.13148074 0.040102713 0.13830633 0.047812063
0.27415025 0.39154607 -0.010718785 0.23397024 -0.18648198 0.03268565 0.09660333 -0.011737412

fc2.bias f4 [256]
00000000: 622f 363d 3ef7 1abb 7876 c7bd b245 433c
00000010: 390b a8bc 3b1b b8bd 1530 9fbd 8360 703d
00000020: 30af 1dbd dc84 003d bfe9 ee3a e577 8dbb
00000030: cb6b 51bd 7c85 8dbc f5f8 12bd 4f71 81bd
00000040: 12f9 71bd 228e 5ebd d12d 7ebd 7318 ecbb
00000050: 5c81 e6bc 38dd 6b3c 05fa 873d 97cc 93bc
00000060: 4c42 4abd 7f7a 90bc 60e1 a2bd 0dc0 283d
00000070: ccf2 423d 73a5 9ebd b0d9 e83c 4bcb 28bd
00000080: 935d e6bb 9ede 39bd 43eb 073e faac e83b
00000090: da1e 4b3d 6ec2 8a3c 7d25 123a 4644 1ebd
000000a0: 9087 123e 1f4b d2bc d9f3 d73c b836 68bd
000000b0: 802c d83b 6c83 693c 6549 273d e01f 06bd
000000c0: 2de9 5c3b 13c3 a8bc 8954 673d 5bdb 0b3e
000000d0: bb16 d03d 3f53 8abc d16b 10bd f3f6 553c
000000e0: 9dfd 74bd 7e78 163e 595f b9bd 2721 223c
000000f0: d495 60bc d8a2 dabc 5325 d43a 434c 1d3d
00000100: e724 97bc b2ba 5e3d eb8b 6fbd 6d7f 173c
00000110: b812 82bc 0e15 743c 9cd5 09bc 9493 373d
00000120: 17d2 e3bc 01db 28bd 41c6 3dbd aaf2 e53d
00000130: 7d54 a63c d634 0e3d f09e 28bd 7347 7e3d
00000140: dfa4 473c 0b80 4cbc 95f3 aa3c f530 67bd
00000150: 2c0e aa3d 36a7 0bbd fa0f 333d 1f6e 6f3b
00000160: f8f0 983d 8fb4 eb3d 51c0 763d b095 17bd
00000170: 2a43 b238 2858 0ebd 5781 4e3d 9ed5 91ba
00000180: e94a b93c 32de f43d 19ba e43d 9727 a73b
00000190: 6f39 5ebd 6780 3dbd ca03 ccbc f40d 1cbd
000001a0: 7a3e ed3d b671 713d 8f6a f6bc 2690 84bd
000001b0: 02dd 07bd 1e22 b43b 6648 49bb 83ec d73b
000001c0: 5c38 413d 7c5f 7b3d e7e5 72bd 0500 093d
000001d0: 784e 1b3d db27 40bd 38d3 3d3d 510e 5abd
000001e0: 91c1 113d 011d 073d 2f69 9a3d 664f d8bc
000001f0: 8b84 45bd 934b 9bbd 769b 843d af12 c8bd
00000200: 15a5 77bd 287e 4e3d 8412 1c3d 3539 9d3c
00000210: c004 8bbc 62b0 92bb d0db 0e3d 4dc3 bb3c
00000220: fba0 57bd 990f 333d bccd 71bd 6b34 223d
00000230: f6f2 0bbd 3b10 1abd 2168 7cbd 8710 a83d
00000240: 0205 c53d 2bb5 803d 0531 633c e1f4 343c
00000250: fd08 90ba 6d4d 033d 37cf 08bc 723a 5f3d
00000260: ce6e df3b 0613 45bd a220 c63c 88e7 243d
00000270: 3dd3 873d 6491 62bd 56cb 783d 8375 e4bc
00000280: 304f d33d 9aaa 7b3d d772 623d fa45 843d
00000290: 3629 08bd c18f df3c 3f8e 023e b49d 893d
000002a0: cee2 8d3c 16f1 5a3c 1b63 3abc 96c5 6abd
000002b0: 848c eb3c 8c29 55ba 8d50 443d 9897 adbd
000002c0: 5d8d 8e3c b1d4 0e3d 504d ffba 87a4 35bd
000002d0: ab81 213d cd65 913a 82c1 8ebd c1eb 93bc
000002e0: 5f87 f63d bcb4 0d3c b102 eb3d f266 1fbc
000002f0: 1666 b53c c807 c7bd 0833 b53d ec31 323d
00000300: cf1a 5ebc 83fd f43c 060b 1e3d 8dd3 353d
00000310: ed87 86bd 9e69 2e3c c210 343d feb8 663d
00000320: 5cdd 0f3d 8c68 33bd d89f cc3c 4d0c 713c
00000330: 1001 36bc 208e 90bd fbcd 28bd c328 c4bc
00000340: 26bd 1ebd a7f0 743d 8763 473b 2e86 20bd
00000350: 8c70 d33d 6f2d 38bd dda9 93bc f040 8dbc
00000360: 9413 603d 4687 d4bc f273 803d 1941 113c
00000370: bae0 173e f81c 4ebc 4a23 47bd d0e0 0abd
00000380: 4609 e43c e433 06bc 49d7 20bc f2c1 8bbd
00000390: 3291 5ebc c1c3 8eba 5d0b 423c 1dcb a3bd
000003a0: 44c4 c63c 6e13 f43b 1f9d 783b 77fb ce3d
000003b0: 1eac 2d3d b3eb 9e3d cfed fdb8 2026 c0ba
000003c0: 73e0 033e d236 ee3d efbc 583b f25a 903c
000003d0: b858 6fbb a79f b13c 8710 cc3c 03d8 583d
000003e0: fa83 b6bc 7c28 84bc 98be 083e f8b6 583c
000003f0: 7066 b9bc 27c7 26bd a077 23bd 68b3 09bc
0.04447878 -0.0023645903 -0.09739393 0.011918472 -0.020513164 -0.08989569 -0.07772843 0.05868579
-0.03849715 0.031376705 0.0018227621 -0.004317271 -0.05112819 -0.017275564 -0.035881955 -0.0632044
-0.059075423 -0.054334767 -0.062055413 -0.007205063 -0.028137855 0.014396004 0.06639484 -0.018041892
-0.049379632 -0.017636536 -0.07953143 0.04119878 0.04759483 -0.07746401 0.028424114 -0.0412095
-0.007030198 -0.04537832 0.13273339 0.0071006985 0.04958997 0.016938414 0.0005575044 -0.03863933
0.14309525 -0.025670586 0.026361393 -0.05669281 0.0065971017 0.014252525 0.04084148 -0.032745242
0.003370832 -0.020600831 0.056477103 0.13657896 0.101605855 -0.016885398 -0.03525907 0.013059366
-0.059812177 0.14694402 -0.09051389 0.009895599 -0.013707597 -0.026688978 0.001618544 0.038402807
-0.018450214 0.054377265 -0.058483046 0.009246689 -0.015878066 0.014897598 -0.008412745 0.044818476
-0.02781014 -0.041224483 -0.046331648 0.11227925 0.020303959 0.034718357 -0.0411672 0.062079858
0.012185304 -0.0124817 0.020868102 -0.056443173 0.08303484 -0.03409501 0.04371641 0.0036534143
0.07467836 0.11509048 0.060242 -0.037007987 8.500212e-05 -0.03475204 0.050416317 -0.0011126285
0.022618728 0.11956443 0.11168308 0.005101155 -0.05425399 -0.046265032 -0.02490415 -0.038099244
0.11584182 0.058946334 -0.030080108 -0.06472807 -0.033169754 0.005497231 -0.003071332 0.0065894737
0.04717289 0.061370358 -0.059301283 0.033447284 0.03791663 -0.04691301 0.046344012 -0.05323631
0.03558499 0.032986645 0.075395934 -0.026405048 -0.048222106 -0.07582774 0.06474964 -0.097691886
-0.06046017 0.05041328 0.038103595 0.019192318 -0.016970038 -0.004476593 0.0348776 0.022920275
-0.052643757 0.043716047 -0.059034094 0.03960077 -0.034167252 -0.037613135 -0.061622743 0.08206277
0.09620096 0.06284555 0.013866668 0.011044712 -0.0010989007 0.03205626 -0.008350185 0.054499097
0.006818629 -0.048113845 0.024185482 0.040259868 0.066320874 -0.055314437 0.06074079 -0.027888065
0.10317838 0.061441995 0.0552853 0.064586595 -0.033242427 0.027290227 0.12749575 0.067195326
0.017320063 0.013363143 -0.011376168 -0.05731734 0.028753527 -0.0008131496 0.04792838 -0.0847618
0.017401392 0.034870807 -0.0019477997 -0.04434636 0.0394303 0.0011092961 -0.069705024 -0.018056752
0.12037539 0.008649047 0.11475123 -0.009729134 0.022143405 -0.09718281 0.08847624 0.04350464
-0.013556196 0.02990604 0.03858473 0.044391204 -0.065688945 0.010645298 0.043961294 0.056328766
0.035123214 -0.043800876 0.024978563 0.014712405 -0.011108652 -0.07058358 -0.041212063 -0.023945218
-0.038754605 0.059799816 0.0030424313 -0.039190464 0.10324201 -0.044965204 -0.018025333 -0.017242879
0.05470617 -0.02594341 0.06272115 0.008865618 0.1483182 -0.012580149 -0.04861764 -0.033905804
0.027836453 -0.008191083 -0.009816953 -0.068241015 -0.013584422 -0.001089208 0.0118435295 -0.07997725
0.024263509 0.0074486053 0.0037935448 0.10106557 0.042400472 0.077598 -0.000121082754 -0.00146598
0.1287859 0.1163155 0.0033071598 0.017621491 -0.0036521386 0.021682573 0.024910225 0.05294038
-0.022279728 -0.016132586 0.13353956 0.013227217 -0.022631854 -0.04071727 -0.039909005 -0.00840459

mean.weight f4 [2, 256]
00000000: 8345 40bd f757 90bc b799 6b3d 409a 08bd
00000010: ff21 f4bc 9fe9 c8bc f9ee afbb bec5 a83c
00000020: 7156 4d3d e482 47bd b992 6f3d 4070 57bb
00000030: c04c 37ba 3dc6 4abd 588c 62bd fdb9 53bd
00000040: 2e34 893d 6d13 c9bb 3c78 5c3c f95d 643d
00000050: bca0 253d 493f 0c3c 3bed 32bd d4bf a1bc
00000060: b1bc 4fbd b2f2 bfbc 6079 54bd 9634 793d
00000070: ada2 12be 3246 143d cc0c 0c3a 9806 11bd
00000080: 9511 8cbd 403f 1a3d c9ae 3f3d b340 7f3d
00000090: bc4f cfbc 48a2 8e3d d667 503d bb39 a73c
000000a0: d25c 19be e664 1a3c 7ac7 ed3b e79f 77bd
000000b0: 6333 8abc 23dd 9cbc c22e d23b 8429 29bb
000000c0: 097d dbbc a990 743d 12fb e63c 6afd eebc
000000d0: 29a8 99bd e145 2ebd d342 8dbc facd c53d
000000e0: f0d9 f33b 3593 2a3d 4338 1a3d 5333 803d
000000f0: f8f5 8ebc 633d 583c 7980 b4bd b8f1 813d
00000100: 87e1 1bbd 21e5 163c b696 0c3d ed2a 443c
00000110: bffe cc3d 068b 293e ee8f 24bd 56c8 223d
00000120: 9939 7f3d 62af 81bd 1a75 2bbd c951 7abd
00000130: 7502 a43d 7356 1dbd 6505 a73d 4f72 1dbd
00000140: ef38 98bc baef 283d f23a c23c ded1 4bbd
00000150: 4c35 103e 4e7d c1bb 292c f73d c1a2 2c3d
00000160: 16e9 b43b ee10 4cbb e5a9 af3b 8dd9 3b3d
00000170: e7f7 e6bc 5c80 69bd 4136 603c a99b 5ebd
00000180: 5beb 25bd 7f84 ce3b 5996 a9bd 535c 28bd
00000190: 5de5 74bc b2f2 2abd 607e 3d3d 8815 76bd
000001a0: b433 b23c c878 9b3d 7197 b5bd b4ff 043e
000001b0: da30 77bd 12d7 203d 6ef8 5bbc 9553 873c
000001c0: 6659 43bd 1097 c43c 0130 9ebc c78f 733c
000001d0: 4536 4fbb dba4 aebd 8134 25bd 7308 273d
000001e0: 645f f9bc 7866 443d 8fa8 92bc 361f 3e3d
000001f0: 8cbe 4a3d 3bfc 93bd d833 e53d 711c 893d
00000200: 9e3a 713d 8cee 613c 4779 27bd 1c4a 1a3c
00000210: 7907 df3c e19e 813d e44e b3bc 152c 9c3d
00000220: 3864 bcbd 7dfa 44bd c102 413d 6868 06bd
00000230: 5a41 053d a0af 08be faf6 473d da0b 98bd
00000240: 06f6 e2bd 2a3c 813c d958 7f3d 2fe9 963c
00000250: 7b14 d9bd 8a77 593d e0c6 b53c 0dcc 193d
00000260: f26c 27bd 8f18 40bd 8153 fabc ded0 383d
00000270: 6891 f83b b9b2 a8bd f60a 393d 8d96 e3bd
00000280: d119 503d 92af d43c d30e 5fbd c3e9 7abd
00000290: f4d3 483d b770 b7bc 3aed 403d 52dc fbbd
000002a0: 9834 543d f0f8 52bd a800 cfbc 88c6 62bd
000002b0: 7a62 863d c9c8 8d3b d094 3d3d 3335 8fbd
000002c0: c678 0dbd 0675 b9ba c02c 223d 3dc0 3abd
000002d0: 533d 1a3d 6a65 2fbd ad14 6fbd e30e 10bd
000002e0: abcf ab3c 64ef 853c a28e 1f3d 755d 7e3b
000002f0: 4ac6 253d e56b 253c 3c58 b03c 9cf9 3e3d
00000300: 052c 81bd d0ce 9ebc fff4 aabc ef2d 94bc
00000310: e5e3 553d a4a3 863d 5afc 4a3e 02e9 273c
00000320: a523 123d 8941 93bd 0429 923d 76b2 5abd
00000330: 2e68 23bd 6d1c 5fbd d721 82bd 07be cfbb
00000340: ddb3 60bc e45d 233e 882c ecbc 07df 423d
00000350: bd06 183d b905 96bd ed69 19bd d454 81bd
00000360: 5161 863d 8089 5e3c ffe8 603c 89a7 56bd
00000370: d460 43bd e41d cf3c 87dc d63c 9f7d 5c3b
00000380: ed32 14bd 9561 1fbd 048e 14be 6d4a 353c
00000390: 33a1 5cbd 913e 713d b378 a2bd ec6f 653d
000003a0: dc37 343d b2d5 83bd 44bd 14bd fd47 b93c
000003b0: 95f1 843e 3c75 4ebd 2821 893a 5fb5 863d
000003c0: fab1 823d c236 453b fc10 1b3d 3105 893d
000003d0: 84b4 003d 174c a23b 20e3 6e3c e819 2c3d
000003e0: cb39 c83c 9ed4 4e3d a2fd 68bd 2761 ae3d
000003f0: fda1 4b3b c940 4c3d 39bc 33bd 86a6 263d
-0.04694129 -0.01762007 0.05751964 -0.03335023 -0.029801367 -0.024525462 -0.005369064 0.020602103
0.050131265 -0.04870881 0.058489535 -0.0032873303 -0.00069923326 -0.04950546 -0.055309623 -0.051691044
0.066994056 -0.006136349 0.0134564005 0.05575368 0.04043649 0.00856001 -0.04368327 -0.019744791
-0.05071706 -0.023431156 -0.051873565 0.060841165 -0.14319868 0.036199756 0.0005342483 -0.03540668
-0.06839291 0.037657976 0.046797547 0.06231756 -0.025306575 0.069645464 0.050880276 0.02041327
-0.14976814 0.00942347 0.0072564455 -0.06045523 -0.016870206 -0.019148415 0.0064142654 -0.0025812099
-0.02679302 0.05970827 0.028195892 -0.029173572 -0.07502777 -0.04254711 -0.017243778 0.096584275
0.0074417517 0.041644294 0.03765131 0.06259789 -0.017451271 0.0131982295 -0.08813567 0.06344932
-0.038056877 0.009209902 0.034323417 0.011973125 0.100095265 0.1655694 -0.040176325 0.039741836
0.06231079 -0.0633228 -0.041859724 -0.061113153 0.08008281 -0.038412523 0.08155326 -0.03843909
-0.018581836 0.041244246 0.023709748 -0.04976069 0.14082831 -0.00590483 0.1206897 0.0421474
0.00552095 -0.003113802 0.005360829 0.04586177 -0.02819438 -0.05700718 0.01368481 -0.054347668
-0.040507656 0.006302416 -0.0828063 -0.041103672 -0.014947263 -0.04173536 0.0462631 -0.060079128
0.02175317 0.075913966 -0.08866776 0.12988168 -0.060349323 0.039267607 -0.0134259295 0.016519347
-0.04769268 0.023997813 -0.01931 0.014865822 -0.003161804 -0.085275374 -0.040333275 0.040779542
-0.030440994 0.047949284 -0.01790264 0.046416484 0.049498126 -0.072258435 0.11191529 0.06694878
0.058893792 0.013789784 -0.040887143 0.009417083 0.027225243 0.06329132 -0.021888204 0.076255955
-0.09198803 -0.048090447 0.047121767 -0.032814413 0.032533027 -0.13348246 0.04881952 -0.074241355
-0.110820815 0.015775759 0.06234059 0.018421737 -0.105996095 0.053092517 0.022189558 0.037548114
-0.040875383 -0.04689842 -0.030557396 0.045121066 0.007585693 -0.08237214 0.04517647 -0.111127
0.05080587 0.025962625 -0.054457497 -0.06125809 0.04903026 -0.022392614 0.047101237 -0.12297882
0.05180797 -0.051506937 -0.025268868 -0.055365115 0.06561752 0.004326914 0.046284497 -0.06992569
-0.034539007 -0.0014149256 0.03959346 -0.04559349 0.03765614 -0.042821325 -0.058369327 -0.035170447
0.020973047 0.016349502 0.038954385 0.003881303 0.040472306 0.010096525 0.021526448 0.046624765
-0.06307224 -0.019385725 -0.020868776 -0.01808831 0.05221929 0.06574181 0.19822827 0.0102484245
0.035678525 -0.07190234 0.07136729 -0.05339285 -0.039894275 -0.05447047 -0.06354111 -0.0063397917
-0.013714758 0.15953785 -0.028829828 0.047575977 0.0371158 -0.0732531 -0.037454534 -0.06315008
0.065615304 0.013582587 0.013727426 -0.052405868 -0.047699764 0.025282808 0.026228203 0.0033644212
-0.03618138 -0.03891142 -0.145073 0.011065108 -0.05386467 0.05889756 -0.07933178 0.05601494
0.043998584 -0.064372435 -0.03631331 0.022617334 0.25965562 -0.050404772 0.0010462152 0.065775625
0.063816026 0.0030092453 0.037857994 0.06690443 0.031422153 0.0049529183 0.014580518 0.042016894
0.02444162 0.050495736 -0.056882508 0.08514624 0.0031071894 0.04986647 -0.043880675 0.040686153

mean.bias f4 [2]
00000000: 802f 543d 4518 a53d
0.051803112 0.0806127

value.weight f4 [1, 256]
00000000: 6988 9d3e 4d1b c0be 1f22 0abf 67fd 41be
00000010: 3f83 0abf 6e5a c0be 414e aabe 7c87 6e3c
00000020: f4a6 233f e95c de3e bbb9 913c 5af9 c2be
00000030: fcce 9cbe c214 c2be 12e0 0b3d cd48 c33a
00000040: 6131 a2be a32c c43c 8f2e c7be 9b13 363d
00000050: fd2c 1f3c 0848 81be 4a82 6fbe b9ca 56be
00000060: 6f5f d9be c6ed 69be 9525 8ebe 82ce be3e
00000070: 5f89 143f bfb4 03bf 3417 ed3e b7af 99be
00000080: 45e5 8cbe 8792 8fbe 2c34 863e 9adb 083f
00000090: ad38 f33c a27d b7be d7b5 9bbe 5bf4 a0be
000000a0: 0be6 a13e c570 5f3d 56dc e03e 5697 453c
000000b0: 2527 cabe 29b1 4a3d 41d3 e73e 4dce 88be
000000c0: 2fbb 88be a178 533d 0c65 813c 4faa b13e
000000d0: 08ec b93e 4c68 89be 0b45 a8be 3b01 cb3e
000000e0: 5735 75be 57b5 a13e 3b76 babe 9692 68be
000000f0: 23cc 053f b0bf fd3e 19f2 233f 389b 2f3c
00000100: 10c0 053f 0ea0 ca3e 1feb 173f 0d2a c0be
00000110: fd24 933e c521 093f 939f 97be ed01 95be
00000120: 9cb8 3dbe 4551 8dbe ec51 023f 0a8b da3e
00000130: a43d be3e 1fd8 55be 3101 4d3e e79a 42be
00000140: d906 99be 3e1e 88be aceb 56be 15dc 053f
00000150: 3dd2 db3e 2a06 a0be 0b42 a03e 8b9b 9bbe
00000160: 8f27 41be 2afe 3ebf 11ca 34be 42cd f73c
00000170: abfc 9ebe 0ec7 f3be 2846 9a3e b70f 47be
00000180: 321f aabe e806 d43e 86f3 1a3f 9c0b 3b3d
00000190: c9aa 0d3f 54ec 8f3c d4d5 c0be 4097 15bf
000001a0: 8789 d13e 321b b43e d5f5 f93e 1bf9 11bf
000001b0: b8d3 89be fe86 9d3c 9960 153f 7f45 c1be
000001c0: 0786 cb3c 826f cb3e 14c7 fe3e 3eef 90be
000001d0: d9c3 4cbe 0f4e ebbe 352c 22be 4279 0f3f
000001e0: f4f7 abbe f869 47be a566 c03e 033e 503d
000001f0: cd4f c5be 758c e9be 1216 023f 7195 1dbf
00000200: c7ed a3be 1082 3dbe aab8 173f 8b2d 8abe
00000210: 3003 53be 0207 91be 39a9 eb3e c2d5 8abe
00000220: 86e1 f8be a7b9 d43e 5b3d 72be ce13 0e3f
00000230: 245b dc3c eb16 233f 314a 0a3f 6fe1 a93e
00000240: f11e fa3e e2af c23e 8bba c9be 606e 053f
00000250: 715f 143f 524a 27be 201b dabe b8c9 91be
00000260: 48f9 abbe 641e 06bf 86c1 9a3c 3364 c33e
00000270: cea7 d83e 8a26 e8be eed4 0e3f 7e36 ccbe
00000280: 2bcb cc3e 9e54 3e3f c3a6 3ebe 6b24 293f
00000290: 22c6 513d f561 7cbe 5ea5 bb3e d406 113f
000002a0: bf5b 92be 09a5 bdbe 09ba 363d 1f6f 2e3d
000002b0: 682c 8bbe 644a 76be 23da 70be 05d6 f9be
000002c0: bd19 d9be f3b4 83be 1e90 84be 7c48 91be
000002d0: a007 84be 6341 c2be ff62 92be 5da4 72be
000002e0: abad c43e 4cbc c23c f0d5 a43e a842 f0be
000002f0: 0f29 7bbe 30ae 0ebf 8ea5 d13e b58d b43e
00000300: 6187 a1be 04dc ef3e fffb 9a3e f407 3bbe
00000310: 43fa 92be 5736 a8be 4abe 613f c01e bd3e
00000320: 68e3 0c3f a1b4 a8be 2266 403e cce5 9ebe
00000330: c14f fdbe 33d9 a2be 361d babe ccf9 023f
00000340: 138e 113f 139b 06be 6396 45be 3c9c 00bf
00000350: 27db f43e bc27 023f 4df7 b0be db60 4bbe
00000360: 9e4e 81be 8043 023f fb92 df3e b7b9 4cbe
00000370: 2684 b53e 365a 3ebe 7ba1 15bf c988 723d
00000380: a10d f23e aadf 96be 6f88 213f 14ca 8ebe
00000390: 660a 0c3d b3cb a1be 59c1 f7be cde1 89be
000003a0: 1655 ddbe 9fb7 7abe 85e6 fb3e 1467 bd3e
000003b0: e4c7 963f d650 a63e 3f51 8dbe abea c3be
000003c0: b1dc c23e f60a c63e 2bb0 313d 5a1f 38be
000003d0: f3cb 9dbe 28e4 a5be d710 da3e 4545 2d3d
000003e0: 8def 76be ec4c 29bf 5214 a43e c76a f03e
000003f0: f201 f93c 08e8 0b3f 90fe 45be d844 0bbd
0.30768135 -0.3752083 -0.53958315 -0.18944322 -0.54106516 -0.37568992 -0.33262828 0.014558669
0.63926625 0.4343026 0.017788759 -0.38080865 -0.30626667 -0.37906462 0.034149237 0.0014899016
-0.31678298 0.023947066 -0.3890271 0.04445229 0.009715316 -0.25250268 -0.23389545 -0.2097577
-0.42455623 -0.2284461 -0.27763048 0.37266928 0.5802211 -0.5144767 0.46306765 -0.30016872
-0.2751867 -0.2804148 0.2621168 0.53460085 0.029690111 -0.35838038 -0.3041217 -0.31436428
0.3162082 0.054550905 0.43918103 0.012060007 -0.3948299 0.04948536 0.4527836 -0.26719895
-0.2670531 0.051628713 0.015795253 0.34700248 0.3631289 -0.26837385 -0.32865176 0.39649376
-0.23946129 0.31583664 -0.36418328 -0.22712168 0.5226461 0.49560308 0.64041287 0.010718159
0.5224619 0.39575237 0.5934314 -0.37532082 0.28739157 0.53567153 -0.29613933 -0.29103032
-0.18527454 -0.27601066 0.5090625 0.42684203 0.37156403 -0.20883225 0.20019986 -0.19004403
-0.29888037 -0.26585573 -0.20988339 0.52288944 0.42933837 -0.31254703 0.31300387 -0.30392107
-0.18862747 -0.74606574 -0.17655207 0.030249242 -0.31052145 -0.47612804 0.3013165 -0.19439588
-0.33226925 0.4141152 0.6052784 0.04566537 0.5533872 0.017568745 -0.37663138 -0.58433914
0.40925238 0.35176998 0.48820367 -0.5702073 -0.2691934 0.019229408 0.5835052 -0.37748334
0.024844183 0.3973351 0.4976126 -0.28307527 -0.19996585 -0.4595799 -0.15837176 0.560444
-0.3358761 -0.19474018 0.37578312 0.05084039 -0.38537446 -0.45614973 0.50814927 -0.61556154
-0.32017347 -0.18506646 0.5926615 -0.26987872 -0.20606685 -0.2832566 0.46027544 -0.2711621
-0.4860956 0.41547891 -0.23656218 0.5549897 0.026898928 0.63706845 0.5401946 0.33179805
0.4885173 0.38024813 -0.39400133 0.52121544 0.5795813 -0.16336945 -0.4259882 -0.28474212
-0.33588624 -0.5239012 0.018891107 0.38162383 0.42315525 -0.45341903 0.55793655 -0.39885324
0.39998755 0.74347866 -0.18618302 0.66071194 0.051214345 -0.24646743 0.36649603 0.56651044
-0.28585622 -0.37039974 0.04461101 0.042586442 -0.27182317 -0.24051815 -0.23520713 -0.48796096
-0.4240245 -0.2572399 -0.25891203 -0.28375614 -0.25787067 -0.3794051 -0.28591153 -0.23695512
0.38413748 0.023771428 0.3219447 -0.46925855 -0.24527381 -0.5573454 0.4094662 0.35264364
-0.31548598 0.46847546 0.30270383 -0.18264753 -0.2870656 -0.32853958 0.88180983 0.36937523
0.55034494 -0.3295031 0.1878896 -0.31034696 -0.4947491 -0.31806335 -0.3635041 0.5116241
0.56857413 -0.13145094 -0.19295649 -0.50238395 0.4782345 0.5084188 -0.34563676 -0.19861166
-0.25255293 0.50884247 0.43666825 -0.1999272 0.35452384 -0.185891 -0.58449525 0.05921248
0.47276023 -0.29467517 0.63098806 -0.27888548 0.034189604 -0.31600723 -0.483897 -0.26930085
-0.43228978 -0.24484108 0.4919931 0.36992705 1.1779752 0.32483548 -0.27601048 -0.38264975
0.38059 0.38680238 0.043380897 -0.1798071 -0.30819663 -0.32400632 0.42590973 0.04230239
-0.24114819 -0.66133 0.32046753 0.46956465 0.030396435 0.54650927 -0.19335389 -0.0340012
