ppo/PPO_LunarLander_ep100.pth (torch, 279026 bytes, 8 tensors)

log_std f4 [1, 2]
000000 1b c1 74 3a 71 5e 1c ba
       0.0009336636 -0.00059650006

fc1.weight f4 [256, 8]
000000 6c 46 e6 3c c7 ba 42 3e 66 95 ab be 06 dc 56 be
       0.028109752 0.19016562 -0.3351242 -0.2098237
000010 6b 94 ac 3e c8 10 b9 3d bd 31 a9 3e b1 56 0a 3e
       0.33706984 0.09036404 0.3304576 0.13509633
000020 39 0c a4 3e 52 c5 0e 3e a0 8f 2b bd 7b 07 cc 3c
       0.32040575 0.13942459 -0.04188502 0.02490591
000030 a1 6c 94 bd 32 cd d9 be be 26 b5 3e ae 22 a7 3e
       -0.07247282 -0.42539364 0.3538112 0.32643646
000040 19 b0 d9 3d 5e 7b 71 bd 11 ec c2 bd 66 cd 0a 3e
       0.10629291 -0.058955543 -0.09517682 0.13554916
000050 9d 38 d1 be dd 1c fa bd b4 18 58 3c 8b cf ba 3c
       -0.40863505 -0.122125365 0.013189483 0.022804042
000060 46 94 c1 39 7b 5b 4a bd bb ba bc be 63 5b 57 bd
       0.000369223 -0.04940365 -0.36861214 -0.052577388
000070 9c 8f 67 3e 46 69 45 bc cd c1 6e 3e e6 db b7 3d
       0.22613376 -0.012049025 0.23316117 0.08977489
000080 a3 fc e1 bd 4f 35 60 be 98 29 a7 3e b2 5e c1 be
       -0.11034515 -0.21895336 0.3264892 -0.3776756
000090 e3 08 90 be 36 d7 c3 be db 9e bb 3e 55 51 88 bb
       -0.2813178 -0.3825013 0.36644635 -0.004160086
0000a0 9c da 94 3e d1 57 d5 bb 3a 39 22 b9 96 ae 30 3d
       0.29073036 -0.0065107127 -0.00015470842 0.043135248
0000b0 ba e7 d8 bc 73 dd 36 3e 63 3d 8c be c3 e4 03 be
       -0.026477683 0.17857914 -0.27390584 -0.12880234
0000c0 a1 36 08 3d 97 f7 c5 3e 19 f2 28 be 0b da ae be
       0.033255223 0.3866546 -0.16498603 -0.3415073
0000d0 48 81 ba 3d 58 8c 9a 3e c5 77 9b bd ba 0e 24 be
       0.0910669 0.301852 -0.075912036 -0.16021243
0000e0 95 88 00 3e de f1 8d 3d 9b b2 09 be 39 62 9d bd
       0.12552102 0.06930898 -0.13447039 -0.0768475
0000f0 a8 15 82 3d aa 60 9d be a1 fc ee bd c4 38 21 3e
       0.06351787 -0.3073781 -0.11669279 0.1574431
000100 7b b6 8a 3e 5a e3 07 3e 42 04 7e 3d 4f 6c 7d be
       0.27092347 0.13270321 0.06201578 -0.24748348
000110 c3 b4 55 3e 3d 92 aa be 67 2c bc 3e 08 4d 78 be
       0.20869736 -0.33314696 0.36752626 -0.24248135
000120 3d d0 64 be f9 b4 8c be 21 29 4c 3c 12 37 8e 3e
       -0.22345062 -0.2748182 0.012460978 0.2777639
000130 80 81 b9 bd 9f 67 f8 bd 6a 86 9a 3e 91 4b ad bd
       -0.09057903 -0.12129139 0.30180675 -0.08461679
000140 db 5e 2f 3c c6 6c 98 3e 60 b1 ae 3e 34 7a b3 be
       0.010703768 0.29770488 0.341197 -0.3505417
000150 15 de 67 bc bc ad 3f 3e 8f 5b aa 3d 8c 50 16 be
       -0.01415207 0.18718618 0.08318245 -0.14679164
000160 9f 6b ab be 62 34 11 be 55 ba 8f 3d 84 8f a8 3d
       -0.33480546 -0.14180139 0.07017962 0.082304984
000170 db cf b7 3e 7e 35 0b 3e 84 ac 22 3e a8 9b 47 3e
       0.3590077 0.13594624 0.15886122 0.19492972
000180 e4 7f c2 3e c1 01 24 be 34 dd d3 3e f4 e5 e9 3c
       0.37988198 -0.16016294 0.41379702 0.028552033
000190 43 a0 a8 be 01 f8 0d 3e 5e a7 ce 3d 31 4a 93 3e
       -0.3293477 0.13864137 0.100905165 0.2876754
0001a0 82 6c cd 3e ea 67 5e be b6 0e 61 3e 3f 0b 4b be
       0.40121847 -0.21719328 0.21978268 -0.19828509
0001b0 d1 98 0d 3e 32 39 b6 bc b5 7c 49 3e e5 e7 ef 3d
       0.13827826 -0.02224407 0.19676478 0.11714152
0001c0 ef ed 8a be be 77 9a 3c 55 59 6f be 14 6c 1d bd
       -0.27134654 0.018855926 -0.23373921 -0.03843315
0001d0 ee c4 8a 3e 7b 62 b5 3e 8c fe 3e be a0 ec ec bd
       0.2710337 0.35426697 -0.1865179 -0.1156857
0001e0 19 99 bb 3e d1 a6 2e be ce f9 c2 3e 62 94 2f 3e
       0.36640242 -0.17055823 0.3808121 0.17146447
0001f0 45 ce a7 bd 0c 0a ff bd 28 74 29 3d a4 87 f3 3a
       -0.0819364 -0.12453088 0.04137054 0.0018579853
000200 c4 c9 c9 3e 18 b2 6e be 07 2c b1 3d 9c da d5 be
       0.39411747 -0.23310125 0.08650976 -0.41768348
000210 a1 a3 b3 be ee 60 63 bd e7 e8 c0 bd 01 c1 94 be
       -0.35085776 -0.05551236 -0.094194226 -0.290535
000220 69 be cf bd 66 b4 aa 3e 8b 2d 66 be a5 64 87 be
       -0.1014374 0.33340758 -0.22478311 -0.26443973
000230 28 73 a2 be c0 a1 9e 3e 2c c5 a0 bd 20 f1 80 be
       -0.31728482 0.3098278 -0.078501076 -0.25183964
000240 cb 4a 25 3d 90 c8 66 3e 10 52 ad 3c a4 73 7d 3e
       0.04035453 0.22537446 0.021157295 0.24751145
000250 15 a5 a9 3e 80 c1 b5 be 7f 5d 7e be 98 7f 25 3e
       0.3313376 -0.3549919 -0.24840353 0.16161954
000260 5d f0 ca 3e 18 47 78 bd 37 34 81 3e 1f f3 9b be
       0.39636508 -0.060614675 0.2523515 -0.30458924
000270 f6 8e 98 be e2 2c 07 be 92 78 b5 bc 63 cd 0b 3e
       -0.2979657 -0.13200715 -0.022152219 0.13652568
000280 0c 19 cb be 2b 69 7c 3e 99 4e 62 be f6 c3 87 3e
       -0.39667547 0.24649493 -0.22100295 0.26516694
000290 51 dd 9c 3e b7 36 65 3e 46 d8 8e be af 66 a5 be
       0.306376 0.22384153 -0.2789938 -0.32304904
0002a0 2c a1 ce bd 83 bb d9 3e e3 37 2c 3e 60 ae 00 bd
       -0.10089335 0.42525873 0.16818194 -0.031416297
0002b0 97 d5 8f 3e 9c f2 74 be ee df 8e 3e 7f 08 a4 3e
       0.28092644 -0.23920673 0.2790522 0.32037732
0002c0 9b cf 4f 3e 07 a4 60 3e e5 93 4a 3e b7 80 9c be
       0.20294039 0.21937571 0.1978298 -0.30566952
0002d0 44 c0 22 3e 2e ab b4 be 90 a4 0d bd fc 33 18 3e
       0.15893656 -0.3528685 -0.034580767 0.1486358
0002e0 49 13 8d 3e ad da 91 bd 39 d6 f4 bd b9 17 ac be
       0.27553776 -0.07121787 -0.11954922 -0.3361185
0002f0 88 cd 4c bc 21 be 66 3e de 38 47 be fd a5 8f be
       -0.012500174 0.22533466 -0.19455287 -0.28056327
000300 9f e6 3d be e0 dd 8e 3e e1 64 80 be 72 27 7d be
       -0.18545006 0.27903652 -0.25076964 -0.24722078
000310 36 ca 92 3e bd 26 06 3d ea ff 8a be 83 11 52 3e
       0.286699 0.032751787 -0.27148372 0.20514493
000320 93 e7 d3 3d e5 43 dd 3e 85 6c 84 bd 55 00 5c be
       0.10346904 0.43215862 -0.06466011 -0.21484502
000330 01 fb a9 3e 12 8b 6f 3d 56 9c 20 be 02 d1 5a be
       0.33199313 0.058482237 -0.15684637 -0.21368793
000340 c1 b5 73 be 00 51 4f 3e 3f 01 4b be eb db 21 be
       -0.23799802 0.20245743 -0.19824694 -0.15806548
000350 65 5d 9c be ae eb 8f 3d 05 7d a7 bc b7 40 1c be
       -0.30540004 0.07027374 -0.020445356 -0.15259062
000360 ab 41 11 3e 94 a0 f1 bd cc bd 8e be c8 71 c6 3c
       0.14185207 -0.11798206 -0.2787918 0.024224177
000370 08 95 e7 bd a5 6e bf bd b8 2e 45 3e c7 d0 64 3d
       -0.11307722 -0.09347276 0.19256103 0.055863168
000380 e8 16 66 bd 0b 8e 03 be 65 a0 2e be 76 19 59 be
       -0.05617419 -0.12847154 -0.17053373 -0.21201119
000390 df 36 9d 3d 5c 95 96 3e 01 4e 8a be d7 d0 cc bd
       0.076764815 0.29410827 -0.27012637 -0.100007705
0003a0 18 98 45 be d0 a0 eb bd b5 87 87 be b3 ad 08 3e
       -0.192963 -0.11505282 -0.26470724 0.13347511
0003b0 09 08 a0 3e f0 c9 37 3e 0a 95 7c be 3a 1a c7 3e
       0.3125613 0.17948127 -0.24666229 0.38887197
0003c0 f3 fd 22 3d f3 48 c6 3e 6d 98 19 bd 64 24 2b 3e
       0.039792966 0.3872753 -0.03749888 0.167131
0003d0 d1 d3 7a be de 1d 98 bd e4 20 86 3b eb c0 a4 be
       -0.24494864 -0.07427572 0.0040932763 -0.32178435
0003e0 e5 cc 1d 3e db 8b 60 be 09 62 bc 3e 6d 06 29 3e
       0.15410192 -0.2192835 0.36793545 0.16506357
0003f0 d3 af 53 bd 29 a0 52 be ee 16 58 be 28 8e af be
       -0.05168135 -0.20568909 -0.21102497 -0.34288144

fc1.bias f4 [256]
000000 0f e6 ac bd 77 f6 38 3d 0d 14 61 3e 3a 0a 6b 3d
       -0.08442318 0.045156922 0.21980305 0.0573828
000010 7b b6 a0 3e 41 db ce bd a0 bd 8f 3c 97 09 56 3e
       0.31389222 -0.10100413 0.017546475 0.20902096
000020 26 bd ee bc 49 0f b7 3d 0a ea a9 3e 04 2a b5 bd
       -0.029142927 0.08938462 0.3318637 -0.088459045
000030 c3 25 55 bd ca 41 1f 3d e3 56 4d be 12 72 75 be
       -0.052037966 0.0388811 -0.20052676 -0.23969296
000040 4d 13 b6 bd a5 65 a0 3e a6 b9 d1 3e e9 1d 62 3d
       -0.088904 0.3132755 0.4096195 0.055204306
000050 2c ac c2 bd f0 f5 50 3e 70 7e 8e 3e c4 be f4 3d
       -0.095054954 0.20406318 0.2783084 0.11950448
000060 21 2e d9 3d 34 94 ff bd 14 0f ae 3e 95 36 30 3e
       0.106045015 -0.124794394 0.3399588 0.17208321
000070 c3 9c b7 3e bc 9c 67 3e dc 93 ca 3e 41 39 92 3e
       0.35861787 0.22618383 0.39565933 0.28559306
000080 cc 37 82 bd dc 1c 94 3e 11 fe 6d 3e cc c6 7e be
       -0.06358299 0.28928268 0.2324145 -0.24880522
000090 a2 bd 7f be 2c c0 c3 bc 66 b5 0f 3c 06 a2 8d 3d
       -0.24974683 -0.023895346 0.008771276 0.06915669
0000a0 a9 af 6d be a0 c5 60 3e 30 2e 9c 3e 05 44 a8 3e
       -0.2321154 0.21950388 0.30503988 0.32864395
0000b0 07 98 94 3e 51 ee ef 3d b4 58 a3 3d df e7 2d bd
       0.29022238 0.11715377 0.07975903 -0.042457458
0000c0 f8 ff 3e 3d db 15 6d bd 30 8e a2 3e 79 7d 04 3e
       0.04663083 -0.05788217 0.31749105 0.12938489
0000d0 c2 18 aa 3e f4 fb 92 3e 23 82 6a 3e 98 b2 61 3e
       0.33222014 0.2870785 0.22901206 0.22040784
0000e0 80 4f 26 be ab 68 bb 3d 8d 07 70 3e c1 8f d8 3e
       -0.16241264 0.09150823 0.2344038 0.42297176
0000f0 4a c0 03 be 21 20 89 3c 2f fc 89 3e 76 55 cb 3e
       -0.12866321 0.016738953 0.26950213 0.3971364
000100 e2 c6 b6 3e a7 40 ad 3e b8 91 f1 bc 9c d0 e2 3d
       0.3569861 0.33838388 -0.02948843 0.11074945
000110 0c 4b 8e 3e b8 e6 64 3e 3b 14 23 be 9c 15 31 be
       0.2779163 0.22353637 -0.15925686 -0.172934
000120 00 dc 57 3e 71 7e f6 bd 70 13 5b be 6b e3 80 3e
       0.21080017 -0.120358355 -0.21394134 0.25173506
000130 51 98 2c be 25 e3 7b 3e a6 0c b7 3e bd 84 b9 3c
       -0.16854979 0.24598368 0.35751837 0.022646302
000140 60 3f 4e be 34 aa 83 be 40 df 31 be c2 4a 2a 3e
       -0.20141363 -0.25715792 -0.1737032 0.1663008
000150 34 62 14 be f7 6f 28 be 6e a9 03 3e 25 4b c4 bd
       -0.14490587 -0.16448961 0.12857601 -0.09584645
000160 9a c7 8a 3e 2f 27 1d 3e 35 26 64 3c 33 1b e3 bd
       0.2710541 0.15346979 0.013925125 -0.11089172
000170 bb b8 92 bd f8 58 76 3e 0c 0d bb 3e db 16 9e 3e
       -0.07164141 0.24057376 0.3653339 0.30876812
000180 fe 70 cf 3e 9d 42 46 3e 17 31 1b be c4 99 ed 3c
       0.40515894 0.19361348 -0.15155445 0.029003985
000190 ea 93 15 be 4d 2b 55 be 59 74 05 3d 55 af 57 bd
       -0.14607206 -0.20817299 0.03258166 -0.052657444
0001a0 ef b0 8d be 24 97 10 be 55 f1 c5 3e bf a1 bb 3e
       -0.27674052 -0.14120156 0.38660684 0.3664684
0001b0 dd ab 72 bc b3 e1 82 bc 75 2f 7b 3e d9 be ea 3a
       -0.014811483 -0.015976762 0.24529822 0.001790966
0001c0 be 02 51 bd 73 20 e9 3d 91 83 a9 3c 1e 3d 72 3e
       -0.051028006 0.11383142 0.020692619 0.23656127
0001d0 20 5e 90 be cd 6f a3 3e 40 ad 10 be 81 18 e6 bd
       -0.28196812 0.31921235 -0.1412859 -0.112351425
0001e0 8b 95 c9 3e 4e 2c 19 3e 06 7d 38 3e 0e a1 45 bd
       0.39371905 0.14958307 0.18016443 -0.048249297
0001f0 32 30 ca 3e bf 69 8c 3e 5d 87 18 be f5 10 1d bd
       0.39489895 0.27424428 -0.14895387 -0.03834625
000200 db 27 12 bd 1e 36 ef bd 9a 48 14 be fe a6 93 bd
       -0.03568254 -0.11680244 -0.1448082 -0.072095856
000210 96 b5 8c 3e 00 51 8e 3e 50 9a 2d 3e 86 b8 9d 3e
       0.2748229 0.27796173 0.16953397 0.30804843
000220 b0 91 c6 3e 88 2b 95 be 90 68 e6 bd 46 f2 c1 3d
       0.38783026 -0.29134774 -0.112504125 0.09470038
000230 b4 05 9a 3e 48 d9 d0 3e d8 81 5f be 70 2d 51 be
       0.30082476 0.40790772 -0.21826875 -0.2042749
000240 9f 9d a3 3e 64 51 b6 3e 2d f0 6b 3e f2 a2 c9 bd
       0.31956193 0.3560897 0.23040839 -0.098455325
000250 a3 d1 1e be 4b 61 7d 3d 02 1d 85 bd b1 e5 ef 3d
       -0.15509658 0.061860364 -0.064996734 0.11713732
000260 cb 9e e5 3d 5e d1 96 3d 8f ac 3e be 91 26 c5 3e
       0.11211928 0.07364152 -0.18620513 0.38505986
000270 59 64 36 3c fd c2 9c 3d d7 c2 d1 3e 4b 83 7e 3e
       0.011132323 0.076543786 0.40968964 0.24854772
000280 02 e9 75 be 4b c9 33 3e 11 1e fc bd 4e 2e 5a 3e
       -0.24014667 0.17557256 -0.12310422 0.21306726
000290 26 b9 43 3d c3 db 4c be 4f c4 5d be 42 c4 31 3e
       0.047783993 -0.20005707 -0.21656917 0.17360023
0002a0 71 56 c4 bd 56 2b 75 3e 7c 14 a0 3c 70 29 8c be
       -0.095868 0.23942313 0.019541018 -0.27375364
0002b0 f9 a1 d5 3b a4 50 61 bd 68 a1 d4 3e 6d d3 69 be
       0.006519553 -0.055008546 0.41529393 -0.22834559
0002c0 af 58 e0 3d 8a 91 13 3e 07 cf 38 be 83 05 11 be
       0.10954415 0.14410987 -0.18047725 -0.14162259
0002d0 55 60 65 3d d1 11 27 3e ae cf 88 3d 5e 6d ec 3d
       0.056000073 0.1631539 0.06680237 0.11544298
0002e0 35 5f 6d 3c cc 68 24 bd dd e6 60 be dd 16 1b be
       0.014488031 -0.040139005 -0.21963067 -0.1514544
0002f0 fb 52 69 3e a0 fd 47 be 30 f4 86 3e 23 dc a9 3e
       0.22785561 -0.19530344 0.26358175 0.33175763
000300 dd 4e 7a 3e 15 05 09 bd 43 72 f3 bc 20 3d 3a 3d
       0.24444146 -0.033452112 -0.02971757 0.04546845
000310 e4 da ea 3d f9 a4 32 3e c9 6f 86 3e e5 44 cf 3e
       0.11467531 0.17445745 0.2625716 0.4048225
000320 1a 1a 81 be c5 63 3d 3d 64 c6 9b ba f6 52 95 3e
       -0.25215226 0.046237726 -0.0011884687 0.29164857
000330 4f 88 6c be e5 f3 3c be c3 e1 89 3e 6f 7f b4 3e
       -0.23098873 -0.18452413 0.26930055 0.35253474
000340 18 9f 56 3c 12 b5 3b 3d 07 b4 81 3e 28 09 58 be
       0.013099454 0.04582698 0.25332662 -0.21097243
000350 76 d9 73 3e fa 5a 46 be f8 f9 8a be a3 1a 22 3e
       0.23813424 -0.19370642 -0.27143836 0.15830474
000360 cc 32 7d 3c 02 61 95 3e 6f 0d 72 be 73 b4 25 be
       0.015454005 0.29175574 -0.23637937 -0.16182117
000370 20 99 80 3e 8a f7 2c be a6 b9 1b 3e e3 42 12 be
       0.25116825 -0.16891304 0.15207538 -0.14283328
000380 19 43 ab 3e f2 8b 8a be 68 56 22 3e 07 67 f2 3c
       0.3344963 -0.27059895 0.15853274 0.029590143
000390 fa 9c b8 bd 88 6d 5e 3c 6a 93 a2 3e 0d 5e a7 3b
       -0.09014316 0.013575919 0.31753093 0.0051076473
0003a0 d1 e6 8c be 8e 97 8b 3e 52 15 a4 3e 61 dd d0 3e
       -0.2751985 0.27264065 0.32047516 0.407939
0003b0 58 15 b9 3e 85 07 f4 bd 5a df f0 3d 14 8f d5 3e
       0.36149096 -0.11915497 0.11761351 0.41710722
0003c0 98 b9 9d be 1a ba 39 3e 29 f4 d9 bd 7e e0 aa 3e
       -0.3080566 0.18137398 -0.10642273 0.333744
0003d0 fe 1a 3c be f1 fc d9 3d 28 43 9b 3e 9c 0b d6 3e
       -0.18369672 0.10643948 0.30324674 0.41805732
0003e0 e6 dc 8d bb 49 df 65 be 6e b8 0e be d1 29 fc bc
       -0.0043293117 -0.22448458 -0.13937542 -0.030781658
0003f0 e8 81 d0 3d a1 40 d3 3e a6 54 d2 3e 91 53 41 3e
       0.10181028 0.41260245 0.41080207 0.18879534

fc2.weight f4 [256, 256]
000000 1e 54 f1 3c 49 b2 44 3d e9 20 0a bd d2 23 6c 3d
       0.029459056 0.04802159 -0.03372279 0.05765135
000010 d1 a5 5a bd 37 11 8c 3c 5e 4d 68 bd d4 20 12 bd
       -0.05338079 0.017098052 -0.056714408 -0.03567584
000020 c3 a0 a0 bc 07 f8 04 3a 4e 1f 5f bd 9e bd 48 bd
       -0.019607907 0.00050723593 -0.054473214 -0.049008958
000030 e6 82 df bc 29 6a 64 bd 9b 51 5d 3d da 4c 1d 3d
       -0.027284097 -0.055765305 0.054032903 0.03840337
000040 9d 24 b9 3c 0d 7e 19 3d 00 77 2f 3d 4d 89 9e 3c
       0.022600466 0.037473727 0.042838097 0.01935258
000050 9d b8 3f bd f7 6f 32 bd e6 9c 46 3d 74 fc ca bc
       -0.04680692 -0.04356381 0.048489474 -0.024778582
000060 5d 8a 4f 39 8c 5d 5f bd 4b 09 ab 3c 80 72 19 bd
       0.00019792603 -0.054532573 0.020878455 -0.03746271
000070 87 17 5f 3d 83 6b 0e 3b c1 bc 8d 3c f0 b7 6d bd
       0.054465797 0.0021731562 0.017301919 -0.058036745
000080 76 16 10 bc 27 8e 1a 3d c3 c8 a6 3c b0 12 34 3d
       -0.008794418 0.037733223 0.020359403 0.043963134
000090 ee 73 91 bc 01 1e ed bc 89 53 73 bd b8 c6 86 bd
       -0.017755475 -0.028944971 -0.059405837 -0.06580871
0000a0 60 a8 2a bb c8 2b 07 bd ba 0b 20 bc 74 a3 a1 bb
       -0.00260403 -0.033000737 -0.009768421 -0.004932815
0000b0 b7 a8 12 3c 22 69 71 bd aa 9b 8c 3b 8c a1 ad 3c
       0.008951358 -0.058938153 0.0042910175 0.021195196
0000c0 88 f0 aa 3b 0a 33 9d 3c bb fe 8d bc 22 e7 50 bd
       0.005216662 0.019189376 -0.017333379 -0.051001675
0000d0 5a 8d 89 bc 3c e3 18 bd 67 4f 6c bd f8 ad e4 3c
       -0.016791034 -0.037326083 -0.05769291 0.027914986
0000e0 5f 54 01 3d 6e 95 41 bc 2a 75 4e 3d 87 6b c7 3a
       0.031574603 -0.011815412 0.050404705 0.0015214541
0000f0 a2 2a 5e 3d c8 e9 40 bd 9c ae 90 bc 04 61 d7 3c
       0.054239877 -0.04709795 -0.017661385 0.026291378
000100 40 e5 cb bb 2a b6 24 3d e8 c5 c7 3b 13 37 87 3b
       -0.006222397 0.040212788 0.0060965903 0.0041264384
000110 0d 2f 0d 3b 32 90 0a bc d4 6f 5d 3d 64 9e 76 bc
       0.0021542937 -0.00845723 0.054061726 -0.015052412
000120 c8 ff d6 3c df de ef bc 64 85 17 bd d2 e2 15 bd
       0.026245013 -0.029281078 -0.036992446 -0.036593266
000130 1e 31 15 3d 57 53 32 3d 34 ec 57 bd 9d 2b b0 bb
       0.036423795 0.04353651 -0.052715495 -0.005376293
000140 3e 6d 7b bd 9a 0c 04 3d 19 dd 3b 3d 14 18 cf bc
       -0.06138348 0.03223858 0.045865152 -0.025280036
000150 30 d2 99 3c 9b 8d 63 3c e5 7d 5a 3d 3b 10 39 3d
       0.018776983 0.013888742 0.05334272 0.045181494
000160 60 d2 07 3d af 1c 18 3d 22 55 30 bd 25 e7 79 bc
       0.033159614 0.03713673 -0.04304994 -0.015252863
000170 17 31 86 bd 2d 35 17 bd f7 91 34 3d 92 0b 35 bd
       -0.06552332 -0.036915947 0.044084515 -0.044200487
000180 2e 4b 0b bd ba 66 59 bc 25 49 0b 3d 22 a9 cb bc
       -0.034007244 -0.013269121 0.034005303 -0.024860922
000190 69 06 36 bc 7f 17 82 bd 1c 01 35 3d 7a b7 52 3b
       -0.011109927 -0.06352138 0.04419051 0.0032152818
0001a0 f4 68 b8 3c 3b 73 6f bc 1b 0d 7b 3c 96 d1 25 3d
       0.022510983 -0.014614875 0.015322949 0.04048308
0001b0 9f b5 67 bc 7d a8 6a 3d c4 e7 4f 3d 25 59 e0 bc
       -0.014142423 0.05728959 0.05075814 -0.027386257
0001c0 0f 30 99 3b cc 3c aa 3c b1 cf 07 3d 5e 31 35 3c
       0.0046749185 0.020780943 0.033157054 0.011059133
0001d0 e7 b4 6e bd a6 89 24 3d c0 cb 60 bd d1 ea 81 bc
       -0.05827799 0.040170334 -0.05488181 -0.01585904
0001e0 f5 37 77 bc f1 ae 2a 3b 33 da 14 3d 60 3b 3e bd
       -0.015089025 0.0026044215 0.036340903 -0.046443343
0001f0 bf a6 cc 3a 9d 6f 0f bd 7a 3d b8 bc b1 9f 25 bc
       0.0015613659 -0.035018552 -0.022490252 -0.010108874
000200 33 5c e6 3c c6 70 86 3c 4d b0 5d bd 61 07 41 3d
       0.028120136 0.016411196 -0.05412321 0.047126178
000210 b9 06 94 3c fd cc 3e bc aa 55 23 3d 89 74 b3 3b
       0.018069612 -0.011645553 0.039876617 0.0054765386
000220 e7 25 7e bd 9a 41 64 bd ec 75 ac 3c 7f 94 04 3d
       -0.062047865 -0.055726625 0.021052323 0.03236818
000230 df f8 28 3c 6b 86 19 3b 1c 7a 28 bd 91 6f 7e bd
       0.010313242 0.0023426067 -0.041132078 -0.062118117
000240 dd 47 53 3d d6 fd 89 3c 62 52 81 bd 9f df 14 3d
       0.051582206 0.016844671 -0.063145414 0.036346074
000250 ea 2a e8 3c b4 39 50 3d 6a 85 0f 3d ab 66 1e 3d
       0.028340776 0.05083628 0.035039343 0.03867213
000260 2f d5 66 bd 0b 1f c5 3c 76 e2 11 bd ed 30 2b bd
       -0.05635565 0.024062654 -0.03561636 -0.041794706
000270 d1 70 65 bd 93 37 0c bc fa 34 c0 3c 69 02 cc 3c
       -0.056015793 -0.008558172 0.023462761 0.024903493
000280 4d 93 d3 bc 8d 1c 08 bd 33 6a 0f 3c da a8 ef bc
       -0.025827074 -0.033230353 0.008753347 -0.02925532
000290 fc 83 c7 3c ee a8 81 3c 76 fd 65 bd 1f 05 dc bc
       0.024354927 0.015827622 -0.056149922 -0.02685791
0002a0 ca a6 6f 3c d7 dd 8b bd 18 a4 66 3d 95 18 19 3d
       0.014627168 -0.06829422 0.056308836 0.03737696
0002b0 81 4a 97 ba 64 05 86 bd 57 3e e0 bc c1 d1 53 bc
       -0.001154259 -0.06543997 -0.027373476 -0.012928427
0002c0 36 7a 60 3d f5 6d 9c bb 44 49 70 bd 78 e5 1e bd
       0.05480405 -0.00477385 -0.05866362 -0.038793057
0002d0 7e 68 0c 3d a5 03 46 bd f6 1c e7 bc a8 8e 68 3d
       0.03427934 -0.04834332 -0.028212052 0.056776673
0002e0 09 30 61 bd 12 c4 bd 3c 4d 80 73 bd cb ea 76 3c
       -0.05497745 0.023164783 -0.05944853 0.015070627
0002f0 6b 68 48 3d e9 27 3c 3d 85 7f 92 3c 47 88 87 bd
       0.048927706 0.0459365 0.017883072 -0.0661779
000300 a6 fa 20 bd f9 ab 43 3d de e6 35 3d 2a 5d 27 bd
       -0.039301537 0.047771428 0.044409625 -0.040860333
000310 41 36 4e bd d0 56 20 bd 39 af 2e bd 65 f7 f8 bc
       -0.05034471 -0.03914529 -0.042647574 -0.030391404
000320 f1 cc 3d ba 11 42 cb bc 5a 56 45 bc 52 97 d8 3c
       -0.00072403165 -0.024811776 -0.012044514 0.026439343
000330 9e f2 b6 bb d2 30 3d bd 00 ef 2f 3d 83 73 aa 3c
       -0.0055831214 -0.046189137 0.042952538 0.020807033
000340 4b 2b 2a bd 93 8d 1c bd ea 85 e5 3c 4f a9 d8 bc
       -0.041545194 -0.038220953 0.028017957 -0.02644792
000350 4f b2 1d bd 1d 8c 74 3d 39 c7 c3 bb 90 47 b2 ba
       -0.038500126 0.059703935 -0.005974677 -0.001360165
000360 a8 41 23 bd bb 1c 31 3d 12 23 18 bd a0 a9 1c bd
       -0.039857537 0.04324029 -0.03714282 -0.038247705
000370 f9 ba 16 bd f7 61 11 bb 8b c3 84 bd 9e 0e 58 bd
       -0.036799405 -0.0022183636 -0.06482609 -0.052748315
000380 c5 75 56 3d ea 52 1c 3d 6f 2d a6 3c 21 2b 9b bc
       0.052358408 0.03816501 0.020285336 -0.018941464
000390 08 a3 7f bd 3b 6b fb 3c 91 2c 2b 3d 11 66 38 bd
       -0.062411338 0.03069078 0.04179055 -0.045019213
0003a0 fb 87 27 bc ac 75 26 bd 55 78 b1 3c 68 0e 24 3d
       -0.010225291 -0.040639564 0.021663824 0.0400528
0003b0 24 f3 28 bd c7 c1 0c 3d a1 6f b0 3c eb fa c0 3c
       -0.041247502 0.034364488 0.021537604 0.023557147
0003c0 08 4a 2b 3d f8 d2 1c bd 09 0b be bb c7 8b 23 3d
       0.04181865 -0.038287133 -0.0057996553 0.039928224
0003d0 7a 81 60 bc a2 0d 1d bc 2f 38 d0 3c 9b 53 11 bd
       -0.013702745 -0.00958577 0.025417415 -0.035480123
0003e0 cc 1c a1 3c e4 6a 12 bd c5 87 4b 3d ee 42 7c 3c
       0.019667052 -0.03574647 0.049690027 0.015396817
0003f0 2a ea 26 bd 5e 1a 10 3d 45 fd 18 3d 5c 24 1b 3d
       -0.04075066 0.035181396 0.03735091 0.037876472

fc2.bias f4 [256]
000000 b2 fb 39 bd 59 3a 84 3d 8f a4 50 bc 2b 66 6d 3d
       -0.04540605 0.064564414 -0.012734546 0.057958763
000010 f1 0e a1 3d 8a 9a 71 bc 36 88 9a bc 7a 7e 70 3d
       0.07864178 -0.014746318 -0.018863779 0.058714367
000020 e5 9b 74 bd ac 44 82 bd bf e9 ee 3a b2 01 70 3d
       -0.059718985 -0.06360754 0.0018227621 0.058595367
000030 e3 04 9b 3b 51 c3 38 3d c5 17 0c bd 10 d7 7c bd
       0.004730807 0.045108143 -0.034202356 -0.061728537
000040 3c d8 8d 3b 1f 30 56 bd 45 8d bb 3c 73 18 ec bb
       0.0043287557 -0.052291986 0.022894511 -0.007205063
000050 5c 81 e6 bc 09 9c 8a 3d 62 e9 ec 3d 8f 59 a1 3c
       -0.028137855 0.067680426 0.11567952 0.019696025
000060 05 e6 01 3d 2f f9 9d 3c b3 e1 ac bc 91 d6 a5 bc
       0.031713504 0.019283859 -0.021103716 -0.020243915
000070 e7 07 4a bb 8c af 62 3c 08 2c de 3c 75 90 7e 3c
       -0.0030827464 0.013835799 0.027120605 0.015537371
000080 df f2 49 3d 5e 75 2f 3c 4c ba 0e 3d 78 da 12 bd
       0.049303886 0.010709135 0.034845635 -0.03585288
000090 32 d9 4f 3d 62 cb 9f 3d 35 b9 7e 3d f1 e5 c4 3c
       0.050744243 0.07802464 0.062188346 0.024035426
0000a0 44 6d 45 3d ec 13 d1 bc 16 a2 1f 3d b8 36 68 bd
       0.048199907 -0.025522195 0.038972937 -0.05669281
0000b0 64 74 ba 3d 6c 83 69 3c 9c d1 2f bd 46 fd 90 3c
       0.09104231 0.014252525 -0.04292451 0.017698895
0000c0 71 02 71 3d 2a a0 95 bc c7 15 69 3d 5d ec 97 3c
       0.05884022 -0.018264849 0.056905534 0.018545324
0000d0 44 ce 53 3d 3e d8 15 3d 65 3b a2 bb 14 43 80 bc
       0.051710382 0.036583178 -0.004950928 -0.015656985
0000e0 cd 0e 3f bb fc 76 5f 3d 55 a1 8c bc aa d5 84 3d
       -0.002915311 0.05455683 -0.017166773 0.06486066
0000f0 9d d1 e5 bb 20 eb 72 bc ae 1d 9d bc 43 4c 1d 3d
       -0.0070135132 -0.014826566 -0.019179191 0.038402807
000100 76 02 97 bc dc 48 35 bd 70 88 38 bd cf 8c bf 3d
       -0.01843379 -0.044258937 -0.045051992 0.09353029
000110 91 4e 3d bc 09 df fe bc d9 41 4d 3d d9 1b d4 3d
       -0.011554376 -0.03111221 0.050111625 0.10356874
000120 a8 34 89 3c b8 12 91 3c 04 a3 5a bc 94 39 de 3b
       0.016748741 0.017709121 -0.01334453 0.006781766
000130 cc 46 78 bd 6a 88 b0 3d f4 81 59 bd 06 47 e2 3d
       -0.060614392 0.08619769 -0.05310245 0.11048703
000140 76 c1 95 3d 46 c6 1e 3d fb 71 99 3d b2 dd 8a bd
       0.0731229 0.038763307 0.07492443 -0.06780566
000150 8e 82 79 3c c4 56 b5 3c 69 03 5c bd 27 99 76 3d
       0.015228881 0.0221361 -0.05371419 0.06020465
000160 0d 5b f9 3d aa 95 6d 3d df fd d8 3d 06 5c 12 bd
       0.1217557 0.05800406 0.10595297 -0.03573229
000170 15 f2 66 3d c1 7f 45 3d 60 b4 38 bd 9e 7f 51 3d
       0.05638321 0.04821754 -0.045093894 0.051147096
000180 a2 5b ac 3d e2 f1 d4 3b 41 ad f8 3c 97 27 a7 3b
       0.08415915 0.0064985612 0.030356051 0.005101155
000190 44 2c 4b bd ef 04 32 bd 72 9c 15 3d 28 b4 24 3d
       -0.049602762 -0.043461736 0.03652615 0.040210873
0001a0 dc 8d 2e 3d 11 30 6a bd 29 7e a3 bc 62 99 62 bd
       0.042615756 -0.057174746 -0.019957619 -0.05532206
0001b0 9f cc de 3c ef b9 b7 3b 16 02 2e bc 70 90 ac 3d
       0.02719718 0.005606882 -0.0106206145 0.08425987
0001c0 5c 38 41 3d 28 de e9 bc 3d 76 2d bd 41 52 aa 3d
       0.04717289 -0.028548315 -0.04234909 0.0831647
0001d0 29 7f b4 3d 1a 24 e9 3c 8b e9 bf 3d 05 b9 1e bd
       0.088133164 0.028459597 0.09370717 -0.038750667
0001e0 47 59 c1 3d e9 a6 ae 3d 80 69 e2 bc c9 99 d7 bc
       0.094408564 0.08527929 -0.027638197 -0.026318448
0001f0 7a cf 12 3d 09 d9 e0 ba 2a 5e b4 3c af d9 84 bc
       0.035842396 -0.0017154525 0.022017557 -0.01621708
000200 ba e1 64 b9 16 8b d4 3d cb 4e 33 bd b4 55 96 3d
       -0.00021827864 0.10378091 -0.043776315 0.07340565
000210 65 85 0e 3d 8b a5 37 3d 6b c7 1d 3d 06 d4 9f 3d
       0.034795184 0.04483561 0.038520258 0.07804112
000220 c8 ca 87 3c 18 e9 a8 bc 92 1e b1 bb 67 87 e2 3c
       0.016576186 -0.02061896 -0.0054052556 0.027652455
000230 f6 f2 0b bd c9 fc 54 bd 2d 98 81 bd cc 85 54 3b
       -0.034167252 -0.051998887 -0.06327853 0.0032428382
000240 2e 2c 44 3c d6 f7 1b bd a7 c5 b4 3d 24 1d 86 3c
       0.011973424 -0.03807815 0.08826762 0.016371317
000250 63 af e5 bc 76 23 af 3d 9a 26 9e 3d 2f b1 de 3d
       -0.028037732 0.085516855 0.077222064 0.10873639
000260 c2 f9 8c 3d be 04 47 3d c6 1f cc 3c 94 bd 21 bd
       0.06883575 0.048588507 0.024917495 -0.039487436
000270 ea 2a f6 3a fb 7e a8 3c 66 23 16 bb 64 a5 d5 bc
       0.00187811 0.020568362 -0.0022909283 -0.026079841
000280 80 84 82 3c 84 34 81 3c 72 d4 d8 3d dd 71 22 3d
       0.015932322 0.015772112 0.10587396 0.03965937
000290 03 58 05 bd ba dd a5 3d 43 5f bc 3c 4a d9 43 3b
       -0.032554638 0.080989316 0.022994643 0.0029884153
0002a0 64 4c 93 3d 23 72 97 3d 42 78 15 bc 74 1c 68 bd
       0.07192305 0.07394817 -0.00912291 -0.05666776
0002b0 ff 15 af 3d c8 aa 02 3d 62 f9 cf 3d 9d 27 09 bc
       0.08549117 0.03190115 0.10154988 -0.008371261
0002c0 80 74 c0 3d d8 c3 b4 3d e3 c2 56 3d 18 dd ee 3b
       0.093972206 0.08826417 0.052431952 0.00728954
0002d0 e8 36 c0 3d 70 71 ab 3d a0 34 32 bc 88 8c 0f 3d
       0.093854725 0.08371246 -0.010876805 0.03504613
0002e0 27 00 60 3c 06 70 12 3c 97 d0 ec 3c bb 2e 9a 3d
       0.013671911 0.008937841 0.028908057 0.075284444
0002f0 f0 a4 9d 3d ab 14 9f bc 4b 60 e7 bb 03 b4 51 bd
       0.07697475 -0.019419035 -0.0070610396 -0.051197063
000300 61 c4 32 3d 14 2a b1 3c 79 5e 0b bd e1 16 c3 3d
       0.043644313 0.02162651 -0.034025643 0.09525848
000310 93 75 0c bc 27 99 95 3d f6 8d 3e 3d ea a9 db 39
       -0.008572954 0.07304602 0.046522103 0.0004189753
000320 d4 c6 42 3d 3d 05 83 3c 3f 57 5c bc 75 8c 94 3d
       0.0475529 0.015993709 -0.013448535 0.072533526
000330 dc 64 9b 3d 0e c2 34 bc 08 86 29 3d 7d 55 2b bc
       0.07587597 -0.011032594 0.041387588 -0.010457394
000340 10 ea db bc 98 f6 5b 3d 56 9e 3f 3d 95 25 60 3d
       -0.026845008 0.053701967 0.04678186 0.05472334
000350 00 ff f0 3c 7f f2 20 bd a0 52 31 3d 3c 30 0f 3d
       0.029418468 -0.039293762 0.043291688 0.03495811
000360 5d 8a df 3d 71 c3 66 bc 37 46 17 bc 3c 77 7b 3d
       0.109150626 -0.014084683 -0.009233049 0.061393008
000370 46 88 5e 3d de 45 21 3d 75 c0 3d 3d c0 6c 06 bd
       0.05432918 0.03937327 0.04632612 -0.032818556
000380 5d a6 20 3d ff f3 53 3d 14 14 a1 bc 94 a7 48 bc
       0.039221156 0.051746365 -0.019662894 -0.012246985
000390 08 f4 44 bc 51 7b 81 3d af d5 b4 3d 4f 31 a7 bc
       -0.012021072 0.06322349 0.088298194 -0.020409254
0003a0 0f c6 c1 3d 5f 7d 85 3d e5 c4 83 ba e7 42 50 3c
       0.09461605 0.06518053 -0.0010053186 0.012711263
0003b0 af 98 c1 3c 09 8a 0c bd 03 82 4d 3d 1b ae 6b 3d
       0.023632376 -0.034311328 0.050172817 0.057539087
0003c0 54 63 2d 3d 36 2a 0f 3d 67 b7 c9 3b 12 66 8f 3d
       0.042331055 0.034952365 0.0061558965 0.0700189
0003d0 29 45 68 3d 2a fc ac 3d 5b e8 7b bd 03 d8 58 3d
       0.05670658 0.08446534 -0.06150089 0.05294038
0003e0 5e 5e 03 3d a9 e4 a2 3d 82 3a d1 3c b4 9e 35 bd
       0.032072417 0.0795377 0.025540594 -0.044340804
0003f0 b7 a2 b6 bc bd 7a c6 bb d9 ba 40 3c 68 b3 09 bc
       -0.022294385 -0.006057112 0.011763298 -0.00840459

mean.weight f4 [2, 256]
000000 a3 5c 2e bd 04 9a 27 bc 0c 94 fd 3c b6 3b 24 bd
       -0.042568814 -0.010229591 0.030954383 -0.040096007
000010 36 94 9c bc 6f 83 6b bc 84 d0 d8 3b 77 bb a8 3c
       -0.019113641 -0.014374598 0.006616654 0.020597203
000020 c7 08 15 3d 8d ad 17 bd b9 92 6f 3d d6 cf b2 3b
       0.036385324 -0.037030745 0.058489535 0.005456905
000030 8e 55 0e 3c 6f 2d ca bc c9 01 5f bd 98 ed 55 bd
       0.00868739 -0.024679868 -0.05444506 -0.05222854
000040 90 90 44 3d ba 1b cf bb 27 f9 b9 3c f9 5d 64 3d
       0.047989428 -0.006320444 0.022701813 0.05575368
000050 bc a0 25 3d 49 21 55 3c c4 98 31 bd d1 df a7 bc
       0.04043649 0.013008424 -0.04335858 -0.020492466
000060 dc 7c 9c bc c5 34 21 bc 82 96 09 bd 10 f8 67 3d
       -0.019102506 -0.009839241 -0.0335908 0.056633055
000070 18 15 02 bb bd 0b 50 3d 5a fc 6e 3d 87 a3 d5 bc
       -0.0019848999 0.050792444 0.05834613 -0.026078952
000080 87 da 67 bd 52 3e 09 3d 78 1b 91 bc d2 30 72 3d
       -0.05660489 0.0335067 -0.017713293 0.05912859
000090 53 64 d2 bc 35 ef 72 3d 25 3e 70 3d f2 64 1e 3d
       -0.025682604 0.059310157 0.058653016 0.038670488
0000a0 c8 67 72 bd d0 e6 1c 3c 44 db 6d 3d e7 9f 77 bd
       -0.059181005 0.009576514 0.058070436 -0.06045523
0000b0 bf f1 4b bc 23 dd 9c bc 80 e3 aa 3b af 91 7e bb
       -0.0124477735 -0.019148415 0.0052151084 -0.0038844158
0000c0 ec 30 45 bc e5 bc 75 3d e3 1e e7 3c be bf b1 bc
       -0.01203559 0.059994597 0.02821297 -0.021697875
0000d0 73 8a 61 3d 72 19 29 bd e1 63 94 3b 20 30 95 3b
       0.055063676 -0.041284032 0.004528508 0.004552856
0000e0 38 b0 34 3c 64 12 0f 3a 02 cb 36 3d 2e 78 46 3d
       0.011028342 0.00054577575 0.044627197 0.048454456
0000f0 0e f4 da bb 24 f5 67 3c 07 1c 4a 3c b8 f1 81 3d
       -0.0066819256 0.014157567 0.012335784 0.06344932
000100 ae 11 a3 bc d3 f2 92 bb 9a 15 a4 3c b0 51 9d 3b
       -0.019905891 -0.0044845133 0.020029832 0.0048009977
000110 ab c3 e8 3c 11 2d ee bc 73 ed cb bc 82 8d 30 3d
       0.028413614 -0.029074224 -0.024893498 0.043103702
000120 77 8c 3f 3d a5 84 3e bd 05 92 06 bd 19 cc be bc
       0.046764817 -0.04651322 -0.0328541 -0.02329068
000130 ce b5 7c 3d 4a 2a 17 bd e6 6c 58 3d 10 90 3a bd
       0.06169682 -0.036905564 0.05283823 -0.045547545
000140 cc e8 b2 ba 5b 33 24 3d c6 9c 5c 3c 6f 77 cf bc
       -0.0013649701 0.04008804 0.013465112 -0.025325505
000150 09 3b 1c bd c2 ca 2d 3c 5c 30 3d 3d f1 58 d4 3c
       -0.038142238 0.010607423 0.046188697 0.025921317
000160 90 30 6f bc 80 c2 dc 3a 98 55 ea bb f1 49 3a 3d
       -0.014598981 0.0016842633 -0.007151317 0.045480672
000170 1c 08 a9 bc c3 a2 05 bd 08 30 ef bc a2 b1 4c bd
       -0.02063375 -0.032625925 -0.029197708 -0.04997409
000180 47 c0 e9 bc 5b ad 9a bc cc 13 29 3d 53 5c 28 bd
       -0.028534068 -0.01888149 0.041278645 -0.041103672
000190 2c 79 ae b9 cf b0 2a bd dc f0 3b 3d 7f 78 eb bc
       -0.00033278146 -0.041672524 0.045884 -0.02874398
0001a0 13 32 aa 3b 18 15 71 3d 6d f3 55 bd ae 7a 37 3d
       0.0051939576 0.058858007 -0.052234102 0.04479473
0001b0 58 e0 1a bd 78 e9 20 3d 7b d8 54 bd 63 5f 08 3c
       -0.037811607 0.039285153 -0.051964264 0.008323523
0001c0 66 59 43 bd 09 aa d2 3c 35 93 9d 3b 38 1f 08 3b
       -0.04769268 0.025715845 0.004808808 0.002077056
0001d0 ce 72 d4 bb 44 c4 24 bd 4f b8 32 bd f5 8d 11 3c
       -0.0064834123 -0.040226236 -0.0436328 0.008883943
0001e0 84 f2 d7 bb cf 3a 25 3d 62 bf c1 bc 93 fe 3e 3d
       -0.0065901894 0.040339287 -0.023650829 0.0466295
0001f0 f3 19 bb 3c 21 37 06 bd 10 d1 c4 bc 6a 86 2e 3d
       0.022839522 -0.03276742 -0.02402547 0.042608656
000200 5b b3 66 3d 17 3a f8 3b 39 90 03 3d 3d fe 73 3c
       0.05632339 0.007575284 0.032119963 0.014892158
000210 b7 3b 84 3c af 11 2f 3d 33 74 9d bc f5 8f 84 3d
       0.016141756 0.042741474 -0.019220447 0.0647277
000220 4b 94 56 bd 65 75 76 bd ce e0 4e 3d cd 83 d2 bc
       -0.052387517 -0.06017055 0.05050736 -0.025697613
000230 5a 41 05 3d 38 8f aa bc 91 ad eb 3c d2 5b 31 bd
       0.032533027 -0.020820245 0.028769286 -0.043300457
000240 83 d4 5d bd 15 02 ee 3c 6b 13 63 3d 1c 24 83 3b
       -0.054157745 0.029053727 0.05543844 0.0040021073
000250 e2 73 1c ba 08 46 16 3d f7 58 cb 3c d2 ff 07 3d
       -0.00059681956 0.03668788 0.024822695 0.033202954
000260 99 10 c0 bc 20 12 14 bd 88 07 fa bc 38 58 7c 3d
       -0.023445414 -0.036150098 -0.03052117 0.06160757
000270 10 ce 3a 3c 4a 6f 5b bd dd 32 56 3d 15 b4 2f bd
       0.011401668 -0.05357293 0.0522946 -0.04289635
000280 51 e8 51 3d 14 b7 3b 3d 68 e0 55 bd 64 4d 5d 3d
       0.051246945 0.045828894 -0.052215964 0.054028884
000290 a1 d7 48 3d 58 0d 8f bc 5b d8 7d 3d cf e1 49 bd
       0.049033765 -0.017462417 0.06197391 -0.049287613
0002a0 73 15 22 3d fd 84 bf bc 3e de e6 bc 3b 14 63 bd
       0.039571237 -0.023378843 -0.028182145 -0.055439215
0002b0 77 18 38 3d 67 41 13 3c 25 37 13 3d 67 63 4e bd
       0.044945206 0.008987761 0.03594126 -0.050387766
0002c0 54 e0 d6 bb 6b 67 14 3c a4 b4 11 3d ce f4 6f bd
       -0.0065575037 0.00905786 0.035572663 -0.058583073
0002d0 64 40 0b 3d c5 dc 36 bd bc 45 2d bd 48 f8 21 bd
       0.033996955 -0.044644136 -0.042302832 -0.03954342
0002e0 96 99 1f 3a 92 d0 85 3c b5 38 55 39 fd 81 8b ba
       0.0006088255 0.016334806 0.00020334388 -0.0010643598
0002f0 4e 08 11 3d 1c f1 0a 3d bb e1 3a bb 2a 1c 79 3a
       0.03540831 0.033921346 -0.0028515894 0.0009502793
000300 3d 98 1c bd 4f 57 c7 3c 1a 1b f2 3c de d2 9c bc
       -0.038231123 0.024333624 0.029553939 -0.019143518
000310 51 2e 37 3d d3 37 6c 3d f4 07 06 3a e6 4d cc 3c
       0.044721905 0.057670426 0.00051128794 0.024939489
000320 46 8d d9 3c aa da 68 bd f7 3d 16 3d 9e 1d 04 bd
       0.026556622 -0.05684916 0.036680188 -0.032254808
000330 eb d3 80 bc e9 61 00 bd fe 91 66 bd 96 c5 32 3c
       -0.01572605 -0.031343374 -0.056291573 0.010911366
000340 17 90 d7 bb 90 02 7c 3d ef b5 c4 bc 1a 36 4e 3d
       -0.006578456 0.06152588 -0.024012534 0.050344564
000350 f0 18 1a 3d 9b 5e 68 bd 80 5f 1d bd 0a 32 67 bd
       0.03762144 -0.056730848 -0.038421154 -0.056444205
000360 a7 aa 44 3d 7e 0e a0 3c 8d a4 d1 3c 9c ba 55 bd
       0.04801431 0.01953816 0.02559116 -0.052179918
000370 e5 ca 6d bd 78 8e 6c 3c de e9 40 bc ed 29 9b 3b
       -0.058054823 0.014438264 -0.011774508 0.0047352226
000380 d4 df c8 bc 42 39 9a bc 14 67 6c 3c f4 a6 b3 3b
       -0.024520792 -0.01882613 0.014428873 0.005482549
000390 64 f2 5d bd b3 00 48 3d d7 76 57 bd db 6a 3e 3d
       -0.05418624 0.04882879 -0.05260357 0.046488624
0003a0 eb 2d 46 3d b3 fe 26 bd 2b 37 d9 bc 80 f9 3f bc
       0.048383635 -0.040770244 -0.026515564 -0.0117172
0003b0 66 f9 0c 3d f3 19 9c bc a6 5b a9 bb 07 69 81 3d
       0.034417532 -0.019055342 -0.005168396 0.063188605
0003c0 45 f7 07 3d 06 42 47 3b a9 e7 21 3d b2 e7 44 3d
       0.0331948 0.0030404343 0.03952757 0.048072524
0003d0 22 67 04 3d d8 f3 89 3c a0 4f f4 3c e8 19 2c 3d
       0.032324918 0.016839907 0.029823124 0.042016894
0003e0 9d 50 be 3c 97 9a b7 3c 3a 36 05 bd c9 ca 08 3d
       0.023231799 0.022412581 -0.032522418 0.033396516
0003f0 0a 19 3b 3a d0 c8 1a 3d df 20 36 bd 86 a6 26 3d
       0.0007137215 0.037789166 -0.044464942 0.040686153

mean.bias f4 [2]
000000 bd b1 e8 bb 15 7d 6e 3d
       -0.007101266 0.058224756

value.weight f4 [1, 256]
000000 99 8e 14 3b a8 6b de bd e7 f1 dc bd 56 77 b8 bd
       0.0022668003 -0.108603776 -0.10788327 -0.090071365
000010 24 e9 f8 bd 2a 7e 06 be 7a 8c e6 bd 7b 8c 6e 3c
       -0.12153843 -0.13134065 -0.112572625 0.01455986
000020 9f 69 80 3c a3 db 40 3d bb b9 91 3c 7a 8e f8 bd
       0.015675364 0.047084462 0.017788759 -0.1213655
000030 8c 86 f7 bd e5 8e e8 bd 07 33 12 3d 99 55 30 3b
       -0.1208621 -0.1135538 0.035693195 0.002690649
000040 82 34 ba bd 62 e3 d2 3c bc 9b d3 bd 9b 13 36 3d
       -0.09092046 0.02574319 -0.10332438 0.04445229
000050 fd 2c 1f 3c 19 2e b1 bd 34 87 e2 bd 7e a0 9e bd
       0.009715316 -0.086513706 -0.11060944 -0.07745455
000060 a3 e6 bc bd 63 ce 4c bd aa 71 a4 bd 88 38 c7 3c
       -0.09223678 -0.050001513 -0.08029492 0.024318948
000070 cd 7c e4 3c 99 f9 e0 bd 25 da c7 3c 56 1c fb bd
       0.02789154 -0.10985107 0.024396012 -0.12261264
000080 c6 85 c2 bd 0c d2 c5 bd f6 fa b0 3c 32 30 06 3c
       -0.094981715 -0.09659204 0.021604043 0.008190202
000090 cd 9e f4 3c ad ef de bd 01 4b bf bd 03 89 b1 bd
       0.029860878 -0.10885558 -0.09340478 -0.08668711
0000a0 dc bc c5 3c 50 96 5f 3d 90 fe 38 3c 56 97 45 3c
       0.024137907 0.05458671 0.011291161 0.012060007
0000b0 e2 61 d6 bd 29 b1 4a 3d 84 bc 61 3d ab da 00 be
       -0.104678884 0.04948536 0.055111423 -0.12583415
0000c0 56 d0 b1 bd 87 60 59 3d 93 06 83 3c 23 e1 6c 3c
       -0.08682315 0.05307057 0.015994346 0.014457974
0000d0 3a 8e f9 3c 98 32 ef bd b3 60 b2 bd ac dd 14 3d
       0.030463327 -0.11679572 -0.0870985 0.036344215
0000e0 44 89 96 bd 04 8e 4c 3d 3f 0f e9 bd 9c ba 94 bd
       -0.073504 0.049940124 -0.11379861 -0.072621554
0000f0 6d 36 af 3c 3f 68 2f 3c 2f b4 43 3d 38 9b 2f 3c
       0.021388257 0.010706007 0.04777926 0.010718159
000100 61 87 f9 3c ff 49 10 3d 4d a2 0e 3c 16 bd d1 bd
       0.030460062 0.03522682 0.008705688 -0.102411434
000110 4f d5 41 3d 6b 59 39 3d d7 36 ca bd 95 11 dd bd
       0.047322568 0.04525129 -0.09873741 -0.10794369
000120 40 78 97 bd 87 33 b6 bd 26 06 1c 3d 86 20 32 3d
       -0.07395983 -0.08896547 0.0380918 0.043488048
000130 aa 39 41 3c 3b f0 a3 bd 6c 5a 87 3c 5c e7 a6 bd
       0.011793533 -0.08004805 0.016522609 -0.08149597
000140 58 90 ac bd b3 ac 04 be 6d 06 8e bd 87 5c 47 3d
       -0.08425969 -0.12956505 -0.06934819 0.048672225
000150 4c 5f 86 3c d6 8b f3 bd 82 93 5a 3d e5 b7 de bd
       0.016402863 -0.11891906 0.05336333 -0.10874919
000160 9a a1 b1 bd 8c b6 80 bc 17 d2 9b bd ca 2a f9 3c
       -0.08673401 -0.015712045 -0.07608431 0.030415911
000170 f7 91 f6 bd 3d 3f bf bd 77 d4 c1 3c 83 18 92 bd
       -0.12039559 -0.093382336 0.023660881 -0.071335815
000180 54 dd f2 bd c5 44 6d 3c 93 7e 29 3d 9c 0b 3b 3d
       -0.11858621 0.014481728 0.041380476 0.04566537
000190 ee e2 53 3d c1 c0 9f 3c f3 5b c4 bd 50 ba fa bd
       0.05173009 0.019501092 -0.095878504 -0.122425675
0001a0 24 d0 36 3d 63 41 10 3c ff df e8 3c a0 be 85 bc
       0.044632092 0.008804652 0.028427122 -0.016326249
0001b0 89 19 ab bd 66 90 9d 3c c5 c4 09 3d 48 6b c6 bd
       -0.0835448 0.019233894 0.03363492 -0.09688431
0001c0 07 86 cb 3c 40 f2 08 3d 0f 1f 1e 3d d3 8f 0d be
       0.024844183 0.033434153 0.03860384 -0.13824396
0001d0 d6 75 9a bd a6 bf d7 bd dd 70 8b bd 3e d9 d7 3b
       -0.07542007 -0.10534601 -0.06808636 0.0065871766
0001e0 49 6e ce bd f4 ed a2 bd d6 83 41 3d 3c 57 50 3d
       -0.10079629 -0.07955542 0.04724487 0.050864443
0001f0 9c 33 c5 bd e8 40 07 be 54 bd f7 3b ef 51 04 be
       -0.09628984 -0.13208354 0.0075604115 -0.1292188
000200 af 1b e6 bd 15 85 7f bd 1d e9 0b 3d 4f ce ce bd
       -0.11235749 -0.062382776 0.03415786 -0.10097944
000210 53 0e 99 bd e0 cb 15 be 8c ab c5 3b 31 66 ae bd
       -0.07473435 -0.14628553 0.006032413 -0.08515585
000220 bb 38 cb bd c9 6c 46 3d 2f 36 a9 bd c1 02 4b 3d
       -0.0992293 0.04844359 -0.08262288 0.049563173
000230 24 5b dc 3c d0 66 73 3d 2d 3f 36 3d 6e a4 a2 3b
       0.026898928 0.05942422 0.044493843 0.004963449
000240 2c 95 5e 3d 7e 63 4c 3d d6 dd c8 bd 44 fb 94 3a
       0.05434148 0.04989957 -0.09807937 0.0011366387
000250 1d 1f e0 3c 00 32 7b bd 6e 77 e4 bd b2 23 eb bd
       0.027358586 -0.06132698 -0.11155592 -0.11481418
000260 fc e1 c9 bd 1e db f2 bd c9 4d 9c 3c df 4a 54 3c
       -0.09857556 -0.118581995 0.01908006 0.012957304
000270 40 0a f0 3b 55 9f 06 be 76 ed f7 3b fa 3d 1b bc
       0.0073254406 -0.13146718 0.0075661493 -0.009475226
000280 78 a5 17 3d e2 e9 90 3c 23 7e a5 bd 60 63 5e 3d
       0.037023038 0.017689649 -0.08080699 0.05429399
000290 c0 9f 52 3d af 74 a4 bd 5a e5 09 3b ef 32 e9 3c
       0.05142188 -0.08030068 0.0021041245 0.02846667
0002a0 5e 09 dc bd 83 ef 06 be 43 7a 44 3d f1 9f 2f 3d
       -0.10743974 -0.13177304 0.04796816 0.04287714
0002b0 1d f7 bd bd 93 83 60 bd af 08 a5 bd d6 11 e5 bd
       -0.09275649 -0.05481298 -0.08058297 -0.111850426
0002c0 73 5a ed bd 9e 66 b9 bd 5c 63 ca bd 9e 56 08 be
       -0.115895174 -0.09052776 -0.098822325 -0.13314292
0002d0 e9 22 b0 bd 9e 5f b5 bd 2a 2f a8 bd d6 55 ae bd
       -0.086004086 -0.08856128 -0.08212121 -0.08512466
0002e0 33 c7 d7 3c 24 4d c3 3c e9 58 04 3d 7d 64 e6 bd
       0.026340103 0.023840494 0.032311354 -0.11249635
0002f0 05 4c ae bd a9 91 e1 bd 84 3e 40 3d 86 b0 9d 3b
       -0.08510593 -0.110141106 0.04693462 0.004812303
000300 72 1e bb bd b3 f7 da 3c a9 57 da 3b ae 99 9c bd
       -0.09136666 0.02672944 0.006663282 -0.076464996
000310 35 6c be bd 81 09 c4 bd fa 02 23 3c 96 b1 a7 3a
       -0.092979826 -0.09572125 0.00994944 0.0012794014
000320 18 7d 68 3c 33 94 bd bd 05 73 98 3c 7f 7e ed bd
       0.014189981 -0.092567824 0.018609533 -0.11596393
000330 37 f3 de bd fa a0 fe bd e3 e9 cb bd 8c 75 37 3d
       -0.10886233 -0.124330476 -0.0995672 0.044789836
000340 05 8d 2e 3d b8 24 33 bd 28 8e 7d bd f5 79 cc bd
       0.042614955 -0.04373619 -0.06190315 -0.09984199
000350 a8 7c 3d 3b d7 40 9a 3c ba 10 bc bd b6 5f a3 bd
       0.0028913412 0.018829746 -0.09182878 -0.0797724
000360 d7 e5 cb bd 49 a9 67 3d 0c e1 2c 3d 5e c6 97 bd
       -0.09955948 0.056557927 0.04220681 -0.074108824
000370 79 8c 59 3c b5 9e 98 bd 28 5a ed bd 23 c2 73 3d
       0.01327812 -0.07452146 -0.115894616 0.059511315
000380 c0 79 37 37 e8 a6 b2 bd 7d a4 0f 3d fb 59 ce bd
       1.0935997e-05 -0.08723241 0.035068978 -0.10075756
000390 45 47 16 3d 77 4e c0 bd 2d bd ef bd fd ce 9b bd
       0.03668906 -0.09389966 -0.11706004 -0.07607839
0003a0 1e 32 09 be d3 d7 93 bd 5e 7b bd 3c 73 0c 41 3c
       -0.13398024 -0.072188996 0.023130115 0.011782753
0003b0 cf 00 04 3d 47 eb 21 3c ef 14 05 be 40 aa d7 bd
       0.032227334 0.009882755 -0.12996267 -0.105305195
0003c0 0d 39 17 3d ea 52 0d 3d 34 55 3d 3d 5c 04 8a bd
       0.036919642 0.0345029 0.046223834 -0.06739113
0003d0 94 0f c2 bd d8 1a ca bd 4a 98 14 3d 45 45 2d 3d
       -0.094756275 -0.09868401 0.036278047 0.04230239
0003e0 be 85 9b bd fa 08 de bd bc 45 2e 3b 5a a0 38 3d
       -0.07593869 -0.10841556 0.0026591858 0.0450748
0003f0 35 dc f9 3c c3 5a 59 3d 26 99 9e bd d8 44 0b bd
       0.03050051 0.053065073 -0.077440545 -0.0340012
