ppo/PPO_LunarLander_ep1000.pth (torch, 279103 bytes, 8 tensors)

log_std f4 [1, 2]
-0.06903865 -0.074004926
00000000: 2364 8dbd e58f 97bd

fc1.weight f4 [256, 8]
0.1036137 0.09644931 -0.09845806 -0.12407502 0.88375753 0.09405933 0.39842165 0.16618142
0.337267 0.14832924 0.030364 0.079658344 -0.19466074 -0.5307266 0.3468525 0.32740292
0.07431838 0.010447279 -0.14478165 0.108316325 -0.40017605 -0.289738 0.0025404163 -0.0008260848
-0.0086553 -0.020178325 -0.3073551 -0.269716 0.4894645 0.032520447 0.23223852 0.0999658
-0.07439831 -0.4041675 0.32567915 -0.32747284 -0.35262382 -0.42471376 0.38756523 -0.050181888
0.5199107 0.13012646 0.10407902 0.067702904 -0.048138518 0.13971734 -0.26473242 -0.11756503
0.11843418 0.47931966 -0.019995766 -0.50318515 0.13864705 0.30469012 -0.04144597 -0.13150449
0.15334147 0.05867099 -0.15693718 0.042782746 0.12655818 -0.25320393 -0.12444072 0.18096603
0.20961748 0.075968646 0.24828668 -0.21455926 0.6866644 -0.38618404 0.38739792 -0.2389167
-0.36667264 -0.0613658 -0.061259586 0.09075314 -0.067213625 -0.21456315 0.32476524 -0.15146074
0.0037966287 0.34329912 0.3989448 -0.4151314 -0.002942741 0.18287724 0.10278226 -0.14638263
-0.5370902 0.0133061055 0.05915429 -0.059125777 0.31680503 0.2531484 0.22940254 0.13735276
0.59233046 -0.10739601 0.36998534 -0.09319254 -0.40424666 0.0807949 0.064729236 0.3077731
0.55708015 -0.36635128 0.32430923 -0.343382 0.028312547 0.037232023 0.18921544 0.109052695
-0.38298064 -0.008652726 -0.17259362 -0.038016953 0.4624885 0.4316861 -0.14974223 -0.18413936
0.46620247 -0.10387939 0.41036403 -0.0035886806 -0.22968632 -0.18498418 0.03195544 0.040150017
0.50675434 -0.34180456 0.1842894 -0.56438893 -0.33658856 -0.05546799 0.013740271 -0.112330474
-0.093122624 0.42578712 -0.25988042 -0.40369865 -0.35904998 0.35182077 -0.06999719 -0.27883127
0.047993593 0.22415005 0.018826462 0.3308975 0.43447906 -0.299548 -0.29603747 0.18681073
0.5546392 -0.1345262 0.27865216 -0.28695896 -0.41739053 -0.13924372 0.026937531 0.1551637
-0.54236794 0.34099105 -0.25532258 0.32590002 0.4405698 0.27318552 -0.21259138 -0.37880477
-0.08737734 0.44792 0.2018084 -0.0052273353 0.3857661 -0.2562479 0.318896 0.36614138
0.24440354 0.22297849 0.21525645 -0.27310622 0.22334181 -0.31701404 0.024366308 0.22218652
0.26340365 -0.25784522 -0.05995465 -0.31022257 0.070698544 0.33542946 -0.13238132 -0.24801059
-0.11534502 0.3639206 -0.11798773 -0.43095648 0.4435302 0.02368312 -0.15696783 0.24159543
0.09353595 0.50866544 0.06949881 -0.23378853 0.46579626 0.01281974 -0.18083097 -0.25046414
-0.21728376 0.35732394 -0.22544675 -0.37329686 -0.29048297 0.07205489 -0.0017531865 -0.21908541
0.17446595 -0.19790307 -0.38736328 0.14342028 -0.08485636 0.014562482 0.16240865 -0.00083425734
-0.060442872 -0.12853326 -0.08698149 -0.24091764 0.25406855 0.3816835 -0.24244402 -0.15103675
-0.33893993 -0.15685338 -0.26646015 0.15519655 0.47065642 0.2706441 -0.2499561 0.35053858
-0.008523535 0.56070024 -0.06584772 0.005649248 -0.11819299 0.021576304 -0.06123451 -0.40530148
0.22465026 -0.26288497 0.15443754 0.2685167 -0.43019968 -0.22873802 -0.30197507 -0.3606069
00000000: 6b33 d43d 3787 c53d 61a4 c9bd 0b1b febd
00000010: ef3d 623f 2ea2 c03d ecfd cb3e 762b 2a3e
00000020: 43ae ac3e 9fe3 173e ecbd f83c ea23 a33d
00000030: 2555 47be b3dd 07bf a796 b13e 5ba1 a73e
00000040: 3c34 983d 102b 2b3c a441 14be f3d4 dd3d
00000050: e0e3 ccbe 8a58 94be 1d7d 263b 9d8d 58ba
00000060: f6ce 0dbc 044d a5bc a65d 9dbe 3718 8abe
00000070: 179b fa3e 2934 053d efcf 6d3e dfba cc3d
00000080: 245e 98bd 0bef cebe 6bbf a63e 85aa a7be
00000090: 1c8b b4be 1574 d9be f36e c63e 868b 4dbd
000000a0: de18 053f df3f 053e 6227 d53d d2a7 8a3d
000000b0: e52c 45bd 1012 0f3e 028b 87be efc5 f0bd
000000c0: 9f8d f23d 6369 f53e 29ce a3bc bed0 00bf
000000d0: 7ef9 0d3e 5800 9c3e 40c3 29bd 1da9 06be
000000e0: 8c05 1d3e fe50 703d 24b4 20be f63c 2f3d
000000f0: 7898 013e f2a3 81be c7da febd 294f 393e
00000100: f7a5 563e 7395 9b3d dd3e 7e3e 6cb5 5bbe
00000110: 3dc9 2f3f eab9 c5be 0559 c63e 94a6 74be
00000120: 84bc bbbe b55a 7bbd 55eb 7abd c8dc b93d
00000130: 4ca7 89bd 71b6 5bbe a147 a63e 8618 1bbe
00000140: dcd0 783b e7c4 af3e 7e42 cc3e 1a8c d4be
00000150: 00db 40bb 2c44 3b3e 817f d23d 54e5 15be
00000160: be7e 09bf da01 5a3c c54b 723d df2d 72bd
00000170: 4534 a23e ab9c 813e 80e8 6a3e 34a6 0c3e
00000180: f8a2 173f 70f2 dbbd b86e bd3e bbdb bebd
00000190: 6bf9 cebe cc77 a53d c390 843d 7094 9d3e
000001a0: ce9c 0e3f 6592 bbbe dc0b a63e c4cf afbe
000001b0: b7ef e73c 9b80 183d b1c1 413e 0557 df3d
000001c0: 0a16 c4be 2ac4 0dbc 62bc 30be aab7 1bbd
000001d0: 4bcb ec3e f605 dd3e 0756 19be 078f 3cbe
000001e0: 17b2 ee3e b8be d4bd 3c1b d23e 1230 6bbb
000001f0: e432 6bbe 7e6c 3dbe b5e3 023d 5874 243d
00000200: a7ba 013f 0201 afbe 5cb6 3c3e cb7b 10bf
00000210: 5655 acbe 6732 63bd e01e 613c 850d e6bd
00000220: 13b7 bebd c500 da3e 0c0f 85be 97b1 cebe
00000230: 66d5 b7be da21 b43e b05a 8fbd f9c2 8ebe
00000240: ee94 443d 9787 653e f439 9a3c 666b a93e
00000250: 0a74 de3e 5b5e 99be 3992 97be 504b 3f3e
00000260: d6fc 0d3f 3cc1 09be 7fab 8e3e 49ec 92be
00000270: 36b4 d5be e895 0ebe 19ac dc3c 3ce3 1e3e
00000280: a0d8 0abf 6196 ae3e a4b9 82be 5edc a63e
00000290: 5d92 e13e f9de 8b3e 8eb1 59be b3f2 c1be
000002a0: e4f2 b2bd c555 e53e dca6 4e3e 114a abbb
000002b0: 2283 c53e ed32 83be 5646 a33e e276 bb3e
000002c0: ec44 7a3e 7954 643e 306c 5c3e 94d4 8bbe
000002d0: b7b3 643e aa4f a2be da9b c73c dd84 633e
000002e0: d8dc 863e 4a04 84be 0293 75bd 7ed5 9ebe
000002f0: 66ca 903d 69bd ab3e f88e 07be 7df6 7dbe
00000300: 033a ecbd cd53 ba3e 8da3 f1bd 54a6 dcbe
00000310: 6416 e33e 1a03 c23c 2dbc 20be cb64 773e
00000320: c78f bf3d e637 023f 6455 8e3d 4366 6fbe
00000330: d97c ee3e e309 523c c12b 39be d63c 80be
00000340: a27f 5ebe 2af3 b63e 83db 66be c420 bfbe
00000350: 2fba 94be 8491 933d 2dcb e5ba ed57 60be
00000360: 34a7 323e 1aa7 4abe 7b54 c6be c4dc 123e
00000370: 2cc9 adbd 7a97 6e3c 744e 263e 10b2 5aba
00000380: f292 77bd 399e 03be 5a23 b2bd 1db3 76be
00000390: 4615 823e 056c c33e 3f43 78be 61a9 1abe
000003a0: 8989 adbe 2c9e 20be 776d 88be d8eb 1e3e
000003b0: e1f9 f03e dd91 8a3e 7ef4 7fbe cb79 b33e
000003c0: 4ca6 0bbc 0d8a 0f3f 2bdb 86bd 541d b93b
000003d0: 2b0f f2bd cac0 b03c 0ad1 7abd ad83 cfbe
000003e0: b80a 663e dc98 86be e024 1e3e 057b 893e
000003f0: 2243 dcbe 4d3a 6abe 7a9c 9abe 78a1 b8be

fc1.bias f4 [256]
-0.10823321 0.0013275075 0.27740636 0.033616375 0.22933072 0.0090391245 0.02734374 0.26383042
-0.11296937 0.32960668 0.33526805 0.0035490035 -0.02332595 -0.05822883 -0.21112628 -0.09979836
-0.062437654 0.28507993 0.4232605 -0.037579373 0.004810597 0.22872175 0.33504683 0.016163582
0.12524489 -0.16678804 0.28267184 0.21957895 0.3482601 0.1730721 0.31373045 0.3082403
-0.044842567 0.24320954 0.32447848 -0.2820405 0.004445239 0.0046211556 0.019934313 0.031950124
-0.03776297 0.27095643 0.30133447 0.3134039 0.32872036 0.00012905982 -0.057809316 -0.017949883
0.061297145 -0.12252485 0.16166174 0.102935724 0.34779105 0.2852873 0.24432111 0.27056184
-0.14623831 0.11225347 0.09426901 0.37227833 0.044813592 0.041743413 0.3081964 0.36919197
0.4148924 0.29772103 -0.026500808 0.09303593 0.12536815 0.17623553 -0.15652779 -0.08956235
0.21592018 -0.112495705 -0.03548954 0.29032326 -0.013681839 0.32513532 0.33827117 0.061629083
-0.18189548 -0.32767734 -0.15666541 0.16412193 0.047561202 -0.07114701 -0.027720697 -0.03729432
0.29601863 0.1936932 0.106061965 -0.16661152 -0.06679022 0.11369356 0.36065716 0.24212442
0.4280103 0.16516243 -0.23510785 -0.092349336 0.12573999 -0.23769712 -0.009801161 0.023331877
-0.059400853 -0.18508522 0.38477066 0.3590202 0.012871461 -0.00022395299 0.25309935 0.06036255
-0.06403741 0.14651923 -0.026329486 0.25267568 -0.24749254 0.33617592 -0.121905066 -0.2695824
0.23193447 0.16230842 0.29692382 -0.07771098 0.48581654 0.2842729 -0.07224168 0.0069037825
-0.10446857 -0.10368816 -0.17086011 -0.12477138 0.1276181 0.3264923 0.15912278 0.35469607
0.38227662 -0.1629172 -0.18538953 0.079742305 0.3161735 0.3813299 -0.086251564 -0.097852774
0.22818431 0.40923622 0.29926416 0.045130674 -0.24640302 0.092536464 -0.051828075 -0.07365339
0.1887098 0.017609816 -0.08100905 0.35082823 0.022089573 0.042683337 0.35981572 0.27121568
-0.17023869 0.16402741 -0.044804487 0.23848361 0.05053222 -0.14832787 -0.10719368 -0.022839895
-0.006357758 0.1783534 0.007564891 -0.15231912 0.27600244 -0.045158066 0.39459825 -0.3369695
0.033498745 0.08159218 -0.11603962 -0.1430482 0.03539675 0.034118827 0.07881482 0.07818823
-0.07624393 0.098276205 -0.10845502 -0.20235585 0.089396715 -0.09988985 0.2744868 0.32967216
0.24461375 -0.099940576 -0.113179184 -0.025613934 0.03950419 0.19251002 0.2277299 0.4865939
-0.07804879 0.05705861 -0.00956171 0.25905126 -0.0176833 -0.030765004 0.29688028 0.28537512
-0.008955485 0.05875588 0.30154067 -0.16303937 0.33329386 -0.20123489 -0.257504 0.14255466
-0.02003752 0.3077395 -0.077537216 -0.121470034 0.24783218 -0.13792484 0.15905842 -0.16704139
0.2058457 -0.22620139 0.03891257 0.08964919 -0.034152072 0.08056922 0.26393464 -0.12843464
-0.016558116 0.2209952 0.34979796 0.2968235 0.39879093 -0.14492266 0.22075072 0.4085313
-0.29466256 0.2250497 -0.08517465 0.30745864 -0.27832788 0.040117085 0.19583888 0.43104088
0.0094597805 0.20497598 -0.02325551 -0.15641885 -0.003599365 0.42705238 0.4286857 0.16667797
00000000: 60a9 ddbd c3ff ad3a 3508 8e3e 53b1 093d
00000010: acd5 6a3e d618 143c fbff df3c c814 873e
00000020: 7c5c e7bd 35c2 a83e 41a8 ab3e 6696 683b
00000030: 1016 bfbc 5b81 6ebd 7d31 58be 1563 ccbd
00000040: a0be 7fbd fff5 913e 9ab5 d83e d4ec 19bd
00000050: 36a2 9d3b 0936 6a3e 428b ab3e 7d69 843c
00000060: 3240 003e 7cca 2abe 5dba 903e 4ed9 603e
00000070: 264f b23e d039 313e 47a1 a03e acd1 9d3e
00000080: d7ac 37bd ec0b 793e 0b22 a63e 9d67 90be
00000090: 5ea9 913b 106d 973b 494d a33c 22de 023d
000000a0: 58ad 1abd cdba 8a3e 8348 9a3e 7a76 a03e
000000b0: 094e a83e 3b54 0739 76c9 6cbd a20b 93bc
000000c0: b712 7b3d 4fee fabd a88a 253e f7cf d23d
000000d0: ab11 b23e 2d11 923e 502f 7a3e 1587 8a3e
000000e0: 7fbf 15be 26e5 e53d 1c10 c13d 449b be3e
000000f0: 758e 373d 24fb 2a3d ebcb 9d3e bb06 bd3e
00000100: c76c d43e e46e 983e 3918 d9bc 9f89 be3d
00000110: 8260 003e 1677 343e d248 20be 776c b7bd
00000120: 2e1a 5d3e 2664 e6bd 7b5d 11bd 40a5 943e
00000130: cb29 60bc 2378 a63e e131 ad3e c76e 7c3d
00000140: cf42 3abe 53c5 a7be e66c 20be 940f 283e
00000150: 89cf 423d 86b5 91bd 8416 e3bc eec1 18bd
00000160: c18f 973e 8357 463e 0437 d93d 369c 2abe
00000170: 50c9 88bd 2bd8 e83d 0ea8 b83e 77ef 773e
00000180: 2b24 db3e 5720 293e 1dc0 70be a621 bdbd
00000190: fcc1 003e e066 73be 0c95 20bc 7e22 bf3c
000001a0: 4f4e 73bd fb86 3dbe a900 c53e 7fd1 b73e
000001b0: d2e2 523c ecd4 6ab9 3d96 813e b93e 773d
000001c0: 0c26 83bd 2309 163e efb0 d7bc b55e 813e
000001d0: af6e 7dbe 401f ac3e 5da9 f9bd b406 8abe
000001e0: 3b80 6d3e 2e34 263e 6606 983e ef26 9fbd
000001f0: f2bc f83e 388c 913e 72f3 93bd 2039 e23b
00000200: 9ef3 d5bd 755a d4bd f4f5 2ebe 2388 ffbd
00000210: 52ae 023e 002a a73e 15f1 223e b99a b53e
00000220: c3b9 c33e c4d3 26be c1d6 3dbe ef4f a33d
00000230: 7ee1 a13e ac3d c33e a9a4 b0bd 0967 c8bd
00000240: 26a9 693e 6987 d13e 2739 993e f1da 383d
00000250: 1351 7cbe c283 bd3d ad49 54bd 97d7 96bd
00000260: 243d 413e 7642 903c 13e8 a5bd c29f b33e
00000270: 31f5 b43c b9d4 2e3d c439 b83e c8dc 8a3e
00000280: 0d53 2ebe cdf6 273e e984 37bd 0c35 743e
00000290: e0fa 4e3d 43e3 17be 5c88 dbbd bb1a bbbc
000002a0: bd54 d0bb 46a2 363e e8e2 f73b 8bf9 1bbe
000002b0: 3150 8d3e aaf7 38bd c808 ca3e 4487 acbe
000002c0: fb35 093d cd19 a73d 2ea6 edbd 3a7b 12be
000002d0: 2ffc 103d 2fc0 0b3d aa69 a13d 2721 a03d
000002e0: c725 9cbd 0945 c93d aa1d debd 5f36 4fbe
000002f0: a015 b73d 0d93 ccbd 8989 8c3e caca a83e
00000300: 077c 7a3e a5ad ccbd 7dca e7bd 50d4 d1bc
00000310: 25cf 213d 5921 453e 0732 693e d622 f93e
00000320: 0bd8 9fbd 4ab6 693d b8a8 1cbc 5ea2 843e
00000330: 91dc 90bc e406 fcbc b100 983e b01c 923e
00000340: 07ba 12bc 01aa 703d 8a63 9a3e cbf3 26be
00000350: 7ea5 aa3e 8510 4ebe 90d7 83be d9f9 113e
00000360: ba25 a4bc 0890 9d3e d5cb 9ebd 48c5 f8bd
00000370: b8c7 7d3e 2b3c 0dbe 36e0 223e e60c 2bbe
00000380: 37c9 523e 56a1 67be c962 1f3d ff99 b73d
00000390: 0be3 0bbd 7a01 a53d 7122 873e 5f84 03be
000003a0: e3a4 87bc 914c 623e b818 b33e 40f9 973e
000003b0: 532e cc3e 9b66 14be 7a0c 623e 042b d13e
000003c0: 03de 96be 6e73 663e 0c70 aebd 386b 9d3e
000003d0: fe80 8ebe d051 243d fd89 483e 64b1 dc3e
000003e0: 32fd 1a3c 39e5 513e 5782 bebc 432c 20be
000003f0: 53e3 6bbb 9ca6 da3e b17c db3e a1ad 2a3e

fc2.weight f4 [256, 256]
0.25509685 -0.06449414 0.01747701 0.18803512 0.0035607673 -0.19151147 -0.0009803703 0.05605783
0.15146185 0.035790183 -0.00072056096 -0.13670067 -0.13957337 -0.2664006 0.011578816 -0.06462825
-0.19620593 0.09597076 0.13313511 -0.12493255 -0.14037089 0.048204806 0.12203847 -0.13162032
0.055421434 0.13806061 0.06772964 0.0042041177 -0.026590254 0.14076144 0.07400445 -0.025337683
0.062978275 0.0797095 0.09443627 0.024444724 0.24475656 0.03064279 -0.14807613 -0.0049334513
-0.006114483 0.038353737 0.08622934 -0.018075489 0.08627045 -0.07131716 -0.06447772 -0.0684885
0.12912212 0.005717663 -0.09682468 -0.12865162 0.1020797 0.049434766 0.019298857 0.09656245
-0.1549105 0.045986336 0.07168643 0.07483422 0.13186587 -0.031535283 0.07269898 0.11461433
-0.027326962 0.07976738 -0.045686826 0.05956283 0.0021989834 -0.041161634 0.25063783 -0.1318427
0.20905365 0.20334466 0.6367653 0.049417626 -0.12016665 0.050584484 -0.05657388 0.031770732
-0.025749678 -0.049093146 -0.038095906 0.046266146 0.17633247 0.068569 0.03239111 0.011985352
0.1027353 0.11192274 0.12105413 -0.004558155 0.09725063 -0.09003578 0.11777885 0.048256774
0.05876912 0.02322956 0.043148227 0.05378124 0.28603846 0.18604033 -0.099934146 0.013749278
0.18903808 0.12123637 0.07935283 0.08950527 0.10381975 0.13550939 0.12645712 -0.17148902
-0.1318714 0.079753995 0.0010490342 0.03936208 -0.07291638 0.20001312 0.29236725 0.009553656
0.00869939 0.08464156 0.2695514 -0.06558834 0.10078664 0.0356821 -0.082088485 -0.08833055
-0.122856915 -0.118596464 0.22263543 0.24390674 -0.0345319 0.019989885 0.12649332 0.014650604
0.025332967 0.050304245 0.16508311 0.0878981 0.10173939 0.07544359 -0.062293965 0.22313973
0.07925168 0.1577369 0.028889935 -0.08346248 0.23919196 0.043063946 -0.053520143 0.30357906
-0.12026786 0.076852284 -0.3386971 0.028008917 0.039734837 0.00772706 0.09260123 0.10746198
0.12837772 0.056497123 -0.04168999 0.09084873 0.08837884 0.01106067 -0.03786347 -0.10513548
-0.031682905 -0.08888636 0.024140067 -0.15228814 0.0070289434 0.01941995 0.055671107 0.15240976
0.08044952 0.078618504 -0.13747446 0.20653109 0.122638 -0.072058804 0.060029455 -0.0063082865
0.072847754 -0.08788302 -0.06688062 0.2406004 -0.012565701 -0.14698772 0.08402837 0.032294583
0.067059524 -0.19261122 -0.06839439 -0.22057824 -0.14329481 -0.04070827 0.07133335 0.08150509
0.026172277 -0.020689012 -0.027548242 0.04174693 0.07401826 0.0815925 0.11968643 0.07257385
-0.080599196 -0.018606657 0.10624936 -0.21141881 -0.1178275 0.008153291 0.2854234 0.07501295
0.054618936 0.1280975 0.29495922 -0.28269613 0.06608519 -0.23272102 -0.041317176 0.23186745
0.029106386 0.25706285 0.034334093 -0.031505093 -0.2648725 -0.0996979 0.12826365 0.14000213
0.19152163 -0.0086327 0.07533712 0.11032289 0.027702697 0.02926865 0.050865658 0.1273299
0.1397247 0.091094136 -0.07666424 0.04523049 -0.1060279 0.056049686 0.07392776 0.044949636
0.21698964 0.32361445 0.00064836413 0.16925935 -0.007260957 0.028498778 0.10529398 0.020225886
00000000: 0e9c 823e 8115 84bd f22b 8f3c 478c 403e
00000010: c35b 693b 951b 44be c57f 80ba e59c 653d
00000020: d118 1b3e ba98 123d 07e4 3cba 43fb 0bbe
00000030: 52ec 0ebe a965 88be 13b5 3d3c d15b 84bd
00000040: 35ea 48be 518c c43d 9254 083e a3dc ffbd
00000050: 63bd 0fbe 6772 453d 4eef f93d 7ac7 06be
00000060: 9601 633d c35f 0d3e d6b5 8a3d b2c2 893b
00000070: ced3 d9bc c423 103e a58f 973d f990 cfbc
00000080: c1fa 803d bc3e a33d ce67 c13d 4d40 c83c
00000090: 77a1 7a3e 9706 fb3c 45a1 17be caa8 a1bb
000000a0: 005c c8bb cf18 1d3d 0299 b03d 0c13 94bc
000000b0: 90ae b03d bb0e 92bd e50c 84bd b343 8cbd
000000c0: 9738 043e 3c5b bb3b 054c c6bd 40bd 03be
000000d0: 290f d13d 1c7c 4a3d a318 9e3c 89c2 c53d
000000e0: dca0 1ebe 2b5c 3c3d 56d0 923d af42 993d
000000f0: d907 073e 242b 01bd 34e3 943d ebba ea3d
00000100: cbdc dfbc 155d a33d 1c22 3bbd 27f8 733d
00000110: d21c 103b 1a99 28bd 9a53 803e c601 07be
00000120: 2912 563e 9539 503e 0d03 233f 236a 4a3d
00000130: ef19 f6bd ad31 4f3d 03ba 67bd 0722 023d
00000140: fdf0 d2bc e515 49bd 740a 1cbd 9281 3d3d
00000150: 8090 343e e76d 8c3d 8aac 043d 365e 443c
00000160: e366 d23d c037 e53d 3aeb f73d 935c 95bb
00000170: 572b c73d ae64 b8bd 0a36 f13d e5a8 453d
00000180: e4b7 703d eb4b be3c 32bc 303d b849 5c3d
00000190: a273 923e 5b81 3e3e 46aa ccbd a744 613c
000001a0: 3393 413e c64a f83d bd83 a23d 8a4e b73d
000001b0: 739f d43d f9c2 0a3e fa7d 013e d19a 2fbe
000001c0: 4c09 07be 1056 a33d bf7f 893a 223a 213d
000001d0: 2f55 95bd 3dd0 4c3e 29b1 953e f086 1c3c
000001e0: e387 0e3c 8e58 ad3d a402 8a3e 2e53 86bd
000001f0: 3a69 ce3d 6527 123d 021e a8bd a6e6 b4bd
00000200: 689c fbbd b4e2 f2bd 8bfa 633e b0c2 793e
00000210: 5271 0dbd d4c1 a33c 7787 013e 1609 703c
00000220: 1587 cf3c d30b 4e3d 8c0b 293e eb03 b43d
00000230: be5c d03d 2b82 9a3d f527 7fbd be7e 643e
00000240: b44e a23d c885 213e 96aa ec3c 60ee aabd
00000250: bdee 743e d263 303d f037 5bbd b76e 9b3e
00000260: ff4e f6bd bb64 9d3d b569 adbe f572 e53c
00000270: ffc0 223d 4733 fd3b b7a5 bd3d 0715 dc3d
00000280: 7375 033e 8769 673d 1fc3 2abd e60e ba3d
00000290: f7ff b43d d037 353c ba16 1bbd 4551 d7bd
000002a0: efc5 01bd 0d0a b6bd 64c1 c53c 6cf1 1bbe
000002b0: 0d53 e63b 9616 9f3c 6307 643d 4e11 1c3e
000002c0: b8c2 a43d bd02 a13d 1bc6 0cbe e37c 533e
000002d0: a229 fb3d 9193 93bd 72e1 753d beb5 cebb
000002e0: 3431 953d 03fc b3bd b5f8 88bd f45f 763e
000002f0: 5fe0 4dbc f383 16be 1117 ac3d 5347 043d
00000300: 8156 893d e03b 45be 5c12 8cbd 43df 61be
00000310: e0bb 12be b7bd 26bd 3817 923d 24ec a63d
00000320: 3e67 d63c 017c a9bc daac e1bc d4fe 2a3d
00000330: e396 973d f819 a73d 291e f53d 99a1 943d
00000340: 3111 a5bd fd6c 98bc 4499 d93d 2c7e 58be
00000350: 8b4f f1bd 6295 053c 0423 923e 64a0 993d
00000360: 1bb8 5f3d fe2b 033e e504 973e 8cbd 90be
00000370: ac57 873d 6b4e 6ebe 333c 29bd a96e 6d3e
00000380: 8470 ee3c be9d 833e e8a1 0c3d 7c0b 01bd
00000390: 5e9d 87be 6a2e ccbd 8c57 033e b85c 0f3e
000003a0: 3f1e 443e 2b70 0dbc 594a 9a3d f8f0 e13d
000003b0: c4f0 e23c cfc4 ef3c 8258 503d c562 023e
000003c0: fe13 0f3e 908f ba3d 2402 9dbd 9b43 393d
000003d0: 2825 d9bd 5b94 653d 7067 973d 1c1d 383d
000003e0: 8832 5e3e cbb0 a53e fbf6 293a 5352 2d3e
000003f0: 52ed edbb 4576 e93c 5fa4 d73d c2b0 a53c

fc2.bias f4 [256]
0.039100498 0.01364842 -0.0641833 0.018473368 0.02672877 -0.0659662 -0.06851549 0.05868579
-0.0047907247 0.026084224 0.0018227621 0.007857405 -0.04348403 -0.0060866056 -0.035881955 -0.0632044
-0.044380542 -0.051762644 -0.02655784 -0.007205063 -0.028137855 0.021964625 0.07253596 -0.009564477
-0.019802975 -0.010667297 -0.07147225 0.03752599 0.04888196 -0.036980603 -0.001939376 -0.03293822
-0.00013455133 -0.035252765 0.12971765 -0.03180389 0.04958997 0.029800618 0.015414635 -0.025804482
0.13273822 -0.025670586 0.00018479435 -0.05669281 0.040508125 0.014252525 0.032018375 -0.025975233
0.011790842 -0.020600831 0.056477103 0.13422751 0.0960186 -0.0107320575 -0.028473778 0.040119875
-0.051430486 0.14366965 -0.06708425 0.020475298 -0.025226891 -0.033312384 0.03424313 0.038402807
-0.034732465 0.05423156 -0.0669647 0.04346834 -0.011554376 0.038407505 0.0011365326 0.057232674
-0.015876533 -0.031101936 -0.053631812 0.10822476 0.011085934 0.04142038 -0.05310245 0.06870864
0.022329753 -0.0029733523 0.029570645 -0.09056798 0.0947501 -0.025461901 0.04009373 0.013462724
0.08269119 0.083346784 0.06791743 -0.037007987 0.007673103 -0.0028203237 0.04676666 0.0060799415
0.032527972 0.11880624 0.109905995 0.005101155 -0.06433365 -0.043705676 -0.014044817 -0.0131161325
0.11735569 0.055579543 -0.049473677 -0.026997676 -0.023081413 0.005497231 -0.0019291197 0.03283753
0.04717289 0.0626089 -0.060443584 0.04129127 0.04528477 -0.025458151 0.054609485 -0.04837815
0.04335246 0.043178994 0.070651814 -0.026405048 -0.014827627 -0.053614356 0.03732489 -0.06711732
-0.048401617 0.060292102 0.010264856 0.026708651 -0.008168998 0.0045877113 0.019559326 0.033204027
-0.035403553 0.044236124 -0.049579248 0.0023915947 -0.034167252 0.00071523304 -0.08229924 0.075629234
0.09089357 0.058643997 0.039068963 0.0006035006 0.028633593 0.045959983 0.025896743 0.0625701
0.01808401 -0.00417622 0.024185482 0.033001866 0.055687692 -0.030637134 0.020673575 -0.024549527
0.10060488 0.06928762 0.062783495 0.08697783 -0.033242427 0.034431342 0.124100156 0.0675387
0.026487272 0.022932531 -0.009335302 -0.05731734 0.039113842 0.0072121415 0.05719851 -0.06128412
0.04342223 0.041930187 0.006457027 -0.038364556 0.04867077 0.03167161 -0.06125193 -0.0113521125
0.11751253 0.008649047 0.111278646 0.022820013 0.032063838 -0.07169753 0.09073013 0.042334806
-0.0071971146 -0.0080129625 0.034154218 0.051703103 -0.054866374 0.025403516 0.06776587 0.049527507
0.02639257 -0.036996923 -0.013622881 0.023343919 0.024753723 -0.06042972 -0.009679098 -0.026526919
-0.047214888 0.053701967 0.012868867 0.004068295 0.067589246 -0.057160378 -0.007149926 -0.00987461
0.065754674 -0.0336025 0.055222876 0.015710255 0.14498113 -0.0022485578 -0.005160046 -0.033905804
0.02422845 0.002052112 0.014685413 -0.059028335 -0.012066015 0.013765338 0.034711856 -0.068139665
0.04487103 0.014609847 -0.030737815 0.10373073 0.069818035 0.071056254 0.0065578963 0.0077129817
0.12522377 0.10835711 0.0061558965 0.029856402 0.009771966 0.035891652 0.023344874 0.05294038
-0.013588505 0.027151993 0.1308929 0.0087339645 -0.022631854 -0.044342794 -0.032905236 -0.00840459
00000000: d827 203d 9f9d 5f3c 8972 83bd 7655 973c
00000010: 4bf6 da3c 4919 87bd d951 8cbd 8360 703d
00000020: 83fb 9cbb 95ae d53c bfe9 ee3a 58bc 003c
00000030: 4f1c 32bd 2672 c7bb f5f8 12bd 4f71 81bd
00000040: 5fc8 35bd 1105 54bd d48f d9bc 7318 ecbb
00000050: 5c81 e6bc 28ef b33c bc8d 943d 53b4 1cbc
00000060: d939 a2bc e3c5 2ebc 0b60 92bd dab4 193d
00000070: 7338 483d f978 17bd a932 feba 3aea 06bd
00000080: 5916 0db9 3465 10bd b4d4 043e cc44 02bd
00000090: da1e 4b3d 6d20 f43c aa8d 7c3c ec63 d3bc
000000a0: 87ec 073e 1f4b d2bc 5bc5 4139 b836 68bd
000000b0: d9eb 253d 6c83 693c b325 033d 03ca d4bc
000000c0: 602e 413c 13c3 a8bc 8954 673d f072 093e
000000d0: 66a5 c43d 83d5 2fbc d741 e9bc bd54 243d
000000e0: c6a8 52bd 231e 133e 7863 89bd d0bb a73c
000000f0: a0a8 cebc 9172 08bd 8642 0c3d 434c 1d3d
00000100: a143 0ebd ea21 5e3d ca24 89bd dc0b 323d
00000110: 914e 3dbc 3051 1d3d b5f7 943a cf6c 6a3d
00000120: 810f 82bc 7dc9 febc 08ad 5bbd f1a4 dd3d
00000130: c7a1 353c 6ba8 293d f481 59bd 1eb7 8c3d
00000140: e3ec b63c 93dc 42bb 233e f23c b57b b9bd
00000150: 570c c23d 7a95 d0bc 5339 243d c292 5c3c
00000160: 005a a93d b8b1 aa3d 4b18 8b3d b095 17bd
00000170: a76e fb3b 2ed5 38bb 668e 3f3d 3f3a c73b
00000180: 0d3c 053d b050 f33d 6516 e13d 9727 a73b
00000190: 5cc1 83bd b904 33bd 3b1c 66bc 0ce5 56bc
000001a0: 2e58 f03d 60a7 633d e9a4 4abd 3b2a ddbc
000001b0: 3b15 bdbc 1e22 b43b 84da fcba a580 063d
000001c0: 5c38 413d 1839 803d b193 77bd 0921 293d
000001d0: 867c 393d 9d8d d0bc 32ae 5f3d 2b28 46bd
000001e0: 5992 313d 75dc 303d e6b1 903d 664f d8bc
000001f0: 93ef 72bc ba9a 5bbd fce1 183d ce74 89bd
00000200: c640 46bd daf4 763d ed2d 283c 1acc da3c
00000210: 43d7 05bc 8354 963b e13a a03c f200 083d
00000220: 5103 11bd f030 353d 9c13 4bbd 4dbc 1c3b
00000230: f6f2 0bbd 7a7e 3b3a 818c a8bd 80e3 9a3d
00000240: 6826 ba3d b034 703d c706 203d 3d34 1e3a
00000250: ff90 ea3c 8940 3c3d 6825 d43c c124 803d
00000260: eb24 943c acd8 88bb a220 c63c f72c 073d
00000270: c718 643d bafa fabc a15b a93c 171c c9bc
00000280: ee09 ce3d abe6 8d3d a294 803d 6f21 b23d
00000290: 3629 08bd e107 0d3d 3928 fe3d bb51 8a3d
000002a0: d6fb d83c 01dd bb3c 18f3 18bc 96c5 6abd
000002b0: d635 203d d453 ec3b fc48 6a3d 0f05 7bbd
000002c0: 82db 313d fdbe 2b3d 7895 d33b 2724 1dbd
000002d0: 005b 473d 17ba 013d 4ee3 7abd 36fe 39bc
000002e0: 69aa f03d bcb4 0d3c 0fe6 e33d 09f1 ba3c
000002f0: 5f55 033d 28d6 92bd b8d0 b93d 4367 2d3d
00000300: c6d5 ebbb cd48 03bc 4be5 0b3d a2c6 533d
00000310: 90bb 60bd 091b d03c d5c8 8a3d 5bdd 4a3d
00000320: 3b35 d83c 168a 17bd 8132 5fbc bf3b bf3c
00000330: 52c8 ca3c 2785 77bd 1495 1ebc fb4e d9bc
00000340: 6664 41bd 98f6 5b3d f1d7 523c 554f 853b
00000350: 3b6c 8a3d 0021 6abd ed49 eabb 1ec9 21bc
00000360: 63aa 863d c6a2 09bd 6231 623d cbb2 803c
00000370: ef75 143e 8a5c 13bb 9a15 a9bb d0e0 0abd
00000380: be7a c63c ba7c 063b 169b 703c b2c7 71bd
00000390: 89b0 45bc 0388 613c 052e 0e3d cf8c 8bbd
000003a0: afca 373d 245e 6f3c dfcd fbbc c770 d43d
000003b0: c2fc 8e3d f185 913d 9fe3 d63b 2ebd fc3b
000003c0: a93a 003e 55ea dd3d 67b7 c93b 6a95 f43c
000003d0: 991a 203c 2003 133d c03d bf3c 03d8 583d
000003e0: 52a2 5ebc db6d de3c ca08 063e e718 0f3c
000003f0: 7066 b9bc caa0 35bd a4c7 06bd 68b3 09bc

mean.weight f4 [2, 256]
-0.03556012 -0.016779693 0.037868686 -0.031048201 -0.023915937 -0.01898353 0.004289616 0.020602103
-0.013364624 -0.031124856 0.058489535 0.0008272591 0.0047273077 -0.031699136 -0.055309623 -0.051691044
0.05055053 -0.006136349 0.020834776 0.05575368 0.04043649 0.008127271 -0.038607445 -0.016880086
-0.023348527 -0.017137324 -0.042097505 0.066036716 -0.13401154 0.04003635 0.008663298 -0.03150586
-0.05905485 0.039479557 0.02392069 0.05019998 -0.025306575 0.054845043 0.05096794 0.028733063
-0.1350903 0.00942347 0.02405197 -0.06045523 -0.01944484 -0.019148415 0.009722908 0.0006965294
-0.016850201 0.05970827 0.028195892 -0.011040466 -0.045498896 -0.04003658 -0.007880351 -0.008133493
0.009359321 0.02482057 0.031582985 0.05161988 -0.018909764 0.008375038 -0.10776062 0.06344932
-0.04103905 0.019204143 0.013145468 0.0040887883 0.028413614 0.038512945 -0.029779442 0.040536396
0.05767758 -0.05018202 -0.045072943 -0.037605535 0.08047482 -0.031577334 0.05283823 -0.034334548
-0.0040400056 0.04362693 0.020014001 -0.057795078 0.029368816 0.0008725696 0.09514564 0.036136802
0.0035173318 -0.0034363074 0.0068027424 0.04586177 -0.02103019 -0.043509785 -0.0043982193 -0.047171097
-0.036109943 0.018519085 -0.087625496 -0.041103672 -0.021084353 -0.04180801 0.045178637 -0.041361667
0.03042924 0.084880896 -0.090077445 0.10241857 -0.04920388 0.039267607 -0.020763056 0.007877692
-0.04769268 0.039441872 -0.021330439 0.012776361 0.0034392779 -0.048577175 -0.03416933 0.009708734
-0.020407435 0.045992102 -0.012932197 0.046416484 0.033132844 -0.049082834 0.012582208 0.046245847
0.053141315 0.018565759 -0.062745646 0.009970673 0.025654174 0.05604292 -0.02770327 0.070900925
-0.059547756 -0.037500177 0.04926355 -0.031906534 0.032533027 -0.1440867 0.030927539 -0.072465055
-0.08768755 0.008964815 0.05405903 0.010885194 -0.114657514 0.050657175 0.020170296 0.035080846
-0.030278482 -0.03969332 -0.030557396 0.052526202 0.019943757 -0.05766761 0.04022022 -0.085252136
0.045785673 0.011790083 -0.04609892 -0.08527838 0.04903026 -0.015361782 0.053766854 -0.12497681
0.049153876 -0.03826459 -0.028078487 -0.055365115 0.0593053 0.0064563416 0.042170547 -0.061908126
-0.011291984 0.0030469326 0.039355 -0.04561787 0.037426643 -0.052578587 -0.046566293 -0.034268707
0.027065894 0.016349502 0.022474589 -0.0019878226 0.03539325 0.025120365 0.024522109 0.0534984
-0.044384453 -0.010874171 -0.008577575 -0.013911778 0.04782161 0.060251676 0.069966026 0.01833786
0.019843264 -0.060538545 0.03670463 -0.041171882 -0.0183918 -0.044353645 -0.06200132 -0.016466385
-0.017086387 0.06152588 -0.020714343 0.053944632 0.046593677 -0.07108726 -0.034810677 -0.055272654
0.05980251 -0.0011970408 0.026472986 -0.049333304 -0.03952753 0.025476128 -0.010287394 0.0033644212
-0.036597017 -0.03127724 -0.15618625 0.009513102 -0.05418635 0.054431885 -0.06476348 0.050848156
0.048632834 -0.052983932 -0.04258957 0.03076783 0.10363858 -0.04513755 0.0042906427 0.065396935
0.065504625 0.013039279 0.03952757 0.060374137 0.034491263 0.015601721 0.028476749 0.042016894
0.022431117 0.024422476 -0.03893105 -0.0008793462 0.0031071894 0.038010824 -0.038894545 0.040686153
00000000: 7da7 11bd 9175 89bc 321c 1b3d cc58 febc
00000010: 5beb c3bc 5983 9bbc e88f 8c3b bec5 a83c
00000020: 4cf7 5abc 8ef9 febc b992 6f3d 6bdc 583a
00000030: 88e7 9a3b f4d6 01bd 588c 62bd fdb9 53bd
00000040: 130e 4f3d 6d13 c9bb b1ad aa3c f95d 643d
00000050: bca0 253d 3f28 053c d722 1ebd 1b48 8abc
00000060: 6945 bfbc 9363 8cbc 6f6e 2cbd 423e 873d
00000070: 523a 09be 28fd 233d 81f0 0d3c 4a0c 01bd
00000080: 80e3 71bd 51b5 213d 53f5 c33c 7f9e 4d3d
00000090: bc4f cfbc 32a5 603d c2c3 503d 9a61 eb3c
000000a0: 1d55 0abe e664 1a3c a308 c53c e79f 77bd
000000b0: c94a 9fbc 23dd 9cbc d54c 1f3c 4c97 363a
000000c0: 6f09 8abc a990 743d 12fb e63c 12e3 34bc
000000d0: 0d5d 3abd 66fd 23bd 961c 01bc 5842 05bc
000000e0: d657 193c 8254 cb3c 295d 013d 5e6f 533d
000000f0: a6e8 9abc 7537 093c 9ab1 dcbd b8f1 813d
00000100: 9018 28bd 0252 9d3c 1760 573c 3efb 853b
00000110: abc3 e83c c0bf 1d3d 04f4 f3bc 7e09 263d
00000120: 533f 6c3d a98b 4dbd 689e 38bd 4308 1abd
00000130: fccf a43d 3c57 01bd e66c 583d 62a2 0cbd
00000140: 0662 84bb 27b2 323d 67f4 a33c 88ba 6cbd
00000150: df96 f03c 28bd 643a b8db c23d 2f04 143d
00000160: 0983 663b ac33 61bb 8ae9 de3b 8dd9 3b3d
00000170: 8147 acbc 5137 32bd f01e 90bb 7b36 41bd
00000180: 05e8 13bd 56b5 973c ff74 b3bd 535c 28bd
00000190: 18b9 acbc e03e 2bbd 3c0d 393d da6a 29bd
000001a0: be46 f93c 09d6 ad3d 867a b8bd d4c0 d13d
000001b0: 028a 49bd 12d7 203d 4917 aabc 6f11 013c
000001c0: 6659 43bd cd8d 213d 2cbd aebc f153 513c
000001d0: 8265 613b dcf8 46bd 24f5 0bbd 6211 1f3c
000001e0: 7e2d a7bc 3762 3c3d 91e1 53bc 361f 3e3d
000001f0: 4eb6 073d 150b 49bd 9b25 4e3c 496c 3d3d
00000200: b5aa 593d 3817 983c ca80 80bd 095c 233c
00000210: b428 d23c 438d 653d f8f1 e2bc 8134 913d
00000220: 59e8 73bd c999 19bd 94c8 493d 6db0 02bd
00000230: 5a41 053d 778b 13be c05b fd3c 8f68 94bd
00000240: 8895 b3bd 29e1 123c 006d 5d3d d057 323c
00000250: 8fd1 eabd e67d 4f3d 2d3c a53c efb0 0f3d
00000260: 940a f8bc 7695 22bd 8153 fabc b725 573d
00000270: 1761 a33c df34 6cbd f5bd 243d ac98 aebd
00000280: c289 3b3d 312b 413c 39d2 3cbd 6ea6 aebd
00000290: f4d3 483d fcaf 7bbc a23a 5c3d d7f3 ffbd
000002a0: 9355 493d 55bb 1cbd db04 e6bc 88c6 62bd
000002b0: 1dea 723d b88f d33b 06bb 2c3d 6093 7dbd
000002c0: 0302 39bc 0caf 473b b532 213d ced9 3abd
000002d0: ae4c 193d a55c 57bd 4cbc 3ebd 585d 0cbd
000002e0: 4bb9 dd3c 64ef 853c a11c b83c 2146 02bb
000002f0: 83f8 103d 39c9 cd3c 97e2 c83c 2321 5b3d
00000300: 79cc 35bd 9429 32bc f588 0cbc 3aee 63bc
00000310: 98e0 433d 76ca 763d 594a 8f3d 4839 963c
00000320: 578e a23c 44f7 77bd 9857 163d d9a3 28bd
00000330: 66aa 96bc 2bac 35bd 19f5 7dbd 83e4 86bc
00000340: c0f8 8bbc 9002 7c3d 20b1 a9bc 0cf5 5c3d
00000350: 03d9 3e3d 3396 91bd a495 0ebd 9465 62bd
00000360: 7af3 743d 06e6 9cba e0dd d83c b811 4abd
00000370: 9fe7 21bd 50b3 d03c 758c 28bc 9f7d 5c3b
00000380: c1e6 15bd 901c 00bd 4aef 1fbe d7dc 1b3c
00000390: 82f2 5dbd f8f3 5e3d b7a2 84bd 2846 503d
000003a0: 3933 473d ae05 59bd 6772 2ebd d10c fc3c
000003b0: 7740 d43d 27e2 38bd 8598 8c3b d4ee 853d
000003c0: 4a27 863d b3a2 553c a9e7 213d df4a 773d
000003d0: b646 0d3d 5c9e 7f3c 1248 e93c e819 2c3d
000003e0: 76c1 b73c a511 c83c 2a76 1fbd ed83 66ba
000003f0: fda1 4b3b 3db1 1b3d e34f 1fbd 86a6 263d

mean.bias f4 [2]
0.060732365 0.081511796
00000000: 80c2 783d a8ef a63d

value.weight f4 [1, 256]
0.22985198 -0.20299155 -0.21017888 -0.14115731 -0.2192794 -0.22267328 -0.20133518 0.014558669
0.49547455 0.3406081 0.017788759 -0.21410656 -0.20176229 -0.2080354 0.034149237 0.0014899016
-0.17953761 0.026474286 -0.19847162 0.04445229 0.009715316 -0.162606 -0.17352495 -0.15203239
-0.18350983 -0.1411266 -0.1637311 0.2930149 0.4483013 -0.21454468 0.36494824 -0.19359337
-0.17095445 -0.17583996 0.19358586 0.40487078 0.029690111 -0.20441867 -0.17531742 -0.17476624
0.24786676 0.054550905 0.35130444 0.012060007 -0.19974487 0.04948536 0.37927467 -0.19071119
-0.1658334 0.051628713 0.015795253 0.27871072 0.25441688 -0.18628311 -0.21025077 0.19718087
-0.14307499 0.23987512 -0.20742813 -0.13776657 0.38915104 0.34827754 0.4839637 0.010718159
0.37946904 0.32699323 0.42236263 -0.20060103 0.047322568 0.36499923 -0.18310562 -0.18639934
-0.13216853 -0.16950709 0.39105842 0.3429394 0.3011474 -0.13784355 0.016522609 -0.13382287
-0.16733833 -0.1920146 -0.12828629 0.401849 0.29618752 -0.20184064 0.23594867 -0.1947405
-0.13890693 -0.3954389 -0.12704799 0.030249242 -0.19842531 -0.18931147 0.22362387 -0.12790088
-0.2051138 0.3152976 0.4392048 0.04566537 0.4186685 0.019513093 -0.19330232 -0.22198977
0.33460975 0.28571922 0.3960574 -0.279819 -0.16115823 0.019229408 0.48455 -0.17919417
0.024844183 0.32570648 0.38898343 -0.20870109 -0.13381082 -0.20194186 -0.11125232 0.4002215
-0.19360058 -0.13354416 0.3027091 0.05084039 -0.18397981 -0.22804213 0.131475 -0.23562974
-0.19781369 -0.1130554 0.38395217 -0.17459698 -0.13799383 -0.21309933 0.3329635 -0.1675054
-0.20325625 0.33400184 -0.15109512 0.431489 0.026898928 0.4937053 0.39388216 0.2660105
0.39126998 0.3187073 -0.1919412 0.378819 0.4535548 -0.10755798 -0.2077677 -0.19013326
-0.18987636 -0.21940696 0.018891107 0.30923912 0.31705123 -0.22305746 0.40278134 -0.20272267
0.32193333 0.55659246 -0.1326042 0.49417278 0.051214345 -0.1489882 0.28104928 0.45361945
-0.18876699 -0.22538559 0.047959108 0.042586442 -0.16869031 -0.15355438 -0.1482075 -0.21537183
-0.20932192 -0.1643214 -0.17125656 -0.2025909 -0.1601715 -0.18429771 -0.16382578 -0.15377362
0.30354497 0.023771428 0.2338859 -0.20920524 -0.15938975 -0.20758955 0.3032285 0.25114456
-0.17843497 0.37170225 0.20117384 -0.12686463 -0.17628287 -0.19159827 0.6186404 0.28896743
0.39547318 -0.1790652 0.018603167 -0.19680059 -0.20607737 -0.20672765 -0.20135602 0.39986748
0.43975484 -0.04373619 -0.13098553 -0.18770295 0.31879678 0.3797587 -0.1804507 -0.136432
-0.1700483 0.39661667 0.35552996 -0.13253257 0.27284682 -0.12516071 -0.22138041 0.05921248
0.34499845 -0.17637935 0.47561565 -0.18279676 0.036688987 -0.18017447 -0.22145599 -0.15687488
-0.23236066 -0.14120688 0.37302312 0.2717013 0.60593855 0.25482133 -0.1979075 -0.20327812
0.3060478 0.31307316 0.046223834 -0.1211205 -0.17948072 -0.18657002 0.3570343 0.04230239
-0.1520074 -0.21592574 0.24464405 0.23702925 0.030396435 0.42582253 -0.13323605 -0.0340012
00000000: 515e 6b3e 04dd 4fbe 2239 57be 8b8b 10be
00000010: c78a 60be 7704 64be cf2a 4ebe 7c87 6e3c
00000020: d7ae fd3e 2f64 ae3e bbb9 913c c03e 5bbe
00000030: c69a 4ebe 3b07 55be 12e0 0b3d cd48 c33a
00000040: b5d8 37be 9ae0 d83c 253c 4bbe 9b13 363d
00000050: fd2c 1f3c 3082 26be 86b0 31be 61ae 1bbe
00000060: 00ea 3bbe 7e83 10be 20a9 27be 0d06 963e
00000070: bf87 e53e 9ab1 5bbe 7fda ba3e 573d 46be
00000080: af0e 2fbe 640f 34be 5f3b 463e 394b cf3e
00000090: ad38 f33c 2153 51be 6986 33be ecf5 32be
000000a0: c9d0 7d3e c570 5f3d 2dde b33e 5697 453c
000000b0: eb89 4cbe 29b1 4a3d 4a30 c23e cb49 43be
000000c0: 3bd0 29be a178 533d 0c65 813c 2cb3 8e3e
000000d0: ee42 823e 00c1 3ebe fa4b 57be c8e9 493e
000000e0: 4082 12be d3a1 753e 0a68 54be ae12 0dbe
000000f0: ce3e c73e 6f51 b23e 17ca f73e 389b 2f3c
00000100: c449 c23e a86b a73e ea3f d83e 5b6a 4dbe
00000110: 4fd5 413d 2ee1 ba3e 0a80 3bbe 78df 3ebe
00000120: 3057 07be 4493 2dbe cf38 c83e c195 af3e
00000130: fe2f 9a3e dc26 0dbe 6c5a 873c dd08 09be
00000140: bd5a 2bbe 7a9f 44be 7b5d 03be 27bf cd3e
00000150: e4a5 973e 50af 4ebe 879c 713e 0e6a 47be
00000160: 9e3d 0ebe f876 cabe de18 02be 42cd f73c
00000170: 0130 4bbe deda 41be a8fd 643e 73f8 02be
00000180: 5a09 52be b06e a13e 74df e03e 9c0b 3b3d
00000190: b85b d63e ecd9 9f3c 0bf1 45be 4951 63be
000001a0: f851 ab3e ca49 923e 09c8 ca3e 7044 8fbe
000001b0: aa06 25be fe86 9d3c f016 f83e ad7e 37be
000001c0: 0786 cb3c 00c3 a63e d628 c73e bdb5 55be
000001d0: b405 09be d9c9 4ebe 42d8 e3bd d5e9 cc3e
000001e0: 3b3f 46be cdbf 08be b0fc 9a3e 033e 503d
000001f0: 3465 3cbe e083 69be 62a1 063e ec48 71be
00000200: ac8f 4abe 9789 e7bd 6195 c43e 8dc9 32be
00000210: 414e 0dbe b636 5abe 317a aa3e 8986 2bbe
00000220: 6822 50be 4a02 ab3e aeb8 1abe 20ec dc3e
00000230: 245b dc3c f1c6 fc3e ecaa c93e 8732 883e
00000240: 8a54 c83e 9a2d a33e 3c8c 44be 90f4 c13e
00000250: 5638 e83e 5c47 dcbd 0ec1 54be 4bb2 42be
00000260: f36e 42be 38ac 60be 86c1 9a3c 9754 9e3e
00000270: 8a54 a23e 2d69 64be 5b39 ce3e 8896 4fbe
00000280: 72d4 a43e d87c 0e3f 65c9 07be 3704 fd3e
00000290: 22c6 513d 5d90 18be b1e5 8f3e cf40 e83e
000002a0: 224c 41be 7bcb 66be c570 443d 1f6f 2e3d
000002b0: 27bd 2cbe 5c3d 1dbe b5c3 17be 6f8a 5cbe
000002c0: 7c58 56be de43 28be e15d 2fbe fd73 4fbe
000002d0: ff03 24be 8ab8 3cbe f2c1 27be d576 1dbe
000002e0: 3f6a 9b3e 4cbc c23c c97f 6f3e e639 56be
000002f0: 1137 23be 5b92 54be c440 9b3e 0596 803e
00000300: a8b7 36be c24f be3e 8400 4e3e cde8 01be
00000310: 7f83 34be 5632 44be 385f 1e3f 8af3 933e
00000320: 767b ca3e de5c 37be ab65 983c 1886 49be
00000330: f205 53be 6ab0 53be 4630 4ebe 6ebb cc3e
00000340: 8c27 e13e b824 33bd 1221 06be 3435 40be
00000350: 5539 a33e bb6f c23e 11c8 38be d5b4 0bbe
00000360: 2421 2ebe 5711 cb3e 0608 b63e 9eb6 07be
00000370: 94b2 8b3e 212a 00be 8cb1 62be c988 723d
00000380: a3a3 b03e ca9c 34be e583 f33e 132f 3bbe
00000390: 3147 163d a87f 38be 5cc5 62be cfa3 20be
000003a0: f4ef 6dbe 8998 10be e3fc be3e 6f1c 8b3e
000003b0: ca1e 1b3f f177 823e 44a8 4abe 2428 50be
000003c0: 4cb2 9c3e 204b a03e 3455 3d3d 060e f8bd
000003d0: cbc9 37be 360c 3fbe 33cd b63e 4545 2d3d
000003e0: d4a7 1bbe a31b 5dbe f883 7a3e ccb7 723e
000003f0: f201 f93c 6905 da3e 086f 08be d844 0bbd
