ppo/PPO_LunarLander_ep2000.pth (torch, 279103 bytes, 8 tensors)

log_std f4 [1, 2]
0	0xbe9f9d58	-0.3117473
1	0xbe0e746f	-0.13911603

fc1.weight f4 [256, 8]
0	0x3cbb4ff0	0.022865266
1	0xbc276529	-0.01021699
2	0xbd5e6df0	-0.054304063
3	0xbdd506c7	-0.10401683
4	0x3f8a4fd4	1.0805612
5	0x3dc5be11	0.09655393
6	0x3ece8899	0.4033859
7	0x3e2ac06c	0.16674966
8	0x3eb23591	0.34806493
9	0x3e5b55fa	0.21419516
10	0xbbcf3fd7	-0.006324749
11	0x3cfdbc99	0.03097372
12	0xbe1ddaa7	-0.1541544
13	0xbef75f20	-0.48314762
14	0x3eabc99d	0.33552256
15	0x3eaafe28	0.3339703
16	0x3e0733d3	0.13203363
17	0x3d27e4e7	0.040989783
18	0xbd83dbe7	-0.064384274
19	0x3dde5539	0.10856099
20	0xbecbe46c	-0.3982271
21	0xbea26b11	-0.3172231
22	0xbce2a97d	-0.027668709
23	0xbccdf646	-0.025141846
24	0xbcaa3968	-0.020779327
25	0xbd389343	-0.045062315
26	0xbea6e2dd	-0.32594958
27	0xbedf2282	-0.43581015
28	0x3f0e53e7	0.55596775
29	0x3d47065e	0.048590057
30	0x3e65c30f	0.2243769
31	0x3d94f40a	0.07273109
32	0xbd82a1ea	-0.06378539
33	0xbf130dfe	-0.57443225
34	0x3edc076f	0.4297442
35	0xbeae3dd9	-0.3403156
36	0xbedae798	-0.42754817
37	0xbeef8f6f	-0.4678912
38	0x3ec52e79	0.38512018
39	0xbcfd6e81	-0.030936481
40	0x3f2c985a	0.6741997
41	0x3d80f55b	0.06296798
42	0x3de29cf2	0.11065091
43	0x3d29e0c8	0.041474134
44	0x3d7a076b	0.06104223
45	0x3dcaf8b4	0.099107176
46	0xbe5b2e18	-0.21404302
47	0xbc292f40	-0.010326207
48	0x3d8198af	0.0632795
49	0x3f097992	0.53701127
50	0x3c876c62	0.016531173
51	0xbf05787d	-0.52136976
52	0x3e20d97f	0.15707968
53	0x3ea9ad65	0.33140102
54	0xbe14b316	-0.14521441
55	0xbe7eca26	-0.24881801
56	0x3e0a094a	0.13480106
57	0x3d15b879	0.03655288
58	0xbe3fd33e	-0.18732926
59	0x3bead91d	0.007166995
60	0x3de95ca0	0.1139462
61	0xbe4cee2e	-0.20012733
62	0xbdd75a11	-0.10515226
63	0x3e2d2f01	0.16912462
64	0x3d45ae55	0.04826196
65	0x3be2b4a5	0.006918507
66	0x3eaef5cc	0.34171903
67	0xbe331eec	-0.17492265
68	0x3f5eba5e	0.87003124
69	0xbeee5d57	-0.46555588
70	0x3eb33b21	0.3500605
71	0xbe9086f3	-0.28227958
72	0xbeb294a3	-0.34879026
73	0xbd72238a	-0.059115924
74	0x3b780a2b	0.0037847857
75	0x3dbbb538	0.09165424
76	0xbdb0b94c	-0.086290926
77	0xbe49dca2	-0.19713071
78	0x3ead8e85	0.33897796
79	0xbe087370	-0.13325286
80	0xbda1ab03	-0.07893946
81	0x3ee5bf28	0.44872403
82	0x3ec9c7d5	0.39410272
83	0xbeced685	-0.4039804
84	0x3dbdee26	0.09273939
85	0x3e60c53a	0.21950236
86	0x3d95cf8e	0.073149785
87	0xbe3caa91	-0.18424441
88	0xbf2a9816	-0.66638315
89	0x3d5a1c96	0.053249918
90	0xbbfd1ebf	-0.0077246125
91	0xbb5f1c52	-0.003404398
92	0x3e5adc1c	0.21373028
93	0x3e662ed9	0.22478808
94	0x3e70b5eb	0.23506896
95	0x3e062af1	0.13102318
96	0x3f2d4eba	0.6769825
97	0xbcae1d1f	-0.02125412
98	0x3eaf123d	0.34193602
99	0xbddb35fe	-0.107036576
100	0xbe98e820	-0.29864597
101	0x3d941a3c	0.07231566
102	0x3d2f3fcb	0.042785447
103	0x3ea6c771	0.32574037
104	0x3f25f9a8	0.6483407
105	0xbeb6501b	-0.3560799
106	0x3e635c61	0.22203209
107	0xbea633ec	-0.32461488
108	0x3e0b497f	0.13602255
109	0x3d40411d	0.046937097
110	0x3e3a94ee	0.18220875
111	0x3d88daf5	0.06682388
112	0xbee843cd	-0.45364228
113	0xbe2d40a8	-0.16919196
114	0x3cf4c076	0.029876929
115	0xbdb7ac72	-0.08968438
116	0x3edb6489	0.4285014
117	0x3ef564c6	0.47928447
118	0xbc809271	-0.015694829
119	0xbdb37b52	-0.08763756
120	0x3edd4400	0.43215942
121	0xbe4a0f80	-0.19732475
122	0x3ebcf857	0.36908218
123	0xbcb0731f	-0.021539269
124	0xbe3dba4c	-0.18528098
125	0xbe64663d	-0.22304626
126	0x3bb7be9f	0.0056074406
127	0x3c9dd39e	0.019265946
128	0x3f062336	0.5239748
129	0xbeb7d3b8	-0.35903716
130	0x3df74d1f	0.120752566
131	0xbf229d11	-0.63520914
132	0xbe8d7ba7	-0.27633402
133	0xbd9311f0	-0.07181156
134	0x3cbef494	0.023309983
135	0xbd24017f	-0.04004049
136	0xbd9a8058	-0.07544011
137	0x3ee368a6	0.44415778
138	0xbe9cc5bf	-0.30619618
139	0xbeda477f	-0.42632672
140	0xbed7736b	-0.42080244
141	0x3edc18f2	0.42987782
142	0xbd56a534	-0.052403644
143	0xbe81ecf4	-0.25376093
144	0x3c1d50ca	0.009601781
145	0x3e4d1b3b	0.20029919
146	0xbca05897	-0.019573493
147	0x3e971070	0.29504728
148	0x3ee71e1d	0.45140162
149	0xbe84c518	-0.2593162
150	0xbe8acdff	-0.27110288
151	0x3e364f40	0.17803669
152	0x3f403dd0	0.7509432
153	0xbda6a1e9	-0.08136351
154	0x3e86ef03	0.26354226
155	0xbe7de063	-0.24792628
156	0xbe69ed58	-0.22844446
157	0xbda7a0b3	-0.08184948
158	0xba76f0b0	-0.00094200205
159	0x3d8f5aeb	0.06999763
160	0xbf1d09f2	-0.613433
161	0x3ec24022	0.37939554
162	0xbe14ee68	-0.1454407
163	0x3e8be97f	0.2732658
164	0x3ed70970	0.41999388
165	0x3e36bbbc	0.17845052
166	0xbe4c98b6	-0.1998013
167	0xbea979e9	-0.33100823
168	0xbe0bc082	-0.13647655
169	0x3ef5b579	0.47990015
170	0x3da494db	0.080362044
171	0x3c565773	0.013082373
172	0x3f0430ca	0.51636946
173	0xbe80cd48	-0.25156617
174	0x3e8c84c1	0.27445033
175	0x3ea35403	0.31900033
176	0x3e661fe9	0.2247311
177	0x3e61219f	0.21985482
178	0x3e1421f8	0.14466083
179	0xbe993a18	-0.29927135
180	0x3e8cb53d	0.27482024
181	0xbea58375	-0.32326856
182	0x3b91db54	0.004451195
183	0x3e4eedd8	0.20207918
184	0x3eaca19c	0.33717048
185	0xbee0be52	-0.43895203
186	0xbd688564	-0.056767836
187	0xbea5f258	-0.32411456
188	0x3d81ffcb	0.06347617
189	0x3e8d1d65	0.2756149
190	0xbd9b0e77	-0.07571118
191	0xbe351ec2	-0.17687514
192	0xbddfff3b	-0.10937353
193	0x3ee1e3df	0.44119164
194	0xbe781083	-0.24225049
195	0xbedf6534	-0.436319
196	0x3f204bea	0.62615836
197	0xbc564303	-0.0130775
198	0xbe47a9f6	-0.19498429
199	0x3e65fc7d	0.22459598
200	0x3d15b8ed	0.036553312
201	0x3f145f9e	0.579584
202	0x3e04e5a1	0.12978221
203	0xbe791008	-0.24322522
204	0x3ef43192	0.4769407
205	0x3e0bf5f6	0.13668045
206	0xbe5c9217	-0.21540104
207	0xbe802278	-0.25026298
208	0xbe6661e8	-0.22498286
209	0x3ed92d9c	0.4241761
210	0xbe92761d	-0.28605738
211	0xbebb0ad4	-0.365317
212	0xbea51707	-0.3224413
213	0x3d9512b1	0.07278956
214	0x3af0f112	0.0018382391
215	0xbe5e0cdd	-0.21684594
216	0x3e778000	0.24169922
217	0xbebf761c	-0.37394798
218	0xbee4a6a4	-0.44658387
219	0x3c8a0645	0.016848693
220	0xbe23e9d5	-0.16007169
221	0xbc4d34ce	-0.012524797
222	0x3e215bba	0.15757647
223	0xba6ca3e9	-0.000902711
224	0xbd5705a0	-0.0524956
225	0xbe08dc2c	-0.13365239
226	0xbd2a15d3	-0.04152472
227	0xbe74811e	-0.2387738
228	0x3e902799	0.2815521
229	0x3ebdc3ab	0.37063345
230	0xbe8402c0	-0.25783348
231	0xbe4f0162	-0.20215371
232	0xbea0ab58	-0.31380725
233	0xbefbd139	-0.49183062
234	0xbec6e0ca	-0.38843375
235	0x3c77284f	0.015085294
236	0x3ee792aa	0.45229083
237	0x3e94df94	0.29076827
238	0xbe584a9a	-0.21122208
239	0x3eba5f80	0.36400986
240	0xbd4716a0	-0.04860556
241	0x3f232355	0.6372579
242	0xbcdec02e	-0.027191248
243	0x3d4d0bd6	0.050060116
244	0xbe341c29	-0.17588867
245	0x3ddc055f	0.10743212
246	0xbc79b3e9	-0.015240648
247	0xbeddc7dd	-0.43316546
248	0x3e4b9e30	0.19884562
249	0xbee0bad6	-0.43892545
250	0x3e21b0fb	0.15790169
251	0x3e489ac9	0.19590296
252	0xbf0b309c	-0.5437105
253	0xbea598f3	-0.32343253
254	0xbed07e60	-0.40721416
255	0xbea51663	-0.32243642

fc1.bias f4 [256]
0	0xbcfc39fd	-0.03078937
1	0x3d3f56ea	0.046713747
2	0x3e8aa95e	0.27082342
3	0x3bf9d881	0.007624686
4	0x3e369a17	0.17832218
5	0x3bfca59b	0.0077101714
6	0x3d9eba6b	0.077504
7	0x3e952c23	0.29135236
8	0xbd9b7d38	-0.07592243
9	0x3ea423ed	0.3205866
10	0x3ea3c220	0.31984043
11	0x3afd3a08	0.0019319663
12	0xbd143988	-0.03618768
13	0xbd61b672	-0.055105634
14	0xbe458e10	-0.19292474
15	0xbe40a519	-0.1881298
16	0xbdd24157	-0.10266369
17	0x3ea24382	0.3169213
18	0x3ee514f9	0.44742563
19	0xbd9b7eca	-0.075925425
20	0x3d477bb7	0.048701968
21	0x3e71f14a	0.236272
22	0x3eafd7af	0.3434424
23	0xbd3ee127	-0.04660144
24	0x3e0936c3	0.13399796
25	0xbd722d47	-0.05912521
26	0x3e9e6604	0.30937207
27	0x3e5185b0	0.20461154
28	0x3ea53cf8	0.32273078
29	0x3e2f3323	0.17109351
30	0x3eaaa549	0.33329228
31	0x3ea40d1a	0.32041246
32	0x3c32c129	0.010910311
33	0x3e7f1355	0.24909718
34	0x3e9f19a3	0.31074247
35	0xbe874c94	-0.26425612
36	0x3c42c78d	0.011888397
37	0x3d2bdb95	0.041957457
38	0x3dcd24b5	0.10016767
39	0x3da0b16b	0.0784634
40	0xba099e2c	-0.00052497047
41	0x3e8dacf3	0.27671012
42	0x3e9b5efb	0.30345902
43	0x3e916030	0.28393698
44	0x3ea87bbd	0.32906905
45	0xba1abfe4	-0.0005903228
46	0xbde447ca	-0.11146505
47	0x3d4852bb	0.048907023
48	0x3dea99b8	0.11455101
49	0xbe0b653f	-0.13612841
50	0x3e02fb2c	0.12791127
51	0x3df35dc8	0.11883122
52	0x3eaf5cdc	0.34250534
53	0x3e7f4a9d	0.24930806
54	0x3e8553ea	0.26040584
55	0x3e923312	0.2855459
56	0xbdd60fac	-0.10452208
57	0x3de141e4	0.10998896
58	0x3d82f52e	0.063944206
59	0x3ebd8035	0.37011877
60	0x3ca1ff14	0.019774951
61	0x3d579ed4	0.052641705
62	0x3ea35b63	0.3190566
63	0x3ec1de15	0.37864748
64	0x3ecf21d5	0.404555
65	0x3e9ddb01	0.3083115
66	0xbdbdded4	-0.09271017
67	0x3e044821	0.1291814
68	0x3e21d808	0.15805066
69	0x3e53ca68	0.2068268
70	0xbe053660	-0.13009024
71	0xbe03d2c8	-0.12873375
72	0x3e2c1dd9	0.16808261
73	0xbd744f7f	-0.059646126
74	0x3bd48647	0.0064857337
75	0x3e959cd9	0.29221228
76	0xbbb6f9e0	-0.0055839866
77	0x3e92654e	0.28592914
78	0x3ebadd1e	0.36496824
79	0x3cfd4311	0.030915769
80	0xbe5b4284	-0.21412092
81	0xbe93b22e	-0.28846878
82	0xbe75bb96	-0.2399734
83	0x3e0a13cf	0.13484119
84	0x3cc059d8	0.02348034
85	0xbd50a9f7	-0.05094334
86	0xbd9bd4c8	-0.07608944
87	0xbd2b3e38	-0.041807383
88	0x3e9c5e45	0.30540672
89	0x3e498cdb	0.19682638
90	0x3d56315c	0.052293167
91	0xbe12e149	-0.14343752
92	0xbd27829c	-0.040896043
93	0x3da946bb	0.08265444
94	0x3eb67489	0.35635784
95	0x3e41af5c	0.1891455
96	0x3ee051fc	0.4381255
97	0x3e69a468	0.22816622
98	0xbe81b3a4	-0.25332367
99	0xbdf7e753	-0.121046685
100	0x3e279bb6	0.16367993
101	0xbe1c4631	-0.15261151
102	0xbbae7faa	-0.0053252773
103	0x3bb76b12	0.0055974806
104	0xbdae4af1	-0.08510388
105	0xbe62d012	-0.22149685
106	0x3ecc0837	0.39850017
107	0x3e9e6972	0.30939823
108	0x3d880faa	0.06643613
109	0x3d12e488	0.035862476
110	0x3e8cee37	0.27525494
111	0x3de31eb0	0.110898376
112	0xbdef78b1	-0.11692942
113	0x3e182139	0.14856423
114	0xbe0d8efd	-0.13824077
115	0x3e77b3bd	0.24189658
116	0xbe790506	-0.24318323
117	0x3e90ae81	0.28258136
118	0xbddbd0a7	-0.10733157
119	0xbe9269f9	-0.28596476
120	0x3e4bbe3a	0.19896784
121	0x3e2d39aa	0.16916528
122	0x3e998305	0.29982772
123	0xbb930e07	-0.004487756
124	0x3efeef22	0.4979182
125	0x3e98b7dc	0.29827774
126	0xbcba5598	-0.022745892
127	0x3d99995a	0.074999526
128	0xbdf2e7e9	-0.118606396
129	0xbdcf38b1	-0.10118235
130	0xbdfbbf35	-0.12292329
131	0xbdba54a1	-0.09098173
132	0x3dc31aed	0.0952662
133	0x3e8ff127	0.28113672
134	0x3e3bfaab	0.18357341
135	0x3ead8c66	0.33896178
136	0x3ec77775	0.38958326
137	0xbc5f1222	-0.013615163
138	0xbe80e90d	-0.25177804
139	0x3dd75b68	0.10515481
140	0x3e9f6f35	0.31139532
141	0x3ed30e5a	0.41221887
142	0xbdc3712c	-0.0954307
143	0x3c918a29	0.017766075
144	0x3e706edf	0.23479794
145	0x3ed6c8ee	0.41950172
146	0x3e9a9a34	0.30195773
147	0x3de83e15	0.11339966
148	0xbe5e3248	-0.21698868
149	0x3dc79d90	0.097468495
150	0xbda06f20	-0.078336954
151	0xbe03e021	-0.12878467
152	0x3e1a65d3	0.15077905
153	0x3ccae3d8	0.024766847
154	0xbe148700	-0.14504623
155	0x3ec1c62f	0.37846515
156	0xbcf3e06d	-0.0297701
157	0x3db7edab	0.089808784
158	0x3ea2f693	0.31828746
159	0x3e8fa645	0.2805654
160	0xbdd171db	-0.10226794
161	0x3e46ce88	0.19414723
162	0xbc9ee4fa	-0.019396294
163	0x3e43acbb	0.1910886
164	0x3dad2ed4	0.084561974
165	0xbe237cac	-0.15965527
166	0xbe1a0623	-0.15041403
167	0xbda8dabb	-0.082448445
168	0xbc4ac1f6	-0.012375345
169	0x3dec18fa	0.115282014
170	0x3d31ec56	0.04343828
171	0xbe4cb36c	-0.19990319
172	0x3e787d5f	0.24266575
173	0x3cb61915	0.022228757
174	0x3ece7a03	0.40327463
175	0xbeda262f	-0.42607257
176	0x3d80d358	0.062903106
177	0x3de6cd80	0.11269665
178	0xbe0646dc	-0.13112968
179	0xbde07aba	-0.10960908
180	0x3dbdeafb	0.092733346
181	0xbcfc09f1	-0.03076646
182	0x3df86772	0.12129106
183	0x3d59b9da	0.053155757
184	0xbd4e5b8b	-0.05038027
185	0x3de317a1	0.11088491
186	0xbdd076f3	-0.10178938
187	0xbdf5d73e	-0.12003945
188	0x3e01f3ca	0.12690654
189	0xbe1a3f32	-0.1506317
190	0x3ea0a4f5	0.31375852
191	0x3eb21b21	0.34786323
192	0x3e89c827	0.26910517
193	0xbe19d62d	-0.15023108
194	0xbe0a0976	-0.13480172
195	0xbdb43851	-0.08799804
196	0x3d0649a0	0.032785058
197	0x3e15563b	0.14583676
198	0x3e043bc1	0.1291342
199	0x3ef83c87	0.4848368
200	0xbde99854	-0.114060074
201	0x3c4165ac	0.011804026
202	0x3d307ff7	0.043090787
203	0x3e628257	0.22120033
204	0xbd448663	-0.047979724
205	0x3be8b54f	0.007101692
206	0x3ea3d087	0.3199503
207	0x3eb27acc	0.34859312
208	0x3d8c4b43	0.068502925
209	0x3d965216	0.073398754
210	0x3ea2354d	0.3168129
211	0xbe2f4bf9	-0.17118825
212	0x3ea9f3f3	0.3319393
213	0xbe71fc2f	-0.23631357
214	0xbe24108f	-0.16021942
215	0x3e093f42	0.13403037
216	0xbd1c9a89	-0.038233314
217	0x3ea0671a	0.3132866
218	0xbd2a4870	-0.041572988
219	0xbe03b81f	-0.12863205
220	0x3e5c1239	0.21491326
221	0xbe391d09	-0.18077482
222	0x3e436c05	0.19084175
223	0xbdf7c0ab	-0.120972954
224	0x3e74293a	0.23843852
225	0xbe301098	-0.1719383
226	0xbd2548e7	-0.04035273
227	0x3d8c985e	0.06864999
228	0xbd7c1045	-0.061538953
229	0x3d63d515	0.055623133
230	0x3e79960d	0.24373646
231	0xbdeb92cb	-0.11502608
232	0xbc648075	-0.013946642
233	0x3e8e3c06	0.2778017
234	0x3eb77b85	0.35836425
235	0x3e9c6e14	0.30552733
236	0x3eb6782d	0.35638562
237	0xbe0f9b9b	-0.14024203
238	0x3e677362	0.22602609
239	0x3ed7912d	0.42102948
240	0xbe60c75b	-0.21951048
241	0x3e71faf5	0.23630889
242	0x3ce3704d	0.02776351
243	0x3ea6fca5	0.32614627
244	0xbea1e1f8	-0.31617713
245	0x3cf25cec	0.029585324
246	0x3e3f4d34	0.18681794
247	0x3ee29038	0.44250655
248	0x3d09ee6b	0.03367464
249	0x3e60b2c6	0.21943197
250	0xbd24473d	-0.040107
251	0xbde88f01	-0.11355401
252	0xbc05621e	-0.008141069
253	0x3ed1bbfb	0.4096373
254	0x3ee0a917	0.43879005
255	0x3e3cc017	0.18432651

fc2.weight f4 [256, 256]
0	0x3e93c013	0.28857478
1	0xbd81240c	-0.063057035
2	0x3cd2c0f5	0.025726775
3	0x3e5cf7e9	0.21578945
4	0x3d474806	0.04865267
5	0xbe8d7876	-0.27630967
6	0x3c01ffdd	0.007934538
7	0x3d553423	0.052051675
8	0x3e70545c	0.2346968
9	0x3d18f139	0.037339423
10	0x3b3de072	0.002897289
11	0xbe2f01c3	-0.17090516
12	0xbe0daec4	-0.13836199
13	0xbe8e623c	-0.27809322
14	0xbbb19487	-0.005419317
15	0xbdb63f31	-0.088987716
16	0xbe9a4530	-0.3013091
17	0x3df4f22a	0.11960252
18	0x3dfbaf3e	0.12289284
19	0xbe20d77b	-0.157072
20	0xbdfcfe05	-0.12353138
21	0x3d14604a	0.03622464
22	0x3df443b1	0.119269736
23	0xbe69f512	-0.22847393
24	0x3d0cf1aa	0.034410156
25	0x3e3f64ae	0.1869075
26	0x3d92a836	0.0716099
27	0x3cc3cde1	0.023901882
28	0xbcd22b1d	-0.025655324
29	0x3e0be473	0.13661365
30	0x3dbca2de	0.09210752
31	0x3d014130	0.03155631
32	0x3d6f49b2	0.05841989
33	0x3d9d03ef	0.07666766
34	0x3dcd2874	0.100174814
35	0xbda1aa32	-0.0789379
36	0x3e7ead7a	0.24870864
37	0x3daef1b8	0.08542198
38	0xbe1f5eb0	-0.15563464
39	0x3b478c93	0.003044878
40	0xbcde1ee5	-0.027114341
41	0x3d2b5779	0.041831467
42	0x3da8d938	0.08244556
43	0xbc3b9d26	-0.011451041
44	0x3daa1c0c	0.08306131
45	0xbe575b62	-0.21030954
46	0xbdf21f30	-0.11822355
47	0xbdae57bb	-0.08512827
48	0x3dda5dee	0.10662447
49	0x3ca15c3c	0.019697301
50	0xbd901062	-0.07034375
51	0xbdf24040	-0.11828661
52	0x3df6d8e7	0.120530896
53	0x3d212d1e	0.039349668
54	0x3c61b277	0.0137754595
55	0x3dcc0988	0.099627554
56	0xbe160e12	-0.14653805
57	0x3df7d914	0.12101951
58	0x3dec8705	0.115491904
59	0x3e00d605	0.12581642
60	0x3e159623	0.14608054
61	0xbd2db5da	-0.042409755
62	0x3d8a8f41	0.06765605
63	0x3df4a248	0.11945015
64	0xbc56a369	-0.013100483
65	0x3dc84b48	0.09779984
66	0xbe05816d	-0.13037653
67	0x3d63b9aa	0.055596985
68	0xbcca5a69	-0.024701314
69	0x3b844961	0.0040370678
70	0x3f05d9fc	0.5228574
71	0xbe0b0a5e	-0.13578174
72	0x3e585407	0.21125804
73	0x3e91d976	0.28486222
74	0x3f54fc61	0.831976
75	0x3d45ba04	0.0482731
76	0xbe68a624	-0.22719628
77	0x3d659ee0	0.056059718
78	0xbd4da1f9	-0.050203297
79	0xbd330cd5	-0.04371341
80	0xbbeb2640	-0.0071761906
81	0xbd0ee5e6	-0.034887217
82	0xbdebef75	-0.11520282
83	0x3cd7a976	0.026325922
84	0x3e42c370	0.19019866
85	0x3dd18735	0.10230867
86	0x3c6c056e	0.014405591
87	0xbc762ff9	-0.015026086
88	0x3dcd114a	0.10013063
89	0x3de07d6e	0.10961424
90	0x3df98666	0.121838376
91	0x3c667c30	0.014067695
92	0x3e1bd6cf	0.15218662
93	0xbd78e4a3	-0.06076492
94	0x3de855f9	0.11344523
95	0x3d4d2f90	0.050094187
96	0x3d93ca91	0.07216371
97	0x3d08eb92	0.033427782
98	0x3caf9a55	0.021435896
99	0x3d876fb7	0.06613105
100	0x3ed7488e	0.42047542
101	0x3e6b0fe1	0.22955276
102	0xbde9c309	-0.11414153
103	0xbb95bda2	-0.004569725
104	0x3e6cadf0	0.23113227
105	0x3d3730a4	0.04472412
106	0x3da73fc3	0.081664585
107	0x3dbbb3b1	0.09165133
108	0x3d9f152b	0.07767709
109	0x3e2251ad	0.1585147
110	0x3e013725	0.12618692
111	0xbe3e44fd	-0.18581004
112	0xbe5186bd	-0.20461555
113	0x3d8fa07a	0.0701303
114	0x3cfad438	0.030618772
115	0x3d1892e2	0.037249453
116	0x3c7cce4e	0.015430046
117	0x3e4b5343	0.1985598
118	0x3eb5a6b0	0.35478735
119	0xbd50f801	-0.051017765
120	0x3a9a1be7	0.0011757583
121	0x3db381bd	0.0876498
122	0x3e94526a	0.28969127
123	0xbcbb02f7	-0.022828562
124	0x3ddb629c	0.107121676
125	0x3d144e1c	0.036207303
126	0xbdd2c8fe	-0.102922425
127	0xbdf6fc8d	-0.12059889
128	0xbe02a383	-0.12757687
129	0xbe5ef78f	-0.21774124
130	0x3ea8eb0e	0.32991832
131	0x3ef0b2da	0.47011453
132	0xbd014d57	-0.031567898
133	0x3d095dc0	0.033536673
134	0x3e3a95eb	0.18221252
135	0x3cea6801	0.028614046
136	0x3cf4f88a	0.029903669
137	0x3e4f927d	0.20270725
138	0x3e7747d2	0.24148491
139	0x3ddaf1c8	0.10690647
140	0x3dd0e49e	0.10199855
141	0x3dc83e11	0.09777463
142	0xbd9181bc	-0.07104823
143	0x3ed944c9	0.4243529
144	0x3dfc89ec	0.12330994
145	0x3e2cc6e2	0.16872743
146	0x3da82c8c	0.08211622
147	0xbe41ed39	-0.1893815
148	0x3e6b5590	0.22981858
149	0x3d256122	0.040375836
150	0xbe011887	-0.12607013
151	0x3f209813	0.62732047
152	0xbe04d9fd	-0.12973781
153	0x3d800f18	0.06252879
154	0xbf1f951e	-0.6233691
155	0x3d063a8b	0.032770675
156	0xbc3d9372	-0.011570798
157	0x3c63907b	0.013889427
158	0x3da1ef3c	0.079069585
159	0x3e281d89	0.16417517
160	0x3de7d5e1	0.11320091
161	0x3d44380e	0.04790502
162	0xbda330b2	-0.07968272
163	0x3e545f35	0.20739444
164	0x3df70ab1	0.12062586
165	0xbabb5b46	-0.0014294169
166	0xbd8f6fe1	-0.07003761
167	0xbe24bd3c	-0.16087812
168	0xbd0be1d4	-0.034150913
169	0xbd8b5b77	-0.06804555
170	0x3d118ded	0.03553574
171	0xbe6d7f50	-0.23193097
172	0x3d82aa93	0.06380191
173	0xbcb86524	-0.022509165
174	0x3d6c2ce3	0.057659995
175	0x3ecf243c	0.40457332
176	0x3ce38843	0.027774936
177	0x3d8798cf	0.06620943
178	0xbe6e6d14	-0.23283798
179	0x3eae7fea	0.34081966
180	0x3e0909d0	0.1338265
181	0xbdb32773	-0.08747759
182	0x3d5efa90	0.054438174
183	0xbdbe871d	-0.093031146
184	0x3ddb6441	0.10712481
185	0xbd7c4755	-0.061591465
186	0xbdfca19d	-0.12335513
187	0x3e837cb7	0.25681087
188	0xbde0e172	-0.109805
189	0xbe187771	-0.14889313
190	0x3daba804	0.08381656
191	0x3d289d4d	0.04116564
192	0x3d715e3f	0.05892777
193	0xbee9fcef	-0.45700786
194	0xbd2043cc	-0.039127156
195	0xbe706958	-0.23477685
196	0xbe14d242	-0.14533332
197	0xbd47dc96	-0.04879435
198	0x3d4da72a	0.05020825
199	0x3dafed24	0.08590153
200	0x3c8cf190	0.01720503
201	0xbdba3320	-0.090917826
202	0xbd1b62af	-0.03793591
203	0x3d55dd1a	0.052212812
204	0x3e4cb645	0.19991405
205	0x3e103fc9	0.14086832
206	0x3e20bea9	0.15697731
207	0x3d940cd7	0.072290115
208	0xbda2f37b	-0.079565965
209	0xbca5bdd5	-0.02023212
210	0x3dd20e60	0.10256648
211	0xbe865839	-0.26239184
212	0xbdf7368a	-0.120709494
213	0xbc87d0f9	-0.016579138
214	0x3e9d562b	0.30729803
215	0x3db3daef	0.08781993
216	0x3dc79213	0.09744658
217	0x3e027bf5	0.12742598
218	0x3ea12df3	0.3148037
219	0xbeaf221a	-0.34205705
220	0x3d86e1b7	0.065860204
221	0xbeab0c41	-0.33407786
222	0xbd351a19	-0.04421434
223	0x3ea3818e	0.3193478
224	0x3dc92ac1	0.09822608
225	0x3e8e5a2b	0.27803168
226	0x3d45b058	0.048263878
227	0xbbe36b63	-0.0069402917
228	0xbe9cf918	-0.30658793
229	0xbdc4f72c	-0.09617457
230	0x3df94265	0.12170867
231	0x3e80446c	0.25052202
232	0x3e4de587	0.20107089
233	0xbb0bdc2a	-0.0021340945
234	0x3da0467c	0.07825944
235	0x3dc53c47	0.096306376
236	0x3cf99743	0.030467635
237	0x3d83e4fb	0.06440159
238	0x3d5e1f66	0.054229163
239	0x3e20762e	0.15670082
240	0x3d019d42	0.031644113
241	0x3dc9e35d	0.09857819
242	0xbdb79e87	-0.089657836
243	0x3d5b9c90	0.053616107
244	0xbd72c41e	-0.059269063
245	0x3ca1063a	0.01965629
246	0x3de630e7	0.11239796
247	0x3d370d0c	0.044690177
248	0x3e88494e	0.26618427
249	0x3ed60f47	0.4180853
250	0xbc2f1f5c	-0.010688629
251	0x3e57986a	0.21054235
252	0xbdf9f747	-0.122053675
253	0x3d2bde19	0.041959856
254	0x3dd2ba4f	0.10289442
255	0xbb7c62c6	-0.0038511022

fc2.bias f4 [256]
0	0x3d42935e	0.04750382
1	0x3aef9f71	0.001828177
2	0xbdaff1a2	-0.0859101
3	0x3c1a0a64	0.009401891
4	0xbbd4d7c7	-0.006495449
5	0xbd9a99b2	-0.07548846
6	0xbda1548a	-0.07877453
7	0x3d706083	0.05868579
8	0xbd311515	-0.043232996
9	0x3d088695	0.033331472
10	0x3aeee9bf	0.0018227621
11	0xbb2472ef	-0.002509292
12	0xbd58672a	-0.05283276
13	0xbc915cd2	-0.017744455
14	0xbd12f8f5	-0.035881955
15	0xbd81714f	-0.0632044
16	0xbd68eaee	-0.05686467
17	0xbd5e8e22	-0.054334767
18	0xbd25c597	-0.04047164
19	0xbbec1873	-0.007205063
20	0xbce6815c	-0.028137855
21	0x3c47f58c	0.012204539
22	0x3d824074	0.0635995
23	0xbca0b231	-0.019616218
24	0xbd075afa	-0.033045746
25	0xbca6fdd9	-0.020384716
26	0xbda60e7c	-0.081082314
27	0x3d3808c3	0.04493023
28	0x3cfdd653	0.030985987
29	0xbd648b60	-0.05579698
30	0x3c6eb1c4	0.01456875
31	0xbd2f8cec	-0.042859003
32	0xbc15ff15	-0.009155055
33	0xbd3bb6d2	-0.045828648
34	0x3e0c3eff	0.13695906
35	0xbb914776	-0.0044335676
36	0x3d4b1eda	0.04958997
37	0x3c93381a	0.017971087
38	0x3b69eb05	0.003569306
39	0xbd121f3a	-0.03567431
40	0x3e11e76a	0.14248434
41	0xbcd24b1f	-0.025670586
42	0xbc3074a3	-0.010769996
43	0xbd6836b8	-0.05669281
44	0x3cf06e6c	0.029349528
45	0x3c69836c	0.014252525
46	0x3d34dfed	0.044158865
47	0xbd109580	-0.035298824
48	0x3ae55ced	0.0017499008
49	0xbca8c313	-0.020600831
50	0x3d675489	0.056477103
51	0x3e0d6b95	0.1381057
52	0x3dd3dcc7	0.10344844
53	0xbca0cb3e	-0.019628163
54	0xbd179211	-0.037004534
55	0x3d0361b7	0.03207561
56	0xbd7c6422	-0.06161893
57	0x3e1acb0c	0.15116519
58	0xbda00281	-0.078129776
59	0x3c1a3c86	0.009413844
60	0xbc19f89f	-0.009397655
61	0xbcb04d7a	-0.021521319
62	0x3b149c2c	0.0022676094
63	0x3d1d4c43	0.038402807
64	0xbc981b05	-0.018567571
65	0x3d6dd539	0.058064673
66	0xbd53c9a7	-0.051705983
67	0x3d00716e	0.031358175
68	0xbc5f58c7	-0.013632006
69	0x3d2e4931	0.04255027
70	0xbc0e922d	-0.008701843
71	0x3d3ca3c5	0.04605462
72	0xbcdf6682	-0.02727056
73	0xbd29dd7d	-0.041470993
74	0xbd2babb2	-0.04191179
75	0x3dea5f84	0.114439994
76	0x3cc3ae44	0.023886807
77	0x3d03cd28	0.032178074
78	0xbd33c844	-0.04389216
79	0x3d73b537	0.05949899
80	0x3c454186	0.012039548
81	0xbc5d1a5e	-0.013495056
82	0x3c9d6e33	0.019217586
83	0xbda003b6	-0.07813208
84	0x3dce5f97	0.10076826
85	0xbd1146e5	-0.035468
86	0x3d3ff699	0.046866033
87	0x3b4bb0f6	0.0031080819
88	0x3d948a04	0.07252887
89	0x3daf16b9	0.08549256
90	0x3d6cfc7e	0.057857983
91	0xbd1795b0	-0.037007987
92	0xbafc11d8	-0.0019231392
93	0xbca58dac	-0.020209156
94	0x3d5f9bf2	0.05459208
95	0xbb5621d0	-0.0032673962
96	0x3cc05015	0.023475686
97	0x3dfc45cd	0.12318001
98	0x3de5cce4	0.112207204
99	0x3ba72797	0.005101155
100	0xbd563339	-0.052294943
101	0xbd3d8067	-0.046265032
102	0xbcd50933	-0.026005363
103	0xbd376c44	-0.044780985
104	0x3df444d7	0.11927193
105	0x3d798cad	0.060925175
106	0xbd032e2f	-0.032026466
107	0xbd54a107	-0.05191138
108	0xbd05d1af	-0.032670673
109	0x3bb4221e	0.005497231
110	0x3b824784	0.0039758105
111	0x3ca8ef4d	0.02062192
112	0x3d41385c	0.04717289
113	0x3d857386	0.06516175
114	0xbd5b6fd8	-0.05357346
115	0x3d007133	0.031357955
116	0x3d1089d2	0.035287686
117	0xbd2e47c9	-0.04254893
118	0x3d3780dd	0.044800628
119	0xbd57121b	-0.0525075
120	0x3d0025bb	0.031285983
121	0x3d054922	0.032540448
122	0x3da1ab07	0.07893949
123	0xbcd84f66	-0.026405048
124	0xbcdf5426	-0.027261805
125	0xbd84d2f0	-0.06485546
126	0x3d63e94c	0.05564241
127	0xbdccf319	-0.10007305
128	0xbd7206ba	-0.059088446
129	0x3d49fe4f	0.049314793
130	0x3cdba428	0.026811674
131	0x3c8924be	0.016741153
132	0xbc961016	-0.018318217
133	0xbbbafd81	-0.0057064896
134	0x3ce9a871	0.028522702
135	0x3cb74675	0.022372464
136	0xbd85e1a9	-0.06537182
137	0x3d3c18ff	0.045922276
138	0xbd76db89	-0.06026796
139	0x3c6573c8	0.014004655
140	0xbd0bf2f6	-0.034167252
141	0xbd0413db	-0.0322455
142	0xbd8e9d31	-0.06963576
143	0x3dac2561	0.08405567
144	0x3dc8b2e9	0.097997494
145	0x3d8895f9	0.0666923
146	0x3cddb00a	0.027061481
147	0x3c7d6455	0.015465816
148	0x3ba54aaa	0.005044301
149	0x3d0a585d	0.033775676
150	0x3bffce4a	0.007806574
151	0x3d5782e9	0.05261508
152	0x3bd7e5d7	0.0065886783
153	0xbcb93e0a	-0.02261259
154	0x3cc620a2	0.024185482
155	0x3d35834f	0.04431468
156	0x3d8c1fd1	0.06842006
157	0xbd2e8b85	-0.042613525
158	0x3d4dce0b	0.050245326
159	0xbd0d43a0	-0.03448832
160	0x3ddb7e97	0.107175045
161	0x3d90d9af	0.0707277
162	0x3d5ad7d7	0.053428497
163	0x3d680a23	0.056650292
164	0xbd082936	-0.033242427
165	0x3cc9d090	0.024635583
166	0x3e069bb9	0.13145341
167	0x3d8802c7	0.06641155
168	0x3c83f069	0.016105847
169	0x3c495395	0.012287994
170	0xbc3a631b	-0.011376168
171	0xbd6ac596	-0.05731734
172	0x3ce83853	0.02834717
173	0xbb43ae32	-0.0029858467
174	0x3d3f6a56	0.04673227
175	0xbd9d6189	-0.07684619
176	0x3cfac12c	0.03060969
177	0x3d042179	0.032258485
178	0xbb7083e4	-0.0036699707
179	0xbd41b0ce	-0.047287755
180	0x3d1c1de9	0.038114462
181	0x3c433206	0.011913782
182	0xbd912a46	-0.07088141
183	0xbcaa48ac	-0.020786606
184	0x3dfe0be4	0.12404612
185	0x3c0db4bc	0.008649047
186	0x3df3003a	0.118652776
187	0x3b6b2498	0.0035879966
188	0x3caf56b5	0.02140365
189	0xbdd880cd	-0.10571442
190	0x3dbd3f0d	0.092405416
191	0x3d41cb81	0.047313217
192	0xbc824c60	-0.015905559
193	0x3c58f6b7	0.013242415
194	0x3d2c505e	0.04206883
195	0x3d2d64a1	0.042332295
196	0xbd86656a	-0.06562312
197	0x3c53e9cf	0.012934162
198	0x3d84af12	0.064787045
199	0x3d7c0c88	0.06153539
200	0x3d254806	0.04035189
201	0xbd417743	-0.047232877
202	0x3cc14b59	0.023595499
203	0x3c5bf05f	0.013424008
204	0x3bc40b2f	0.0059827785
205	0xbd906b6a	-0.070517376
206	0xbca6e8e6	-0.020374727
207	0xbca634f6	-0.020288926
208	0xbd0bd61a	-0.03413973
209	0x3d829eea	0.06377967
210	0x3b245c45	0.002507941
211	0xbc5a282f	-0.013315245
212	0x3db668e6	0.089067265
213	0xbd280820	-0.041023374
214	0xbc971578	-0.018442854
215	0xbc9814ac	-0.018564545
216	0x3d5fd441	0.05464578
217	0xbcc49fcf	-0.024001984
218	0x3d883ff6	0.066528246
219	0x3bd6bce6	0.00655328
220	0x3e1af374	0.15131932
221	0xbc588515	-0.013215323
222	0xbcaae676	-0.020861845
223	0xbd0ae0d0	-0.033905804
224	0x3cfab1f7	0.030602438
225	0xbbf663e5	-0.0075192326
226	0xbc552ad4	-0.013010699
227	0xbd8dc76f	-0.069228046
228	0xbc5e9132	-0.013584422
229	0x3b3bf531	0.002868008
230	0x3ca12d29	0.019674854
231	0xbda340a7	-0.07971316
232	0x3d06437d	0.032779206
233	0x3bb7e806	0.005612376
234	0xbc89f2d6	-0.016839426
235	0x3dd715c2	0.10502197
236	0x3d99617c	0.07489297
237	0x3da390c9	0.079866
238	0xbb378112	-0.0028000516
239	0xbb84c2f2	-0.0040515596
240	0x3e07dd9d	0.13268133
241	0x3df576e7	0.119855694
242	0x3b58bcef	0.0033071598
243	0x3c95f085	0.018303165
244	0xbaec7eb9	-0.0018043137
245	0x3ccea448	0.02522482
246	0x3cde86b7	0.027163846
247	0x3d58d803	0.05294038
248	0xbcc14762	-0.023593608
249	0xbc1acd70	-0.009448394
250	0x3e0b6cb6	0.13615689
251	0x3c0dac3f	0.008647024
252	0xbcb96670	-0.022631854
253	0xbd15f0d1	-0.036606614
254	0xbd2bb7fc	-0.041923508
255	0xbc09b368	-0.00840459

mean.weight f4 [2, 256]
0	0xbd3885d8	-0.04504952
1	0xbc8f336e	-0.017480578
2	0x3d59fbe9	0.053218756
3	0xbd079544	-0.033101335
4	0xbcc0ef7c	-0.023551695
5	0xbcb3bbee	-0.021940198
6	0xbb019b32	-0.0019776342
7	0x3ca8c5be	0.020602103
8	0x3cf2c251	0.029633673
9	0xbd3d5272	-0.046221204
10	0x3d6f92b9	0.058489535
11	0xba45389f	-0.0007523391
12	0x3b35db73	0.002774921
13	0xbd236ea8	-0.039900452
14	0xbd628c58	-0.055309623
15	0xbd53b9fd	-0.051691044
16	0x3d6478f8	0.055779427
17	0xbbc9136d	-0.006136349
18	0x3c927935	0.017880062
19	0x3d645df9	0.05575368
20	0x3d25a0bc	0.04043649
21	0x3bb6d36e	0.0055794036
22	0xbd297f1c	-0.041380987
23	0xbc96a30c	-0.018388294
24	0xbcee7793	-0.029109752
25	0xbca848f3	-0.020542597
26	0xbd3fedba	-0.046857573
27	0x3d6e2aec	0.058146402
28	0xbe1d7c95	-0.15379556
29	0x3d129f0b	0.035796206
30	0x3c058ce4	0.008151267
31	0xbd02cb17	-0.031931963
32	0xbd827270	-0.063694835
33	0x3d1cebbb	0.038310748
34	0x3ce68a08	0.02814199
35	0x3d866172	0.06561555
36	0xbccf4fbc	-0.025306575
37	0x3d74fdd8	0.059812397
38	0x3d53e42b	0.05173127
39	0x3cd9dec4	0.02659548
40	0xbe1945b7	-0.14968
41	0x3c1a64e6	0.00942347
42	0x3cce0c50	0.025152355
43	0xbd779fe7	-0.06045523
44	0xbc9ff10e	-0.019524124
45	0xbc9cdd23	-0.019148415
46	0x3b12373c	0.0022310754
47	0xbacddd75	-0.0015706258
48	0xbcad2084	-0.021133669
49	0x3d7490a9	0.05970827
50	0x3ce6fb12	0.028195892
51	0xbcd83b8a	-0.026395578
52	0xbd869e74	-0.06573191
53	0xbd271605	-0.040792484
54	0xbc3ade68	-0.011405565
55	0x3cc7fbcf	0.024412064
56	0x3c28d86a	0.010305503
57	0x3cc56cd3	0.024099743
58	0x3d089a55	0.033350307
59	0x3d68ea85	0.05686428
60	0xbc81619a	-0.01579361
61	0x3c4ac918	0.012377046
62	0xbdbbdf92	-0.09173502
63	0x3d81f1b8	0.06344932
64	0xbd1786bc	-0.036993727
65	0x3c0cac11	0.008585946
66	0x3cd4abb9	0.02596079
67	0x3bd8eebd	0.0066202567
68	0x3d80e345	0.06293348
69	0x3d9f2950	0.077715516
70	0xbd0e788c	-0.03478293
71	0x3d27d3a5	0.040973324
72	0x3d72aaec	0.059245035
73	0xbd62f2e9	-0.05540744
74	0xbd22ce4c	-0.03974752
75	0xbd6ca089	-0.057770286
76	0x3d96622a	0.07342942
77	0xbd149bea	-0.036281504
78	0x3d78942c	0.060688183
79	0xbd17a26d	-0.037020136
80	0xbc2b391e	-0.0104506295
81	0x3d313109	0.043259654
82	0x3caa836a	0.020814616
83	0xbd520d8c	-0.05128245
84	0x3d8d935a	0.06912871
85	0xbad3e148	-0.0016165162
86	0x3dccb167	0.09994774
87	0x3d23ae6a	0.039961256
88	0x3b7887fa	0.0037922845
89	0x3d356eef	0.044295248
90	0x3babf899	0.005248141
91	0x3d3bd98d	0.04586177
92	0xbcd37f70	-0.025817603
93	0xbd2fac50	-0.04288894
94	0xbb8076e6	-0.003920424
95	0xbd516bda	-0.051128246
96	0xbd1ac11e	-0.037781827
97	0x3b9717a5	0.004610973
98	0xbdd2f84b	-0.103012644
99	0xbd285c53	-0.041103672
100	0xbc844f04	-0.016150959
101	0xbd2af2b2	-0.04173536
102	0x3d379075	0.0448155
103	0xbd3bcf0b	-0.04585175
104	0x3ca4117b	0.020027867
105	0x3d979cd3	0.07402959
106	0xbda7ee33	-0.0819973
107	0x3df7f9ff	0.1210823
108	0xbd627c6c	-0.05529444
109	0x3d20d712	0.039267607
110	0xbc534363	-0.012894484
111	0x3c49df3a	0.012321288
112	0xbd435966	-0.04769268
113	0x3cd51acd	0.026013756
114	0xbc7b124d	-0.015324187
115	0x3c5ccc63	0.013476464
116	0xba67cde8	-0.0008842633
117	0xbd6468f7	-0.055764165
118	0xbd15b172	-0.03654618
119	0x3cf9435c	0.030427627
120	0xbccb0548	-0.024782792
121	0x3d3d94cb	0.04628448
122	0xbcb44a22	-0.022008006
123	0x3d3e1f36	0.046416484
124	0x3d305606	0.04305079
125	0xbd4ca453	-0.0499614
126	0x3d373b12	0.04473407
127	0x3d74f4c6	0.059803747
128	0x3d66f876	0.056389295
129	0x3c869454	0.01642815
130	0xbd94d563	-0.07267263
131	0x3c1d327d	0.009594557
132	0x3cd6291a	0.026142646
133	0x3d74cbca	0.05976466
134	0xbcc17317	-0.02361445
135	0x3d93b1bb	0.07211634
136	0xbd79a4a0	-0.060948014
137	0xbd46218c	-0.048371837
138	0x3d40833d	0.04700016
139	0xbd04ec8c	-0.03245215
140	0x3d05415a	0.032533027
141	0xbe0952f1	-0.13410546
142	0x3d2a3c7e	0.041561596
143	0xbda31007	-0.07962041
144	0xbdd4e658	-0.10395497
145	0x3bba8e36	0.0056932224
146	0x3d6f3cb0	0.058407485
147	0x3c933e7d	0.017974133
148	0xbdd845b5	-0.105601706
149	0x3d50ed01	0.051007275
150	0x3c8f8a7f	0.017522095
151	0x3d1000b4	0.03515692
152	0xbd09fded	-0.033689428
153	0xbd31ffe0	-0.043456912
154	0xbcfa5381	-0.030557396
155	0x3d2e3374	0.04252954
156	0x3c1f4784	0.0097216405
157	0xbd692cce	-0.056927495
158	0x3d4ce94c	0.050027177
159	0xbdcc73b1	-0.09983004
160	0x3d2a9920	0.041649938
161	0x3ad4e0a8	0.0016241269
162	0xbd4f8da4	-0.05067219
163	0xbd9260d4	-0.07147375
164	0x3d48d3f4	0.04903026
165	0xbc90ef04	-0.017692097
166	0x3d2e8856	0.04261049
167	0xbe0eeb51	-0.13956954
168	0x3d4a4db4	0.04939051
169	0xbd450e16	-0.048109137
170	0xbccf00a8	-0.025268868
171	0xbd62c688	-0.055365115
172	0x3d811421	0.063026674
173	0x3b9a9c64	0.0047183502
174	0x3d2bed4c	0.04197435
175	0xbd772204	-0.060335174
176	0xbc10509c	-0.008808281
177	0x3b0083fd	0.001960992
178	0x3d19467d	0.03742074
179	0xbd3a1606	-0.04543116
180	0x3d11076f	0.03540748
181	0xbd557f4e	-0.05212336
182	0xbd4df619	-0.050283525
183	0xbd11ebcf	-0.035625275
184	0x3c8a7b51	0.016904505
185	0x3c85ef64	0.016349502
186	0x3cbfa092	0.023391996
187	0xbac3fdda	-0.0014952973
188	0x3d196087	0.03744557
189	0x3cd19ba4	0.02558691
190	0x3c6e6a44	0.014551703
191	0x3d327e0e	0.043577246
192	0xbd4fcd71	-0.050733034
193	0xbc6a2e20	-0.014293224
194	0xbcb5ccc2	-0.022192363
195	0xbc895b3c	-0.016767137
196	0x3d4a0826	0.049324177
197	0x3d84ce67	0.064846806
198	0x3e2c5c95	0.16832192
199	0x3c0b1ceb	0.008490781
200	0x3d02edfb	0.031965237
201	0xbd882413	-0.066475056
202	0x3d76addd	0.060224403
203	0xbd404581	-0.046941284
204	0xbc89a269	-0.016801076
205	0xbd439e20	-0.04775822
206	0xbd84662b	-0.064647995
207	0xbbc44313	-0.005989441
208	0xbc5647fd	-0.013078687
209	0x3db2c0aa	0.08728154
210	0xbccd1573	-0.025034642
211	0x3d61994e	0.055077843
212	0x3d2b558a	0.041829623
213	0xbd8ecacc	-0.06972274
214	0xbd0898d0	-0.03334886
215	0xbd76e772	-0.060279317
216	0x3d80dcab	0.06292089
217	0x3c4c2573	0.0124601
218	0x3c49f753	0.012327033
219	0xbd4fc888	-0.05072835
220	0xbd4e5877	-0.050377335
221	0x3ccac65f	0.024752794
222	0xbc120eb8	-0.008914642
223	0x3b5c7d9f	0.0033644212
224	0xbd0edda4	-0.03487934
225	0xbd10d7a6	-0.03536191
226	0xbe17aa35	-0.14811023
227	0x3c3c9939	0.0115111405
228	0xbd5ca133	-0.05386467
229	0x3d62e4c4	0.05539395
230	0xbd867b8e	-0.06566535
231	0x3d5911fe	0.052995674
232	0x3d586d3d	0.052838553
233	0xbd6eeb6e	-0.058329992
234	0xbd15f6bc	-0.036612257
235	0x3ca0a582	0.01961017
236	0x3e3ac3aa	0.18238702
237	0xbd618590	-0.055059016
238	0x3b21dbef	0.002469774
239	0x3d86d620	0.0658381
240	0x3d70dc42	0.058803804
241	0x3b0ea2ff	0.0021764634
242	0x3d1b10fc	0.037857994
243	0x3d809d95	0.062800564
244	0x3d0bcf5d	0.034133304
245	0x3c39a86e	0.011331661
246	0x3c8594ed	0.016306365
247	0x3d2c19e8	0.042016894
248	0x3cb9b7c0	0.022670627
249	0x3ce20230	0.027588934
250	0xbd6665b2	-0.056249328
251	0x3ca9f06e	0.020744529
252	0x3b4ba1fd	0.0031071894
253	0x3d4a0d87	0.049329307
254	0xbd2da065	-0.042389292
255	0x3d26a686	0.040686153

mean.bias f4 [2]
0	0x3d52948f	0.051411208
1	0x3da37ac0	0.07982397

value.weight f4 [1, 256]
0	0x3e9280ba	0.28613836
1	0xbe9ab654	-0.3021723
2	0xbea9f331	-0.33193353
3	0xbe317d70	-0.17333007
4	0xbeb174c8	-0.3465941
5	0xbea0cd5b	-0.31406674
6	0xbe941fac	-0.28930414
7	0x3c6e877c	0.014558669
8	0x3f186afd	0.5953825
9	0x3ed01f05	0.40648666
10	0x3c91b9bb	0.017788759
11	0xbea1caef	-0.3160014
12	0xbe8b9f6f	-0.27270076
13	0xbe9d1945	-0.30683342
14	0x3d0be012	0.034149237
15	0x3ac348cd	0.0014899016
16	0xbe842014	-0.25805724
17	0x3cc42ca3	0.023947066
18	0xbe9b0a56	-0.30281323
19	0x3d36139b	0.04445229
20	0x3c1f2cfd	0.009715316
21	0xbe64692b	-0.22305743
22	0xbe5aee88	-0.21380055
23	0xbe425da7	-0.18981038
24	0xbe8f516c	-0.27991807
25	0xbe4c47c9	-0.19949259
26	0xbe761e4d	-0.24034996
27	0x3eb41cb2	0.35178143
28	0x3f12b3bf	0.5730552
29	0xbea603d8	-0.32424808
30	0x3ee431b0	0.4456916
31	0xbe8750ed	-0.2642893
32	0xbe785998	-0.24252927
33	0xbe7b11f2	-0.24518564
34	0x3e7bad8c	0.24577922
35	0x3f0396d0	0.51401997
36	0x3cf338ad	0.029690111
37	0xbe9539c7	-0.29145643
38	0xbe841acb	-0.2580169
39	0xbe88904a	-0.26672584
40	0x3e97fb1c	0.2968377
41	0x3d5f70c5	0.054550905
42	0x3edbe97f	0.4295158
43	0x3c459756	0.012060007
44	0xbe9a4108	-0.3012774
45	0x3d4ab129	0.04948536
46	0x3edea8a4	0.43488038
47	0xbe76dfca	-0.24108806
48	0xbe704b25	-0.23466165
49	0x3d5378a1	0.051628713
50	0x3c81650c	0.015795253
51	0x3ea84f4c	0.32873
52	0x3ea95b33	0.33077392
53	0xbe77a1e3	-0.24182849
54	0xbe94a511	-0.29032186
55	0x3e99d22b	0.30043158
56	0xbe558966	-0.20853195
57	0x3e982781	0.2971764
58	0xbe9acaf0	-0.30232954
59	0xbe482d01	-0.19548418
60	0x3f00367a	0.50083125
61	0x3ef114a7	0.4708607
62	0x3f1a91ea	0.603789
63	0x3c2f9b38	0.010718159
64	0x3eff07f6	0.4981076
65	0x3ec111d4	0.37708914
66	0x3f131f88	0.5746999
67	0xbe977136	-0.2957856
68	0x3e4ff25c	0.20307297
69	0x3ef0a849	0.4700339
70	0xbe842dcb	-0.25816187
71	0xbe8383dc	-0.25686538
72	0xbe2b4f02	-0.16729358
73	0xbe7786c3	-0.24172501
74	0x3ef92ee9	0.48668602
75	0x3ecdb0ff	0.401741
76	0x3eb5e95a	0.35529596
77	0xbe3c80f9	-0.18408574
78	0x3dabaa5f	0.08382105
79	0xbe2fedec	-0.17180604
80	0xbe822f19	-0.25426558
81	0xbe76cb9c	-0.24101108
82	0xbe391429	-0.18074097
83	0x3f011e95	0.5043729
84	0x3ec62811	0.38702443
85	0xbe8d37bb	-0.2758158
86	0x3e9750bc	0.29553783
87	0xbe88b76b	-0.26702437
88	0xbe2f1d1e	-0.17100951
89	0xbf25e589	-0.6480337
90	0xbe22b883	-0.15890698
91	0x3cf7cd42	0.030249242
92	0xbe8c2f51	-0.2737985
93	0xbe9267f2	-0.2859493
94	0x3e9121b1	0.28346017
95	0xbe301de5	-0.17198904
96	0xbe927401	-0.2860413
97	0x3ec64e61	0.38731673
98	0x3f1451ed	0.5793751
99	0x3d3b0b9c	0.04566537
100	0x3f0977e3	0.5369856
101	0x3c8fec54	0.017568745
102	0xbe9a92a7	-0.30190012
103	0xbeb43ae4	-0.3520118
104	0x3ec6f021	0.3885508
105	0x3eaae219	0.33375624
106	0x3eed9965	0.46406093
107	0xbed566d1	-0.41680005
108	0xbe6c8eba	-0.23101321
109	0x3c9d86fe	0.019229408
110	0x3f0f3dbb	0.5595357
111	0xbe8d5d96	-0.27610463
112	0x3ccb8607	0.024844183
113	0x3ec13ab1	0.3774009
114	0x3ef43242	0.47694594
115	0xbe839bf2	-0.25704914
116	0xbe3612d0	-0.17780614
117	0xbea0e060	-0.31421185
118	0xbe11b138	-0.1422776
119	0x3f097fcc	0.5371063
120	0xbe914b13	-0.2837759
121	0xbe3215d8	-0.17391145
122	0x3eb5a1de	0.35475057
123	0x3d503e03	0.05084039
124	0xbe9504a1	-0.29105094
125	0xbea6085b	-0.3242825
126	0x3ec74ec0	0.3892727
127	0xbec10fb2	-0.37707287
128	0xbe8f41ee	-0.27979988
129	0xbe246c4a	-0.16056934
130	0x3f0cc913	0.54994315
131	0xbe749ddd	-0.23888345
132	0xbe3bb819	-0.18331946
133	0xbe84a0d1	-0.25903943
134	0x3ee1fe5a	0.44139367
135	0xbe707e6e	-0.23485729
136	0xbea2d3d9	-0.31802252
137	0x3ec924c5	0.39285865
138	0xbe5523a3	-0.20814376
139	0x3f0a8c07	0.54119915
140	0x3cdc5b24	0.026898928
141	0x3f1ac56a	0.6045748
142	0x3f052b8a	0.5201956
143	0x3ea0b08c	0.31384695
144	0x3eeb0f11	0.45909932
145	0x3eb9b151	0.36268094
146	0xbe9560d1	-0.29175428
147	0x3efe7c30	0.49704123
148	0x3f0bb0c9	0.5456663
149	0xbe13c2e6	-0.14429817
150	0xbea7d9a3	-0.3278323
151	0xbe80c1a9	-0.2514775
152	0xbe8ec5ea	-0.2788537
153	0xbeacdea2	-0.33763605
154	0x3c9ac186	0.018891107
155	0x3eb91bfa	0.36154157
156	0x3ec9d93d	0.39423552
157	0xbea343e3	-0.3188773
158	0x3f09408a	0.53614104
159	0xbea73c13	-0.3266302
160	0x3ec219cc	0.37910306
161	0x3f33e5bb	0.70272416
162	0xbe2c0ccb	-0.16801755
163	0x3f21a5df	0.63143724
164	0x3d51c622	0.051214345
165	0xbe59b458	-0.21260202
166	0x3eb07035	0.34460607
167	0x3f098e3b	0.5373265
168	0xbe81bd19	-0.25339583
169	0xbea11e19	-0.31468275
170	0x3d36ba09	0.04461101
171	0x3d2e6f1f	0.042586442
172	0xbe733ae1	-0.2375293
173	0xbe5884da	-0.21144429
174	0xbe5348e9	-0.20633282
175	0xbea98871	-0.3311191
176	0xbe9a6df2	-0.30162007
177	0xbe692647	-0.22768508
178	0xbe6b61a7	-0.2298647
179	0xbe838552	-0.25687653
180	0xbe68499e	-0.22684333
181	0xbe948d73	-0.29014167
182	0xbe7b5ccf	-0.24547122
183	0xbe562674	-0.20913106
184	0x3eb897a0	0.3605318
185	0x3cc2bc4c	0.023771428
186	0x3e9ad3a3	0.3023959
187	0xbea70e23	-0.32627973
188	0xbe5f0fbc	-0.21783346
189	0xbeaaef33	-0.3338562
190	0x3ec26208	0.37965417
191	0x3ea6bca4	0.32565796
192	0xbe8b3d50	-0.27195215
193	0x3ee7bb07	0.45259878
194	0x3e8bf2b2	0.273336
195	0xbe28456e	-0.16432735
196	0xbe8057b9	-0.25066927
197	0xbe8f7601	-0.28019717
198	0x3f58b007	0.84643596
199	0x3eb1f5bb	0.3475779
200	0x3f075bc7	0.52874416
201	0xbe8c1919	-0.27362898
202	0x3e25768e	0.16158506
203	0xbe8b3718	-0.2719047
204	0xbea13c5d	-0.31491366
205	0xbe8f87f1	-0.28033403
206	0xbe988fc8	-0.29797196
207	0x3efa431d	0.48879328
208	0x3f0b9bf9	0.5453487
209	0xbda86dd7	-0.08224075
210	0xbe308b43	-0.17240624
211	0xbe999487	-0.2999613
212	0x3ee9f2d0	0.45693064
213	0x3ef94256	0.48683423
214	0xbe8e329c	-0.27772987
215	0xbe3685ec	-0.17824525
216	0xbe653812	-0.2238467
217	0x3ef6e2be	0.48219866
218	0x3ed4327f	0.41444775
219	0xbe35e3eb	-0.17762725
220	0x3eaab2b2	0.3333946
221	0xbe29bbc2	-0.1657553
222	0xbeadf038	-0.33972335
223	0x3d7288c9	0.05921248
224	0x3ee868a4	0.45392334
225	0xbe817138	-0.25281692
226	0x3f1bca1b	0.60855263
227	0xbe7e460c	-0.24831408
228	0x3d0c0a66	0.034189604
229	0xbe89ca58	-0.2691219
230	0xbeae5e5b	-0.34056363
231	0xbe6d64db	-0.23183005
232	0xbea8b84c	-0.32953107
233	0xbe568efb	-0.2095298
234	0x3ef43bb9	0.47701815
235	0x3eafb912	0.34320885
236	0x3f6dea33	0.92935485
237	0x3e9c3af2	0.30513722
238	0xbe8010ec	-0.2501291
239	0xbea30ff8	-0.3184812
240	0x3eb8cc81	0.36093524
241	0x3ebc63ad	0.36794797
242	0x3d31b02b	0.043380897
243	0xbe24b645	-0.16085155
244	0xbe87fa20	-0.26558018
245	0xbe8c5da4	-0.27415192
246	0x3ed09eb9	0.40746096
247	0x3d2d4545	0.04230239
248	0xbe5a1fd7	-0.21301208
249	0xbecad387	-0.39614508
250	0x3e981b73	0.29708442
251	0x3ec8ad58	0.3919475
252	0x3cf901f2	0.030396435
253	0x3f059361	0.5217801
254	0xbe319413	-0.17341642
255	0xbd0b44d8	-0.0340012
