ppo/PPO_LunarLander_ep3000.pth (torch, 279103 bytes, 8 tensors)

log_std f4 [1, 2]
-0.4241438 -0.2189047
00000000: 6029 d9be 8e28 60be

fc1.weight f4 [256, 8]
-0.003026177 -0.025147462 0.05529161 -0.075113416 1.1868918 0.07246172 0.40046516 0.16047958
0.3374944 0.23406576 -0.018782701 0.008916104 -0.16365339 -0.4529464 0.3319991 0.3357951
0.16341671 0.046783354 -0.050604682 0.104980506 -0.3506115 -0.3326759 -0.043359336 -0.034623954
-0.033471525 -0.038478576 -0.29352814 -0.46102667 0.5313014 0.05089343 0.22079189 0.0676736
-0.085043885 -0.5953844 0.52873653 -0.3587255 -0.44977313 -0.47514513 0.3860906 -0.035392027
0.69377494 0.06506465 0.12821932 0.026025148 0.13281325 0.13295972 -0.20415384 -0.007076818
0.06503476 0.5461958 0.019222064 -0.50387853 0.10091169 0.35912803 -0.07482899 -0.19513333
0.12398815 0.041134242 -0.18170236 -0.006299084 0.10636391 -0.18104337 -0.10406406 0.16586435
0.09235711 -0.012768873 0.3864864 -0.14084162 0.94787586 -0.45669773 0.3498128 -0.28471196
-0.3404507 -0.07380597 0.015285735 0.0893988 -0.055299718 -0.18925619 0.3432803 -0.12682694
-0.040290277 0.4580029 0.35078385 -0.3771239 0.07729605 0.20928848 0.051756322 -0.20338506
-0.63456625 0.04920321 -0.052816503 0.03271428 0.14924994 0.17357773 0.2483913 0.14162688
0.67607725 0.0023231287 0.37012333 -0.057035584 -0.27020195 0.061477415 0.039932102 0.3289126
0.6801873 -0.38656643 0.14053488 -0.31743202 0.13998774 0.037286676 0.18221988 0.04664784
-0.49826577 -0.3657239 0.10934958 -0.13263215 0.5100304 0.47389722 -0.0015301564 -0.066487804
0.54019123 -0.2389228 0.2803318 -0.03961857 -0.24191645 -0.18380098 0.0564296 0.058672175
0.55529267 -0.40513152 0.14013627 -0.6203907 -0.20590274 -0.059989747 0.02954287 -0.0016283923
-0.09457757 0.46071506 -0.35470814 -0.429773 -0.4442827 0.44780484 -0.04163126 -0.26490054
-0.005820545 0.19796388 -0.0013998583 0.27060017 0.4535098 -0.24178106 -0.27527183 0.17315514
0.7806948 -0.07947852 0.26584032 -0.2447136 -0.21199055 -0.046114817 -0.008592575 0.056944918
-0.5723502 0.38511539 -0.13748081 0.25104547 0.4136672 0.20632263 -0.18058413 -0.3442235
-0.1241852 0.48670468 0.0339205 0.018097093 0.5080923 -0.25986233 0.2516059 0.30009723
0.22235858 0.23126507 0.13587339 -0.30189422 0.24704473 -0.3202985 -0.0073466785 0.19024198
0.29200235 -0.5080656 -0.05469292 -0.3535602 0.060263924 0.24595293 -0.10227745 -0.21200241
-0.10386505 0.4428223 -0.28813633 -0.4149909 0.6117383 -0.026275327 -0.2071306 0.21712449
0.0020941745 0.5927538 0.12434848 -0.20836478 0.44737315 0.12993082 -0.21269925 -0.22984222
-0.16649106 0.43318722 -0.34448972 -0.35471302 -0.3876919 0.07177478 0.005773746 -0.22356026
0.23247613 -0.40173668 -0.4113224 -0.0045956518 -0.17217149 -0.038106598 0.15625338 -0.0034663447
-0.034246977 -0.15819702 -0.0311561 -0.24875367 0.31268677 0.4035878 -0.2473232 -0.21400553
-0.31556955 -0.4555513 -0.30631268 -0.07076611 0.46825406 0.31766182 -0.2083926 0.36567137
-0.05977729 0.6508328 -0.057746373 0.061612792 -0.2393765 0.090353966 -0.025503632 -0.46259108
0.20288655 -0.42612317 0.15956995 0.2018971 -0.58333683 -0.40309128 -0.35470432 -0.33431062
00000000: d352 46bb 0d02 cebc 7579 623d 10d5 99bd
00000010: 12ec 973f cf66 943d c509 cd3e c254 243e
00000020: 11cc ac3e efae 6f3e 2ede 99bc da14 123c
00000030: c194 27be 97e8 e7be c9fb a93e 56ed ab3e
00000040: b656 273e e79f 3f3d db46 4fbd 0500 d73d
00000050: 5a83 b3be 7f54 aabe 8f99 31bd d9d1 0dbd
00000060: 7019 09bd b69b 1dbd 5249 96be b00b ecbe
00000070: 5e03 083f a175 503d 4517 623e 7598 8a3d
00000080: 7d2b aebd 1d6b 18bf 475b 073f deaa b7be
00000090: aa48 e6be 3946 f3be abad c53e 3bf7 10bd
000000a0: 3c9b 313f 9d40 853d ed4b 033e b132 d53c
000000b0: 3200 083e 9826 083e b40d 51be a7e4 e7bb
000000c0: f230 853d 7dd3 0b3f 9777 9d3c 2ffe 00bf
000000d0: caaa ce3d a1df b73e f13f 99bd 08d1 47be
000000e0: 80ed fd3d 617c 283d 2f10 3abe 8c68 cebb
000000f0: 52d5 d93d 6f63 39be 8a1f d5bd 58d8 293e
00000100: b925 bd3d 8934 51bc 8ce1 c53e c938 10be
00000110: fea7 723f 49d4 e9be aa1a b33e c4c5 91be
00000120: 8e4f aebe 9627 97bd 0571 7a3c b816 b73d
00000130: f581 62bd 60cc 41be 6fc2 af3e ecde 01be
00000140: 6b07 25bd 5b7f ea3e f199 b33e 6216 c1be
00000150: 644d 9e3d b84f 563e 70fe 533d 2c44 50be
00000160: ef72 22bf 4e89 493d 1e56 58bd 69ff 053d
00000170: fad4 183e 5cbe 313e 4a5a 7e3e a306 113e
00000180: 6613 2d3f a23f 183b ce80 bd3e 259e 69bd
00000190: e957 8abe becf 7b3d d88f 233d 3b67 a83e
000001a0: c120 2e3f 09ec c5be 60e8 0f3e 7386 a2be
000001b0: f258 0f3e eab9 183d d997 3a3e ce11 3f3d
000001c0: b11c ffbe 2a40 bbbe acf2 df3d b9d0 07be
000001d0: 5a91 023f a8a2 f23e 878f c8ba c22a 88bd
000001e0: f949 0a3f 2ea8 74be a687 8f3e 1547 22bd
000001f0: f2b8 77be 5336 3cbe b922 673d 3c52 703d
00000200: a927 0e3f 666d cfbe e27f 0f3e edd1 1ebf
00000210: 2bd8 52be cfb7 75bd e403 f23c c76f d5ba
00000220: e3b1 c1bd d8e2 eb3e 4e9c b5be 350b dcbe
00000230: 0679 e3be ad46 e53e 8a85 2abd 0ba1 87be
00000240: 45ba bebb 0bb7 4a3e 737b b7ba 1b8c 8a3e
00000250: 7032 e83e 7495 77be 6ef0 8cbe 954f 313e
00000260: 9ddb 473f a2c5 a2bd 391c 883e 3496 7abe
00000270: 0d14 59be e4e2 3cbd dfc7 0cbc 133f 693d
00000280: 8b85 12bf d82d c53e c5c7 0cbe 0889 803e
00000290: 30cc d33e 3d46 533e 0ceb 38be 103e b0be
000002a0: cf54 febd 5b31 f93e 39f0 0a3d 5b40 943c
000002b0: 5612 023f ad0c 85be 7dd2 803e 58a6 993e
000002c0: f8b1 633e c0d0 6c3e 6522 0b3e e191 9abe
000002d0: 4bf9 7c3e 2afe a3be 68bc f0bb cbce 423e
000002e0: 5581 953e 9610 02bf af05 60bd d805 b5be
000002f0: 4ed7 763d 16db 7b3e d776 d1bd 2917 59be
00000300: 33b7 d4bd 9bb9 e23e 9b86 93be b079 d4be
00000310: e29a 1c3f 5b3f d7bc 0b1a 54be e255 5e3e
00000320: 6b3e 093b b7be 173f 6aaa fe3d 945d 55be
00000330: 180e e53e 960c 053e d5cd 59be c25b 6bbe
00000340: a27c 2abe b7ca dd3e f560 b0be f29c b5be
00000350: 8d7f c6be a8fe 923d b131 bd3b fbec 64be
00000360: 390e 6e3e 6eb0 cdbe da98 d2be 1f97 96bb
00000370: b94d 30be aa15 1cbd e300 203e 9d2b 63bb
00000380: 8f46 0cbd 66fe 21be 143b ffbc 48b9 7ebe
00000390: 7b18 a03e 0fa3 ce3e 4b42 7dbe 4424 5bbe
000003a0: 5592 a1be 053e e9be 04d5 9cbe d3ed 90bd
000003b0: ffbe ef3e 92a4 a23e df64 55be 4739 bb3e
000003c0: 08d9 74bd fa9c 263f 7687 6cbd b25d 7c3d
000003d0: 1d1f 75be 800b b93d feec d0bc bdd8 ecbe
000003e0: 7ec1 4f3e d12c dabe 4e66 233e 1dbe 4e3e
000003f0: 9055 15bf fb61 cebe ce9b b5be c32a abbe

fc1.bias f4 [256]
-0.027108625 0.06919234 0.26955447 0.0019694297 0.16327949 0.03111813 0.107632644 0.29792002
-0.058444045 0.3188205 0.31393883 -0.0038991694 -0.043118745 -0.048000593 -0.19541351 -0.15948564
-0.14330363 0.30498323 0.46217135 -0.10203435 0.072338544 0.24390885 0.3446699 -0.047548227
0.12498348 -0.07005243 0.30642486 0.19982019 0.3254622 0.18364522 0.33669904 0.30703324
-0.0054444144 0.25577745 0.3132549 -0.2717305 0.011858265 0.039687946 0.11891789 0.110070735
0.02352684 0.27941206 0.29770762 0.27660558 0.3311138 -0.006314783 -0.09765205 0.070364796
0.12469967 -0.149503 0.11918677 0.12421147 0.34263426 0.26849526 0.2596829 0.28900328
-0.06606836 0.10290053 0.077804856 0.362131 -0.00393105 0.015527678 0.3198197 0.37903285
0.40214446 0.3090953 -0.08736221 0.13238232 0.15660489 0.22708051 -0.09626793 -0.12693407
0.17623547 -0.042357057 0.018371725 0.29373223 -0.024965223 0.27296364 0.3565438 0.024326311
-0.24220383 -0.31776005 -0.22118641 0.12586786 0.053953383 -0.009876199 -0.10023991 -0.076811016
0.30824023 0.19584195 0.019543076 -0.12990883 -0.03747678 0.10540748 0.36973095 0.15584275
0.4313313 0.23815407 -0.2916477 -0.09840536 0.15902445 -0.16502221 -0.0299823 -0.0065332814
-0.10197252 -0.25101402 0.39572418 0.33305928 0.0683762 0.03969746 0.2772721 0.113826066
-0.12233635 0.15565833 -0.08627271 0.23245516 -0.23440336 0.2617755 -0.084868155 -0.31503183
0.19572674 0.16277342 0.3000849 0.01479754 0.5032939 0.30050394 -0.029569289 0.06984471
-0.11795594 -0.117245436 -0.11277887 -0.07458795 0.088076256 0.24471317 0.17002542 0.33793485
0.39422402 -0.040447198 -0.26586208 0.115629904 0.31208116 0.40218055 -0.09331882 -0.016823733
0.22122607 0.41082382 0.2998674 0.12814148 -0.23070028 0.08053828 -0.062364496 -0.12689306
0.14481024 -0.014316316 -0.15952466 0.37808445 -0.05875607 0.097096995 0.31515107 0.27565303
-0.085353084 0.19995816 0.0013890733 0.17372261 0.082609475 -0.1579303 -0.14372122 -0.07053175
-0.018980289 0.116320625 0.06091804 -0.18593688 0.2559556 0.040584244 0.40207532 -0.43551674
0.06711385 0.1252497 -0.13096502 -0.11253893 0.09710305 -0.028384143 0.13000578 0.050587796
-0.01729552 0.1423833 -0.07267695 -0.1411146 0.13792002 -0.14966895 0.32084957 0.35402945
0.27331758 -0.16057505 -0.14697829 -0.10559523 0.03791903 0.15139578 0.1366038 0.47833744
-0.12398091 -0.008920355 0.067253634 0.23751217 -0.034513906 0.0060646706 0.31985706 0.3653884
0.050725285 0.051159497 0.32529444 -0.17910251 0.34273753 -0.23572265 -0.17030728 0.12991302
0.030479165 0.3093833 -0.028585896 -0.12938526 0.19972318 -0.16654246 0.20213261 -0.11433011
0.25276724 -0.16578159 -0.06521348 0.059788488 -0.034023706 0.058243442 0.24353969 -0.14522907
-0.01997181 0.28313187 0.34853846 0.31493714 0.32673573 -0.1523009 0.24139002 0.42264497
-0.20112659 0.23100767 0.04226384 0.35633326 -0.29197443 0.041140784 0.21302651 0.44362694
0.030521048 0.22307882 -0.054151822 -0.11516192 -0.031378176 0.4142491 0.4418232 0.20917124
00000000: e812 debc b7b4 8d3d 0b03 8a3e 8c11 013b
00000010: bd32 273e 73eb fe3c 816e dc3d f988 983e
00000020: 0663 6fbd 713c a33e 97bc a03e 3589 7fbb
00000030: 489d 30bd 459c 44bd 7b1a 48be 3450 23be
00000040: 30be 12be c326 9c3e b9a1 ec3e 63f7 d0bd
00000050: 3b26 943d 3ec3 793e 9378 b03e eec1 42bd
00000060: 57f7 ff3d a677 8fbd b8e3 9c3e aa9d 4c3e
00000070: fba2 a63e 7e0d 3c3e d163 ac3e 7633 9d3e
00000080: 0f67 b2bb 43f5 823e f262 a03e 4320 8bbe
00000090: 2b49 423c d48f 223d 398b f33d c46c e13d
000000a0: 5cbb c03c 190f 8f3e 226d 983e 3f9f 8d3e
000000b0: bf87 a93e 3dec cebb ccfd c7bd 6b1b 903d
000000c0: 8a62 ff3d 5017 19be 3118 f43d 9562 fe3d
000000d0: c26d af3e 3678 893e 28f5 843e 3df8 933e
000000e0: d94e 87bd 83bd d23d 2758 9f3d 3c69 b93e
000000f0: 0ad0 80bb cd67 7e3c 68bf a33e 9810 c23e
00000100: e1e5 cd3e bd41 9e3e f5ea b2bd 3b8f 073e
00000110: 085d 203e cb87 683e 1f28 c5bd 01fb 01be
00000120: 1277 343e 987e 2dbd 4d80 963c 1264 963e
00000130: de83 ccbc e4c1 8b3e e98c b63e f947 c73c
00000140: 4804 78be 72b1 a2be b17e 62be 81e3 003e
00000150: 39fe 5c3d c8cf 21bc 954a cdbd 184f 9dbd
00000160: aad1 9d3e cb8a 483e cd18 a03c d206 05be
00000170: 4181 19bd e0df d73d 604d bd3e 3e95 1f3e
00000180: 75d7 dc3e a9de 733e d952 95be c088 c9bd
00000190: 4ed7 223e 95fb 28be 719d f5bc 2315 d6bb
000001a0: f8d6 d0bd e984 80be 5c9c ca3e bf86 aa3e
000001b0: d208 8c3d ce99 223d 9cf6 8d3e a41d e93d
000001c0: 7b8b fabd e664 1f3e bfaf b0bd ba08 6e3e
000001d0: 6f07 70be 7007 863e 5bcf adbd da4b a1be
000001e0: 976c 483e 13ae 263e baa4 993e 6271 723c
000001f0: ded7 003f a7db 993e 4b3b f2bc be0a 8f3d
00000200: e292 f1bd 601e f0bd 9cf8 e6bd 91c1 98bd
00000210: 5361 b43d 1796 7a3e 251b 2e3e cc05 ad3e
00000220: bbd7 c93e f6ab 25bd 131f 88be 5fcf ec3d
00000230: 1ac9 9f3e 9cea cd3e f01d bfbd edd1 89bc
00000240: 1689 623e 8057 d23e 3888 993e 8537 033e
00000250: b23c 6cbe 41f1 a43d ea71 7fbd 41f0 01be
00000260: 2349 143e fb8e 6abc 6f5a 23be 4994 c13e
00000270: 34aa 70bd cada c63d 7b5b a13e 6522 8d3e
00000280: 99cd aebd d5c1 4c3e 9111 b63a 57e4 313e
00000290: 282f a93d 7bb8 21be a82b 13be f372 90bd
000002a0: 8d7c 9bbc 8239 ee3d 3285 793d 3d66 3ebe
000002b0: 9d0c 833e aa3b 263d d1dc cd3e 0dfc debe
000002c0: fc72 893d 7541 003e b21b 06be cf7a e6bd
000002d0: f7dd c63d dd85 e8bc 3c20 053e 2635 4f3d
000002e0: 56af 8dbc eecc 113e a7d7 94bd 5880 10be
000002f0: e83a 0d3e d142 19be 6546 a43e 5943 b53e
00000300: 48f0 8b3e c96d 24be 7a81 16be 5042 d8bd
00000310: fc50 1b3d 7f07 1b3e dee1 0b3e a5e8 f43e
00000320: b4e9 fdbd ae26 12bc 46bc 893d 6436 733e
00000330: 745e 0dbd 25ba c63b 4ec4 a33e 3014 bb3e
00000340: 51c5 4f3d 9f8c 513d fe8c a63e a666 37be
00000350: 4b7b af3e 4761 71be 0865 2ebe eb07 053e
00000360: 71af f93c 7d67 9e3e f82c eabc 927d 04be
00000370: 3c84 4c3e 1b8a 2abe dafb 4e3e e825 eabd
00000380: b56a 813e a6c2 29be a58e 85bd c6e4 743d
00000390: 715c 0bbd ad90 6e3d 7862 793e eeb6 14be
000003a0: ec9b a3bc a9f6 903e a273 b23e 713f a13e
000003b0: e849 a73e c4f4 1bbe f22e 773e ec64 d83e
000003c0: 21f4 4dbe 468d 6c3e d91c 2d3d 5071 b63e
000003d0: ac7d 95be 3d83 283d 9f23 5a3e 1223 e33e
000003e0: 4707 fa3c c66e 643e 4dce 5dbd 03da ebbd
000003f0: 6786 00bd 7518 d43e a736 e23e fc30 563e

fc2.weight f4 [256, 256]
0.31582248 -0.061619677 0.013634579 0.20057 0.056026846 -0.31288496 0.0047901687 0.0435103
0.27784973 0.03914963 0.0051731355 -0.15485765 -0.1417212 -0.28905258 -0.06369335 -0.11018185
-0.3555293 0.12682873 0.11731934 -0.19325458 -0.10750161 0.03868319 0.116488904 -0.31486183
0.034454063 0.18383884 0.073238716 0.013094172 -0.05293715 0.13201368 0.09933802 0.040761676
0.055802837 0.07266253 0.099740684 -0.09380575 0.25463033 0.07727315 -0.15989022 -0.008031284
-0.0018417299 0.036860555 0.0769745 -0.010175926 0.07690264 -0.25033543 -0.123303436 -0.08626458
0.10736202 0.021618785 -0.07349517 -0.119727574 0.12530741 0.022650568 -0.0022917571 0.09738694
-0.1331603 0.09869883 0.0962882 0.14915583 0.14851943 -0.052187793 0.06688798 0.11442319
-0.016599432 0.09172619 -0.16405417 0.05364924 -0.023244401 -0.007839225 0.5910842 -0.12417551
0.18801211 0.2851124 0.90267414 0.047869403 -0.2225075 0.042107463 -0.060261384 -0.061013624
-0.027329212 -0.0053129834 -0.11868367 0.010228717 0.19503064 0.115360685 -0.03721895 -0.018411953
0.09580935 0.10584013 0.11810214 0.018386057 0.1431215 -0.052233458 0.11270361 0.05673244
0.063366376 0.034387797 0.018298874 0.053928114 0.37483603 0.23443915 -0.12714651 0.0021261405
0.24637036 -0.013862936 0.07830365 0.08927934 0.06869076 0.1585419 0.12399856 -0.19776598
-0.3360598 0.077071935 0.095173866 0.027131474 0.022113374 0.19348514 0.39978027 -0.13929886
-0.00030423145 0.07858861 0.28140458 -0.010639996 0.10705566 0.033080738 -0.074585944 -0.12706819
-0.12749131 -0.35265642 0.32972494 0.5256746 -0.037741017 0.033320542 0.17885031 0.026089137
0.026763149 0.19519006 0.27745187 0.09636858 0.101864316 0.10147972 -0.06599235 0.42739978
0.12384868 0.16830385 0.073640086 -0.20941433 0.1965343 0.03740209 -0.14822985 0.62205774
-0.14374518 0.07143035 -0.82672507 0.0301033 -0.014262798 0.017178932 0.07349857 0.15958256
0.103316 0.050030533 -0.09095898 0.24574438 0.122075275 -0.010093911 -0.073722005 -0.22861591
-0.035172842 -0.107090294 0.051178936 -0.33437166 0.08332902 -0.029850889 0.055125456 0.41193143
0.04366458 0.07911159 -0.25696886 0.34265447 0.15261793 -0.102410145 0.050000235 -0.10295546
0.10708299 -0.093143135 -0.11864222 0.26154596 -0.14299299 -0.15272436 0.08493645 0.040115662
0.05510521 -0.65515167 -0.018184835 -0.24007449 -0.14862521 -0.043581143 0.034027144 0.08794223
0.023143446 -0.074183956 -0.057619784 0.051673796 0.2205533 0.14083864 0.15740137 0.07612562
-0.08057794 -0.029485902 0.09385526 -0.27124834 -0.1198724 -0.02509682 0.31248853 0.076967716
0.1645831 0.13160524 0.30701113 -0.36344177 0.048128262 -0.5257976 -0.051220354 0.29860008
0.09694964 0.2946186 0.058895655 -0.0014391047 -0.31697434 -0.12840287 0.11412987 0.27757138
0.20494586 0.00015119833 0.073374785 0.09780044 0.01949783 0.07701043 0.057743616 0.14663753
-0.09975769 0.09830943 -0.097937234 0.052402623 -0.109947756 0.03143574 0.12483395 0.043715015
0.2689777 0.41589397 -0.008482155 0.22548465 -0.16266617 0.034282457 0.09808461 -0.0095302975
00000000: 7cb3 a13e ea64 7cbd 9263 5f3c 3962 4d3e
00000010: 687c 653d 7532 a0be d9f6 9c3b db37 323d
00000020: 5242 8e3e 5d5b 203d 6883 a93b 0193 1ebe
00000030: 5d1f 11be b3fe 93be a971 82bd 06a7 e1bd
00000040: f007 b6be 64df 013e 1f45 f03d 87e4 45be
00000050: ce29 dcbd 4472 1e3d bc91 ee3d 9235 a1be
00000060: b41f 0d3d 4040 3c3e 2efe 953d f088 563c
00000070: a0d4 58bd 982e 073e bb71 cb3d b7f5 263d
00000080: 8491 643d 18d0 943d d844 cc3d 3b1d c0bd
00000090: e85e 823e 6341 9e3d 43ba 23be a695 03bc
000000a0: 3366 f1ba 18fb 163d cfa4 9d3d edb8 26bc
000000b0: 227f 9d3d f72b 80be 8386 fcbd 7cab b0bd
000000c0: 9ee0 db3d e119 b13c a384 96bd bb33 f5bd
000000d0: 9650 003e af8d b93c 4e31 16bb ce72 c73d
000000e0: 2c5b 08be 9d22 ca3d bf32 c53d 4ebc 183e
000000f0: 7a15 183e dec2 55bd 91fc 883d b556 ea3d
00000100: 88fb 87bc f1da bb3d d1fd 27be 4ebf 5b3d
00000110: 0b6b bebc 1870 00bc 4b51 173f bb4f febd
00000120: 3f86 403e 41fa 913e a715 673f b512 443d
00000130: 02d9 63be e078 2c3d a4d4 76bd 6ce9 79bd
00000140: 83e1 dfbc 8918 aebb 6d10 f3bd 5996 273c
00000150: 1db6 473e 3942 ec3d e672 18bd aad4 96bc
00000160: b137 c43d b6c2 d83d 89df f13d 5b9e 963c
00000170: 718e 123e c0f2 55bd 26d1 e63d 4660 683d
00000180: 3bc6 813d 38da 0c3d 85e7 953c bae3 5c3d
00000190: 82ea bf3e d110 703e b232 02be b856 0b3b
000001a0: 8348 7c3e 5e21 63bc aa5d a03d 16d8 b63d
000001b0: bead 8c3d cf58 223e f5f2 fd3d 2a83 4abe
000001c0: 0810 acbe e4d7 9d3d 84ea c23d d342 de3c
000001d0: 1b27 b53c f820 463e 00b0 cc3e 5ca4 0ebe
000001e0: 4181 9fb9 11f3 a03d 4314 903e 6153 2ebc
000001f0: ff3f db3d ab7f 073d 84c0 98bd 2a1e 02be
00000200: 158d 02be 628f b4be b5d1 a83e 9c92 063f
00000210: 5396 1abd 1f7b 083d 8924 373e e3b8 d53c
00000220: 643e db3c e7df 473e 2c0e 8e3e e45c c53d
00000230: 3d9e d03d 99d4 cf3d ff26 87bd 25d4 da3e
00000240: 60a4 fd3d d857 2c3e 9dd0 963d b670 56be
00000250: 4a40 493e ef32 193d 91c9 17be 2d3f 1f3f
00000260: f031 13be 134a 923d 41a4 53bf 329b f63c
00000270: 83ae 69bc d5ba 8c3c 6b86 963d 9c69 233e
00000280: 5797 d33d d1ec 4c3d b448 babd 6aa4 7b3e
00000290: 9a02 fa3d ee60 25bc 90fb 96bd 4a1a 6abe
000002a0: 6611 10bd 2852 dbbd 01a1 513d c332 abbe
000002b0: 68a8 aa3d da89 f4bc 3bcb 613d ade8 d23e
000002c0: a1d9 323d 4205 a23d 6c91 83be 6870 af3e
000002d0: e047 1c3e 69bc d1bd 0ccd 4c3d 50da d2bd
000002e0: 544e db3d d4c1 bebd b1fa f2bd 5ae9 853e
000002f0: c16c 12be c663 1cbe 29f3 ad3d 5250 243d
00000300: 00b6 613d 05b8 27bf 5df8 94bc 16d6 75be
00000310: 3531 18be 2482 32bd 0c60 0b3d 0e1b b43d
00000320: 5397 bd3c c2ed 97bd b902 6cbd e7a7 533d
00000330: b9d8 613e 0138 103e d32d 213e c0e7 9b3d
00000340: 0c06 a5bd 6b8c f1bc 3037 c03d 10e1 8abe
00000350: a97f f5bd d997 cdbc 7ffe 9f3e 40a1 9d3d
00000360: 7988 283e 86c3 063e 9030 9d3e 0a15 babe
00000370: 2422 453d ac9a 06bf 6fcc 51bd 1ce2 983e
00000380: 888d c63d 40d8 963e 923c 713d 57a0 bcba
00000390: 764a a2be 0b7c 03be ecbc e93d d61d 8e3e
000003a0: 54dd 513e fe8a 1e39 8545 963d 994b c83d
000003b0: eab9 9f3c a5b7 9d3d 9284 6c3d 2628 163e
000003c0: c34d ccbd 7456 c93d 5193 c8bd 22a4 563d
000003d0: 4a2c e1bd c3c2 003d f1a8 ff3d 840e 333d
000003e0: 72b7 893e 0ef0 d43e bdf8 0abc 73e5 663e
000003f0: f691 26be c36b 0c3d 96e0 c83d f724 1cbc

fc2.bias f4 [256]
0.04307552 -0.003569637 -0.09856574 0.012541415 -0.014677486 -0.078483075 -0.0746721 0.05868579
-0.0365204 0.028559383 0.0018227621 -0.003927449 -0.04895189 -0.021984411 -0.035881955 -0.0632044
-0.060556706 -0.054334767 -0.04364209 -0.007205063 -0.028137855 0.015474453 0.06702948 -0.015440236
-0.05529158 -0.016566062 -0.077238575 0.041099064 0.044205453 -0.071574196 0.016814345 -0.03845722
-0.0053371107 -0.041515272 0.13263802 0.0020868685 0.04958997 0.015378285 0.0065798247 -0.032759763
0.13839042 -0.025670586 0.024604786 -0.05669281 0.022598958 0.014252525 0.040367253 -0.031881303
0.0060482696 -0.020600831 0.056477103 0.13333097 0.09860049 -0.016345767 -0.033459906 0.019109955
-0.057697054 0.14671543 -0.08011843 0.012895812 -0.013124753 -0.027176201 0.0011877014 0.038402807
-0.023718039 0.05343 -0.06217128 0.025762342 -0.015878066 0.028290505 -0.00584852 0.050322182
-0.023544068 -0.037024274 -0.044120416 0.10967592 0.020177405 0.03534184 -0.0334807 0.06277092
0.015553512 -0.009207358 0.022477305 -0.06051733 0.087884165 -0.030967236 0.043277863 0.0074589374
0.07652437 0.094604984 0.06156422 -0.037007987 0.0020386113 -0.046051875 0.049892813 0.00013875896
0.021345971 0.11844785 0.12651144 0.005101155 -0.041020434 -0.046265032 -0.029708873 -0.04616407
0.11461814 0.0563599 -0.029856171 -0.05516158 -0.030175412 0.005497231 -0.0009155855 0.013332704
0.04717289 0.060633626 -0.057907965 0.035667855 0.03910132 -0.05719766 0.048458524 -0.05519678
0.031102596 0.03556106 0.074159145 -0.026405048 -0.034231428 -0.086643875 0.059358485 -0.1051282
-0.055038027 0.053427767 0.030837094 0.020710979 -0.01524875 -0.0016893276 0.041516602 0.025885059
-0.062792055 0.041012734 -0.0563885 0.035953157 -0.034167252 -0.03529209 -0.05935621 0.080165155
0.093521625 0.061949927 0.020081297 0.011527291 -0.00046888873 0.037620917 0.00082135055 0.056132182
0.0053266813 -0.043717388 0.024185482 0.040042557 0.064869955 -0.065269455 0.057028297 -0.03451164
0.10301487 0.06301901 0.056950092 0.058611482 -0.033242427 0.028593047 0.12691142 0.06473095
0.019952325 0.012189905 -0.011376168 -0.05731734 0.031933 0.0011754226 0.050071027 -0.09429849
0.0069760005 0.035996336 -2.4602896e-05 -0.04375481 0.042109273 0.010840704 -0.06691298 -0.017217008
0.11932569 0.008649047 0.114588715 -0.0057975063 0.025559328 -0.103868924 0.088074274 0.04337175
-0.012425712 0.026846351 0.037749164 0.04517956 -0.061386883 0.016294619 0.05078766 0.055831656
0.037796453 -0.04674567 0.021343833 0.016649371 -0.020179648 -0.067279145 -0.026980527 -0.02132862
-0.03959659 0.0666659 0.006550342 -0.028476883 0.097671196 -0.044769242 -0.021872744 -0.016373906
0.058693744 -0.021989368 0.06233167 0.009714142 0.14669025 -0.009062061 -0.037686806 -0.033905804
0.03926753 -0.005911753 -0.012794813 -0.064859964 -0.013584422 0.0053569525 0.005307448 -0.076202914
0.024737412 0.008505224 0.0020400432 0.100643836 0.04531511 0.07501386 0.0007963788 -0.00096754765
0.12823652 0.11587495 0.0033071598 0.021642564 0.0021491076 0.028147178 0.022462923 0.05294038
-0.020658894 -0.005810995 0.13172732 0.011415473 -0.022631854 -0.03848446 -0.03923614 -0.00840459
00000000: f56f 303d 92f0 69bb d6dc c9bd 827a 4d3c
00000010: d779 70bc bcbb a0bd b0ed 98bd 8360 703d
00000020: 6a96 15bd 5ef5 e93c bfe9 ee3a d5b1 80bb
00000030: c781 48bd a718 b4bc f5f8 12bd 4f71 81bd
00000040: 4f0a 78bd 228e 5ebd 0cc2 32bd 7318 ecbb
00000050: 5c81 e6bc 8f88 7d3c c146 893d 0bf9 7cbc
00000060: 6c79 62bd 8db5 87bc 422f 9ebd 7e57 283d
00000070: c710 353d 7e95 92bd 3dbe 893c 5185 1dbd
00000080: eee2 aebb eb0b 2abd 43d2 073e d8c3 083b
00000090: da1e 4b3d 34f5 7b3c 929b d73b 1a2f 06bd
000000a0: 38b6 0d3e 1f4b d2bc fa8f c93c b836 68bd
000000b0: 7321 b93c 6c83 693c 2258 253d f895 02bd
000000c0: 9030 c63b 13c3 a8bc 8954 673d ea87 083e
000000d0: 0eef c93d 8fe7 85bc 410d 09bd 7b8c 9c3c
000000e0: bf53 6cbd 923c 163e 2215 a4bd f548 533c
000000f0: 3409 57bc a0a0 debc a5ac 9b3a 434c 1d3d
00000100: 554c c2bc 6ad9 5a3d 50a7 7ebd 8c0b d33c
00000110: b812 82bc 7dc1 e73c f1a4 bfbb a21e 4e3d
00000120: 7ddf c0bc c4a6 17bd 9cb7 34bd c59d e03d
00000130: 164b a53c 9bc2 103d 0f23 09bd 0a8e 803d
00000140: 28d4 7e3c 75da 16bc 5322 b83c 05e1 77bd
00000150: 9dfc b33d 00af fdbc 2144 313d 1a6a f43b
00000160: cfb8 9c3d 42c0 c13d c32a 7c3d b095 17bd
00000170: 399a 053b e4a0 3cbd 685c 4c3d d37f 1139
00000180: bfdd ae3c c994 f23d 378c 013e 9727 a73b
00000190: 0b05 28bd 6780 3dbd 0660 f3bc 8916 3dbd
000001a0: eabc ea3d a3d9 663d ee94 f4bc 1cf1 61bd
000001b0: 6d32 f7bc 1e22 b43b e703 70ba 6a71 5a3c
000001c0: 5c38 413d f75a 783d e730 6dbd 7518 123d
000001d0: b528 203d 1848 6abd 727c 463d 0516 62bd
000001e0: dfca fe3c 79a8 113d c0e0 973d 664f d8bc
000001f0: 4136 0cbd 5872 b1bd e221 733d 744d d7bd
00000200: 8e6f 61bd 13d7 5a3d 139e fc3c 12aa a93c
00000210: e5d5 79bc 6e6c ddba 500d 2a3d e70c d43c
00000220: 1f99 80bd f8fc 273d a1f7 66bd 9e43 133d
00000230: f6f2 0bbd 708e 10bd 7f1f 73bd a12d a43d
00000240: 4488 bf3d 35bf 7d3d 8881 a43c f6dc 3c3c
00000250: 2ed5 f5b9 6418 1a3d e74f 573a dcea 653d
00000260: 718b ae3b 0111 33bd a220 c63c aa03 243d
00000270: 8ada 843d feab 85bd 8196 693d 145c 0dbd
00000280: 76f9 d23d 1c10 813d 8044 693d 9812 703d
00000290: 3629 08bd f73b ea3c 11f5 013e a991 843d
000002a0: 0f73 a33c 2bb8 473c 1b63 3abc 96c5 6abd
000002b0: 2dcc 023d a310 9a3a 4717 4d3d 911f c1bd
000002c0: ef96 e43b e570 133d 5162 ceb7 3e38 33bd
000002d0: c67a 2c3d 359d 313c ac09 89bd af0a 8dbc
000002e0: 0761 f43d bcb4 0d3c 7dad ea3d 02f9 bdbb
000002f0: cc61 d13c 3bb9 d4bd 4960 b43d 93a6 313d
00000300: 3795 4bbc e1ec db3c de9e 1a3d 340e 393d
00000310: d070 7bbd 4b7c 853c b906 503d bcaf 643d
00000320: 74d0 1a3d 6378 3fbd 43d9 ae3c 4364 883c
00000330: ca4f a5bc a6c9 89bd 4406 ddbc 5cb9 aebc
00000340: 0930 22bd 2288 883d 40a4 d63b 5a48 e9bc
00000350: d607 c83d f45f 37bd 782e b3bc 9222 86bc
00000360: da68 703d 0c23 b4bc 7e4f 7f3d 1128 1f3c
00000370: f835 163e 0a79 14bc 7b5d 1abd d0e0 0abd
00000380: fdd6 203d 61b7 c1bb 56a1 51bc 4dd5 84bd
00000390: 3291 5ebc 6089 af3b 1aea ad3b 4610 9cbd
000003a0: 1da6 ca3c 7f59 0b3c 3fb2 053b 5b1e ce3d
000003b0: 569c 393d dea0 993d 14c4 503a 06a3 7dba
000003c0: 6f50 033e d94f ed3d efbc 583b bf4b b13c
000003d0: 0bd8 0c3b e994 e63c 2a04 b83c 03d8 583d
000003e0: d73c a9bc 296a bebb 87e3 063e f707 3b3c
000003f0: 7066 b9bc e2a1 1dbd 13b6 20bd 68b3 09bc

mean.weight f4 [2, 256]
-0.044835836 -0.023792204 0.053472307 -0.034335904 -0.02976897 -0.028087804 -0.0059918347 0.020602103
0.038988143 -0.046191808 0.058489535 -0.00515898 -0.002589901 -0.04926797 -0.055309623 -0.051691044
0.055505395 -0.006136349 0.013073735 0.05575368 0.04043649 0.003972711 -0.04366795 -0.020245783
-0.03744395 -0.024404567 -0.052644163 0.06050465 -0.1510841 0.028995259 0.003111854 -0.035815973
-0.06832749 0.03631624 0.041357536 0.06461655 -0.025306575 0.059178583 0.04833941 0.019734425
-0.1499756 0.00942347 0.011506312 -0.06045523 -0.027194068 -0.019148415 0.005784744 -0.0038191322
-0.026717706 0.05970827 0.028195892 -0.028716706 -0.07356377 -0.04390572 -0.017661864 0.05553268
0.006617701 0.036247045 0.030046564 0.057920955 -0.016354647 0.01391605 -0.093930684 0.06344932
-0.036100462 0.008920036 0.03366303 0.0020237202 0.100095265 0.12715152 -0.040510908 0.038425658
0.06046522 -0.061706703 -0.040508416 -0.058923803 0.078723066 -0.0388552 0.059085242 -0.03893225
-0.016572975 0.04103896 0.020922631 -0.049274035 0.11419315 -0.00544939 0.11461013 0.039718743
0.005011209 0.032621764 0.0051178187 0.04586177 -0.029393239 -0.04684165 0.008402328 -0.054187212
-0.04293458 0.0067185964 -0.09520534 -0.041103672 -0.013889915 -0.04173536 0.04062499 -0.052806247
0.020759046 0.074718766 -0.08542559 0.13478154 -0.061236158 0.039267607 -0.011347328 0.012446439
-0.04769268 0.024636505 -0.01792781 0.013430383 -0.003356874 -0.066648 -0.03914832 0.04021916
-0.03207014 0.045970947 -0.01947335 0.046416484 0.04245694 -0.0564256 0.07526615 0.06092458
0.056153014 0.0145739885 -0.05964687 0.0072490308 0.025564246 0.060944837 -0.020294102 0.072814785
-0.07498978 -0.048838895 0.045613997 -0.031218272 0.032533027 -0.13898352 0.049148243 -0.07643525
-0.10642021 0.010872768 0.05698248 0.018771391 -0.112172276 0.052120537 0.017072316 0.034454927
-0.041659303 -0.0508276 -0.030557396 0.04466936 0.009883478 -0.06554259 0.04793257 -0.1103718
0.046391692 0.011493996 -0.053517617 -0.07167456 0.04903026 -0.022005038 0.0454343 -0.13022335
0.049505915 -0.05533206 -0.025268868 -0.055365115 0.063463576 0.0028280537 0.042352702 -0.05725985
-0.0181181 -0.0025704526 0.035989475 -0.046195943 0.034496255 -0.050425015 -0.05686992 -0.03677978
0.019470558 0.016349502 0.03570838 -0.0018528872 0.037779525 0.015539486 0.018142486 0.046716355
-0.060088508 -0.016712876 -0.0188989 -0.018969404 0.049023293 0.06290365 0.19220847 0.00982927
0.035902895 -0.074304804 0.066564165 -0.053247284 -0.029511604 -0.053688288 -0.07426526 -0.006277115
-0.013084554 0.1299678 -0.027992958 0.051225025 0.039116442 -0.07076622 -0.039055943 -0.064199015
0.063807175 0.014275408 0.013318121 -0.052896094 -0.049142666 0.024911549 -0.006712674 0.0033644212
-0.03391377 -0.040642157 -0.15269448 0.00981136 -0.05386467 0.054087885 -0.066896245 0.052639972
0.048831575 -0.06577997 -0.035314035 0.021231223 0.231977 -0.052971732 0.00036631743 0.06290665
0.0616437 0.0034372865 0.037857994 0.06392946 0.030461924 0.005610179 0.015355553 0.042016894
0.020544741 0.039829828 -0.057086635 0.05158465 0.0031071894 0.050974023 -0.04462748 0.040686153
00000000: c8a5 37bd dee7 c2bc c705 5b3d cea3 0cbd
00000010: 0ede f3bc 6518 e6bc 2757 c4bb bec5 a83c
00000020: 08b2 1f3d 9f33 3dbd b992 6f3d a90c a9bb
00000030: 54bb 29bb 36cd 49bd 588c 62bd fdb9 53bd
00000040: a059 633d 6d13 c9bb 3833 563c f95d 643d
00000050: bca0 253d 842d 823b 2add 32bd 7cda a5bc
00000060: d45e 19bd 16ec c7bc 68a1 57bd b9d3 773d
00000070: cab5 1abe 7787 ed3c 3ff0 4b3b c5b3 12bd
00000080: 48ef 8bbd 56c0 143d 8566 293d af55 843d
00000090: bc4f cfbc 3e65 723d 8cff 453d 17aa a13c
000000a0: 3493 19be e664 1a3c f884 3c3c e79f 77bd
000000b0: 18c6 debc 23dd 9cbc f38d bd3b 684a 7abb
000000c0: 17df dabc a990 743d 12fb e63c 4c3f ebbc
000000d0: 9aa8 96bd 7cd6 33bd 9daf 90bc 3c76 633d
000000e0: 4dd9 d83b c877 143d 3624 f63c 863e 6d3d
000000f0: 2efa 85bc 2500 643c bb5e c0bd b8f1 813d
00000100: 14de 13bd 5825 123c 3fe2 093d 64a0 043b
00000110: bffe cc3d 0234 023e c4ee 25bd 3964 1d3d
00000120: 61aa 773d 2bc0 7cbd 27ec 25bd 165a 71bd
00000130: 8f39 a13d a126 1fbd 5e03 723d 6c77 1fbd
00000140: 0cc4 87bc 7818 283d f065 ab3c 92d3 49bd
00000150: 19de e93d cc90 b2bb b7b8 ea3d 1fb0 223d
00000160: 1135 a43b 669e 053d 60b3 a73b 8dd9 3b3d
00000170: 17ca f0bc 08dd 3fbd eba9 093c 69f3 5dbd
00000180: 2cdc 2fbd ac27 dc3b 04fb c2bd 535c 28bd
00000190: 8792 63bc b2f2 2abd 6466 263d 5d4b 58bd
000001a0: e00e aa3c 2706 993d 9df3 aebd 2c04 0a3e
000001b0: c4d2 7abd 12d7 203d 25ea 39bc 26ec 4b3c
000001c0: 6659 43bd 7fd2 c93c 58dd 92bc 1c0b 5c3c
000001d0: 00ff 5bbb bf7e 88bd fd59 20bd d9bc 243d
000001e0: fb5b 03bd 084c 3c3d 9386 9fbc 361f 3e3d
000001f0: 54e7 2d3d 881e 67bd 2425 9a3d 0d8c 793d
00000200: b400 663d bdc7 6e3c 4750 74bd 4789 ed3b
00000210: 1c6c d13c 4ba1 793d d13f a6bc eb1f 953d
00000220: 3e94 99bd 4b0b 48bd bed5 3a3d 76bd ffbc
00000230: 5a41 053d b251 0ebe ab4f 493d 168a 9cbd
00000240: d7f2 d9bd b223 323c 7666 693d 76c6 993c
00000250: 94ba e5bd 587c 553d 3edb 8b3c 9c20 0d3d
00000260: f2a2 2abd 9a30 50bd 8153 fabc 38f7 363d
00000270: 50ee 213c 323b 86bd f154 443d 9c0a e2bd
00000280: 3705 3e3d 5051 3c3c 4a35 5bbd 1dca 92bd
00000290: f4d3 483d e943 b4bc 5119 3a3d 4559 05be
000002a0: b7c6 4a3d dfa3 62bd a800 cfbc 88c6 62bd
000002b0: 31f9 813d de56 393b 077a 2d3d 4e89 6abd
000002c0: 696c 94bc 0a75 28bb b369 133d f537 3dbd
000002d0: f24b 0d3d 768a 4ebd 6ff0 68bd 65a6 16bd
000002e0: b880 9f3c 64ef 853c f342 123d 94dc f2ba
000002f0: b4be 1a3d 5499 7e3c 8d9f 943c a659 3f3d
00000300: 5e1f 76bd 71e9 88bc ded1 9abc b965 9bbc
00000310: a6cc 483d a1d3 803d 4cd2 443e f20a 213c
00000320: ea0e 133d 1e2d 98bd cb52 883d d319 5abd
00000330: 52c2 f1bc 40e8 5bbd 6218 98bd 42b0 cdbb
00000340: 9960 56bc 4716 053e 7d51 e5bc 55d1 513d
00000350: 9038 203d e1ed 90bd 20f9 1fbd c67a 83bd
00000360: 56ad 823d 67e3 693c 4034 5a3c 93a9 58bd
00000370: d249 49bd 4e13 cc3c fef5 dbbb 9f7d 5c3b
00000380: 2ae9 0abd 6478 26bd f15b 1cbe d4bf 203c
00000390: 33a1 5cbd 428b 5d3d e600 89bd 039d 573d
000003a0: 9e03 483d a6b7 86bd 73a5 10bd 1aed ad3c
000003b0: 618b 6d3e e3f8 58bd 4b0e c039 34d5 803d
000003c0: 1b7e 7c3d 1944 613b fc10 1b3d 73ed 823d
000003d0: 498b f93c 98d5 b73b db95 7b3c e819 2c3d
000003e0: 724d a83c 9a24 233d add3 69bd 6d4a 533d
000003f0: fda1 4b3b 23ca 503d 4ecb 36bd 86a6 263d

mean.bias f4 [2]
0.054036614 0.08542447
00000000: 7f55 5d3d 06f3 ae3d

value.weight f4 [1, 256]
0.30079487 -0.3455904 -0.46524593 -0.1857194 -0.4710745 -0.35179016 -0.31900394 0.014558669
0.62941825 0.42497578 0.017788759 -0.35483763 -0.29587868 -0.3513909 0.034149237 0.0014899016
-0.2933433 0.023947066 -0.3494959 0.04445229 0.009715316 -0.24395683 -0.22877684 -0.20462024
-0.36426872 -0.22018269 -0.26633644 0.36519164 0.58391523 -0.46414107 0.4590994 -0.28908968
-0.26617944 -0.27017662 0.25542462 0.52726173 0.029690111 -0.33336258 -0.28670028 -0.29720014
0.3091863 0.054550905 0.43289438 0.012060007 -0.346949 0.04948536 0.4468356 -0.25971222
-0.25673208 0.051628713 0.015795253 0.34023622 0.35427564 -0.26080996 -0.3163846 0.36673418
-0.23018743 0.30807444 -0.3395007 -0.21761853 0.51896876 0.49124083 0.63323295 0.010718159
0.51843286 0.38848168 0.5887991 -0.3353406 0.28739157 0.50130904 -0.28358337 -0.28004187
-0.18079297 -0.26566333 0.50390726 0.41778615 0.36513162 -0.20172891 0.17324138 -0.18573792
-0.28297383 -0.25798357 -0.20141628 0.51799744 0.41149768 -0.30041453 0.3063135 -0.2929746
-0.18487504 -0.7083437 -0.17236555 0.030249242 -0.29971278 -0.41203594 0.294471 -0.18808839
-0.3148772 0.4053287 0.6096058 0.04566537 0.5485893 0.017568745 -0.34657678 -0.5146694
0.40142596 0.34489584 0.48052067 -0.528739 -0.25680476 0.019229408 0.5770324 -0.31880063
0.024844183 0.38996494 0.49341193 -0.2755192 -0.19424623 -0.39719135 -0.15435399 0.5548262
-0.31592298 -0.18908255 0.36809346 0.05084039 -0.33686602 -0.39584908 0.482618 -0.5437235
-0.30773982 -0.17853947 0.5883103 -0.26020736 -0.19981903 -0.27614856 0.4555436 -0.26048964
-0.41590515 0.4075441 -0.22845952 0.5524323 0.026898928 0.63162994 0.5339721 0.3252502
0.47910002 0.3739806 -0.3380042 0.5170065 0.57136667 -0.1586005 -0.39096567 -0.27481505
-0.31321752 -0.47097096 0.018891107 0.37432745 0.41420162 -0.39358526 0.5498698 -0.37349513
0.39297447 0.73644924 -0.181467 0.6572059 0.051214345 -0.23651078 0.3587531 0.56114984
-0.27616176 -0.35145077 0.04461101 0.042586442 -0.26132357 -0.23210526 -0.22738579 -0.4247733
-0.3621323 -0.24821964 -0.25063863 -0.2768145 -0.2492483 -0.34679246 -0.27286413 -0.22896555
0.3753437 0.023771428 0.3147672 -0.3985186 -0.2378165 -0.48815602 0.39957494 0.3433767
-0.30141366 0.46439958 0.29297644 -0.17786835 -0.27632755 -0.31097513 0.86664027 0.3625074
0.5481602 -0.30983028 0.1747994 -0.29762635 -0.43294 -0.3045982 -0.3380475 0.5057671
0.5634688 -0.11211202 -0.18747962 -0.442955 0.4697936 0.50559425 -0.31865588 -0.19359273
-0.24458767 0.50094455 0.42886984 -0.19393347 0.34678602 -0.18076184 -0.46569908 0.05921248
0.46759966 -0.2798596 0.62643707 -0.27018976 0.034189604 -0.2985209 -0.42891756 -0.2561795
-0.37469053 -0.23398905 0.48826087 0.36104023 1.0670602 0.3177448 -0.2686401 -0.35761285
0.37351528 0.380256 0.043380897 -0.17466292 -0.29421547 -0.30460477 0.4190648 0.04230239
-0.23339143 -0.5724267 0.3115849 0.4490101 0.030396435 0.5404667 -0.18844855 -0.0340012
00000000: c901 9a3e 3af1 b0be b734 eebe 3a2d 3ebe
00000010: ad30 f1be d71d b4be 7c54 a3be 7c87 6e3c
00000020: 8e21 213f 6d96 d93e bbb9 913c 47ad b5be
00000030: 697d 97be 82e9 b3be 12e0 0b3d cd48 c33a
00000040: 1831 96be a32c c43c 20f1 b2be 9b13 363d
00000050: fd2c 1f3c d2cf 79be 7a44 6abe f887 51be
00000060: 6e81 babe 9277 61be 405d 88be 66fa ba3e
00000070: 787b 153f e6a3 edbe 140f eb3e 9003 94be
00000080: ac48 88be 9754 8abe 04c7 823e a0fa 063f
00000090: ad38 f33c 80ae aabe 61ca 92be 9e2a 98be
000000a0: ab4d 9e3e c570 5f3d 55a4 dd3e 5697 453c
000000b0: 4da3 b1be 29b1 4a3d a3c7 e43e 00f9 84be
000000c0: 6372 83be a178 533d 0c65 813c 7133 ae3e
000000d0: 9e63 b53e e288 85be 2afd a1be 95c4 bb3e
000000e0: 41b6 6bbe efbb 9d3e 09d3 adbe 64d7 5ebe
000000f0: 23db 043f eb83 fb3e 8e1b 223f 389b 2f3c
00000100: 04b8 043f 12e7 c63e 8abb 163f c3b1 abbe
00000110: fd24 933e ca55 003f d731 91be a661 8fbe
00000120: cb21 39be 0605 88be 1100 013f 11e8 d53e
00000130: 88f2 ba3e 0692 4ebe 3066 313e 1532 3ebe
00000140: f2e1 90be 6c16 84be 1240 4ebe 7b9b 043f
00000150: d3af d23e efcf 99be 20d5 9c3e c400 96be
00000160: e24f 3dbe 0356 35bf 9880 30be 42cd f73c
00000170: f473 99be 60f6 d2be e7c4 963e 3e9a 40be
00000180: 9637 a1be 3e87 cf3e 200f 1c3f 9c0b 3b3d
00000190: 5970 0c3f 54ec 8f3c 8372 b1be 60c1 03bf
000001a0: b487 cd3e 3096 b03e ce06 f63e 705b 07bf
000001b0: ea7b 83be fe86 9d3c 65b8 133f d639 a3be
000001c0: 0786 cb3c 7ca9 c73e 7da0 fc3e da10 8dbe
000001d0: 7ce8 46be aa5c cbbe f90e 1ebe 1709 0e3f
000001e0: a8c0 a1be db9e 41be bf76 bc3e 033e 503d
000001f0: b479 acbe bbac cabe b519 f73e 7731 0bbf
00000200: 1390 9dbe 0dd3 36be 819b 163f e639 85be
00000210: 5c9d 4cbe 5863 8dbe 033d e93e e65e 85be
00000220: 85f1 d4be 9fa9 d03e 4bf1 69be 346c 0d3f
00000230: 245b dc3c 80b2 213f 65b2 083f 3287 a63e
00000240: 994c f53e 637a bf3e e30e adbe 8a5a 043f
00000250: 1645 123f 2b68 22be a72c c8be 8fb4 8cbe
00000260: 0c5e a0be 1b23 f1be 86c1 9a3c d9a7 bf3e
00000270: 3c12 d43e 0284 c9be 44c4 0c3f c13a bfbe
00000280: f333 c93e f087 3c3f 7cd2 39be a53e 283f
00000290: 22c6 513d e22f 72be 7cae b73e 84a7 0f3f
000002a0: 1365 8dbe 5bf1 b3be 09ba 363d 1f6f 2e3d
000002b0: 34cc 85be 00ad 6dbe d2d7 68be e37b d9be
000002c0: 6869 b9be 4a2d 7ebe b553 80be a1ba 8dbe
000002d0: f23a 7fbe c88e b1be d9b4 8bbe f275 6abe
000002e0: 0d2d c03e 4cbc c23c 2b29 a13e a10a ccbe
000002f0: 2b86 73be 96ef f9be 1695 cc3e 12cf af3e
00000300: e452 9abe c8c5 ed3e 0201 963e 1f23 36be
00000310: ce7a 8dbe 2238 9fbe 23dc 5d3f 929a b93e
00000320: 3a54 0c3f 13a2 9ebe 9dfe 323e 7b62 98be
00000330: 50aa ddbe 4cf4 9bbe 9014 adbe f479 013f
00000340: 7e3f 103f fd9a e5bd a8fa 3fbe ffca e2be
00000350: c988 f03e a06e 013f dd26 a3be 2c3d 46be
00000360: 3175 7abe e73d 003f d494 db3e 7f96 46be
00000370: f08d b13e a219 39be 1c70 eebe c988 723d
00000380: 3969 ef3e c249 8fbe 2e5e 203f 5056 8abe
00000390: 660a 0c3d bbd7 98be 159b dbbe f629 83be
000003a0: 70d7 bfbe d39a 6fbe 54fd f93e 44da b83e
000003b0: 6e95 883f 72af a23e 328b 89be 0819 b7be
000003c0: 653d bf3e eab0 c23e 2bb0 313d d6da 32be
000003d0: 69a3 96be 28f5 9bbe a98f d63e 4545 2d3d
000003e0: 2afe 6ebe 8e8a 12bf 0e88 9f3e a7e4 e53e
000003f0: f201 f93c 075c 0a3f a8f8 40be d844 0bbd
