sac/SAC_LunarLander_ep100.pth (torch, 279784 bytes, 8 tensors)

fc1.weight f4 [256, 8]
000000 e6 04 1c bd 51 f4 5b 3e 83 37 a9 3e 71 e0 24 3e
       -0.03809061 0.21479918 0.33050165 0.16101243
000010 09 dd fb bd 90 c8 b5 be 58 67 3f be 65 d2 3b 3e
       -0.122980185 -0.3550458 -0.18691766 0.18341978
000020 8f a9 79 be 20 48 d1 bd d3 f4 b0 bd 6d 0f ff 3d
       -0.24381088 -0.10218835 -0.086404465 0.12454114
000030 56 df 84 be cd 7b 40 be 1f 81 db 3e b5 36 0f be
       -0.25951642 -0.18797226 0.4287195 -0.13985713
000040 0d 44 12 bc ca a9 3b 3e fa 46 42 3e 3f 70 94 3e
       -0.008927357 0.18326488 0.18972388 0.28991887
000050 63 cd 9a be 3e f9 a2 be df d5 67 3d cd 96 a0 3e
       -0.30234823 -0.31830782 0.056600448 0.31365052
000060 fb 64 27 3e 25 74 0c be 20 0d b8 be 23 c7 6b 3c
       0.16347115 -0.1371618 -0.35947514 0.01439074
000070 5d e4 73 3e 9a 22 b0 3d 1d ea b7 3d 49 aa 9a 3d
       0.23817582 0.0860035 0.089802004 0.075520106
000080 05 9f 8a 3e f2 70 40 3b b3 77 a4 be cc 78 1f 3e
       0.27074447 0.0029364196 -0.32122573 0.15573424
000090 eb 54 8a 3e 3e 63 1c be ae f8 bb be c7 34 a5 3e
       0.27017912 -0.15272233 -0.36713165 0.32266828
0000a0 a3 8b 95 3e 30 ef 80 be ba 57 a6 3e f5 60 02 3e
       0.29208097 -0.25182486 0.32488805 0.12732299
0000b0 25 1d 91 be ef 10 39 3d 0c fe 7f 3e 25 8e 8c be
       -0.28342548 0.045182165 0.24999255 -0.27452198
0000c0 0e 39 55 3e 79 44 99 bd 6a e5 61 bc c7 81 ae 3e
       0.20822546 -0.07483763 -0.013787607 0.34083387
0000d0 b9 24 78 3e a4 05 cd 3e e3 66 4e 3e f6 5d c2 bd
       0.24232759 0.40043366 0.20156436 -0.09490578
0000e0 92 07 0b 3e 32 84 b0 3e 1b 0c 28 3e d9 41 a3 be
       0.13577107 0.34475857 0.16410868 -0.31886175
0000f0 6d fd e5 3d 42 5f 1b 3e f8 1c 32 bc f3 87 5b be
       0.11229978 0.15173057 -0.0108711645 -0.2143858
000100 09 9d d8 be 84 00 0d bd 80 45 73 bc 19 55 59 3e
       -0.42307308 -0.03442432 -0.014848113 0.21223868
000110 0c 1e 82 be 3a d2 94 3b 7e ae 93 3e 13 56 e5 bd
       -0.2541355 0.0045416625 0.28844064 -0.11198058
000120 c2 d1 97 3e 5d 21 21 3e 90 e7 90 be b1 ab 8d bc
       0.2965222 0.15735383 -0.28301668 -0.017293783
000130 7c 45 b3 3e 47 74 dd 3e a3 e3 56 be 8c 99 1f bd
       0.3501395 0.43252775 -0.20985274 -0.038964793
000140 27 e7 2f 3e a3 91 ae 3e 83 73 1e 3e 1e 45 5f 3e
       0.17178021 0.34095487 0.15473752 0.2180371
000150 5e 34 bd 3e 9e 58 af bd 88 a6 99 be 83 8b 24 be
       0.36954015 -0.08561824 -0.30009866 -0.16068844
000160 0d 1f 03 be 9c 4e 73 3e 33 3a b8 bd 13 b3 d9 3d
       -0.12804814 0.23760456 -0.089954756 0.10629859
000170 74 1b 8e 3e 58 83 a8 3e 33 c7 27 be 00 37 3c 3d
       0.2775532 0.32912707 -0.16384582 0.04595089
000180 5e 0b 1f 3e 71 42 a9 3e 0f c9 4c 3e b8 d4 a5 3d
       0.1553168 0.33058503 0.19998573 0.080972135
000190 f1 3e 0f bd aa 4d 37 be cd 2b 04 bc 7e 30 c5 3e
       -0.034972135 -0.1790072 -0.008067084 0.3851356
0001a0 8e e9 93 bc 2e 5e 06 bd cb 85 45 3e 03 19 fb bc
       -0.018055703 -0.03280466 0.19289319 -0.030651575
0001b0 b2 92 15 be 40 46 e5 3e f7 c0 8d 3e 4a ed 9a be
       -0.14606741 0.4478016 0.27686283 -0.30259162
0001c0 f5 99 6e be 01 9a ac be 84 39 04 3e 21 2b 8b be
       -0.23300917 -0.33711246 0.12912565 -0.27181342
0001d0 20 51 94 3d 8d 84 98 3e a4 4d a2 3d 44 f8 ae be
       0.07242036 0.29788628 0.07924965 -0.34173787
0001e0 40 06 6e 3e 7e 8e 01 be 29 10 01 3d c7 98 39 3e
       0.23244572 -0.12652013 0.031509552 0.18124686
0001f0 65 4e a5 3e 3c ee e0 3e fc a8 87 3e 3b b9 90 be
       0.32286373 0.43931758 0.26496112 -0.2826632
000200 ef fc f5 bb 8a 77 9d 3e f4 12 ff 3d 6e 81 bd 3e
       -0.0075069587 0.30755264 0.12454787 0.3701281
000210 3c 8a c2 3d 2c 55 8f bd 04 c6 ad bd c5 22 24 ba
       0.09499022 -0.06998667 -0.08485034 -0.00062612846
000220 3d f1 01 3d 5a c6 85 bd e5 39 83 3e c1 44 93 be
       0.031724203 -0.06531973 0.25630108 -0.28763393
000230 a3 dd b1 3e 02 f1 78 3e bc 48 ac 3c 7f fa db bd
       0.34739408 0.24310687 0.021030776 -0.10741138
000240 c0 18 54 be 54 aa a1 3c 98 d2 3a be ea 05 95 be
       -0.20712566 0.01973454 -0.18244398 -0.29106075
000250 ee b5 a1 be 4a 6a 11 bd df 1d 5f 3e 7f 82 58 be
       -0.31584114 -0.035501756 0.21788739 -0.2114353
000260 0b ff a9 3e 88 f6 6f be f4 2b 0c 3e 70 17 75 3e
       0.33202395 -0.23433888 0.13688642 0.23934722
000270 2a 53 bf be b1 61 e6 3d d0 8c a6 be 59 e7 cf bc
       -0.37368137 0.11249102 -0.32529306 -0.02537887
000280 bd 50 a8 bd 2f c4 87 3e cc 2f 58 3e 7d ec 33 be
       -0.082185246 0.26516864 0.21111983 -0.17570682
000290 37 c3 88 be 3c 34 95 3c d2 da 85 be b5 53 55 bd
       -0.26711437 0.018213384 -0.2614351 -0.052081782
0002a0 fb c9 99 3d 9a f6 59 be 54 2c f7 3d d8 c4 4a 3e
       0.07509228 -0.21285477 0.12069002 0.19801652
0002b0 a6 91 d1 3d 76 10 8d 3e 73 55 62 3d c3 2f ba 3e
       0.10232858 0.2755162 0.055257272 0.36364564
0002c0 e0 64 e8 3c ae bd 23 3d 3c c1 bc 3e 65 66 66 3e
       0.028368413 0.039975815 0.36866176 0.22499998
0002d0 d3 27 48 be 7b 10 96 be 76 60 67 3d 27 36 3f be
       -0.19546442 -0.2930945 0.056488477 -0.18673001
0002e0 24 70 f8 bc 94 14 5c bd d2 b1 c4 3e e1 f1 ba bd
       -0.03032691 -0.053730562 0.38416916 -0.09128166
0002f0 eb 99 74 be d6 4e 78 3e 7e e4 1d be 14 91 91 3e
       -0.2388684 0.24248824 -0.15419194 0.28430998
000300 7d d0 6b 3e c2 f9 b1 3e d5 13 53 be 55 75 32 be
       0.2302875 0.34760863 -0.20613034 -0.17427571
000310 6e 9a 09 bd 11 d8 26 3e f7 53 ad bc ef 9e 6b 3d
       -0.03359454 0.1629336 -0.021158202 0.057524618
000320 5c 09 44 3e f1 81 7f 3e 22 71 0b 3d 0c 77 c4 be
       0.19144195 0.24951912 0.03404344 -0.38372076
000330 25 39 a1 3e 27 bf 83 be cd c5 91 3e e3 a8 84 be
       0.3148891 -0.25731775 0.28471223 -0.259101
000340 8a ae 04 be 64 30 81 be 10 d0 77 3e 22 59 56 be
       -0.12957206 -0.25232232 0.24200463 -0.20932439
000350 04 15 c3 3c 8f 3e 82 be e1 1d 1f be 30 84 c3 bd
       0.023813732 -0.25438353 -0.15538742 -0.09546697
000360 70 3d ba 3e ee 72 1b 3e cb a7 c9 3e be d2 87 be
       0.36374998 0.15180561 0.39385828 -0.2652797
000370 52 b7 a1 3d 83 eb 0e be d0 b1 04 bd ce 93 d8 be
       0.07896294 -0.13957028 -0.032396138 -0.42300266
000380 09 7b ba 3e b4 d1 07 3e f2 d7 4f be 6d 37 77 be
       0.36421993 0.13263589 -0.2029722 -0.24142237
000390 d6 c2 ed 3d 4e 79 47 be 7e 1d e1 bc 99 61 a2 3d
       0.11609428 -0.19479868 -0.027479883 0.079287715
0003a0 41 51 20 3e b8 36 81 be fa e8 99 be cb 65 07 bd
       0.15655996 -0.2523706 -0.3006056 -0.03305606
0003b0 66 8f 81 3e 90 ff b0 3d 07 46 f8 3e 04 d9 7e 3e
       0.25304717 0.08642495 0.48490927 0.24887472
0003c0 af 35 a2 3e a6 12 a8 be 67 90 64 be 92 15 21 be
       0.31681582 -0.32826728 -0.2232071 -0.15730885
0003d0 71 32 80 bd f2 08 08 be 05 16 81 be e5 9b 95 be
       -0.06259621 -0.13284662 -0.25212112 -0.292205
0003e0 29 6a 86 bd c7 c3 93 3e 11 97 54 3d cc 81 23 bc
       -0.06563217 0.28860304 0.05190188 -0.009979676
0003f0 db 7d c2 3e 27 85 9a 3e bd 91 95 3e f9 0b c8 bd
       0.37986645 0.30179712 0.29212752 -0.097679086

fc1.bias f4 [256]
000000 5d f5 74 be 2a de dc bd 98 f4 22 3e be 41 2a 3e
       -0.23921724 -0.10784562 0.15913618 0.16626641
000010 b8 47 b6 3e 86 eb d6 bd d7 f8 30 bc 67 6d a9 be
       0.35601592 -0.10494141 -0.010801516 -0.3309128
000020 8e 87 e8 bd 4c c9 57 be 72 ea 39 3e 41 9e 64 3d
       -0.1135398 -0.21072882 0.1815584 0.055814985
000030 c9 8e 25 3e 14 fd 64 3d 05 f1 9c be c9 fc 69 be
       0.1616775 0.055905417 -0.30652633 -0.22850336
000040 61 41 97 3e fb 55 11 3e ad 6b 5d 3e 8c 8e 99 bd
       0.29542068 0.14192955 0.21623106 -0.07497892
000050 4c 85 ae bd a3 b1 80 3e 3f 98 c0 bb 33 ed ae 3e
       -0.08521518 0.25135526 -0.005877524 0.34165344
000060 b0 e1 84 3e e0 16 93 be 52 ef a7 be 65 be 54 3d
       0.25953436 -0.2872839 -0.32799774 0.051939387
000070 80 41 4a be 4f 27 89 be b5 75 59 bd c2 f6 e5 bd
       -0.19751549 -0.26787803 -0.05309077 -0.11228706
000080 f4 ef 0e 3e 92 91 1d 3e 68 a0 1b be b8 6f 99 3e
       0.13958722 0.15387562 -0.15197909 0.29968047
000090 db 8b 91 3e 56 d1 e4 3d fe 43 84 3b 70 53 5a be
       0.28427014 0.1117274 0.0040364256 -0.21320891
0000a0 e4 0a 19 3e 84 ad a6 be 6d f9 18 3e 82 19 8c 3d
       0.1494556 -0.32554257 0.14938898 0.06840803
0000b0 4d 8f 05 bd 22 51 2a 3e 1c a8 c1 3e 47 47 53 be
       -0.032607365 0.16632512 0.3782357 -0.20632659
0000c0 cf ce 5c 3e 7d 14 46 3e 94 1a 6a be 35 13 a2 be
       0.21563266 0.19343753 -0.22861701 -0.3165528
0000d0 34 22 db bd 33 53 06 3e 9d e1 5a be ca 28 95 3e
       -0.10699883 0.13117675 -0.21375127 0.29132682
0000e0 1c 21 8c 3e d7 82 52 be 14 bf 18 be af a2 8b 3e
       0.2736901 -0.20557724 -0.1491664 0.27272555
0000f0 38 19 e3 3c 87 16 82 be 0f c3 e4 3d 38 22 2e be
       0.027721986 -0.25407812 0.11170017 -0.17005241
000100 41 b4 36 be 83 b6 44 3e 79 9e 12 be cb 4e 7d 3c
       -0.17842199 0.19210248 -0.14318265 0.01546068
000110 a9 a7 3c be f4 1a 2a 3e a6 16 5f be fe 5a b8 bd
       -0.18423332 0.16611844 -0.21785983 -0.090017304
000120 78 c3 94 3e e1 52 b3 bd b1 ad 6a be 63 d8 6c 3e
       0.2905538 -0.08756042 -0.2291782 0.2312942
000130 7e 65 90 3e 1e ef 88 3d 6a 9c dc 3d 17 25 9f 3c
       0.28202432 0.06686233 0.10772021 0.019426866
000140 51 dc 2f 3e 81 e7 6a 3d 7d fb 33 3e 90 63 92 bd
       0.17173888 0.057349686 0.17576404 -0.07147896
000150 b4 a1 b9 bd 11 d3 92 3d d5 03 9b 3e 1f 5d 04 3e
       -0.090640455 0.07169164 0.3027636 0.12926148
000160 56 e9 45 be c0 c1 ee 3d c7 8b 7f be c8 0d 1b be
       -0.19327292 0.11658049 -0.24955665 -0.15141976
000170 07 73 a4 be 73 9c a3 3c d3 c0 8a be 54 46 e6 bd
       -0.3211901 0.019972062 -0.27100238 -0.11243883
000180 dc 04 2c be 51 fe a8 bd 38 d6 f9 3d ed 13 5f be
       -0.16798729 -0.08251632 0.12199062 -0.21784945
000190 a6 bb 3c be e2 da 14 3e 2b 5b 37 3e 3a 89 98 3e
       -0.18430957 0.14536622 0.17905872 0.29792196
0001a0 fc 62 af 3e 8a c0 69 bc cf 9f f3 bd e4 c2 10 3e
       0.34255207 -0.014267096 -0.118957154 0.14136845
0001b0 dd 39 c5 bc 93 c1 74 3e b0 d2 52 3e c9 5a 54 be
       -0.024075443 0.23901968 0.20588183 -0.20737757
0001c0 86 fe 0f bd d0 a6 48 be 44 d4 51 3c 75 f3 71 be
       -0.03515484 -0.19594884 0.012806956 -0.23628028
0001d0 93 4d 55 bd 07 af 01 bc 43 3e 8c 3d 5c 77 3a be
       -0.052075934 -0.007915265 0.06847813 -0.18209594
0001e0 e3 cf 7a 3e fc f1 38 be 47 c4 a8 3e fa c0 97 3d
       0.24493365 -0.1806106 0.32962248 0.07409854
0001f0 d0 8e 51 3d 76 20 0d 3e 5b 06 ba 3e d3 2b 3b bd
       0.051161587 0.13781914 0.36332974 -0.04569609
000200 68 8a f5 3d 60 83 28 be 69 95 16 be 37 9f 04 be
       0.119892895 -0.16456366 -0.14705433 -0.1295136
000210 17 fc c3 bc 7e f1 32 3d a5 71 0b bd 68 a8 92 be
       -0.023923917 0.043687336 -0.034043927 -0.2864411
000220 e7 8f 67 3e 1a 9a a6 3d 97 98 43 3e 17 32 0c 3e
       0.22613488 0.08134861 0.19101177 0.13690983
000230 2d 7c 94 be 47 35 86 bd 21 40 c3 bd 8b 96 ca 3c
       -0.2900099 -0.065531306 -0.09533716 0.024729988
000240 ab 4b b7 3e c2 d6 5a be f8 30 4f 3c 24 15 a6 3d
       0.35799918 -0.21370986 0.012645952 0.08109501
000250 21 c4 a6 3d c6 13 02 bd fb 13 89 be 85 d6 48 be
       0.08142877 -0.03175714 -0.26773056 -0.19613083
000260 47 d6 a8 3e ab a7 60 be 29 a6 bd b9 5c bd 34 3d
       0.3297598 -0.2193896 -0.00036172688 0.0441259
000270 fd f9 93 3d e0 f8 63 be 09 44 44 be 4d 23 bb 3e
       0.07225416 -0.22262907 -0.19166578 0.3655037
000280 22 09 11 3e e1 b2 b6 3e 6c bf 1b 3e bf 5e 39 3e
       0.1416364 0.3568335 0.1520974 0.18102549
000290 8a b5 84 be dd 70 30 be ac 1f eb 3d 4f 7a 04 be
       -0.25919753 -0.17230554 0.1148065 -0.12937282
0002a0 f7 1a 25 3e b7 e3 cd 3c cb 92 a0 3e d5 b9 8c 3e
       0.16123568 0.025132997 0.31361994 0.2748553
0002b0 44 c0 91 be cf 6e 01 3e 93 29 b2 3d c2 29 25 be
       -0.28467 0.12639926 0.08699336 -0.1612921
0002c0 6e 4d c3 3c 5c 20 06 3d 9e 60 af 3e 92 b3 41 be
       0.023840632 0.032745704 0.342534 -0.18916157
0002d0 24 d8 62 3d 63 de d4 bc 9d 7f 05 be d2 39 4b 3e
       0.05538191 -0.025984949 -0.13036962 0.19846275
0002e0 3f 83 ac 3e 63 ff 5f bc 79 4c 24 3d 90 76 85 3d
       0.33693883 -0.013671729 0.040111993 0.065167546
0002f0 d4 21 8e bc 66 57 92 3e fb 54 9c bd d3 7f ef bd
       -0.017350115 0.28582305 -0.07633396 -0.116943024
000300 d0 4a 98 3e 0a e6 a3 3e 92 29 a3 be 66 d3 d6 bd
       0.29744577 0.32011443 -0.31867653 -0.1048954
000310 28 0a 56 bd bc 8a 80 3e 7b d9 a8 3e 5b 78 3c 3e
       -0.05225578 0.25105846 0.32978424 0.18405287
000320 db 01 45 3c c7 08 88 3d ab cf b1 3e 3b 9b 6e 3e
       0.012024368 0.06642299 0.3472875 0.23301403
000330 8b d7 53 3e 17 b7 ca 3d 2d b1 21 be 29 8c 0c be
       0.20687692 0.09898203 -0.15790243 -0.13725342
000340 35 ce 6c bd 8f 46 8b be 4d a4 f2 bd 93 d3 de bd
       -0.05781384 -0.2720227 -0.11847744 -0.10880198
000350 a2 97 91 be a6 29 60 be b7 b6 a0 bb 65 c1 3c bd
       -0.28436 -0.21890888 -0.004904594 -0.046082873
000360 f6 8b 86 3e e2 3f 71 be 7b 41 a3 bd ec 0e c0 bc
       0.26278657 -0.23559526 -0.07971474 -0.023444615
000370 51 0e 87 be 71 b0 b8 be 3f 0b c0 bd e5 97 55 be
       -0.2637811 -0.36072114 -0.09377145 -0.20858724
000380 b7 3c a7 3e db 72 80 3e 27 bd 9f 3e 07 45 85 bd
       0.3266351 0.25087628 0.31199 -0.065073065
000390 5e da 8d 3e 47 ac 92 bd 9c 52 a5 3e 42 3a 8b be
       0.27705663 -0.071617655 0.32289588 -0.27192885
0003a0 ed d4 b7 3d d6 a2 c5 3c 7e fe 99 3c eb 93 a5 bc
       0.08976159 0.024125498 0.01879811 -0.020212134
0003b0 98 00 84 3c 88 80 5a be 67 a5 55 be e9 c8 8e 3e
       0.016113564 -0.21338093 -0.20863877 0.27887657
0003c0 39 d1 2d 3d b6 e0 06 be b6 c7 89 3e 3e cd b0 3e
       0.04243586 -0.13171658 0.2691018 0.34531587
0003d0 39 89 83 3e 96 5a 81 3e 2f 25 89 3e 3e 5d 30 be
       0.2569063 0.25264424 0.2678618 -0.17223069
0003e0 67 4d 0e bd 96 fb af be 86 d4 0a 3e 19 b8 39 be
       -0.034741785 -0.34371632 0.13557634 -0.18136634
0003f0 98 70 91 3e dd c5 d4 bd 20 e6 f0 bb 30 ed 29 3c
       0.28406215 -0.10389302 -0.007351652 0.010371491

fc2.weight f4 [256, 256]
000000 e4 65 c1 bd f9 34 9b bd 1d c4 5e bd ab e5 4c bc
       -0.09443262 -0.07578463 -0.054386247 -0.012505929
000010 0b e0 81 bd c8 0e b9 3d 9f 9d 44 bd b1 a0 0e 3d
       -0.06341561 0.090360224 -0.04800188 0.034821216
000020 ca dc 08 bd 6b e2 0d be 34 5e b7 3c 2a 9b 8a bb
       -0.033413686 -0.13855903 0.022383787 -0.004229923
000030 22 0f 86 bd 25 c4 13 3c 19 a2 4a bd c9 74 f3 bc
       -0.06545855 0.0090189325 -0.049470995 -0.029718773
000040 47 d5 70 bb da 0a 71 bc cb 34 86 bb 43 4a 8c bc
       -0.0036748217 -0.01471206 -0.004095649 -0.017125254
000050 5c cf 9a 3d b7 8b 3a bd b6 01 3b bd aa 07 dc 3c
       0.07559082 -0.0455434 -0.04565593 0.026859123
000060 ed eb 5d 3d 5c b8 a7 bd 6d 20 cc 3d 41 4c 38 3d
       0.054180074 -0.08189461 0.09967122 0.044994596
000070 c5 f2 f1 bd 78 a3 c8 3c 61 f8 9d 3d ae 44 02 3d
       -0.11813883 0.02449201 0.0771339 0.03180378
000080 66 dc a9 3b f2 a5 ec 3c 8c fe e0 bd 39 d7 79 bd
       0.0051837442 0.028887723 -0.10986051 -0.060996268
000090 c5 c1 e3 3d 1b 2b 28 3d 82 83 26 bd a1 8d a7 3c
       0.11120943 0.041056734 -0.04065276 0.020453276
0000a0 72 d5 17 bc cf 2a b1 bc fd 7c a1 bc 7f fb 48 bd
       -0.009267198 -0.021626858 -0.01971292 -0.04906797
0000b0 50 3f 88 bd 3e 8a 5f 3d 9e 39 4c 3d a4 1b 5e bc
       -0.06652701 0.054575197 0.049859636 -0.013556395
0000c0 ad 3c 6d 3d 84 40 33 3d 4c 59 00 3c 09 bb ad bc
       0.057919193 0.0437627 0.00783379 -0.02120735
0000d0 b4 03 98 3c f7 52 a0 3d 18 26 19 bd fa a6 2e bd
       0.018556453 0.07828324 -0.037389845 -0.04263971
0000e0 f5 25 0b 3d e2 b6 9d 3d 07 cd ab bb a0 55 5f 3a
       0.033971746 0.07700898 -0.005242947 0.0008519534
0000f0 76 65 ce bc 62 ca 85 3d f6 49 c3 bd db 73 75 3c
       -0.025194865 0.06532742 -0.09535591 0.014981235
000100 28 f2 bc bc ba 1b e1 bc f5 f0 13 b8 9c 62 19 3d
       -0.023064688 -0.027479041 -3.527194e-05 0.037447557
000110 f8 dc b4 bd 89 1e 2c 3d 55 33 73 bd 70 a0 e6 bc
       -0.08831209 0.042021308 -0.059375126 -0.028152674
000120 61 54 15 3c 41 8b 0a 3d f4 a1 84 3b f8 d4 87 3c
       0.009114356 0.03382421 0.0040476266 0.016581044
000130 aa de d3 3c 48 e5 38 3d 38 c4 01 3d 9a 25 ca bd
       0.02586301 0.045140535 0.03168127 -0.09870453
000140 7b 6d c1 3d e5 3a e4 bb 57 ba 92 3d ae ce 88 3c
       0.0944471 -0.0069650286 0.07164448 0.016700115
000150 a8 bd e4 bc 49 48 2f 3d b7 41 cd 3c 1a 64 23 bd
       -0.027922466 0.042793546 0.02505575 -0.039890386
000160 bd 6c c0 bc e5 2f 87 bd 7a bc 8a bb a6 db 44 3d
       -0.02348935 -0.06600932 -0.004233894 0.048061036
000170 d9 62 3b bd c3 0f ae 3c e7 d9 12 bd 41 1a c5 bb
       -0.045748565 0.02124775 -0.03585234 -0.0060150926
000180 e5 7b 11 3c 13 55 36 be 92 9c 55 3c c0 81 69 be
       0.008879636 -0.1780589 0.013037818 -0.22803402
000190 2f 46 7c bd 3b b7 06 3c 86 63 ae 3b 9e 5e 3c bd
       -0.06159037 0.0082223965 0.0053219227 -0.04598867
0001a0 3b 38 89 bd 0f 7d ea bb 7e bf 08 bc 20 86 1f bd
       -0.06700178 -0.0071560214 -0.008346437 -0.03894627
0001b0 1d b5 1d 3d 09 18 c2 3d f5 48 90 bc 58 d6 f2 bd
       0.0385028 0.094772406 -0.017612914 -0.11857289
0001c0 1d fa 21 3d 06 87 9f bd 2c db a7 bd c9 36 01 bd
       0.039545167 -0.077894256 -0.081961006 -0.031546388
0001d0 be 4f 66 bd ef 23 4f bd 23 28 54 3a 44 06 01 be
       -0.05622839 -0.05057138 0.0008093139 -0.12600046
0001e0 50 9e 19 bd 22 93 c2 3a 4f 8b 0d 3d a1 68 71 3b
       -0.037504494 0.0014844874 0.034556683 0.0036836045
0001f0 2b 12 33 3d 19 6d 80 bc f6 25 74 3d 8b 10 4d bc
       0.0437185 -0.015677022 0.059606515 -0.012516151
000200 2a 6e 51 bd d1 a6 14 3d 31 42 ae 3c 69 05 a5 bc
       -0.05113045 0.0362919 0.021271797 -0.020144181
000210 54 9a 4e 3d e8 17 80 b9 36 f1 8b bd 5e 9c de bd
       0.050440148 -0.00024431874 -0.06833117 -0.108696684
000220 d7 81 7a 3c eb 21 80 3c de 56 d9 3c a3 66 df 3b
       0.015289745 0.015641173 0.02653068 0.006817655
000230 b5 d5 0d 3d 6c 0c 3d be 7f 2e 12 3d 03 d3 d1 3b
       0.034627635 -0.1846177 0.035688873 0.0064033284
000240 f2 ae d2 3c 3a b0 26 bd 16 aa 3f bd 03 82 8d 3d
       0.025718186 -0.040695406 -0.046793066 0.069095634
000250 4e 2e ab 3d b5 d0 0a bd 88 3b 30 3c a8 9a fe 3c
       0.08358441 -0.033890445 0.010756381 0.031079605
000260 df a9 91 3c 6f 4d 9e bd f7 28 6c 3a bc 9d a7 bc
       0.017781196 -0.07729613 0.000900879 -0.020460956
000270 40 2a 81 bd dd 2e 90 3c a5 45 e7 3c 1a 2e 0d bd
       -0.06306887 0.017600471 0.028231451 -0.034467794
000280 32 5e 1d 3c da 03 05 bc 40 0e 53 3b 25 8c 82 bc
       0.009604977 -0.008118594 0.0032204539 -0.015935967
000290 65 ab 4e 3c 5a 91 51 3d bf 9d 76 3d 22 31 7b bc
       0.012614106 0.05116401 0.060209032 -0.015331538
0002a0 d0 28 bf bc e3 81 1b 3d 23 c7 c6 3a 67 25 bb bd
       -0.02333489 0.037965667 0.0015165549 -0.09137993
0002b0 d0 63 4c bd 94 bf 28 bd 0e cf 30 3c 6e bb b8 3d
       -0.049899876 -0.04119833 0.010791553 0.090201244
0002c0 31 0b bf bc 41 d2 ad bd c9 01 96 3d ba 4b 2e bb
       -0.023320766 -0.084873684 0.07324559 -0.002659543
0002d0 8c ba 94 bc e7 dc 1d be 41 85 ae 3d b4 b3 d9 bb
       -0.018155359 -0.15416299 0.0852151 -0.0066437367
0002e0 23 3d fd 3c a4 5a ba bd 8b 66 9e ba fe 34 ef bc
       0.030912941 -0.090993196 -0.0012085004 -0.029200073
0002f0 11 be 9b ba 5e 7d 4a 3c c4 0f c3 3b b5 28 64 bd
       -0.0011882206 0.012358991 0.005952807 -0.055702884
000300 43 6b dc 3d 7e 10 92 3d 5c f7 bd 3b 45 8a 65 3d
       0.10762646 0.07132052 0.00579731 0.056040067
000310 18 b1 64 bd 1a 87 8c 3d 44 12 fa 3b a8 08 4f ba
       -0.055832952 0.06861706 0.007631572 -0.0007897713
000320 9c 9f 4a bd b8 25 88 bd 8e d7 f5 3c 59 d9 63 bd
       -0.04946862 -0.06647819 0.030010011 -0.0556272
000330 37 45 01 3d 22 c0 5a bc f7 0c a5 3d f7 0a 8d bd
       0.03156015 -0.013351472 0.080591135 -0.06886857
000340 74 e8 ce bd ed cb 73 bc d0 b6 20 be b2 06 7a bd
       -0.10102931 -0.014880163 -0.15694737 -0.06104154
000350 c9 c6 e9 bd 50 72 a8 3c 7b 99 dd 3b 35 b4 18 3d
       -0.114148684 0.020562321 0.006762681 0.037281234
000360 67 1a d8 bd 91 2e 22 bd fd 7c f3 3c 68 b1 32 bd
       -0.10551911 -0.03959519 0.029722685 -0.04362622
000370 d6 ca 8b bc 77 24 25 3c 7e 9a 2f bd 14 9e 10 be
       -0.017064493 0.010079495 -0.042871945 -0.14122802
000380 f2 85 04 3d 71 1d a6 bc b6 41 8d bd 97 17 cf bc
       0.032354303 -0.02027771 -0.06897299 -0.025279803
000390 e3 2b 4a bc df b0 90 3c 7f 4c 45 3d e5 98 f2 bc
       -0.012339565 0.017662464 0.048168655 -0.029613921
0003a0 43 11 fa bd 4f f3 b9 bd 15 e6 b5 bd 3d 0b 87 3b
       -0.12210324 -0.090796106 -0.08881775 0.0041212128
0003b0 fc 28 17 3d 85 80 41 3d 40 7d 6f bc 07 17 b0 3d
       0.03690432 0.047241706 -0.014617264 0.08598142
0003c0 81 50 2f bb 84 59 12 bc 27 4c 01 bd 9d d5 e6 bc
       -0.0026750865 -0.008932475 -0.031566765 -0.02817803
0003d0 66 c9 40 bd 22 71 ea bc 89 62 a5 bb d7 c1 22 bd
       -0.04706707 -0.028618399 -0.0050471467 -0.03973564
0003e0 bf 1b f8 bc 2b 6b bb bd d3 1a 21 ba a4 a9 fb bd
       -0.030286668 -0.091513 -0.000614566 -0.12288216
0003f0 9c c2 9e 3d 02 83 73 3c 96 a9 72 3c 89 38 43 3d
       0.077519625 0.014862778 0.01481094 0.047661338

fc2.bias f4 [256]
000000 ea f6 94 3d e4 58 51 3c b8 fa 13 3d d0 8f 87 bc
       0.072736576 0.012777541 0.036127776 -0.016548067
000010 98 6f 82 3c c6 23 96 3c 46 51 96 3c ff 54 57 bd
       0.015922353 0.018327605 0.018349301 -0.052571293
000020 8b 7e c2 3b 00 53 7b bd 51 79 77 3d 17 6a e6 3a
       0.0059354953 -0.06135845 0.06041843 0.0017579225
000030 4a 95 b4 3c a5 be 87 3d 63 a8 42 3c ee 50 1a bd
       0.022043843 0.066281594 0.011880967 -0.037674837
000040 03 38 6b bd 72 66 8e bc 2a e4 27 3d a8 c6 4a bd
       -0.057426464 -0.017382834 0.04098908 -0.04950586
000050 ee 69 0e bd 1f 76 0d 3d d8 ca e6 bc 4a aa 81 3d
       -0.03476899 0.034536477 -0.028172895 0.06331308
000060 0d af 8b 3c 59 71 a7 3c df 28 09 3d 8d b0 6c 3d
       0.017051244 0.02043979 0.033486243 0.05778556
000070 42 b2 d4 3c 8a 1a 64 3d 30 b9 65 bc 48 9a 02 bd
       0.025963906 0.055689372 -0.014021203 -0.031885415
000080 a6 f3 0a 3d a9 07 af 3c f8 aa 9d bc e7 de 14 bd
       0.033923768 0.021365957 -0.019246563 -0.03634539
000090 00 c8 6e bd 32 c6 3b 3d b7 c2 c4 3c be 00 75 3d
       -0.058296204 0.04584331 0.024018629 0.05981516
0000a0 06 c0 2d 3d c1 0e 8a 3d bb 93 88 3d 28 fc ba b9
       0.042419456 0.06741095 0.06668802 -0.00035664556
0000b0 c4 58 3c bd 06 65 a9 3b 7a 8b ef 3c 73 64 54 3d
       -0.04598309 0.0051695136 0.029241312 0.05185361
0000c0 a8 1c 0d bc e8 3c ed bc 83 b1 d3 bc cb e6 68 3d
       -0.008612789 -0.028959706 -0.02584148 0.056860726
0000d0 c7 14 7d bd b9 bf 36 bd b9 86 65 3b 5d 51 18 bd
       -0.061787393 -0.044616435 0.0035022928 -0.03718697
0000e0 52 8f 3e 3d 3c 1c d5 3b 4a 19 de 3b 23 03 7b 3d
       0.0465234 0.00650361 0.006777917 0.06128229
0000f0 5a 73 a7 3c 68 94 1f bd f7 d6 d9 bc 67 9e 59 3d
       0.020440746 -0.03895989 -0.026591761 0.05312958
000100 81 d2 b9 bc be ab a7 bc bb 32 5b bc be d9 38 3d
       -0.022683384 -0.020467635 -0.013378794 0.04512953
000110 39 9e 74 bc eb 30 3e bd e7 d7 47 3c 2c 28 40 bd
       -0.014930301 -0.04643337 0.012197471 -0.04691331
000120 83 10 ee 3b 48 f5 3e 3d e6 5e 14 bd 12 cf b7 bc
       0.007265152 0.046620637 -0.036223315 -0.022437606
000130 8d a3 82 3d ec 1d 19 3d fe 92 8d bb 06 b3 b0 3c
       0.06378851 0.03738205 -0.0043205013 0.02156974
000140 a0 a4 b3 3a ff 96 1c bd d8 08 ad 3c a9 12 ff 3b
       0.0013705678 -0.03822994 0.021122381 0.007784207
000150 c4 56 c3 3c ba a6 5b 3d 19 b2 29 bd d9 45 da 3c
       0.023845084 0.0536258 -0.041429613 0.026644634
000160 85 fd b6 3b 5d 1e 7a 3d 67 60 6b 3c c4 37 86 3d
       0.005584421 0.061064113 0.014366246 0.06553605
000170 49 6a 47 bc 26 43 85 3c 98 c7 55 bd b2 01 9a bb
       -0.012171336 0.01626737 -0.0521923 -0.004699909
000180 e7 a6 29 bb 0a 55 72 3d 5b 60 12 3d 6d cf 64 bc
       -0.0025886835 0.05916313 0.035736423 -0.01396547
000190 8e 7b a5 3c 41 d4 68 3c 76 0e 84 3d 3e 0b f0 bc
       0.020200517 0.0142107615 0.06448071 -0.029302236
0001a0 da 72 8d 3d e2 4a 32 3c 40 57 52 bd ce 44 fb bc
       0.06906672 0.010882111 -0.05135274 -0.030672457
0001b0 4e 68 5e bd e2 78 95 bc 79 ec e6 3b ff 29 7a bc
       -0.05429869 -0.018246118 0.0070472327 -0.015268802
0001c0 5d 45 6e bd f6 4a 09 bd 7a 0b be 3b a2 a0 64 bd
       -0.05817162 -0.033518754 0.005799708 -0.055817254
0001d0 2d e9 91 3c 48 b3 53 3d 11 30 9e bc 0a 1d 09 3d
       0.017811382 0.051684648 -0.01931003 0.03347496
0001e0 ab d6 6c bd 67 52 be bc 37 5e ce 3c a9 05 5c 3c
       -0.05782191 -0.023232652 0.02519141 0.013429084
0001f0 5c 53 d1 bc 6f bd 80 3d c4 70 a4 3c c7 73 f7 bc
       -0.025552444 0.062861316 0.020073302 -0.030206574
000200 e8 e5 11 3d 68 fd 23 3d 6f 22 1f bd 4b a6 0f bc
       0.035619646 0.04003659 -0.038851198 -0.008767675
000210 2b 3c b9 bc 41 44 9a 3c da d0 98 3c e8 23 f3 3c
       -0.022611698 0.018831374 0.018654276 0.029680207
000220 ee 5b be bc 74 f3 bd bc cb 08 2d 3c c9 bb 24 3d
       -0.023237195 -0.023187377 0.010561178 0.04021815
000230 9a c4 18 bd 7a f4 43 3d 42 ff 39 3c 80 a0 93 bd
       -0.03729687 0.047840573 0.011352362 -0.07208347
000240 c7 d2 d2 bb 8b fd 3e 3d e9 c8 46 bd 4a 08 0d 3d
       -0.006433818 0.046628516 -0.048531447 0.034431733
000250 11 29 49 3d 7e d8 71 3d 06 01 60 bd da 95 52 bb
       0.04911143 0.059044354 -0.054688476 -0.0032132776
000260 3e ad 46 bd f8 bf 34 bc 4e 3e 41 3d 05 a4 d8 3c
       -0.04850506 -0.011032097 0.04717856 0.026445398
000270 02 f2 39 3d 15 c7 1f bd f2 c4 00 3b 4a 26 e7 bc
       0.045396812 -0.03900822 0.0019648639 -0.0282165
000280 26 f5 46 3c 02 43 45 3b c1 95 fe bc 50 88 35 3c
       0.012143409 0.0030099754 -0.031077268 0.011079863
000290 39 ad 60 3c cc 52 78 bd 5f dc 62 bd 2c 37 38 3d
       0.0137131745 -0.060625836 -0.055385944 0.04497449
0002a0 ae 14 20 3c b2 b2 45 3d cc 71 03 bd 85 43 b4 3c
       0.009770555 0.04826612 -0.032090947 0.022004852
0002b0 77 07 ea 3b 3e b6 5f 3b a6 94 5c 3a 5e 2a 49 bd
       0.007142003 0.0034135724 0.00084144843 -0.04911267
0002c0 2a d1 24 bd ec 5e 8a 3d a2 a9 1b bd a8 84 8e 3d
       -0.040238537 0.06756386 -0.03800357 0.06958896
0002d0 c0 28 07 bd c0 4f bc 3a 4d 2d 60 bb 11 d5 e7 bc
       -0.032997847 0.0014367029 -0.003420669 -0.02829984
0002e0 99 fd a0 3d c4 a2 e9 3c f0 5f 8b 3d 37 40 18 bd
       0.0786087 0.028519996 0.06805408 -0.037170615
0002f0 de 95 c2 bc 0c 62 68 3c b7 67 85 3d 99 e4 09 3b
       -0.023753103 0.014183532 0.06513923 0.0021040796
000300 f0 04 a9 bc a2 91 06 bd 08 c5 b4 3c fb 2f 89 bd
       -0.020632237 -0.03285373 0.022066608 -0.06698605
000310 9b 13 06 3d 8e f8 2b 3b d4 94 70 3d fe 96 ab 3c
       0.03273354 0.002624068 0.058735684 0.020946022
000320 4b e3 36 3b d4 2d 5b 3d aa db 16 3b f6 df dc 3c
       0.0027906473 0.053510502 0.0023019114 0.026962262
000330 46 95 99 3c e2 c1 fd bc 1f f9 2e bd 52 bd 09 3d
       0.018747937 -0.03097624 -0.04271805 0.033627816
000340 7f a7 93 3c 93 37 56 3d 3e b2 f2 3c c8 17 99 bc
       0.018024204 0.052299093 0.029626008 -0.018688098
000350 3e b6 3d bc 0e 43 71 3b e2 cf ba 3c bd c7 0f 3d
       -0.011579094 0.003681365 0.022804204 0.035102595
000360 13 2b 39 bd a8 ec d5 3c e0 5a 06 bc 27 1f 1e 3d
       -0.045207094 0.026113823 -0.008200377 0.038603928
000370 17 4d 63 3d 1a 95 09 3d 1f 43 89 bd ad d7 54 3d
       0.05549344 0.03358946 -0.067022555 0.051963497
000380 ff fa 3d bd 6c b4 03 3d 24 2f a4 3b 0f 25 7e bd
       -0.046381947 0.032154486 0.0050105024 -0.06204706
000390 92 23 3d 3d 49 db e4 bc 20 11 5c bd 56 4f 08 3d
       0.0461765 -0.027936595 -0.05372727 0.033278786
0003a0 da 5e 39 bc 3b 02 ab bc 6b 0a e4 bc 21 b2 37 3d
       -0.011314118 -0.020875087 -0.027836999 0.04484761
0003b0 3d 0a a1 3d f8 ee da bc a9 37 59 bd af 5a 0c bc
       0.07863281 -0.026725277 -0.053031597 -0.0085665425
0003c0 68 36 72 3a 8c b8 d6 3c 34 fc 97 bd 11 61 97 3d
       0.00092396745 0.026211046 -0.07421151 0.07391561
0003d0 22 5d 59 bc 5d eb 7b 3d 78 fd 84 3d 65 54 6a bc
       -0.0132668335 0.061503757 0.06493658 -0.014302348
0003e0 90 2f 4d 3d e6 6c c1 bc e4 29 84 3d ae 58 4a 3b
       0.050094187 -0.023611497 0.064533025 0.003087561
0003f0 83 e6 be bb 76 c7 0e bc 4d 18 4c 3b 9b e8 4e 3d
       -0.005825819 -0.008714547 0.0031142414 0.0505148

mean.weight f4 [2, 256]
000000 9d b6 68 3b 33 35 7e 3d 27 48 ca bd 21 8e 09 be
       0.0035509237 0.062062453 -0.09877043 -0.13433124
000010 3b 6f cd 3d 90 1e cb 3d a9 3f 38 3d 9e 9c 77 bd
       0.10030981 0.09917939 0.044982586 -0.060452096
000020 10 13 ce bd a4 14 e4 bc c6 6e b3 3d bf 23 f4 bd
       -0.1006223 -0.027841873 0.08761363 -0.119208805
000030 ea cf 4e bd c3 fa ce bd 62 bf 7a 3d 4f 01 b0 bd
       -0.05049125 -0.10106423 0.061217673 -0.085939996
000040 1e 1c 1e bd 89 b0 cc bc 52 80 09 bd 26 d7 15 bd
       -0.038601033 -0.024986522 -0.03356964 -0.036582135
000050 df ec 00 bd 08 2e 2a bc 0b 3b 9c 3d d7 7d db 3c
       -0.031475898 -0.010386951 0.07628449 0.026793404
000060 32 e7 c9 bd 1d 39 aa bd 83 3a 09 be 19 77 a6 3d
       -0.0985855 -0.08311675 -0.13401227 0.08128185
000070 3e be f2 bd a6 d0 8a bc fe d2 ac 3b cf 97 49 3e
       -0.11852692 -0.016945194 0.0052741757 0.19686817
000080 9b 02 24 bd 07 fb 3c bc b9 a6 37 3d 44 ba 38 3d
       -0.040041547 -0.011534459 0.044836733 0.04509951
000090 49 dd ed bb 9a 9e 41 3d af 9c 36 bd 9e 29 25 3e
       -0.0072590453 0.047270395 -0.04458302 0.16129157
0000a0 78 3b 56 3c 5e dc 46 bd 70 a3 18 3e 47 6a 3e bd
       0.013075702 -0.048550002 0.14906096 -0.046488073
0000b0 37 c0 36 bc 39 5e b6 bc a5 db 21 3d db e6 a9 3c
       -0.011154226 -0.022261726 0.03951611 0.020739963
0000c0 7a f8 f9 3c 00 b5 96 3d 83 53 03 3e e5 56 f8 3d
       0.03051399 0.07358742 0.12824826 0.12125949
0000d0 4a 11 24 be cd bb 2b be 40 c1 7d ba 9b 3b 9c bd
       -0.1602222 -0.16770859 -0.00096799806 -0.07628556
0000e0 be f4 10 3e 45 3c 8a bd 20 f7 b2 3d 59 74 63 3d
       0.14155862 -0.06749777 0.087385416 0.05553088
0000f0 da 52 e7 bd a4 47 44 bd 6d 81 8d bd 8e d8 13 3d
       -0.112950996 -0.047919884 -0.06909452 0.036095195
000100 8f b3 ba bd 6f e1 12 3e 04 6a ff bc 98 ca df 3d
       -0.09116279 0.14343809 -0.031178482 0.109273136
000110 ad 7d 05 bd 93 2d 7a bd 04 05 2b bc a6 37 8b bd
       -0.032590557 -0.06107862 -0.010438208 -0.067977235
000120 da 55 2a be f2 1c 5f 3d 32 4b e1 bd 7a 26 0e be
       -0.16634312 0.054470964 -0.110006705 -0.13881865
000130 bc 5d 5d bd e3 31 d3 3d db ab 66 bd 6e 1a 07 bd
       -0.05404447 0.103122495 -0.056316238 -0.03298419
000140 41 05 cd bd d7 a0 aa bb 45 85 81 bd 04 85 a9 bd
       -0.10010768 -0.005207162 -0.06324247 -0.08277324
000150 f7 a0 79 bd 11 b2 ce bd 25 84 9f bd d1 68 65 bb
       -0.060944524 -0.10092557 -0.077888764 -0.0035005102
000160 7f 29 80 bd 9d 05 c3 bd fc d3 0d 3e d7 10 2c bd
       -0.06257915 -0.09522555 0.13850397 -0.042008247
000170 bc c8 fe 3d ea 73 7c 3d 9a 87 40 bd 7e b7 2a 3e
       0.12440631 0.06163398 -0.04700432 0.16671559
000180 e7 f0 de 3c cb 38 01 3d 0b 78 e2 bc 32 06 c5 bc
       0.02721448 0.031548303 -0.027645132 -0.024050806
000190 97 93 94 3d f4 66 71 3d c8 0c bc bd 44 02 32 3c
       0.07254713 0.058936074 -0.09182125 0.010864798
0001a0 ec a5 58 3d d1 1a 87 3d a8 49 d8 bb 09 47 97 bc
       0.05289261 0.06596912 -0.0066005774 -0.01846649
0001b0 46 3e 40 bd e7 95 15 be ff 97 65 bc be c7 bd 3d
       -0.04693439 -0.14607964 -0.0140132895 0.092666134
0001c0 e6 bc b6 bd a9 92 f3 bd 9a 2d 04 3d d4 f8 a4 bc
       -0.08922748 -0.118932076 0.03227005 -0.020138182
0001d0 be b0 f6 bd 5f 86 cb bd 26 df ae 3b 1c 19 8b bd
       -0.1204543 -0.099377386 0.00533666 -0.067918986
0001e0 c5 10 65 3d 77 9c f3 bd e9 c1 80 bc ba 0b 07 be
       0.055924196 -0.11895078 -0.015717464 -0.13188067
0001f0 5e a6 be bd fe 30 01 3e 55 d3 82 3c 14 8a b4 bd
       -0.09309076 0.12616345 0.015969912 -0.08815399
000200 bf 8b 0e bd 91 30 8c 3d 41 f1 f6 bd e4 ab 5f bd
       -0.03480124 0.06845201 -0.12057734 -0.054607287
000210 2f 49 04 bd 99 0d 88 3d a6 53 a8 3c 08 80 34 bd
       -0.032296356 0.066432185 0.0205477 -0.044067413
000220 7d 1d 89 3d ca bc 0e 3c 8f 71 1d bd 0a 26 2e be
       0.066950776 0.008712003 -0.038438376 -0.17006698
000230 a2 99 e5 bd 11 47 4f 3c 97 10 cd 3d 36 b2 0a be
       -0.11210944 0.012651221 0.1001293 -0.13544545
000240 f6 c7 f4 bc df eb f1 bd 44 24 35 3d 7f 0d fe bd
       -0.029880505 -0.11812567 0.04422404 -0.12404918
000250 20 31 06 3e 40 c9 0c 3e eb 98 07 3d af 9a dd bd
       0.13104677 0.13748646 0.03310482 -0.10820519
000260 70 00 9e 3c ac b7 43 3d a1 a1 c9 3c ff 7f ed 3c
       0.019287318 0.047782585 0.024613203 0.028991697
000270 a0 0a 37 3d e0 33 d0 bd ce f6 91 3a 74 71 82 3d
       0.044687867 -0.10166144 0.0011136176 0.06369296
000280 cd e6 1d 3d a2 bd bf 3d 32 a6 b3 bd 0e 38 da bd
       0.038550187 0.093623415 -0.087719336 -0.10655223
000290 77 64 80 bb f7 c0 56 bd c6 b3 dd bd ee 16 08 3e
       -0.0039182263 -0.05243012 -0.10825305 0.13289997
0002a0 8c 71 1d bb b7 78 8b bd c4 11 5a 3e 46 40 6f bd
       -0.0024023978 -0.06810134 0.2129584 -0.058410905
0002b0 44 10 4a 3d d7 0c b6 bd 70 f2 75 bd a7 2e c8 bd
       0.04933192 -0.08889168 -0.06004566 -0.09774523
0002c0 24 7b 51 bd b9 24 0a 3a 1f 60 35 bd 59 15 9a 3d
       -0.051142827 0.00052697543 -0.04428112 0.07523603
0002d0 32 37 96 3d 86 95 32 3d 1d 5f 1a be da 0b 9f 3d
       0.073347464 0.043599628 -0.15075345 0.077659324
0002e0 bd 19 24 3c e7 2c 96 3d cc f6 29 3d f6 7d e6 bd
       0.010015902 0.07332783 0.04149513 -0.11254494
0002f0 00 aa ce bd c5 6b 02 3e 70 b8 ab 3d 75 a9 68 3d
       -0.10091019 0.12736423 0.08384788 0.05680223
000300 be 7c d9 3d 65 b6 13 be ce 93 67 bd 52 7e 33 3d
       0.10619496 -0.14425047 -0.056537442 0.04382164
000310 32 82 1d 3e 92 5f 0c 3d 8d 65 03 bd 34 3d 62 bd
       0.15381697 0.03427083 -0.03207927 -0.05523415
000320 75 42 88 3d 9e 4f 91 3d 2f 25 1d 3d 73 82 1b be
       0.06653301 0.07095264 0.03836554 -0.15186481
000330 f7 18 bf bd 50 13 5c bd 91 56 fd 3d 09 7a 8d bd
       -0.093309335 -0.053729355 0.12370027 -0.06908042
000340 cf cf ac 3d 70 09 c0 3d 34 8c 55 3d a4 70 30 bd
       0.08438074 0.093768 0.05213566 -0.043076172
000350 47 dc ef 3d 22 bd 60 3d 44 79 aa 3d bf f6 e9 bc
       0.117119364 0.05486787 0.08323911 -0.02856004
000360 e1 fc 9c bc 22 d3 18 3e 90 cf d3 3c 92 bd c1 bc
       -0.01916355 0.14924291 0.02585581 -0.023649964
000370 77 c3 80 bd 00 6b 00 be 5f 9b 02 3e 9a 25 eb bd
       -0.06287282 -0.12540817 0.12754582 -0.11481781
000380 69 15 16 bd e7 8b c2 3d 10 49 13 3d 79 e4 4b bc
       -0.036641512 0.094993405 0.03595835 -0.012444609
000390 4f 30 52 bc 22 f5 28 be 46 35 49 bc f4 52 90 bd
       -0.0128289005 -0.16499761 -0.012280768 -0.07047072
0003a0 01 d3 17 3e f8 b6 59 3c bd 80 a2 3d 31 3a da 3d
       0.14826585 0.013288252 0.07934711 0.106556304
0003b0 da 19 29 3e 27 85 ba ba c7 b8 18 bd 1f f4 87 3d
       0.16513768 -0.0014230356 -0.037285592 0.06638359
0003c0 35 f9 6a bd ac 48 e1 3c 46 4a 8e 3e 0f 37 1d bc
       -0.05736657 0.027500473 0.2779104 -0.0095956465
0003d0 58 47 62 3d 2d ae a2 bd 1e 7e 9d bd 94 2c bc bd
       0.05524382 -0.07943378 -0.076900706 -0.0918819
0003e0 e0 e5 c3 3c f1 6c b3 bd aa 60 26 3e 0c dd 50 bd
       0.023913324 -0.08761013 0.16247812 -0.050992057
0003f0 e6 70 ef 3d 24 0c 24 3e da b5 cf bd 2f 64 5f 3d
       0.116914555 0.16020256 -0.10142107 0.054538902

mean.bias f4 [2]
000000 04 5e fd ba fb 53 74 bd
       -0.0019330387 -0.059650403

log_std.weight f4 [2, 256]
000000 f7 d9 27 be bd f2 18 bd f9 68 20 bd 55 2b 31 bd
       -0.1639174 -0.03734087 -0.03916261 -0.043254215
000010 d2 6b 5c bd 34 2f 5c bd d7 88 3d 3d 19 9a 23 3c
       -0.053813763 -0.053755954 0.04627308 0.00998547
000020 ef 61 94 3d 04 c1 d6 3c f9 92 e2 bc e7 1b 99 bd
       0.07245242 0.026215084 -0.027657973 -0.07476025
000030 45 b1 99 bc 3e 60 e1 ba 37 e8 4c bd a6 b8 83 3d
       -0.018761287 -0.001719482 -0.050026145 0.06431703
000040 85 ac 78 bd 22 c0 3a bd ff 5d 77 bd c0 59 26 bc
       -0.060711402 -0.04559339 -0.060392376 -0.010153234
000050 de a0 37 3c 01 13 21 3d cc ff 3f bd 87 0e 34 bd
       0.011207787 0.039324764 -0.046874806 -0.043959167
000060 5d 04 85 3d 6a 6c 5a 3d 0b 4a 2c bc 04 50 86 bc
       0.06494973 0.053326048 -0.0105157 -0.016395576
000070 03 1a 07 bc 48 ec 41 bd 51 a0 78 bd 7f 66 00 bd
       -0.008245948 -0.047344476 -0.060699765 -0.031347748
000080 11 c9 0e bd 9c c6 ca bc 4b 5f 0e bd b2 97 b8 bd
       -0.03485972 -0.024752907 -0.034758847 -0.090133086
000090 76 c9 94 3c da 08 14 bd 31 d8 b2 bc 34 de d1 3d
       0.01816247 -0.036141254 -0.021831604 0.1024746
0000a0 48 c0 b0 bd 8d 9b 97 3d 6c a6 94 ba 0b 26 34 3d
       -0.08630425 0.07402716 -0.0011341101 0.043981593
0000b0 32 95 3b 3d cf dd 45 3d eb 18 ca 3c b9 60 b2 3c
       0.04579658 0.048307236 0.024670085 0.021774637
0000c0 f6 a7 8f bd e4 ac 96 3c 81 1b 41 bc c5 48 c1 3c
       -0.07014458 0.018392988 -0.011786343 0.02359427
0000d0 df 41 7f 3c 9d 2d 7a bd 05 4c eb bc be e4 01 3d
       0.01557967 -0.061078656 -0.028722772 0.031712286
0000e0 af 55 4b 3d b8 84 e7 3d e0 b3 c7 bd 7c ae dc bd
       0.04964226 0.11304611 -0.09751105 -0.10775468
0000f0 6d 0b de 3d 68 8c 51 bc 7a ed 17 3d 87 30 e1 bd
       0.10842023 -0.012789823 0.03709171 -0.10995584
000100 5e 88 8a bd 2e a2 54 3d 5b 9d d7 bd 31 99 d7 3d
       -0.06764291 0.05191248 -0.1052806 0.10527266
000110 92 0e 77 3c e1 16 f8 bc bf cc 90 bd b1 69 ed bc
       0.015079157 -0.030284347 -0.07070302 -0.028981062
000120 d1 ca 8c 3c ba ee 5c bd 80 84 d8 bd 41 07 e0 3c
       0.017186554 -0.053938605 -0.10572147 0.027347209
000130 e9 3d 65 bd 64 9d 9a 39 df 32 fb 3a 3d 74 ac 3d
       -0.055967245 0.00029490434 0.0019164941 0.08420608
000140 e4 6a e4 bd 38 e5 69 3d 8e d9 70 bd 36 56 53 bc
       -0.111532 0.057103366 -0.058801226 -0.012898972
000150 e3 15 3d bd c3 af f6 3d dd 64 a7 3c fc 50 f4 bd
       -0.04616345 0.12045243 0.020433838 -0.11929509
000160 ec 1e fe bb af 95 fc 3c 8d 4c 8e bc f4 c9 69 bd
       -0.007755151 0.030833093 -0.017370487 -0.057077363
000170 b4 9b 5b bd 80 51 67 bd c0 84 6b 3c e1 96 cd 3d
       -0.053615287 -0.05647421 0.014374912 0.100385435
000180 3a f1 2f bd ad 8b a8 3c 13 47 0a bc 12 ab 53 bd
       -0.04295466 0.020574415 -0.008439797 -0.051676817
000190 a8 09 5f bd a1 73 20 3d a9 7f 03 3c 63 78 bf bc
       -0.05445257 0.039172772 0.008026042 -0.023372835
0001a0 a1 dc 7c bc 16 29 ad bd dc 80 42 3c a1 e3 50 3d
       -0.015433461 -0.08455102 0.011871543 0.050998334
0001b0 ae 1b 4f 3d 63 f8 d1 3c 39 47 08 bc 03 10 e1 3d
       0.050563507 0.025631135 -0.008317762 0.10989382
0001c0 9b f7 85 bd e5 d9 21 3d d0 8c 60 bc 58 2b 5e bd
       -0.065413676 0.03951444 -0.013705447 -0.054240555
0001d0 f7 88 a3 bb 7e 0f b3 3d d4 c6 4d bd 77 a2 49 bd
       -0.0049906927 0.08743189 -0.050238445 -0.049227204
0001e0 1c 55 1f 3a 44 5d 83 bc f5 98 a7 3d 73 b1 c2 3a
       0.0006078051 -0.016035683 0.08183471 0.0014853909
0001f0 71 15 c7 bd 69 2a 48 3c 04 54 c5 3d 72 2b 9d ba
       -0.097208865 0.012217143 0.09635165 -0.0011991097
000200 92 2a 0c bd 48 20 bb bd e0 d9 9d bd 14 3b 4c 3d
       -0.034220286 -0.091370165 -0.07707572 0.04986103
000210 67 c7 9d bd bc 87 23 3d f6 31 99 3c 8f b5 81 bd
       -0.077040486 0.03992437 0.018700581 -0.06333458
000220 18 fb 96 bd 08 62 c4 3c d9 84 91 3d 68 c7 08 be
       -0.07372111 0.023972526 0.07105417 -0.13357317
000230 f9 16 c6 3d 09 eb 6c 3d 9c 82 38 bd 5b 1a e2 3c
       0.096723504 0.057841334 -0.045046434 0.027600458
000240 17 29 ab bd 92 08 be bd 65 7f 41 bd 5d 7d ef bc
       -0.08357447 -0.092789784 -0.047240634 -0.029234583
000250 26 a2 ef bc c4 f4 4b bc 0f d3 39 bd 9a af f8 bc
       -0.029252123 -0.012448493 -0.045367297 -0.03035717
000260 e4 51 3a 3d c5 a5 bb 3c cb 86 c9 bd 5c 33 c9 bc
       0.045488253 0.022906194 -0.09840163 -0.024560623
000270 08 66 07 3d 4c ee 68 3d 78 5d 73 3d fb 84 22 bd
       0.03305629 0.056867883 0.05941531 -0.0396776
000280 63 35 db bd 0c 4d 99 3c 57 e0 43 3c 19 09 1b 3d
       -0.10703542 0.018713497 0.011955342 0.037850473
000290 20 85 36 bc 0c 47 d0 bd 05 9b 9b bd 32 0b 0b 3d
       -0.011140138 -0.10169801 -0.07597927 0.033946224
0002a0 92 35 aa bc 68 9a 15 bd bb 5f 8f 3d f1 4d 83 bd
       -0.020777497 -0.036524206 0.07000681 -0.064113505
0002b0 2f 0b b8 bc b8 b7 98 3d ee 17 02 bd 87 9b ef 3d
       -0.02246627 0.074569166 -0.031761102 0.11699586
0002c0 21 54 6c 3a fc 2a 86 bd f0 9c cd bc 25 5e 2c bd
       0.0009015222 -0.06551167 -0.025099248 -0.04208197
0002d0 08 cc c4 bd de 3b 6c bd 62 3e a6 3b 42 46 24 bd
       -0.096092284 -0.05767428 0.0050733546 -0.040106066
0002e0 3a 66 cb bd 26 8d 47 bd 93 bb bc bd d9 f2 19 bc
       -0.099316075 -0.048718594 -0.092154644 -0.009396278
0002f0 cf 88 3e 3d e0 c7 36 3d 69 fd de bd 37 ad b1 3c
       0.04651719 0.04462421 -0.10888178 0.02168904
000300 4d 19 22 3c 00 32 6c 3d 9e 51 52 3d e1 40 2f 3d
       0.0098937275 0.05766487 0.051347367 0.042786483
000310 ad da 19 3c a6 3b 37 3c 0a f9 ca bc cc 29 a6 3c
       0.009390515 0.011183655 -0.024776954 0.020283602
000320 21 ef e0 bd 1b 4c 11 bb 87 22 e8 bc 33 95 e8 bd
       -0.1098311 -0.0022170607 -0.028336776 -0.113565825
000330 6c 65 bc bd 19 53 b6 bd 54 72 4b be 27 8f c3 bd
       -0.09199032 -0.08902568 -0.19867831 -0.095487885
000340 60 a0 7b 3d b0 b2 f8 bc 43 9e f8 bc d4 5a 04 3d
       0.061432242 -0.030358642 -0.030348903 0.032313183
000350 eb 9c 86 3c 4e 56 29 bd fb c3 92 bd 50 26 2a 3d
       0.016432246 -0.041342072 -0.071662866 0.041540444
000360 b8 ee af bd 8d 9d b2 3d 0c 63 ff 3c 80 98 cc 3c
       -0.08590454 0.08721457 0.031175159 0.024975061
000370 34 d7 9a 3d 64 8c 46 3d a5 1a 09 bc a6 c4 e4 bd
       0.07560578 0.04847373 -0.008368169 -0.1117032
000380 de 4d 3f bd 5c 29 59 bb d3 2a f3 3d d9 ca 9c 3c
       -0.04670512 -0.0033136224 0.118734024 0.019139694
000390 57 c3 7b bd 2e 8a 41 3d 07 72 ae bd 6a 5f 51 3d
       -0.061465587 0.04725092 -0.08517843 0.051116385
0003a0 e8 72 7a bd 79 52 47 bc 60 e6 f5 3c 47 8d 18 3c
       -0.06114474 -0.012165659 0.030017078 0.009311027
0003b0 4a 90 f4 bc 4b 02 18 3d fa e8 20 bd db 3c 03 bd
       -0.029853959 0.03711156 -0.039284684 -0.03204046
0003c0 0d e9 59 bc 87 2e ec bb 48 ac b2 bd ec de 28 bd
       -0.013300193 -0.007207695 -0.08724266 -0.04122822
0003d0 05 10 5f bc 21 ff f6 ba 47 33 82 3d 7c 66 f3 3d
       -0.013614659 -0.0018844345 0.063574366 0.11884782
0003e0 4c 65 6a 3d 51 ad 82 3b 02 01 16 3d 7b ca a2 3d
       0.05722551 0.003987946 0.036622055 0.07948776
0003f0 d2 d5 3a be 6d 01 aa bc 43 64 6c 3d 86 a4 2a 3c
       -0.18245628 -0.020752633 0.057712805 0.010415202

log_std.bias f4 [2]
000000 f9 a2 33 bc 8a 4c 90 bc
       -0.010964149 -0.017614622
