sac/SAC_LunarLander_ep500.pth (torch, 279784 bytes, 8 tensors)

fc1.weight f4 [256, 8]
-0.07351801 0.11490274 0.5064404 0.4448463 -0.24103342 -0.6461847 -0.6453297 0.20227045
-0.15724947 0.020546382 -0.13040243 0.027570022 -0.8773917 -0.06637698 0.5177525 -0.31135055
0.31401616 0.051941615 0.48418504 0.5454689 -1.1079719 -0.4562412 -0.23847966 0.1708736
0.3072805 -0.33901975 -0.078294046 -0.11017068 0.66819817 0.5453581 -0.03563537 0.03780057
0.22026436 -0.07760631 -0.28581393 0.20141092 0.4530895 -0.44523835 -0.45085078 0.29923257
0.18355301 -0.07252797 0.75553656 -0.08081573 -0.3341276 0.104235396 0.29310742 -0.30460653
0.1173397 0.01676233 -0.13178204 0.9833155 0.15823545 0.69671774 0.17919704 -0.3107784
0.2464146 0.56097364 0.05981476 -0.35417226 0.10666504 0.1709633 0.15756853 -0.28162616
-0.51519686 0.098027356 0.095080175 0.39614746 -0.33679783 0.066101894 0.3689451 0.045048904
0.17789991 0.21171962 -0.18078801 -0.30602306 0.3853453 0.85295695 -0.31684557 -0.24928202
0.41838813 0.42320737 -0.11970066 0.40218145 0.33259705 -0.018424628 -0.44271037 -0.35340807
-0.34291127 0.21563022 -0.009604466 0.46970794 0.28466067 0.2822509 -0.11077547 0.19902222
0.4125343 0.29211238 0.2715513 0.14690256 -0.31815207 -0.034318704 -0.1862284 0.38549137
0.16027881 -0.10824599 0.799627 0.07270626 -0.64369553 0.8483459 0.39028266 -0.49718398
-0.20181865 -0.3972593 -0.30038887 -0.34696835 0.07267081 0.45848808 0.13218893 -0.23635714
0.11745598 -0.3211236 -0.028155472 -0.13396336 0.8005038 0.4236619 0.29008326 -0.24463148
-0.0035839987 0.100678235 0.1841245 0.84428656 -0.09353959 -0.13486673 -0.15827867 -0.13589889
0.12394551 -0.22666556 0.61329573 -0.13102737 0.66857 0.39137307 -0.07386547 -0.12159596
-0.19023812 -0.18767254 -0.46733344 -0.39321274 -0.29704037 0.038807433 0.2901983 -0.33095995
0.64819527 -0.17207041 0.13353309 0.2491771 -0.09072072 0.20028771 -0.74562365 0.0027941226
-0.08023666 0.3652175 0.8183243 -0.12745702 -0.14690997 0.18666707 -0.12721546 -0.4539575
0.06543712 -0.81161696 0.32822803 0.16662338 0.1326602 0.10935105 0.01195787 0.3264467
-0.059277393 -0.16763504 0.06733308 1.0171428 -1.0034447 -0.11810412 0.08066203 -0.117656015
0.10850794 -0.24127512 0.63218707 -0.48311698 -0.14066587 0.21257779 -0.46061307 0.066104725
0.5629612 0.02348136 -0.5782545 -0.11504449 -0.22612804 0.21338116 -0.24731113 -0.13639551
0.35258245 0.34062055 -0.2221246 -0.5013029 0.6484672 -0.32494655 0.2465048 -0.2748533
-0.16038987 -0.73232573 0.4192709 -0.28457332 -0.1848088 -0.31027874 -0.27236903 0.1984944
0.5999342 0.025114192 0.7276713 -0.48636737 0.0869976 -0.036661528 -0.08144464 -0.6470755
0.20601082 0.3564743 -0.4409004 -0.36409146 0.04193635 -0.30034983 -0.20530061 0.060845226
-0.04321006 -0.06276041 -0.5662807 -0.39553517 0.2979822 -0.048826665 0.36318827 0.1083434
0.41995668 -0.628794 -0.04121497 -0.22032389 -0.036151078 0.28965747 -0.3926449 -0.5381846
0.0977649 0.30491284 -0.11318161 0.06481111 0.6154135 0.68041635 0.32337478 -0.15895993
00000000: 9c90 96bd 2152 eb3d 14a6 013f e5c2 e33e
00000010: 77d1 76be 5c6c 25bf 5434 25bf fc1f 4f3e
00000020: 0106 21be e350 a83c 3788 05be 87da e13c
00000030: be9c 60bf a7f0 87bd 6e8b 043f 5769 9fbe
00000040: bac6 a03e bbc0 543d 1ae7 f73e daa3 0b3f
00000050: 06d2 8dbf 7298 e9be 0334 74be 7df9 2e3e
00000060: df53 9d3e ff93 adbe a158 a0bd 2aa1 e1bd
00000070: 090f 2b3f 979c 0b3f 65f6 11bd c5d4 1a3d
00000080: fb8c 613e 0ff0 9ebd 3456 92be aa3e 4e3e
00000090: 59fb e73e 48f6 e3be ead5 e6be 0335 993e
000000a0: 52f5 3b3e 8b89 94bd d86a 413f b882 a5bd
000000b0: c612 abbe 5e79 d53d 2d12 963e 63f5 9bbe
000000c0: cc4f f03d 2751 893c dff1 06be 91ba 7b3f
000000d0: 7908 223e 185c 323f 6e7f 373e 591e 9fbe
000000e0: 1c54 7c3e f89b 0f3f 5200 753d 1156 b5be
000000f0: 3373 da3d 0111 2f3e a559 213e 4e31 90be
00000100: f1e3 03bf 91c2 c83d 65b9 c23d d7d3 ca3e
00000110: c470 acbe 6e60 873d 5fe6 bc3e 3385 383d
00000120: 652b 363e 07cd 583e 7e20 39be 0eaf 9cbe
00000130: fb4b c53e 635b 5a3f 9539 a2be c943 7fbe
00000140: f836 d63e a3ae d83e 9f25 f5bd baea cd3e
00000150: 294a aa3e 3fef 96bc efaa e2be e7f1 b4be
00000160: 1192 afbe 2bce 5c3e 0d5c 1dbc 8f7d f03e
00000170: 0bbf 913e 3183 903e 40de e2bd 7bcc 4b3e
00000180: b237 d33e c18f 953e c608 8b3e a06d 163e
00000190: d4e4 a2be c591 0cbd a8b2 3ebe 205f c53e
000001a0: 2120 243e 13b0 ddbd 5bb4 4c3f 05e7 943d
000001b0: 3bc9 24bf 322d 593f 21d3 c73e e68e febe
000001c0: 8ca9 4ebe 9265 cbbe 92cc 99be d6a5 b1be
000001d0: 6fd4 943d f3be ea3e 895c 073e 9b07 72be
000001e0: c38c f03d 506a a4be 4ea6 e6bc b12d 09be
000001f0: d1ed 4c3f 36ea d83e cb85 943e ad80 7abe
00000200: 85e1 6abb 6430 ce3d 228b 3c3e 2a23 583f
00000210: af91 bfbd 811a 0abe ce13 22be 1429 0bbe
00000220: 25d7 fd3d 041b 68be f300 1d3f 0a2c 06be
00000230: 6727 2b3f 0d62 c83e c846 97bd 4d07 f9bd
00000240: c8cd 42be 3b2d 40be 5446 efbe 2e53 c9be
00000250: ad15 98be 8bf4 1e3d df94 943e 9573 a9be
00000260: 20f0 253f 3a33 30be e6bc 083e 4828 7f3e
00000270: c9cb b9bd 3918 4d3e 31e1 3ebf 991d 373b
00000280: 1e53 a4bd cafd ba3e b47d 513f 1884 02be
00000290: 916f 16be a725 3f3e c544 02be 1e6d e8be
000002a0: e603 863d 21c6 4fbf 810d a83e 529f 2a3e
000002b0: 13d8 073e 71f3 df3d f1ea 433c 0624 a73e
000002c0: dacc 72bd 85a8 2bbe ede5 893d bc31 823f
000002d0: e070 80bf 93e0 f1bd 2232 a53d a3f5 f0bd
000002e0: 6939 de3d d310 77be 03d7 213f 1c5b f7be
000002f0: b70a 10be fead 593e 7ad5 ebbe ea61 873d
00000300: 3a1e 103f fb5b c03c 7d08 14bf 729c ebbd
00000310: 1c8e 67be 9780 5a3e 213f 7dbe 44ab 0bbe
00000320: b085 b43e d165 ae3e a274 63be 6355 00bf
00000330: f201 263f 655f a6be c16b 7c3e 92b9 8cbe
00000340: 3e3d 24be b379 3bbf adaa d63e 98b3 91be
00000350: 853e 3dbe dbdc 9ebe f473 8bbe 1e42 4b3e
00000360: 4a95 193f 47bc cd3c ab48 3a3f 2505 f9be
00000370: cc2b b23d 662a 16bd 73cc a6bd bda6 25bf
00000380: 80f4 523e cd83 b63e b2bd e1be 326a babe
00000390: 73c5 2b3d 74c7 99be 533a 52be d838 793d
000003a0: 08fd 30bd 8888 80bd c6f7 10bf 9683 cabe
000003b0: 1f91 983e 78fe 47bd d0f3 b93e 25e3 dd3d
000003c0: 9004 d73e a5f8 20bf 07d1 28bd 969c 61be
000003d0: 2713 14bd fc4d 943e c108 c9be 77c6 09bf
000003e0: f738 c83d 891d 9c3e c3cb e7bd b0bb 843d
000003f0: bd8b 1d3f c42f 2e3f 6191 a53e 64c6 22be

fc1.bias f4 [256]
-0.14065588 -0.058132503 0.007220932 0.11657334 0.29320648 0.03474605 0.067627124 -0.31608415
-0.055687435 -0.37324467 0.011906685 -0.0075865635 0.0138141485 0.020823305 -0.44211578 -0.16090786
0.15267737 0.13501318 0.056918137 -0.07577859 0.01475991 0.11898038 0.011904177 0.2683386
-0.044939034 -0.20141499 -0.16955234 -0.17085318 -0.07495786 -0.22068585 -0.026685068 -0.14010249
0.22893067 -0.023187533 0.0004454768 0.19120847 0.16712922 0.06457433 0.013758569 -0.2523911
0.06680523 -0.34629914 0.02335371 0.11567673 0.039671246 0.14151691 0.24000277 -0.24055931
0.06810793 0.020801645 -0.094463386 -0.32372978 -0.20472082 0.05895423 -0.07956859 0.06341777
0.1162687 -0.057760015 0.01857575 0.11017184 0.00017430092 -0.106255524 -0.007588225 -0.19841866
0.0014164239 0.1838252 0.033955023 0.061829608 -0.10116898 0.07650359 -0.10221522 -0.13241512
0.10041494 -0.015371735 -0.032133527 0.05231772 0.22059466 -0.006416681 0.060587406 0.011017415
0.07937286 -0.053530935 -0.034131795 -0.17673121 0.08025952 0.13622272 0.13996835 -0.008994817
-0.13680273 -0.011198049 -0.3353918 -0.14216806 -0.27920684 0.05601174 -0.074164525 -0.23912528
-0.05553228 -0.02403176 0.074261464 -0.091737784 -0.10035409 0.02416548 0.093316615 0.10464509
0.14181729 -0.06303314 0.023770107 0.19061202 -0.037856467 0.08610053 0.003353159 -0.060996074
-0.09076134 -0.20630087 0.010000164 0.0016803679 -0.13032694 0.002796193 0.015364591 -0.20833634
0.096899934 -0.14136787 0.24542822 -0.011957935 0.061740603 -0.022742594 0.07433346 -0.00444974
0.08082158 0.051462647 -0.115959294 -0.18760824 -0.07193465 -0.07012727 0.066809 -0.2963062
0.16468689 0.08876432 0.16108377 0.02590068 -0.078513235 0.05959448 0.028206643 -0.06604051
0.19546732 -0.21027268 -0.07404481 -0.12194041 0.10372905 0.045146592 -0.26085278 -0.15161881
0.28618026 0.020600144 -0.059755612 0.009641343 0.09561065 -0.103416294 -0.027636465 0.29809937
0.00420635 0.16685814 0.07464181 0.07035323 -0.23170035 -0.2206854 -0.012027525 0.040067606
0.13076806 0.12267879 0.25383282 0.13767488 -0.19739331 0.008764745 0.10419322 0.06191405
0.0045314725 0.07671582 0.15025172 -0.22467372 -0.029236788 0.010627442 -0.020415558 0.08798953
0.26067957 0.058786172 -0.035111185 0.1798808 0.0338824 0.09592333 -0.10919818 -0.018255437
0.2565738 0.13381407 -0.12207272 -0.22417332 -0.120856926 0.060781665 0.2030395 0.1105628
0.06920025 0.14907825 0.2862866 0.22616082 0.017816538 0.0102096265 -0.044680044 0.00824882
0.025901739 -0.19196694 0.05263774 -0.013138341 -0.14651029 -0.2032666 0.12732644 0.03176527
0.032903656 -0.14025787 -0.040597763 0.055350296 -0.15553711 -0.21549788 -0.05192994 -0.08956058
0.15039831 0.103275605 0.2019564 -0.047677323 0.07298961 0.114996456 0.1066678 -0.014611713
0.04665117 0.080435716 -0.025022695 -0.06928493 -0.13210143 -0.07819006 -0.20067269 0.13446106
0.009305783 -0.03710902 -0.02981524 0.22804378 0.05020011 0.057169355 0.21650387 -0.26074916
0.0017559452 -0.061281536 0.004659813 -0.07470342 0.19375044 0.038944334 -0.00521476 -0.04303298
00000000: 1808 10be 591c 6ebd 919d ec3b 01be ee3d
00000010: 291f 963e e051 0e3d 1780 8a3d c8d5 a1be
00000020: 8218 64bd ed19 bfbe 4214 433c b598 f8bb
00000030: bd54 623c a395 aa3c 005d e2be 08c5 24be
00000040: 7557 1c3e e540 0a3e fe22 693d ce31 9bbd
00000050: 8dd3 713c fcab f33d bd09 433c ad63 893e
00000060: fe11 38bd bb3f 4ebe 219f 2dbe 23f4 2ebe
00000070: 8283 99bd 79fb 61be a59a dabc 0777 0fbe
00000080: cd6c 6a3e c8f3 bdbc e28e e939 27cc 433e
00000090: ec23 2b3e 8c3f 843d 9f6b 613c 6839 81be
000000a0: 2ed1 883d 1f4e b1be 4850 bf3c ece7 ec3d
000000b0: 517e 223d cfe9 103e 49c3 753e 2e55 76be
000000c0: 2c7c 8b3d 3668 aa3c 0576 c1bd e9bf a5be
000000d0: 56a2 51be fe79 713d dbf4 a2bd 2de1 813d
000000e0: 491e ee3d c495 6cbd 2c2c 983c c6a1 e13d
000000f0: 8cc4 3639 7f9c d9bd a5a6 f8bb 432e 4bbe
00000100: 4da7 b93a ac3c 3c3e 6c14 0b3d 0b41 7d3d
00000110: af31 cfbd eaad 9c3d 3756 d1bd d497 07be
00000120: 59a6 cd3d bbd9 7bbc 729e 03bd 1b4b 563d
00000130: 91e3 613e 0643 d2bb 802a 783d 6382 343c
00000140: 3d8e a23d 4143 5bbd c8cd 0bbd 07f9 34be
00000150: 1a5f a43d f87d 0b3e dd53 0f3e ff5e 13bc
00000160: 0416 0cbe 0678 37bc 79b8 abbe 8194 11be
00000170: 33f4 8ebe 916c 653d 92e3 97bd 42dd 74be
00000180: d175 63bd 41de c4bc 6516 983d 05e1 bbbd
00000190: 7286 cdbd aff6 c53c c81c bf3d 2a50 d63d
000001a0: 8d38 113e 8517 81bd 87b9 c23c cc2f 433e
000001b0: 620f 1bbd 7a55 b03d acc0 5b3b 05d7 79bd
000001c0: 15e1 b9bd 8940 53be bad7 233c ca3f dc3a
000001d0: 6d74 05be 5540 373b c4bb 7b3c 1f56 55be
000001e0: 7973 c63d bdc2 10be 8951 7b3e 37eb 43bc
000001f0: b7e3 7c3d ad4e babc 243c 983d 20cf 91bb
00000200: c985 a53d 7fca 523d 117c edbd 601c 40be
00000210: 7952 93bd e39e 8fbd 28d3 883d 72b5 97be
00000220: aea3 283e 11ca b53d 25f3 243e aa2d d43c
00000230: 8ccb a0bd 5719 743d 9e11 e73c 3f40 87bd
00000240: 9628 483e b951 57be cea4 97bd e5bb f9bd
00000250: e56f d43d a2eb 383d 7f8e 85be f641 1bbe
00000260: 3886 923e a2c1 a83c 4dc2 74bd b9f6 1d3c
00000270: 84cf c33d eccb d3bd de65 e2bc 7ba0 983e
00000280: 6cd5 893b dcdc 2a3e cedd 983d 5b15 903d
00000290: db42 6dbe 5afb 61be 190f 45bc ee1d 243d
000002a0: 10e8 053e 043f fb3d 60f6 813e a5fa 0c3e
000002b0: 7921 4abe 019a 0f3c 4163 d53d 9699 7d3d
000002c0: bf7c 943b 2f1d 9d3d 96db 193e de10 66be
000002d0: fd81 efbc b91e 2e3c 873e a7bc db33 b43d
000002e0: cb77 853e c5c9 703d bfd0 0fbd ac32 383e
000002f0: 45c8 0a3d 7373 c43d 4ca3 dfbd 6d8c 95bc
00000300: a45d 833e 8e06 093e 4301 fabd b18d 65be
00000310: d683 f7bd 32f6 783d 96e9 4f3e c06e e23d
00000320: dcb8 8d3d f8a7 183e 2894 923e b496 673e
00000330: fdf3 913c 4746 273c 6c02 37bd 0f26 073c
00000340: e22f d43c fb92 44be ac9a 573d 3242 57bc
00000350: cb06 16be 1f25 50be dd61 023e 4d1c 023d
00000360: fcc5 063d c29f 0fbe d749 26bd feb6 623d
00000370: 1f45 1fbe 7aab 5cbe 7db4 54bd 8a6b b7bd
00000380: 0402 1a3e 2982 d33d a9cd 4e3e 4c49 43bd
00000390: 947b 953d 4383 eb3d a674 da3d f765 6fbc
000003a0: 4c15 3f3d 7bbb a43d 65fc ccbc 42e5 8dbd
000003b0: 9945 07be 1c22 a0bd 247d 4dbe 29b0 093e
000003c0: 4877 183c a1ff 17bd 173f f4bc 4f84 693e
000003d0: a19e 4d3d 6a2a 6a3d 31b3 5d3e ea80 85be
000003e0: be27 e63a 5902 7bbd 58b1 983b 1bfe 98bd
000003f0: 8466 463e 1884 1f3d 94e0 aabb 5a43 30bd

fc2.weight f4 [256, 256]
0.19992939 -0.4210701 -0.19066985 0.027788477 -0.05186162 0.10465221 -0.19823419 -0.13472846
-0.2186731 -0.636075 0.084261864 -0.026933886 -0.040967554 -0.0653933 -0.42571795 0.47006515
-0.048109915 0.00931449 0.028044136 -0.18567005 0.1081314 0.01494806 -0.57261676 0.0385646
-0.008284567 -0.12612379 0.17918988 0.010172742 -0.48647007 -0.42856184 -0.5304243 0.08396707
-0.11081504 0.1224057 0.00909787 -0.045020897 0.11059967 -0.049233906 0.0035594075 0.14060394
-0.047081523 0.03511131 -0.064193025 0.14346407 -0.52356565 0.08065223 0.08160395 0.026810354
-0.16558842 -0.24712653 0.07412183 -0.4150395 -0.26738554 -0.58017963 -0.06822743 -0.011231606
0.09213669 0.12794082 0.31160173 0.028406618 0.032093987 0.052517764 -0.20568623 -0.57620466
-0.19940197 -0.26070973 0.113264546 0.040902883 -0.38479894 0.006745715 0.2737944 -0.21810867
-0.0032127148 0.045049928 0.019966764 0.073776014 -0.002529174 0.034699213 0.07256735 -0.27394342
0.099899724 0.0008260873 -0.027613524 0.022329886 0.09755107 0.05085505 0.063938305 0.011217554
-0.2348683 -0.005314653 -0.23887777 0.11454936 0.09809853 -0.03929124 0.14281067 -0.050435506
-0.012543268 -0.29883626 -0.14086992 -0.4605018 -0.47131646 -0.11159804 -0.037889406 -0.034664683
-0.15859345 0.056425784 -0.054944392 0.0069071315 0.2831143 -0.18384433 -0.08151336 -0.75501996
0.029283939 -0.6880639 -0.03602164 -0.15739238 0.045058105 -0.2896087 -0.014197597 -0.6497002
-0.036157615 -0.16459934 -0.25816163 0.11273302 0.09935896 0.0014722232 0.09506878 -0.10688577
0.00094376056 -0.21072522 0.0020869917 0.032729287 0.1801994 0.048737943 -0.13923949 0.06407321
-0.06721899 -0.015597256 0.03121656 0.3770302 0.004503788 -0.4409378 0.05944173 0.20611215
0.020069653 -0.043510318 0.18181188 0.18842581 0.12736431 -0.012480662 -0.3015884 0.30864504
0.0038262687 -0.9267001 -0.26594144 0.03686391 -0.049645744 0.115449466 0.37735245 -0.028061656
0.11800818 -0.102626204 -0.044891704 -0.20532304 0.072442524 0.061840013 -0.013111847 0.3285161
-0.21108988 -0.012864803 -0.031925347 -0.07115014 -0.083394215 0.009569811 -0.13087614 0.15660205
-0.11225678 -0.26542678 0.053737774 -0.13598308 -0.021889988 -0.34247112 0.011173603 0.02226756
0.0026858412 -0.10957175 0.034783944 0.19886197 0.06710588 0.021570662 -0.06316948 -0.13485344
-0.0044464297 0.0628513 0.17882288 0.12636799 0.0060858275 0.07769104 -0.05366541 0.0051733176
-0.13499273 -0.3276809 -0.030173607 -0.049573407 -0.042697713 -0.08091138 -0.026425412 -0.10807096
-0.21390305 0.1026658 -0.9912259 0.23455884 -0.24164519 0.040188193 0.03157542 0.10306936
-0.19590802 0.08465718 0.07937815 -0.47308648 -0.3322904 -0.44962847 -0.29502785 -0.040453255
0.030412676 0.20838909 -0.26622322 -0.026390819 0.009054914 -0.03144616 0.11134782 -0.10234112
-0.2913937 -0.2630358 -0.015086894 -0.48898143 0.027079497 0.032800347 0.01624216 0.06797232
0.0036783936 0.12878938 -0.022578264 -0.19323468 -0.0036314223 -0.11830251 0.077396266 -0.1451188
-0.16713117 -0.23323718 -0.3384431 -0.8977793 0.10822615 -0.1938399 -0.25800386 0.06631772
00000000: 4aba 4c3e 8096 d7be f53e 43be a9a4 e33c
00000010: da6c 54bd e653 d63d e7fd 4abe 42f6 09be
00000020: d7eb 5fbe d0d5 22bf 7c91 ac3d 74a4 dcbc
00000030: 98cd 27bd ecec 85bd b4f7 d9be 61ac f03e
00000040: e70e 45bd cd9b 183c d1bc e53c 4a20 3ebe
00000050: ff73 dd3d b5e8 743c 0397 12bf eaf5 1d3d
00000060: febb 07bc 9826 01be 8d7d 373e 93ab 263c
00000070: 9b12 f9be 756c dbbe e3c9 07bf edf6 ab3d
00000080: fff2 e2bd d7af fa3d 3c0f 153c d567 38bd
00000090: 1482 e23d 7ea9 49bd f344 693b 7bfa 0f3e
000000a0: 8ed8 40bd e1d0 0f3d a277 83bd 3fe8 123e
000000b0: 6608 06bf ff2c a53d f91f a73d 63a1 db3c
000000c0: 0390 29be bd0e 7dbe 30cd 973d 0f80 d4be
000000d0: c2e6 88be a786 14bf d3ba 8bbd c504 38bc
000000e0: 29b2 bc3d eb02 033e 438a 9f3e ffb4 e83c
000000f0: fc74 033d de1c 573d 699f 52be 2682 13bf
00000100: 0830 4cbe bf7b 85be 3ef7 e73d c889 273d
00000110: 5e04 c5be 290b dd3b c82e 8c3e e157 5fbe
00000120: 698c 52bb 4686 383d 5791 a33c e117 973d
00000130: 80c0 25bb c320 0e3d 319e 943d 5042 8cbe
00000140: 3a98 cc3d c88d 583a c235 e2bc 2aed b63c
00000150: dbc8 c73d 634d 503d 16f2 823d d5c9 373c
00000160: 5181 70be 8a26 aebb 609c 74be db98 ea3d
00000170: e2e7 c83d daef 20bd f63c 123e 7695 4ebd
00000180: 4782 4dbc 1101 99be 3440 10be e4c6 ebbe
00000190: 6450 f1be 838d e4bd ec31 1bbd 8efc 0dbd
000001a0: 5266 22be b91e 673d 5f0d 61bd 3855 e23b
000001b0: 5cf4 903e b041 3cbe 7af0 a6bd fd48 41bf
000001c0: dfe4 ef3c f524 30bf 6d8b 13bd 782b 21be
000001d0: d98e 383d 9747 94be 0a9d 68bc c152 26bf
000001e0: 021a 14bd bb8c 28be c32d 84be 92e0 e63d
000001f0: b67c cb3d 9df7 c03a 6cb3 c23d ede6 dabd
00000200: b366 773a 5ac8 57be e9c5 083b 250f 063d
00000210: 3186 383e 70a1 473d cc94 0ebe d138 833d
00000220: 1caa 89bd a28b 7fbc dfb9 ff3c 1a0a c13e
00000230: 8394 933b 99c2 e1be 2c79 733d 100f 533e
00000240: 1d69 a43c e037 32bd e52c 3a3e b2f2 403e
00000250: ca6b 023e b17b 4cbc cb69 9abe b906 9e3e
00000260: 23c2 7a3b 383c 6dbf 7a29 88be 9cfe 163d
00000270: 5659 4bbd c570 ec3d 5734 c13e 8fe1 e5bc
00000280: 46ae f13d b02d d2bd 5de0 37bd 3440 52be
00000290: bf5c 943d f44b 7d3d 13d3 56bc 4333 a83e
000002a0: f227 58be e5c6 52bc 27c4 02bd 2ab7 91bd
000002b0: 96ca aabd b2ca 1c3c 6504 06be 4a5c 203e
000002c0: e2e6 e5bd 05e6 87be 241c 5c3d 263f 0bbe
000002d0: a252 b3bc 6058 afbe 7d11 373c 756a b63c
000002e0: f004 303b 2767 e0bd 9c79 0e3d 79a2 4b3e
000002f0: cf6e 893d f5b4 b03c 005f 81bd 0517 0abe
00000300: 5bb3 91bb 2fb8 803d 581d 373e 9c66 013e
00000310: 9f6b c73b 7b1c 9f3d 43d0 5bbd ef84 a93b
00000320: 893b 0abe cac5 a7be a42e f7bc 7c0d 4bbd
00000330: cce3 2ebd deb4 a5bd 1b7a d8bc 4f54 ddbd
00000340: 6709 5bbe 7242 d23d fbc0 7dbf 3130 703e
00000350: d671 77be 609c 243d 3a55 013d 0716 d33d
00000360: 1d9c 48be be60 ad3d 0391 a23d 6438 f2be
00000370: f821 aabe b435 e6be e40d 97be 50b2 25bd
00000380: 0124 f93c f363 553e 694e 88be 8f31 d8bc
00000390: 105b 143c b0cd 00bd 530a e43d 3998 d1bd
000003a0: 8e31 95be a1ac 86be 052f 77bc c65b fabe
000003b0: d2d5 dd3c a859 063d 470e 853c 1235 8b3d
000003c0: 3411 713b 5de1 033e 0df6 b8bc 50df 45be
000003d0: 28fd 6dbb 9648 f2bd ef81 9e3d 069a 14be
000003e0: 6f24 2bbe bad5 6ebe 6a48 adbe ddd4 65bf
000003f0: aca5 dd3d f77d 46be 1519 84be 96d1 873d

fc2.bias f4 [256]
0.10359483 0.037184395 0.056023628 -0.029002897 0.061209064 0.049610253 0.06327405 -0.015630186
0.07136801 -0.06135845 0.073587924 0.0064301495 0.0941747 0.112108424 0.0064362967 -0.06807407
-0.06057863 0.044087924 0.047134485 -0.05249139 0.032632783 -0.02182344 -0.012765086 0.08842779
0.035824865 -0.0055065076 0.00092679955 0.08367792 0.021009792 0.0594237 -0.01761848 -0.040378317
0.09329537 0.017876402 0.02919228 0.00876839 0.019721124 0.039845794 0.07148513 0.050029825
0.043200657 0.120722815 0.041949913 0.09232192 -0.038821436 0.013295927 0.02606631 0.048681762
-0.026064996 0.025743907 -0.18913883 0.11381607 -0.1337457 -0.12596941 -0.0037557702 -0.1423788
0.025059676 -0.045879178 0.048717808 0.06107847 0.042820312 0.010384018 0.000961999 0.11859717
-0.011402313 0.015510915 0.06893411 -0.023914112 -0.18456726 -0.006351948 0.058371153 0.036597114
0.035564896 0.05796221 0.0007020151 -0.07904515 0.118598245 0.032112733 0.07028289 0.049705643
0.011608159 0.008324797 0.021598082 0.07707632 0.00086120405 0.12223752 -0.0065812287 0.03402231
0.0012381753 0.07719955 0.04987677 0.02705062 -0.04099571 0.009108339 -0.033626247 0.053314492
0.07047711 0.052911423 0.041099954 -0.008290417 -0.001039217 0.009045468 0.13631858 -0.032476235
0.06941634 0.0238847 -0.0044537736 0.03375839 -0.058670837 -0.020210003 0.036521524 0.03969367
-0.023008145 0.024652053 0.019166127 -0.019637603 0.017939197 0.10162283 0.054832116 0.038483787
-0.06530451 0.07017217 0.05749184 -0.03554139 0.0057759993 -0.021761997 0.10437124 0.012335737
0.13832432 0.08293891 0.00050320145 0.06437534 0.016748505 0.0054915952 0.015479467 0.04862897
0.023930322 -0.03053088 0.023949046 0.10525276 -0.07161025 0.06908675 -0.0036149134 -0.11710973
0.01263135 0.036367584 -0.051697776 0.03305043 0.018138243 0.067304865 -0.057858806 0.07892122
0.057082757 -0.031817958 0.061003394 0.043957453 0.026247792 -0.11397412 0.0009547631 -0.065778404
0.06306037 0.016880348 0.062995985 -0.013091436 0.034435246 -0.061695136 -0.014540804 0.07045753
0.008598188 0.10084953 0.006059609 0.08510491 -0.028421098 0.04898909 0.04789041 0.008913296
0.014906312 0.050575964 -0.0011120363 0.060622312 -0.1029332 -0.008080513 0.045274984 0.01738909
0.08844327 -0.004152787 0.04489336 -0.08320761 -0.033848226 0.058155343 0.09972848 0.070905134
-0.023567885 -0.015383173 0.04622436 -0.06698605 0.022672433 -0.005608908 0.07425863 0.06426056
0.062301837 0.016241936 0.03761071 0.06797109 -0.029952904 0.005774572 -0.03332525 0.09066448
0.065833956 0.016551496 0.051410522 -0.02501754 0.033089567 -0.041239426 0.022596234 0.06380383
-0.032146066 -0.060348578 -0.055296652 0.0808643 0.0763274 0.022788178 -0.09828743 0.019861937
-0.05255552 0.064608246 0.0938316 -0.06205384 0.062010597 0.0061017727 -0.0046801833 0.11643402
-0.010664119 -0.025878074 0.012415341 0.018154813 0.08556252 -0.024639329 -0.053031597 -0.009466847
0.06196318 -0.023567304 -0.110277794 0.098902546 -0.018794255 0.089109406 0.096849 0.035171963
0.029434407 -0.010393044 0.06213517 0.060895193 -0.014098612 -0.0020833346 0.012509273 0.044716388
00000000: 8729 d43d aa4e 183d 0879 653d 7c97 edbc
00000010: 5bb6 7a3d 1f34 4b3d d395 813d e00a 80bc
00000020: 6429 923d 0053 7bbd 44b5 963d 01b4 d23b
00000030: aade c03d 1a99 e53d 92e7 d23b 6b6a 8bbd
00000040: 4c21 78bd 8a95 343d 1710 413d 3601 57bd
00000050: f4a9 053d 12c7 b2bc a724 51bc a119 b53d
00000060: 18bd 123d ef6f b4bb 77f4 723a 545f ab3d
00000070: ba1c ac3c 4466 733d a154 90bc bc63 25bd
00000080: a511 bf3d 8871 923c a624 ef3c 4ba9 0f3c
00000090: 328e a13c 5835 233d cc66 923d 13ec 4c3d
000000a0: 2cf3 303d 863d f73d acd3 2b3d 4613 bd3d
000000b0: 3a03 1fbd 29d7 593c 0489 d53c 8766 473d
000000c0: 4286 d5bc e3e4 d23c 9cad 41be 6618 e93d
000000d0: a2f4 08be 20fe 00be 5e23 76bb c0cb 11be
000000e0: f349 cd3c ceeb 3bbd 538c 473d 6b2d 7a3d
000000f0: 5a64 2f3d ba21 2a3c a92e 7c3a 13e3 f23d
00000100: c4d0 3abc 7e21 7e3c 542d 8d3d 87e7 c3bc
00000110: 33ff 3cbe 0024 d0bb 9716 6f3d dbe6 153d
00000120: 7fac 113d c869 6d3d 7007 383a 6ce2 a1bd
00000130: a3e3 f23d a488 033d 7af0 8f3d 2598 4b3d
00000140: 2630 3e3c bb64 083c 76ee b03c 31da 9d3d
00000150: 6dc2 613a aa57 fa3d 59a7 d7bb fa5a 0b3d
00000160: 454a a23a cc1a 9e3d 954b 4c3d 4399 dd3c
00000170: 1eeb 27bd 253b 153c adbb 09bd 4c60 5a3d
00000180: 4e56 903d a6b9 583d 6d58 283d 87d4 07bc
00000190: 5636 88ba 7133 143c 1997 0b3e cd05 05bd
000001a0: 272a 8e3d d9a9 c33c f6f0 91bb 3d46 0a3d
000001b0: d550 70bd 738f a5bc 9897 153d d495 223d
000001c0: 947b bcbc 1af3 c93c 4802 9d3c 0adf a0bc
000001d0: 39f5 923c a11f d03d a497 603d 2da1 1d3d
000001e0: 5fbe 85bd 6db6 8f3d 907c 6b3d d993 11bd
000001f0: 9844 bd3b 3746 b2bc 97c0 d53d d51b 4a3c
00000200: e4a4 0d3e e0db a93d 47e9 033a 38d7 833d
00000210: 2934 893c d7f2 b33b 979d 7d3c 2c2f 473d
00000220: 8609 c43c e51b fabc ca30 c43c c28e d73d
00000230: 65a8 92bd 5b7d 8d3d 2fe8 6cbb 3ad7 efbd
00000240: b9f3 4e3c 2df6 143d 0cc1 53bd e35f 073d
00000250: a796 943c 22d7 893d 5bfd 6cbd 73a1 a13d
00000260: 9ccf 693d 8c53 02bd b2de 793d bb0c 343d
00000270: 9c05 d73c 436b e9bd 1149 7a3a d4b6 86bd
00000280: cc25 813d a848 8a3c 0a04 813d 767d 56bc
00000290: f90b 0d3d 0ab4 7cbd 8d3c 6ebc 0a4c 903d
000002a0: 6adf 0c3c 338a ce3d af8f c63b 7c4b ae3d
000002b0: 5dd3 e8bc c9a8 483d bc28 443d 1309 123c
000002c0: 9b39 743c be28 4f3d bfc1 91ba 1a4f 783d
000002d0: a4ce d2bd 2164 04bc 4372 393d 9173 8e3c
000002e0: bf21 b53d 1a14 88bb 1ae2 373d c068 aabd
000002f0: 70a4 0abd 4c34 6e3d 723e cc3d b636 913d
00000300: 7011 c1bc b409 7cbc c155 3d3d fb2f 89bd
00000310: 8abb b93c eeca b7bb e914 983d 0a9b 833d
00000320: 3630 7f3d cf0d 853c b00d 1a3d 6d34 8b3d
00000330: cb5f f5bc 9f38 bd3b 0f80 08bd 4dae b93d
00000340: f4d3 863d 0197 873c d793 523d 96f1 ccbc
00000350: ed88 073d acea 28bd bd1b b93c 95ab 823d
00000360: 98ab 03bd 1230 77bd be7e 62bd 2f9c a53d
00000370: 8a51 9c3d 46ae ba3c ec4a c9bd 80b5 a23c
00000380: 7544 57bd 5451 843d c82a c03d 2b2c 7ebd
00000390: d3fe 7d3d 61f1 c73b 395c 99bb f674 ee3d
000003a0: 8fb8 2ebc 41fe d3bc b769 4b3c 67b9 943c
000003b0: 673b af3d 6bd8 c9bc a937 59bd d61a 1bbc
000003c0: 1acd 7d3d 3810 c1bc 53d9 e1bd 6b8d ca3d
000003d0: 69f6 99bc fe7e b63d c558 c63d 7a10 103d
000003e0: 6d20 f13c 9647 2abc 7381 7e3d 3d6d 793d
000003f0: ddfd 66bc 8e88 08bb b2f3 4c3c 8828 373d

mean.weight f4 [2, 256]
-0.3042277 0.010410998 -0.16571578 -1.7276988 0.17011239 0.41541928 0.14197244 -0.59881145
-0.2994951 -0.027841873 0.007172174 -0.30129153 -0.056166124 -0.5964367 0.22490293 -0.06430442
-0.035713807 0.015893962 -0.14050673 -0.036452513 0.101987325 -0.16879342 0.14187798 0.0022370017
-0.3017914 -0.34698355 -0.24282108 0.4913927 -0.26576915 -0.10999153 0.049617477 0.35418028
-0.31376263 -0.0030692422 0.04742975 0.14614156 -0.011388328 0.05498558 -0.029506052 2.2365181
-0.0329532 -0.10783645 1.601717 -0.19770128 -0.14122687 0.17845763 0.036418866 0.023725267
0.064291164 0.102643505 0.53084826 0.5147163 -0.48029825 -0.5315251 -0.0074974573 -0.41074225
2.1442223 -0.18726343 0.22543731 0.16435619 -0.3643949 -0.14955182 -0.29462874 0.13893318
-0.25223237 0.4824165 -0.011735319 0.54416263 -0.40934545 -0.38626593 -0.051401258 -0.4069218
-0.37394655 0.2231084 -0.4571592 -0.591277 -0.12655571 0.31729892 -0.19675638 -0.09914131
-0.20521612 -0.009195037 -0.4464013 -0.86574286 -0.1779771 -3.3003747 -1.0274497 0.015123542
-0.21242703 -0.5831796 0.25494516 -0.13055786 0.2210706 0.20498355 -1.4207364 0.522875
-0.086451 0.22793244 -0.0015886781 -0.08154624 0.41679227 0.058202818 -0.45021442 0.0077198492
0.21252595 0.14039707 -0.029358724 -0.08974295 -0.04691205 -0.3435939 -0.012143063 0.17558229
-0.6500499 -0.69069123 0.06968505 -0.08526055 -0.41895977 -0.41490915 0.104822665 -0.13584931
0.052093152 -0.4246297 -0.25515527 -0.12376923 -0.16040374 0.359121 0.0041730413 -0.18074365
0.03866919 0.37517774 -0.078080826 -0.20349476 -0.052737754 0.18429162 0.017490245 -0.1459936
0.12557782 0.08360982 -0.28403282 -0.21153612 -0.36118495 0.09977031 0.20629543 -0.35164493
-0.13448702 -0.21307169 0.04244938 -0.6049942 0.29715997 0.22570188 0.030536134 -0.54443544
0.38742128 0.023169374 0.07984498 0.047581457 0.3590545 -0.68992925 0.09666495 0.2394478
0.074335515 0.5563233 -0.236812 -0.41394448 0.15779594 -0.11673029 -0.26183158 0.6081767
-0.2077093 -0.18893556 0.415146 -0.14915276 0.23693143 -0.18997829 -0.1697931 -0.21196368
-0.07443376 -0.005892422 -0.19625099 0.41633552 0.39126912 0.038701687 -0.7399039 0.122615695
-0.21691297 0.32701835 0.14913778 -0.38484123 -0.46922866 1.5565783 0.19488382 0.36729854
1.0738797 -0.36781028 -0.19427417 0.04382164 2.7169123 0.025947286 -0.06493435 -0.2073856
0.16633108 0.16672894 -0.0306347 -0.2866087 -0.23632987 -0.27040157 0.40746054 -0.19702116
1.1604432 0.28441915 0.082045294 -0.03933342 0.3531919 0.2013274 0.61939377 -0.3539545
0.0018632885 0.41422102 0.4747524 -0.3668846 -0.19904521 -0.42847854 0.46396232 -0.3833873
-0.03422733 0.31436536 0.048361603 -0.083529286 0.007874328 -0.5849328 -0.03732939 -0.31552967
0.4592462 0.006797562 0.39183402 0.88227564 0.47194356 -0.34544155 -0.037285592 0.5859204
-0.13723527 0.21854918 0.64340055 -0.099078044 0.04425184 -0.24291316 -0.32869545 -0.32646322
0.20764127 -0.2521122 0.21646166 -0.19885147 0.38619342 0.641944 -0.35735956 0.13128169
00000000: bcc3 9bbe e492 2a3c 66b1 29be 3c25 ddbf
00000010: f131 2e3e d6b1 d43e 3961 113e b54b 19bf
00000020: 6c57 99be a414 e4bc 8e04 eb3b e242 9abe
00000030: 730e 66bd 13b0 18bf f44c 663e 09b2 83bd
00000040: a448 12bd 0e34 823c ffe0 0fbe 3b4f 15bd
00000050: bbde d03d 2fd8 2cbe 7648 113e a99a 123b
00000060: 6784 9abe d4a7 b1be 17a6 78be d397 fb3e
00000070: e512 88be 3d43 e1bd b23b 4b3d 1e57 b53e
00000080: 7fa5 a0be 5725 49bb b345 423d 22a6 153e
00000090: 1c96 3abc 8f38 613d adb6 f1bc 1d23 0f40
000000a0: eff9 06bd 5bd9 dcbd 1005 cd3f 3472 4abe
000000b0: c79d 10be 99bd 363e f32b 153d 7e5b c23c
000000c0: 16ab 833d c236 d23d ace5 073f 73c4 033f
000000d0: a7e9 f5be 0712 08bf 3bad f5bb cf4c d2be
000000e0: f03a 0940 fcc1 3fbe 0ad9 663e fd4c 283e
000000f0: f891 babe 1d24 19be 94d9 96be 8044 0e3e
00000100: 9a24 81be 4cff f63e 7f45 40bc 3e4e 0b3f
00000110: ba95 d1be a6c4 c5be 208a 52bd 0e58 d0be
00000120: ec75 bfbe 8776 643e c510 eabe ee5d 17bf
00000130: d297 01be 0175 a23e 817a 49be 990a cbbd
00000140: 2d24 52be c8a6 16bc b68e e4be 53a1 5dbf
00000150: a13f 36be 5739 53c0 7983 83bf bcc8 773c
00000160: 7986 59be 424b 15bf 2c88 823e f6b0 05be
00000170: 5560 623e 35e7 513e b1da b5bf 23db 053f
00000180: 390d b1bd 1f67 693e 313b d0ba b701 a7bd
00000190: cc65 d53e 1466 6e3d 8182 e6be caf6 fc3b
000001a0: 67a0 593e 40c4 0f3e b581 f0bc 27cb b7bd
000001b0: da26 40bd 8aeb afbe b3f3 46bc d8cb 333e
000001c0: ac69 26bf 24d1 30bf 09b7 8e3d 159d aebd
000001d0: e581 d6be f96e d4be 44ad d63d 151c 0bbe
000001e0: a15f 553d 1069 d9be b6a3 82be b97a fdbd
000001f0: e140 24be b5de b73e 02be 883b dd14 39be
00000200: 9663 1e3d 4c17 c03e d7e8 9fbd ee60 50be
00000210: 8b03 58bd f1b6 3c3e b447 8f3c 597f 15be
00000220: 7997 003e a03b ab3d c06c 91be ed9c 58be
00000230: 3ced b8be 6054 cc3d 1c3f 533e ce0a b4be
00000240: f7b6 09be 772f 5abe 67df 2d3d e6e0 1abf
00000250: 5a25 983e 651e 673e ea26 fa3c 1f60 0bbf
00000260: 155c c63e b3cd bd3c c485 a33d c6e4 423d
00000270: fed5 b73e 349f 30bf 46f8 c53d ce31 753e
00000280: 383d 983d 346b 0e3f d87e 72be 88f0 d3be
00000290: 4295 213e 4a10 efbd ca0e 86be 78b1 1b3f
000002a0: bfb1 54be 5378 41be 048e d43e 80bb 18be
000002b0: 279e 723e ab89 42be 3ede 2dbe 020d 59be
000002c0: ba70 98bd 3815 c1bb 05f6 48be ee29 d53e
000002d0: 6d54 c83e a985 1e3d 586a 3dbf f01d fb3d
000002e0: 6f1e 5ebe f36e a73e 93b7 183e e909 c5be
000002f0: bd3e f0be f53d c73f a08f 473e 8e0e bc3e
00000300: e474 893f a151 bcbe cfef 46be 527e 333d
00000310: e4e1 2d40 678f d43c 4dfc 84bd e45c 54be
00000320: b252 2a3e feba 2a3e 9ff5 fabc 60be 92be
00000330: 7500 72be 1372 8abe ab9e d03e eabf 49be
00000340: 6789 943f 639f 913e 5d07 a83d 151c 21bd
00000350: 92d5 b43e c528 4e3e 9790 1e3f 8639 b5be
00000360: 9639 f43a c714 d43e bf12 f33e 4cd8 bbbe
00000370: 82d2 4bbe 8a61 dbbe 788c ed3e 574b c4be
00000380: f531 0cbd 7ff4 a03e d116 463d 6711 abbd
00000390: 5303 013c 28be 15bf b4e6 18bd 1b8d a1be
000003a0: 5122 eb3e 15be de3b 789e c83e d1dc 613f
000003b0: 96a2 f13e b7dd b0be c7b8 18bd e1fe 153f
000003c0: 6787 0cbe 5bcb 5f3e e6b5 243f 6ee9 cabd
000003d0: 6b41 353d 3abe 78be c54a a8be 3026 a7be
000003e0: ea9f 543e da14 81be 20a8 5d3e b89f 4bbe
000003f0: 25bb c53e 7156 243f d5f7 b6be b56e 063e

mean.bias f4 [2]
-0.019479975 -0.067849636
00000000: 7894 9fbc c0f4 8abd

log_std.weight f4 [2, 256]
-0.8140698 -0.16622195 -0.062675014 1.0830872 -0.08427186 0.1118571 -0.036112662 -0.19340153
0.005392793 0.026215084 -0.21634504 0.17129149 -0.12693916 -0.42753416 -0.23868571 0.19568785
-0.058161177 0.035083942 -0.23985043 -0.009425063 0.007473054 0.02646465 -0.08346199 -0.30887252
-0.031456225 -0.08052175 0.35989225 0.23350559 0.019375373 0.14274351 -0.05004813 -0.15267876
-0.35339427 0.14230032 -0.18024711 -0.21826614 -0.049384713 -0.024554204 -0.07241659 0.7626644
-0.15550393 0.019524593 0.6932204 -0.24202834 0.09602649 -0.32295594 0.021977164 0.024488673
-0.25820872 0.02624456 -0.3108311 0.49207768 0.52114177 -0.0893003 -0.024495874 0.175905
0.892499 0.34449452 0.017619986 -0.37044773 0.108497225 -0.065725885 0.025175372 -0.14979048
-0.19231786 0.087094635 -0.37397793 0.6356436 0.32639876 0.018437194 -0.25902638 -0.3035432
0.26105475 -0.2398648 -0.20606832 0.18903832 -0.09539112 0.11128702 -0.26595247 0.015635572
-0.30710003 0.076456904 -0.031947933 0.0033477878 -0.24329112 1.7563297 0.5739405 -0.18451385
-0.011411669 0.30761293 -0.091495305 -0.26224104 0.15520649 -0.121761836 -0.022484498 0.044916593
0.16214602 -0.020166056 -0.021642473 0.19472471 0.016464258 0.03786381 0.3696191 -0.023480657
0.33040014 -0.1678434 0.21554832 0.24028343 0.052854672 0.14479361 -0.009893295 0.2061154
-0.5324846 -0.554123 -0.19637337 -0.18848859 -0.010806368 0.094648674 -0.22612967 -0.37741235
-0.008186098 -0.09049028 -0.014721764 0.0057838433 -0.1295019 -0.07079605 -0.1269195 -0.13542768
-0.2340747 0.011941649 -0.07349012 -0.058880985 -0.37305117 0.09366926 0.0200823 -0.29832777
-0.31886566 0.15418161 -0.124632 -0.44494593 0.3110483 0.24791682 -0.1035711 0.36813563
-0.30935094 -0.21414734 -0.046403874 0.39797422 0.008055541 0.024803773 -0.04341018 -0.35791504
-0.063225694 0.07800985 -0.31094489 -0.094943315 0.21813294 0.040779196 0.06200143 -0.21379448
-0.23215386 -0.028265117 0.09051102 0.31787536 -0.058014438 -0.56081444 -0.19178668 0.4310556
0.008069671 -0.07406577 0.19572563 -0.21786992 0.0028862476 0.062108375 -0.208596 0.14428835
-0.05466688 -0.27721378 0.30915186 -0.011966677 -0.30839366 -0.055049516 0.5914974 -0.19491424
0.07607635 0.15094201 -0.09787665 0.024659906 0.5634036 0.54273474 -0.20698622 0.040248033
0.27095732 0.30352172 0.07624343 0.042786483 0.77101773 0.011510488 -0.15086737 0.051844694
-0.21615598 -0.11089768 -0.110851645 -0.12397856 -0.096015714 -0.10463638 -0.19235495 -0.15004815
0.25085646 -0.03907737 0.058715276 0.03428236 -0.06146006 0.041384947 -0.015979355 -0.39362216
-0.33505324 0.115143776 -0.18813539 -0.08461407 0.0126386965 0.16901508 0.07025004 0.118825264
-0.04994806 0.14041871 0.19345552 0.18243118 -0.25666016 -0.016269172 -0.25293976 0.12299233
0.26819962 -0.0006696865 0.067154564 0.41751254 0.11326758 0.13363516 -0.039284684 0.20950076
-0.12804957 0.25864226 0.035049826 -0.34253353 -0.014323913 -0.2723086 -0.052842207 0.1562366
0.020270877 -0.16204573 -0.039030142 0.02265834 -0.23849885 0.11597471 0.15528215 0.17057493
00000000: e166 50bf 1636 2abe c25b 80bd 9aa2 8a3f
00000010: ba96 acbd 5615 e53d dfea 13bd 0d0b 46be
00000020: 07b6 b03b 04c1 d63c 8e89 5dbe 0967 2f3e
00000030: 57fc 01be c2e5 dabe 076a 74be 6562 483e
00000040: 6a3a 6ebd 2eb4 0f3d 5a9b 75be 946b 1abc
00000050: 85e0 f43b 65cc d83c 1fee aabd 8a24 9ebe
00000060: 3ed8 00bd 96e8 a4bd cc43 b83e 171c 6f3e
00000070: 1ab9 9e3c 5b2b 123e 45ff 4cbd d257 1cbe
00000080: 18f0 b4be 2db7 113e b392 38be 2981 5fbe
00000090: a047 4abd e625 c9bc 264f 94bd f93d 433f
000000a0: 6c3c 1fbe 0af2 9f3c e476 313f 47d6 77be
000000b0: 89a9 c43d 7b5a a5be 7409 b43c 789c c83c
000000c0: ef33 84be d5fe d63c 4125 9fbe 9bf1 fb3e
000000d0: 8c69 053f 13e3 b6bd 92ab c8bc 7120 343e
000000e0: d17a 643f 9661 b03e ca57 903c 53ab bdbe
000000f0: cb33 de3d 4b9b 86bd 953c ce3c ad62 19be
00000100: f9ee 44be ac5e b23d 097a bfbe 8ab9 223f
00000110: bd1d a73e 9909 973c 1b9f 84be 046a 9bbe
00000120: f8a8 853e 1e9f 75be 9303 53be 4393 413e
00000130: 6b5c c3bd 73ea e33d ec2a 88be 2c16 803c
00000140: 373c 9dbe 7095 9c3d d6db 02bd 8f66 5b3b
00000150: 4f21 79be 69cf e03f c4ed 123f 33f1 3cbe
00000160: 02f8 3abc 717f 9d3e e461 bbbd 7544 86be
00000170: 73ee 1e3e 455e f9bd 6931 b8bc 76fa 373d
00000180: 9b09 263e 4933 a5bc 8e4b b1bc ea65 473e
00000190: 0de0 863c 1517 1b3d b73e bd3e 825a c0bc
000001a0: 352a a93e 24df 2bbe b3b8 5c3e dc0c 763e
000001b0: 247e 583d c744 143e 7d17 22bc ea0f 533e
000001c0: e950 08bf 01db 0dbf 1a16 49be 2703 41be
000001d0: 310d 31bc 2ad7 c13d 898e 67be 313c c1be
000001e0: fc1e 06bc f852 b9bd 8e33 71bc 6586 bd3b
000001f0: 259c 04be 85fd 90bd 2ff7 01be 8ead 0abe
00000200: 47b1 6fbe e8a6 433c fd81 96bd 302d 71bd
00000210: 9000 bfbe abd5 bf3d a383 a43c 6bbe 98be
00000220: 5c42 a3be c9e1 1d3e 103f ffbd f4cf e3be
00000230: b941 9f3e e8dd 7d3e 161d d4bd 467c bc3e
00000240: 3f63 9ebe 7149 5bbe fd11 3ebd 47c3 cb3e
00000250: 63fb 033c 4831 cb3c dfce 31bd a440 b7be
00000260: 797c 81bd a1c3 9f3d 2b34 9fbe a471 c2bd
00000270: 3e5e 5f3e 1608 273d 36f5 7d3d f1ec 5abe
00000280: beb9 6dbe 3f8c e7bc d75d b93d 8fc0 a23e
00000290: 8ca0 6dbd 8991 0fbf ba63 44be 52b3 dc3e
000002a0: a736 043c cbaf 97bd 4d6c 483e 4b19 5fbe
000002b0: 3327 3d3b 5a65 7e3d 319a 55be 53c0 133e
000002c0: 61ea 5fbd f7ee 8dbe 2749 9e3e e20f 44bc
000002d0: c6e5 9dbe 9a7b 61bd 606c 173f 9997 47be
000002e0: ebcd 9b3d 8b90 1a3e 8e73 c8bd 9203 ca3c
000002f0: 383b 103f aaf0 0a3f 32f4 53be 1fdb 243d
00000300: ebba 8a3e 3367 9b3e 8425 9c3d e140 2f3d
00000310: 6b61 453f 7c96 3c3c fa7c 1abe 1a5b 543d
00000320: fe57 5dbe 531e e3bd 3006 e3bd 79e8 fdbd
00000330: e3a3 c4bd 994b d6bd b2f8 44be 39a6 19be
00000340: 4270 803e 980f 20bd 6e7f 703d a96b 0c3d
00000350: 8bbd 7bbd 4383 293d 23e7 82bc d888 c9be
00000360: 198c abbe 80d0 eb3d 90a6 40be 244a adbd
00000370: 8912 4f3c 4a12 2d3e 41df 8f3d a95a f33d
00000380: 5696 4cbd ecc9 0f3e 3419 463e 3dcf 3a3e
00000390: f668 83be ed46 85bc 5281 81be 67e3 fb3d
000003a0: 7651 893e e68d 2fba 5588 893d 34c4 d53e
000003b0: d5f8 e73d a8d7 083e fae8 20bd 5e87 563e
000003c0: 6d1f 03be c26c 843e 6890 0f3d 8e60 afbe
000003d0: d8ae 6abc 086c 8bbe 1271 58bd 7dfc 1f3e
000003e0: 1c0f a63c 51ef 25be 12de 1fbd fc9d b93c
000003f0: 0b39 74be 2684 ed3d 4902 1f3e 32ab 2e3e

log_std.bias f4 [2]
-0.17151073 -0.14999679
00000000: 82a0 2fbe c298 19be
