sac/SAC_LunarLander_final.pth (torch, 279784 bytes, 8 tensors)

fc1.weight f4 [256, 8]
0	0xbdb2cacc	-0.08730087
1	0x3deb757c	0.11497018
2	0x3f0de13f	0.55421823
3	0x3ee80ecf	0.45323798
4	0xbe84a6b3	-0.2590843
5	0xbf24f230	-0.6443205
6	0xbf29ce70	-0.66330624
7	0x3e45a4ff	0.19301222
8	0xbe1c79a5	-0.15280779
9	0x3c8b4750	0.017001778
10	0xbde451b0	-0.11148393
11	0x3d1bb1de	0.038011424
12	0xbf63bc03	-0.8895876
13	0xbdb4aecc	-0.08822402
14	0x3f058b72	0.521659
15	0xbe9ea2f5	-0.309837
16	0x3ea41d24	0.32053483
17	0x3c1184c3	0.0088817505
18	0x3ef85c22	0.48507792
19	0x3efed02b	0.49768195
20	0xbf8f130b	-1.1177686
21	0xbeedf5bb	-0.4647654
22	0xbe749256	-0.23883948
23	0x3e433b6b	0.19065635
24	0x3ea090ac	0.31360376
25	0xbe9c68c7	-0.3054869
26	0xbdbde5bd	-0.09272335
27	0xbe0e4f49	-0.13897432
28	0x3f276dd3	0.65401953
29	0x3f0daac0	0.5533867
30	0xbd2872d4	-0.041125134
31	0x3d10d577	0.035359826
32	0x3e4d57ce	0.20053026
33	0xbdbc297b	-0.09187599
34	0xbe8cd786	-0.2750818
35	0x3e3e5f27	0.18590985
36	0x3eda7071	0.4266391
37	0xbee6e46d	-0.4509615
38	0xbee44608	-0.4458468
39	0x3e9bdc47	0.30441496
40	0x3e31f51f	0.17378663
41	0xbd8366d4	-0.06416097
42	0x3f490b6e	0.78533065
43	0xbd78a102	-0.060700424
44	0xbe9d9760	-0.30779552
45	0x3dcdb308	0.10043913
46	0x3e933905	0.2875444
47	0xbe9ce07a	-0.30640012
48	0x3da46dcf	0.08028757
49	0x3d2425e4	0.040075198
50	0xbdd2d19b	-0.10293885
51	0x3f7e9a01	0.9945374
52	0x3e2a0eeb	0.16607253
53	0x3f34d78b	0.7064139
54	0x3e43f4a1	0.19136287
55	0xbea84fb2	-0.32873303
56	0x3e7fca4e	0.24979517
57	0x3f0f6d40	0.5602608
58	0x3d7235da	0.059133388
59	0xbeb4b02b	-0.35290655
60	0x3dc3ea73	0.09566202
61	0x3e26e4c0	0.16298199
62	0x3e417fef	0.18896459
63	0xbe961316	-0.29311436
64	0xbf04bc98	-0.5185027
65	0x3dc68697	0.0969364
66	0x3e09e38b	0.13465707
67	0x3ebe337a	0.37148649
68	0xbeb35c20	-0.35031223
69	0x3d700a66	0.058603667
70	0x3ebc4e1d	0.36778346
71	0x3cfc8c91	0.030828746
72	0x3e4f01bf	0.2021551
73	0x3e4b9f02	0.19884875
74	0xbe1fb7b6	-0.15597424
75	0xbe929019	-0.28625563
76	0x3ec77c99	0.38962248
77	0x3f59e1c8	0.8511014
78	0xbeaa8816	-0.3330695
79	0xbe91af7f	-0.28454205
80	0x3ed78e6a	0.4210084
81	0x3ed853fb	0.42251572
82	0xbdd9d868	-0.10636979
83	0x3eca6361	0.39528945
84	0x3ea8f537	0.32999584
85	0xbcd72460	-0.026262462
86	0xbee2aaef	-0.44271037
87	0xbeb039c7	-0.3441908
88	0xbeb2329e	-0.34804243
89	0x3e558a53	0.20853548
90	0x3cf06499	0.029344844
91	0x3eebcfe0	0.46057034
92	0x3e937f61	0.2880812
93	0x3e9ad323	0.3023921
94	0xbde2646f	-0.110543124
95	0x3e4b1996	0.19833979
96	0x3ef194c4	0.47183812
97	0x3e96db2b	0.29464087
98	0x3e7d1eda	0.247188
99	0x3e22cfba	0.15899554
100	0xbea3a202	-0.3195954
101	0xbd55541e	-0.052082174
102	0xbe42dc66	-0.19029388
103	0x3ebf65f8	0.37382483
104	0x3e257557	0.16158043
105	0xbdf05f66	-0.11736946
106	0x3f4d8740	0.802845
107	0x3da3b37d	0.07993219
108	0xbf1c6a88	-0.61100054
109	0x3f577b5d	0.8417261
110	0x3ec2d157	0.3805034
111	0xbf024679	-0.5088878
112	0xbe37885f	-0.17923115
113	0xbec180de	-0.3779363
114	0xbe95aede	-0.29234976
115	0xbea99b36	-0.3312623
116	0x3d9f6024	0.07782009
117	0x3ee7f911	0.4530721
118	0x3dce015f	0.10058855
119	0xbe6fd5fd	-0.23421474
120	0x3e04dd0d	0.12974949
121	0xbea8c74e	-0.32964557
122	0xbd1cbc23	-0.03826536
123	0xbe1a843b	-0.15089504
124	0x3f479724	0.77965
125	0x3edca1e2	0.43092257
126	0x3e93082c	0.28717172
127	0xbe87b8a7	-0.26508066
128	0xbcc84297	-0.024445815
129	0x3d942413	0.07233443
130	0x3e38c61f	0.18044327
131	0x3f4fe87c	0.8121412
132	0xbdd7d6f5	-0.10539047
133	0xbe03cccf	-0.12871097
134	0xbe3512b8	-0.17682922
135	0xbdfb5456	-0.12271945
136	0x3e03584b	0.1282665
137	0xbe51f87c	-0.20504946
138	0x3f1d9afb	0.61564606
139	0xbdf3efa5	-0.11910943
140	0x3f346681	0.7046891
141	0x3eb2aa80	0.34895706
142	0xbd915083	-0.070954345
143	0xbdf936d7	-0.12168663
144	0xbe36fbea	-0.17869535
145	0xbe502ed5	-0.20330365
146	0xbefab1e8	-0.48963857
147	0xbec11a9b	-0.3771561
148	0xbe9183b0	-0.28420782
149	0x3d36c9a9	0.04462591
150	0x3e9cb4c0	0.3060665
151	0xbea908af	-0.33014438
152	0x3f24cb84	0.6437304
153	0xbe2d6dee	-0.16936466
154	0x3e01039f	0.12599038
155	0x3e7d134f	0.24714397
156	0xbdcf74f6	-0.101297304
157	0x3e31c47b	0.17360108
158	0xbf3ee131	-0.74562365
159	0x3c357353	0.011074859
160	0xbd98d49f	-0.07462429
161	0x3ebaca29	0.3648236
162	0x3f516b5a	0.8180443
163	0xbdd1d788	-0.102461874
164	0xbe458da1	-0.19292308
165	0x3e483033	0.19549637
166	0xbdf9305b	-0.12167426
167	0xbed66aa3	-0.41878232
168	0x3d494147	0.04913452
169	0xbf49c9ec	-0.78823733
170	0x3e9dae68	0.30797124
171	0x3e16aadf	0.1471362
172	0x3dfbc0d8	0.122926414
173	0x3dcdf7ff	0.10057067
174	0x3bfe1539	0.007753995
175	0x3ea6dd9b	0.32590947
176	0xbd50d82c	-0.050987408
177	0xbe27d941	-0.1639147
178	0x3d614960	0.055001616
179	0x3f8378e9	1.0271274
180	0xbf7f52ad	-0.9973553
181	0xbe05eea8	-0.13079321
182	0x3da21bcc	0.07915458
183	0xbde297c2	-0.11064102
184	0x3ddcc1f2	0.1077918
185	0xbe81f14c	-0.25379407
186	0x3f22c315	0.6357892
187	0xbef10dd4	-0.47080863
188	0xbe081e7c	-0.13292879
189	0x3e6077cd	0.219207
190	0xbee6b98f	-0.45063445
191	0x3d9ba007	0.07598882
192	0x3f159bf5	0.58441097
193	0x3aea8d35	0.0017894866
194	0xbf162f51	-0.5866595
195	0xbddaaba5	-0.1067727
196	0xbe63c81c	-0.22244304
197	0x3e6238fd	0.22092052
198	0xbe28384e	-0.16427729
199	0xbdf1eaee	-0.118123874
200	0x3ebe27f1	0.37139848
201	0x3ea99da7	0.33128092
202	0xbe5dacd8	-0.21647966
203	0xbefd9f3d	-0.49535552
204	0x3f2a7712	0.66587937
205	0xbeb4876d	-0.35259572
206	0x3e8cd990	0.27509737
207	0xbe6f8310	-0.2338984
208	0xbe302afc	-0.17203897
209	0xbf2e597f	-0.6810531
210	0x3ed5910c	0.41712224
211	0xbe9ae2b6	-0.30251092
212	0xbe491928	-0.19638503
213	0xbe9dc5c9	-0.3081496
214	0xbe8c124d	-0.27357712
215	0x3e44f8b8	0.19235504
216	0x3f151476	0.58234346
217	0x3d4913ae	0.049091034
218	0x3f379787	0.7171559
219	0xbf03772e	-0.5135373
220	0x3d8d8158	0.06909436
221	0xbd1638ac	-0.03667514
222	0xbda94f41	-0.082670696
223	0xbf25a6bd	-0.6470755
224	0x3e56c4bb	0.20973484
225	0x3eb4a2cd	0.35280457
226	0xbee4aa14	-0.4466101
227	0xbeb5fb0f	-0.35543105
228	0x3d50ce74	0.05097814
229	0xbe91f066	-0.28503722
230	0xbe45587a	-0.19272032
231	0x3da476b6	0.08030455
232	0xbd067259	-0.032823894
233	0xbd4f8243	-0.050661337
234	0xbf1119ab	-0.5667979
235	0xbecf331c	-0.4046868
236	0x3e9d1385	0.30678955
237	0xbd852788	-0.065016806
238	0x3eb7c1e6	0.3589012
239	0x3dc9692e	0.098345146
240	0x3ecdf847	0.40228483
241	0xbf22d660	-0.6360836
242	0xbd101839	-0.03517935
243	0xbe85a7cb	-0.26104578
244	0xbce84d96	-0.028357308
245	0x3e9062a4	0.28200257
246	0xbece34e3	-0.40274724
247	0xbf0a4c51	-0.540227
248	0x3da22e42	0.07918979
249	0x3e9f4a22	0.31111246
250	0xbe0d7398	-0.13813627
251	0x3d556bdf	0.052104827
252	0x3f1b7810	0.60730076
253	0x3f2d6cb3	0.67743987
254	0x3ea5c5d3	0.3237749
255	0xbe243696	-0.16036448

fc1.bias f4 [256]
0	0xbe076ddb	-0.132255
1	0xbd61f4df	-0.055165168
2	0x3c3b30c8	0.011425205
3	0x3df20196	0.11816709
4	0x3e99e3eb	0.300567
5	0x3d2d8957	0.042367306
6	0x3da4ab04	0.08040431
7	0xbea1a99d	-0.31574717
8	0xbd596ccb	-0.05308227
9	0xbec1096c	-0.377025
10	0x3c235b91	0.009970562
11	0x3a45ea1e	0.000754984
12	0xbc44a2c3	-0.012001696
13	0x3c571047	0.013126439
14	0xbeeb6919	-0.4597862
15	0xbe27ff32	-0.16405943
16	0x3e1fc51b	0.15602534
17	0x3e0c8225	0.13721521
18	0x3d1d5c99	0.038418386
19	0xbdc50389	-0.09619815
20	0x3c900cab	0.017584166
21	0x3e10045f	0.14064167
22	0x3c576be6	0.013148284
23	0x3e8351e3	0.25648412
24	0xbd5db236	-0.054125033
25	0xbe447bd5	-0.19187863
26	0xbe2c2d9e	-0.16814277
27	0xbe324c29	-0.17411865
28	0xbda77cdf	-0.08178114
29	0xbe607e4f	-0.21923183
30	0xbcab969a	-0.020945836
31	0xbe11caeb	-0.14237563
32	0x3e766e15	0.2406543
33	0xbcbbc12d	-0.022919262
34	0xbb965c65	-0.004588651
35	0x3e504144	0.20337397
36	0x3e287bde	0.16453502
37	0x3d2e0afc	0.042490944
38	0x3cedc4d8	0.029024526
39	0xbe74f1fa	-0.23920432
40	0x3d970d21	0.07375551
41	0xbeb3d80a	-0.35125762
42	0x3c66b9fe	0.01408243
43	0x3dff4d21	0.12465883
44	0x3d1583ae	0.036502533
45	0x3e1288dd	0.14310022
46	0x3e7a45e8	0.2444073
47	0xbe845f4b	-0.25853953
48	0x3d640755	0.055671055
49	0x3c865427	0.016397549
50	0xbdbc5b04	-0.09197047
51	0xbea4f289	-0.3221629
52	0xbe4b1bf3	-0.1983488
53	0x3d3d9d12	0.046292372
54	0xbd7a1b6e	-0.061061315
55	0x3da50c7e	0.08059023
56	0x3df77489	0.12082774
57	0xbd998db0	-0.07497728
58	0x3b8f7d90	0.004378982
59	0x3dd59608	0.10429007
60	0xbc510070	-0.012756452
61	0xbdc0b401	-0.09409333
62	0xbc28f203	-0.010311606
63	0xbe401c4e	-0.18760797
64	0xbc4f8137	-0.012665085
65	0x3e32bb28	0.17454207
66	0x3d1c8acd	0.03821831
67	0x3d54e68d	0.051977683
68	0xbde54477	-0.11194699
69	0x3da2cd19	0.079492755
70	0xbde44567	-0.1114605
71	0xbe02cea7	-0.12774144
72	0x3dbaa406	0.09113316
73	0xbcc009bb	-0.02344214
74	0xbd244be7	-0.04011145
75	0x3d7430bb	0.059616785
76	0x3e4d309d	0.20038076
77	0xbc98f208	-0.018670097
78	0x3d5f08e4	0.054451838
79	0xbc230274	-0.009949315
80	0x3d996cb4	0.074914366
81	0xbd86a538	-0.06574482
82	0xbd3febcc	-0.046855733
83	0xbe31d768	-0.17367327
84	0x3dda4a87	0.10658746
85	0x3e0bd6bc	0.13656133
86	0x3e138fa8	0.1441027
87	0xbc3b61c3	-0.011436882
88	0xbe04a08b	-0.12951867
89	0xbcdaf199	-0.02672653
90	0xbea2e40e	-0.31814617
91	0xbded67d7	-0.115920715
92	0xbe9269e5	-0.28596416
93	0x3d8633c5	0.06552843
94	0xbd9d3996	-0.07676999
95	0xbe809725	-0.25115314
96	0xbd4bbbe4	-0.049739733
97	0xbcbe8c5c	-0.023260288
98	0x3d8a6ec2	0.067594066
99	0xbdb94cc7	-0.09047847
100	0xbdb57823	-0.08860805
101	0x3ce3db43	0.027814513
102	0x3dca4cef	0.09877955
103	0x3dc4b08a	0.09603985
104	0x3df6a19c	0.12042543
105	0xbdb91999	-0.090380855
106	0x3c8718b9	0.01649128
107	0x3e408971	0.1880243
108	0xbd44b154	-0.048020676
109	0x3da8129a	0.08206673
110	0xbc40839d	-0.011750129
111	0xbd68fa6a	-0.05687944
112	0xbdcb7f07	-0.09936338
113	0xbe4d1cf4	-0.20030576
114	0x3c5278ee	0.012846215
115	0x3c8a2ad2	0.016866121
116	0xbe0bc595	-0.1364959
117	0x3ba41263	0.0050070747
118	0x3cd11a09	0.02552511
119	0xbe60ac4c	-0.21940726
120	0x3db632d2	0.08896412
121	0xbe29888f	-0.16555999
122	0x3e739e95	0.23790963
123	0xbc1c6544	-0.009545628
124	0x3d6ddeb5	0.058073718
125	0xbcfe6f74	-0.031059004
126	0x3d9e52cc	0.07730636
127	0xbcb8114c	-0.022469185
128	0x3d968c4e	0.0735098
129	0x3d56a656	0.052404724
130	0xbdd688af	-0.10475289
131	0xbe428bbc	-0.18998617
132	0xbd9369f2	-0.07197942
133	0xbd8669d2	-0.065631524
134	0x3d8b375c	0.06797668
135	0xbe95d426	-0.2926342
136	0x3e301f81	0.17199518
137	0x3db27452	0.087135926
138	0x3e263f50	0.1623509
139	0x3cdbe258	0.026841328
140	0xbd98a8e7	-0.074540906
141	0x3d95942d	0.07303653
142	0x3ccd32dd	0.025048668
143	0xbd747c0e	-0.05968862
144	0x3e4331da	0.19061986
145	0xbe61e84d	-0.22061272
146	0xbd952b07	-0.072835974
147	0xbe02ec74	-0.12785512
148	0x3deffd05	0.117181815
149	0x3d07f52b	0.033192795
150	0xbe8c3d27	-0.27390406
151	0xbe1dfdfd	-0.1542892
152	0x3e8f396d	0.279735
153	0x3cab91cc	0.020943545
154	0xbd89b39b	-0.0672371
155	0x3c225785	0.009908562
156	0x3db22f90	0.08700478
157	0xbdc631f1	-0.09677494
158	0xbca0e78c	-0.01964166
159	0x3e9a1f84	0.3010217
160	0xbae5de69	-0.0017537597
161	0x3e213c79	0.15745725
162	0x3d7b21e8	0.061311632
163	0x3d869c3b	0.06572767
164	0xbe710ce7	-0.23540078
165	0xbe6c0679	-0.23049344
166	0xbbe071ae	-0.006849489
167	0x3d619459	0.055073116
168	0x3e00d814	0.12582427
169	0x3dfaecdd	0.12252209
170	0x3e84993e	0.25898165
171	0x3e0332da	0.12812367
172	0xbe3af846	-0.18258771
173	0x3c061ffa	0.008186335
174	0x3dda6143	0.106630825
175	0x3d731b75	0.059352357
176	0x3c353ca9	0.011061826
177	0x3dfa9633	0.122356795
178	0x3e09de20	0.1346364
179	0xbe6320de	-0.22180507
180	0xbd02f8a7	-0.031975415
181	0x3a5d5d7a	0.000844441
182	0xbc442f51	-0.011974172
183	0x3db6d15b	0.0892665
184	0x3e80687c	0.25079715
185	0x3d89d9bb	0.06730982
186	0xbd08a0f6	-0.03335663
187	0x3e35a6aa	0.17739359
188	0x3d4178fd	0.047234524
189	0x3d9ebf93	0.07751384
190	0xbdeb594a	-0.1149164
191	0xbc4893dc	-0.012242284
192	0x3e83f3fa	0.25772077
193	0x3e11873c	0.14211744
194	0xbde355a1	-0.11100317
195	0xbe79f501	-0.24409868
196	0xbdea1327	-0.11429434
197	0x3d9dcf8f	0.07705604
198	0x3e48be02	0.19603732
199	0x3ddc8314	0.10767189
200	0x3d90e42c	0.0707477
201	0x3e0fd402	0.14045718
202	0x3e91dbec	0.284881
203	0x3e674169	0.22583546
204	0x3b9c45a4	0.004769044
205	0xbbcbfdd6	-0.006225328
206	0xbd1fe864	-0.039039984
207	0x3bacdf3f	0.0052756364
208	0x3cce37f9	0.025173174
209	0xbe43c4aa	-0.1911799
210	0x3d6297a3	0.055320393
211	0xbcbf9516	-0.02338652
212	0xbe1f28a5	-0.15542848
213	0xbe55d44e	-0.20881769
214	0x3e03c5fc	0.12868494
215	0x3d3e3e10	0.046445906
216	0x3c939a9a	0.018018056
217	0xbe1dbd46	-0.15404233
218	0xbd3b3a1c	-0.045709714
219	0x3d821442	0.0635152
220	0xbe30fd63	-0.1728416
221	0xbe61259c	-0.21987003
222	0xbd36c7f6	-0.04462429
223	0xbdbdfd22	-0.09276797
224	0x3e311212	0.1729205
225	0x3de6418d	0.112429716
226	0x3e2bd2b7	0.167796
227	0xbd22f332	-0.03978271
228	0x3d9eaa0a	0.07747276
229	0x3df57479	0.11985106
230	0x3de7c7f5	0.11317436
231	0xbd14c735	-0.03632279
232	0x3d9404a0	0.07227445
233	0x3da55c78	0.08074278
234	0xbcd7a197	-0.02632217
235	0xbdcafda0	-0.099116564
236	0xbe0de37a	-0.13856307
237	0xbdad1dae	-0.084529266
238	0xbe43ec7a	-0.19133177
239	0x3e14c34b	0.14527623
240	0xba809893	-0.0009811096
241	0xbd2ca007	-0.0421448
242	0xbd5973c5	-0.053088922
243	0x3e573e76	0.2101992
244	0x3d446fbd	0.047958124
245	0x3d618e66	0.055067442
246	0x3e5b74d8	0.21431291
247	0xbe82f8e8	-0.25580525
248	0x3bab048a	0.005219047
249	0xbd5d0c5a	-0.053966857
250	0x3c53b457	0.012921414
251	0xbd9bd5c5	-0.07609133
252	0x3e45bac2	0.19309524
253	0x3cea9f04	0.028640278
254	0xbcd10b5f	-0.025518117
255	0xbcb29e0c	-0.021803878

fc2.weight f4 [256, 256]
0	0x3e58df38	0.21178901
1	0xbed9020d	-0.42384377
2	0xbe262d90	-0.16228318
3	0x3c689dd9	0.01419779
4	0xbd72c573	-0.059270333
5	0x3de1f08f	0.11032211
6	0xbe490eb1	-0.1963451
7	0xbdff79a0	-0.1247437
8	0xbe6f02c5	-0.233409
9	0xbf204b5e	-0.62615
10	0x3dbd00b3	0.09228649
11	0xbd2f624f	-0.042818364
12	0xbd0fa2db	-0.03506742
13	0xbd531dfa	-0.05154226
14	0xbeda0da2	-0.42588526
15	0x3ee0a3f8	0.43875098
16	0xbd762f26	-0.060103558
17	0x3c9f05c7	0.019411935
18	0x3d01df58	0.031707138
19	0xbe776440	-0.24159336
20	0x3dd6cc60	0.104882
21	0x3c32afe3	0.0109061925
22	0xbf229719	-0.63511807
23	0x3ceb9a69	0.028760152
24	0xbc15692b	-0.009119312
25	0xbdeafeed	-0.114744045
26	0x3e3df89c	0.18551868
27	0x3ce42dbd	0.027853841
28	0xbef6ed24	-0.482278
29	0xbedeccc8	-0.4351561
30	0xbf0fc928	-0.56166315
31	0x3dbcf111	0.09225667
32	0xbe219a84	-0.157816
33	0x3de91ac4	0.11382058
34	0x3bf9d996	0.007624815
35	0xbd5588f0	-0.052132547
36	0x3de56af5	0.11202041
37	0xbd6007b7	-0.054694857
38	0x3bf67957	0.007521789
39	0x3e0ab079	0.13543881
40	0xbdd36929	-0.10322792
41	0x3d355ab4	0.044275954
42	0xbd907823	-0.07054164
43	0x3e0a031d	0.1347775
44	0xbf0f6783	-0.5601732
45	0x3d8d85dd	0.06910298
46	0x3d8953c7	0.067054324
47	0x3d394942	0.04523588
48	0xbe2059cd	-0.15659256
49	0xbe786abd	-0.24259467
50	0x3d9d3b67	0.07677346
51	0xbee8318b	-0.45350298
52	0xbe8faab9	-0.2805994
53	0xbf215d6a	-0.63033164
54	0xbd9ae510	-0.075632215
55	0xbcb0ae58	-0.021567509
56	0x3db63eea	0.08898719
57	0x3dfad5e6	0.12247829
58	0x3ea9fc4a	0.33200294
59	0x3c9bafb3	0.019004678
60	0x3cd91e7a	0.02650379
61	0x3d76a94c	0.060220048
62	0xbe570e27	-0.21001492
63	0xbf12b360	-0.57304955
64	0xbe696e24	-0.22795922
65	0xbe829e1f	-0.25511262
66	0x3defcdc8	0.117091715
67	0x3d2ccf0a	0.042189635
68	0xbecc6203	-0.39918527
69	0x3be0e989	0.006863777
70	0x3e8bb1e8	0.2728417
71	0xbe6b1094	-0.22955543
72	0xb9ff9473	-0.00048747993
73	0x3d2a0684	0.04151012
74	0x3bcebad0	0.006308891
75	0x3db5801f	0.08862328
76	0xbbd4c0da	-0.0064927163
77	0x3cf9ca5d	0.030492002
78	0x3db3cf80	0.08779812
79	0xbe9f9726	-0.31170005
80	0x3da99966	0.082812116
81	0xbcd9f9ba	-0.026608337
82	0xbd0457f5	-0.032310445
83	0x3c3b1913	0.011419552
84	0x3deb7fef	0.11499011
85	0x3d30903b	0.0431063
86	0x3d57764d	0.052603055
87	0xbd63e48d	-0.055637885
88	0xbe70df9a	-0.23522797
89	0xbc50425e	-0.012711136
90	0xbe749c60	-0.23887777
91	0x3e00aacf	0.12565158
92	0x3de61011	0.11233533
93	0xbd477713	-0.048697542
94	0x3e100820	0.140656
95	0xbbae67f8	-0.0053224526
96	0x3ba483c9	0.005020593
97	0xbe98853c	-0.2978915
98	0xbe19a3fb	-0.1500396
99	0xbee700e9	-0.45117882
100	0xbef7008a	-0.482426
101	0xbe015d82	-0.12633327
102	0xbd2efd0d	-0.042721797
103	0xbcd43ac1	-0.025906922
104	0xbe262d6d	-0.16228266
105	0x3d88b863	0.06675794
106	0xbd881caf	-0.06646096
107	0xbc252761	-0.010080189
108	0x3e976094	0.2956587
109	0xbe31aa4f	-0.17350124
110	0xbdb8fce8	-0.09032613
111	0xbf375e07	-0.7162785
112	0x3ce1aa4d	0.027547026
113	0xbf3451be	-0.7043723
114	0xbd3bd1bf	-0.045854326
115	0xbe1e7486	-0.15474138
116	0x3d74c726	0.059760235
117	0xbea35e31	-0.319078
118	0xbc2da82a	-0.0105991755
119	0xbf24eb76	-0.64421785
120	0xbd5843b0	-0.052798927
121	0xbe2c0b45	-0.16801174
122	0xbe85c18e	-0.26124233
123	0x3dec57ba	0.1154017
124	0x3dc40ee7	0.09573155
125	0x3c468d00	0.012118578
126	0x3d9b9aa0	0.07597852
127	0xbdce3fb3	-0.100707434
128	0x3ae9361a	0.0017792613
129	0xbe5a61e0	-0.21326399
130	0x3c2a9897	0.010412357
131	0x3d048dcf	0.0323618
132	0x3e355bb4	0.17710763
133	0x3d81a928	0.06331092
134	0xbe2983b1	-0.16554143
135	0x3d82bcb4	0.063836485
136	0xbd83f969	-0.064440556
137	0xbc6e9def	-0.0145640215
138	0x3c35e324	0.011101518
139	0x3ec1ceaf	0.37853
140	0x3b9253b3	0.004465544
141	0xbee71a20	-0.4513712
142	0x3d62e6a6	0.055395745
143	0x3e4a2b7a	0.19743147
144	0x3ce0275e	0.027362522
145	0xbd4cc768	-0.049994856
146	0x3e390b79	0.18070783
147	0x3e5a096b	0.21292655
148	0x3ded89b0	0.115985274
149	0xbc651c20	-0.013983756
150	0xbe89494a	-0.26813728
151	0x3e9f5c8b	0.31125292
152	0xbb5b96d3	-0.0033506646
153	0xbf75e302	-0.9604951
154	0xbe873892	-0.26410347
155	0x3d482c91	0.048870627
156	0xbcf60eb1	-0.030036302
157	0x3e01fd13	0.12694196
158	0x3ec24b99	0.379483
159	0xbd1e1906	-0.038598083
160	0x3df4858e	0.11939536
161	0xbdb1263e	-0.08649872
162	0xbd94282e	-0.07234226
163	0xbe4903c9	-0.1963035
164	0x3da85e12	0.082210675
165	0x3d98609b	0.07440301
166	0xbbb4ce07	-0.0055177244
167	0x3e9f8329	0.31154755
168	0xbe6f7b11	-0.2338679
169	0xbc39eb02	-0.011347534
170	0xbd37a672	-0.04483647
171	0xbd9a8f57	-0.07546871
172	0xbda9298d	-0.08259878
173	0x3c4ba9e6	0.012430644
174	0xbe03b29f	-0.12861107
175	0x3e1d4794	0.15359336
176	0xbde9bf7e	-0.11413477
177	0xbe8c681d	-0.27423182
178	0x3d431650	0.0476287
179	0xbe16ae34	-0.1471489
180	0xbd08f081	-0.033432487
181	0xbea5f8e4	-0.3241645
182	0x3ccb2760	0.024799049
183	0x3cc76e69	0.02434464
184	0xbc95ea30	-0.018300146
185	0xbd8218ca	-0.063523844
186	0x3d0dd899	0.03463039
187	0x3e40ab54	0.18815356
188	0x3d923460	0.07138896
189	0x3d031409	0.03200153
190	0xbdc8cfad	-0.09805236
191	0xbe05bb8d	-0.13059826
192	0xbc285d40	-0.010276139
193	0x3d45975b	0.048240047
194	0x3e429206	0.19001016
195	0x3db67bde	0.089103445
196	0x3c24f247	0.010067529
197	0x3db08e69	0.086209126
198	0xbd8e5ad2	-0.06950916
199	0xbbbf7437	-0.0058427113
200	0xbe16ac9f	-0.14714287
201	0xbea67902	-0.32514197
202	0xbd3aea0a	-0.045633353
203	0xbd5e9725	-0.05434336
204	0xbd4542c1	-0.048159365
205	0xbdab142c	-0.08353457
206	0xbc956de3	-0.018240875
207	0xbdc8cca2	-0.098046556
208	0xbe892f0e	-0.26793712
209	0x3da1361c	0.07871649
210	0xbf7c0b3d	-0.9845465
211	0x3e874808	0.26422143
212	0xbe7a740b	-0.2445833
213	0x3d249c60	0.040188193
214	0x3cc48f61	0.02399415
215	0x3e042ab6	0.12906918
216	0xbe6407ce	-0.22268602
217	0x3d9705de	0.07374166
218	0x3da69c65	0.08135299
219	0xbeeaa494	-0.45828688
220	0xbea0f808	-0.31439233
221	0xbf008fe6	-0.5021957
222	0xbe873ffc	-0.26416004
223	0xbd394ba3	-0.04523815
224	0x3d7bd28b	0.061480086
225	0x3e4e6fb4	0.20159799
226	0xbe8bf322	-0.27333933
227	0xbcabd294	-0.020974435
228	0xba14fbba	-0.0005683262
229	0xbcdf31ce	-0.027245428
230	0x3dd73524	0.10508183
231	0xbdbe1873	-0.09282007
232	0xbe9b0dec	-0.3028406
233	0xbe871462	-0.26382738
234	0xbb97b60c	-0.004629856
235	0xbf10948f	-0.5647668
236	0x3d0b838f	0.03406101
237	0x3c57b98d	0.013166797
238	0x3d024ef7	0.031813588
239	0x3d950859	0.07276983
240	0xba32e30c	-0.0006823994
241	0x3e0235af	0.12715791
242	0xbca9c037	-0.020721538
243	0xbe6673fe	-0.22505185
244	0xba81d3b6	-0.0009905014
245	0xbdddda12	-0.10832609
246	0x3dac9527	0.08426886
247	0xbe185bb0	-0.14878726
248	0xbe4906fd	-0.19631572
249	0xbe60ffbc	-0.21972555
250	0xbeaeafb5	-0.3411843
251	0xbf5f8537	-0.87312645
252	0x3dc448fc	0.09584233
253	0xbe521ece	-0.20519564
254	0xbe945a86	-0.28975314
255	0x3d8a2588	0.0674544

fc2.bias f4 [256]
0	0x3dbf698d	0.09346304
1	0x3d23d6da	0.03999982
2	0x3d5fd70a	0.054648437
3	0xbcf9d74c	-0.03049817
4	0x3d51fd8d	0.051267195
5	0x3d5287bd	0.05139898
6	0x3d697a1c	0.05700122
7	0xbc4606c7	-0.012086577
8	0x3d98860d	0.07447443
9	0xbd7b5300	-0.06135845
10	0x3daa05c0	0.08301878
11	0x3bb0b2e2	0.0053924182
12	0x3dc71bee	0.09722124
13	0x3de4b9ec	0.11168274
14	0x3bb4718f	0.0055067013
15	0xbd87da04	-0.0663338
16	0xbd78214c	-0.06057863
17	0x3d490f8f	0.049087103
18	0x3d38a885	0.045082588
19	0xbd570136	-0.05249139
20	0x3d2a4cfa	0.041577317
21	0xbcda0a5e	-0.026616272
22	0xbcb6ec88	-0.022329584
23	0x3dbe6113	0.09295859
24	0x3cf8f28b	0.030389091
25	0xbb8513f7	-0.004061218
26	0x3b05637c	0.0020353487
27	0x3da240a7	0.07922488
28	0x3c6b25c3	0.014352265
29	0x3d5dc878	0.05414626
30	0xbc291ed3	-0.0103222905
31	0xbd261609	-0.040548358
32	0x3dc8b5b2	0.09800281
33	0x3c81a6c0	0.015826583
34	0x3d0d62f7	0.03451821
35	0x3c4c40a9	0.012466588
36	0x3c8801a4	0.016602345
37	0x3ce6d8e9	0.028179603
38	0x3d8036ae	0.06260429
39	0x3d42322f	0.04741114
40	0x3d016480	0.031589985
41	0x3df67fb1	0.12036074
42	0x3d383a61	0.04497755
43	0x3dcb525a	0.09927817
44	0xbd574d84	-0.05256416
45	0x3c04f3ba	0.00811475
46	0x3cd58904	0.02606631
47	0x3d476687	0.048681762
48	0xbd3c1056	-0.045914017
49	0x3c2b6776	0.010461679
50	0xbe414bd6	-0.18876585
51	0x3ddb17bc	0.10697886
52	0xbe0bc9c8	-0.13651192
53	0xbe057ed5	-0.13036664
54	0xbb76235e	-0.0037557702
55	0xbe249785	-0.16073425
56	0x3cac8eb8	0.021064147
57	0xbd539b6c	-0.051661894
58	0x3d5eb13a	0.054368235
59	0x3d64a807	0.055824306
60	0x3d29039b	0.041263204
61	0x3c4d3205	0.012524133
62	0x3b16ab26	0.0022990196
63	0x3e056560	0.13026953
64	0xbc368fc8	-0.011142679
65	0x3c94791c	0.018124156
66	0x3d95d023	0.073150896
67	0xbcb3f3be	-0.021966811
68	0xbe3d34e6	-0.1847721
69	0xbcb1e806	-0.021717083
70	0x3d71e211	0.059053484
71	0x3d310f34	0.04322739
72	0x3d0c231f	0.03421318
73	0x3d73c2ba	0.059511878
74	0x3aa8df30	0.0012883898
75	0xbda9c7d7	-0.082900696
76	0x3debf656	0.11521594
77	0x3d0ae622	0.033910878
78	0x3d8f3b21	0.069937
79	0x3d4beb06	0.049784683
80	0x3c88ce45	0.01669992
81	0x3c301b06	0.01074863
82	0x3cd3e614	0.025866546
83	0x3d9f7b31	0.07787169
84	0xbac30176	-0.0014877755
85	0x3df9c59b	0.121958934
86	0xbc0615b6	-0.008183887
87	0x3ce99249	0.028512137
88	0x3c1e830f	0.0096748015
89	0x3d9e77c8	0.0773769
90	0x3d465756	0.048423134
91	0x3cd558dc	0.026043348
92	0xbd2ec77e	-0.04267072
93	0x3c32edf4	0.01092099
94	0xbcf0ac56	-0.029379051
95	0x3d6717bf	0.05641913
96	0x3d99b76f	0.0750569
97	0x3d547fe0	0.051879764
98	0x3d23d3a4	0.039996758
99	0xbc10a027	-0.008827246
100	0x3a88142b	0.0010381987
101	0x3c143371	0.009045468
102	0x3e0b6d6b	0.13615958
103	0xbd0505cd	-0.032476235
104	0x3d7c7603	0.061635982
105	0x3cd534af	0.026026098
106	0xba31b0f9	-0.0006778385
107	0x3ce677ea	0.028133351
108	0xbd7050d5	-0.058670837
109	0xbca581ce	-0.020203497
110	0x3d1d1f7a	0.038360097
111	0x3d3074e5	0.04308023
112	0xbcc32809	-0.023822801
113	0x3caabf9e	0.020843323
114	0x3c8ee2ce	0.017442133
115	0xbc534b02	-0.012896301
116	0x3cef6e88	0.02922751
117	0x3dcd74d2	0.10032047
118	0x3d47a93a	0.04874537
119	0x3d3e9e8c	0.04653792
120	0xbd85be5f	-0.06530451
121	0x3d845c53	0.06462922
122	0x3d6b0b0b	0.05738358
123	0xbd0ae7d0	-0.03391248
124	0x3b26388e	0.00253633
125	0xbcb02c81	-0.021505596
126	0x3dd77732	0.105207816
127	0x3c021cdf	0.007941454
128	0x3e0dac70	0.13835311
129	0x3d9f946f	0.07791983
130	0x3a7044a8	0.0009165504
131	0x3d709c0b	0.058742564
132	0x3cd3fd63	0.02587766
133	0x3b7b31fe	0.0038329358
134	0x3c7d9d97	0.015479467
135	0x3d47c5df	0.04877269
136	0x3ca85063	0.020546144
137	0xbccbeb10	-0.02489236
138	0x3d0551a5	0.032548565
139	0x3ddaade2	0.10677697
140	0xbd9ef3b2	-0.07761325
141	0x3d91750b	0.07102402
142	0xbb965cd6	-0.0045887036
143	0xbdfa2bfe	-0.12215422
144	0x3c0e6838	0.00869184
145	0x3d122206	0.03567698
146	0xbd53c10c	-0.051697776
147	0x3d145c0b	0.03622059
148	0x3c6bf57a	0.014401788
149	0x3d882df5	0.066493906
150	0xbd6cfd5b	-0.057858806
151	0x3d9a92f2	0.07547559
152	0x3d588b57	0.05286726
153	0xbd0ad125	-0.033890862
154	0x3d891558	0.06693524
155	0x3d142585	0.036168594
156	0x3c7b90b1	0.015354321
157	0xbdeaf1c5	-0.11471895
158	0xbc3f99c3	-0.0116943745
159	0xbd83f80c	-0.064437956
160	0x3d8094b9	0.062783666
161	0x3ce74450	0.028230816
162	0x3d7865b9	0.060643885
163	0xbcc43476	-0.023950797
164	0x3d33b5a5	0.0438744
165	0xbd805649	-0.062664576
166	0xbc151e3a	-0.009101445
167	0x3d88d0df	0.06680464
168	0x3c0493e9	0.008091905
169	0x3dcc5c2d	0.09978519
170	0x3c3cee67	0.011531449
171	0x3da20f4d	0.07913075
172	0xbcf47be2	-0.029844228
173	0x3d3cd049	0.046097074
174	0x3d5029f2	0.050821252
175	0x3c0d94b8	0.008641414
176	0x3c58329a	0.013195658
177	0x3d4c33cc	0.049854085
178	0xbc1f3f8f	-0.009719743
179	0x3d777060	0.060409904
180	0xbdd3b399	-0.1033699
181	0xbc046421	-0.008080513
182	0x3d5c22dc	0.053744182
183	0x3cba061c	0.022707991
184	0x3dc3bfaf	0.09558045
185	0xbc908e45	-0.017645964
186	0x3d2d400d	0.04229741
187	0xbda40966	-0.08009605
188	0xbd0d5883	-0.03450824
189	0x3d8827d4	0.066482216
190	0x3dd2a54a	0.10285433
191	0x3d93a72b	0.07209619
192	0xbccf0455	-0.02527062
193	0xbc839808	-0.016063705
194	0x3d123a4e	0.035700135
195	0xbd892ffb	-0.06698605
196	0x3cc59cad	0.02412256
197	0xbbb7caee	-0.005608908
198	0x3d9fefeb	0.078094326
199	0x3d8ad89d	0.06779597
200	0x3d8148c6	0.063127086
201	0x3c23918a	0.00998343
202	0x3d119018	0.03553781
203	0x3d8a0d2b	0.06740793
204	0xbd203abe	-0.03911852
205	0x3c1f24cd	0.009713364
206	0xbcf57f74	-0.029968001
207	0x3dbb8448	0.0915609
208	0x3d864c74	0.06557551
209	0x3c59eefa	0.013301605
210	0x3d476457	0.048679676
211	0xbcccf196	-0.02501754
212	0x3cf8764a	0.030329842
213	0xbd0efd30	-0.034909427
214	0x3cc342b6	0.023835521
215	0x3d860e14	0.06545654
216	0xbd08d328	-0.0334045
217	0xbd8bc9ce	-0.068256006
218	0xbd6986fe	-0.057013504
219	0x3d9738d0	0.07383883
220	0x3da65e91	0.08123506
221	0x3ca10fd9	0.019660877
222	0xbde3cd50	-0.111231446
223	0x3cb2fe5a	0.0218498
224	0xbd574475	-0.05255552
225	0x3d8262d4	0.06366506
226	0x3dd0f8f7	0.10203736
227	0xbd86d135	-0.06582872
228	0x3d874b9e	0.0660622
229	0x3b845f96	0.004039715
230	0xbafb36d9	-0.0019166126
231	0x3de94817	0.11390703
232	0xbc989d32	-0.018629644
233	0xbcd3fe41	-0.025878074
234	0x3c461780	0.012090564
235	0x3c918d2d	0.017767513
236	0x3dbb1d27	0.0913642
237	0xbcced107	-0.025246156
238	0xbd5937a9	-0.053031597
239	0xbc829f6d	-0.01594516
240	0x3d83753f	0.06418847
241	0xbceaf0ea	-0.02867933
242	0xbde279e0	-0.11058402
243	0x3dc7b5c4	0.09751466
244	0xbc99f669	-0.018794255
245	0x3da7a3e3	0.08185556
246	0x3dcbce00	0.09951401
247	0x3cef4c39	0.02921115
248	0x3cf5ac1d	0.029989297
249	0xbbd4f0ed	-0.006498447
250	0x3d849fde	0.06475805
251	0x3d80d768	0.062910855
252	0xbc0e509d	-0.008686212
253	0xb9e086ae	-0.00042824954
254	0x3c458e2c	0.012057822
255	0x3d210f28	0.039321095

mean.weight f4 [2, 256]
0	0xbea519f5	-0.32246366
1	0x3c46abb5	0.012125899
2	0xbe31fec7	-0.17382346
3	0xbfd98490	-1.699358
4	0x3e2a0c2c	0.16606206
5	0x3ed4521a	0.4146889
6	0x3e0f6ed5	0.14007123
7	0xbf1b4b0f	-0.60661405
8	0xbea1ea93	-0.31624278
9	0xbce414a4	-0.027841873
10	0x3c2ce483	0.010552528
11	0xbe94b40f	-0.29043624
12	0xbd5e4276	-0.0542626
13	0xbf1a3cfb	-0.602493
14	0x3e64fd7f	0.22362326
15	0xbd8869c6	-0.066608
16	0xbd1248a4	-0.035713807
17	0x3ca6414f	0.020294813
18	0xbe0d339b	-0.13789217
19	0xbd154f3b	-0.036452513
20	0x3dd8f56f	0.10593688
21	0xbe28e85d	-0.1649489
22	0x3e072bf3	0.13200359
23	0x3c63d5ba	0.013905937
24	0xbe986680	-0.297657
25	0xbeb5a402	-0.3547669
26	0xbe7c81b3	-0.24658851
27	0x3ef94c66	0.486911
28	0xbe89efed	-0.2694086
29	0xbde30a8f	-0.11085998
30	0x3d643ac1	0.055720095
31	0x3eb7f1da	0.35926706
32	0xbe9edf98	-0.31029963
33	0xbb983c73	-0.004645878
34	0x3d2057a0	0.039146066
35	0x3e15061e	0.14553115
36	0xbbb5e0f8	-0.0055505
37	0x3dbc555d	0.09195969
38	0xbc87175a	-0.016490627
39	0x4011605d	2.2715065
40	0xbd016e83	-0.031599533
41	0xbddbb945	-0.10728697
42	0x3fcb994b	1.5906156
43	0xbe49d0e9	-0.19708599
44	0xbe0d3b9f	-0.13792275
45	0x3e44cb84	0.1921826
46	0x3d152bf3	0.036418866
47	0x3cc25b7e	0.023725267
48	0x3d7ec577	0.062200036
49	0x3de11324	0.10989979
50	0x3f051fea	0.5200182
51	0x3efed9af	0.49775454
52	0xbef1b78d	-0.4721035
53	0xbf0930bc	-0.5358999
54	0xbbf5ad3b	-0.0074974573
55	0xbeda9871	-0.4269443
56	0x400d407a	2.2070603
57	0xbe42413d	-0.18970199
58	0x3e697240	0.22797489
59	0x3e25d3ea	0.1619412
60	0xbebaf99b	-0.3651856
61	0xbe16ed89	-0.1473905
62	0xbe95d2e0	-0.29262447
63	0x3e134f22	0.14385656
64	0xbe822aba	-0.25423223
65	0x3ef46905	0.47736374
66	0xbc3e6849	-0.011621543
67	0x3f0684f3	0.52546614
68	0xbed50e2e	-0.4161238
69	0xbec3685f	-0.38165566
70	0xbd545a87	-0.051844146
71	0xbee366b9	-0.4441431
72	0xbebc1efe	-0.36742395
73	0x3e5eb977	0.21750437
74	0xbee6467e	-0.44975656
75	0xbf1b192d	-0.6058529
76	0xbdfdd34a	-0.12393816
77	0x3ea2ba16	0.31782597
78	0xbe45fd31	-0.19334866
79	0xbdd18086	-0.10229592
80	0xbe4df769	-0.2011391
81	0xba3bd450	-0.0007165121
82	0xbeebc959	-0.46052054
83	0xbf64e011	-0.894044
84	0xbe334c53	-0.17509584
85	0xc0552d9b	-3.3309085
86	0xbf8376cc	-1.0270629
87	0x3c87753a	0.01653539
88	0xbe51708b	-0.20453088
89	0xbf192863	-0.5982725
90	0x3e821f56	0.25414532
91	0xbe005cd1	-0.12535407
92	0x3e66bf77	0.22533976
93	0x3e509903	0.2037087
94	0xbfb7b268	-1.435132
95	0x3f057264	0.5212767
96	0xbe08440d	-0.1330721
97	0x3e62ef4b	0.22161596
98	0x3acead47	0.0015768193
99	0xbdb13c85	-0.08654121
100	0x3ed9335e	0.42422003
101	0x3d6e6614	0.058202818
102	0xbee9ad4f	-0.45640036
103	0x3bfcf6ca	0.0077198492
104	0x3e5cdbda	0.21568242
105	0x3e0c5a3d	0.13706298
106	0xbcf426bc	-0.029803626
107	0xbdabb6e2	-0.083844915
108	0xbd4026da	-0.04691205
109	0xbeb14541	-0.3462315
110	0xbc111d43	-0.008857074
111	0x3e2f8f40	0.1714449
112	0xbf288ce2	-0.6583997
113	0xbf2d6ae0	-0.67741203
114	0x3d8aed3b	0.06783529
115	0xbdbaa500	-0.091135025
116	0xbed9a25a	-0.42506677
117	0xbed3649b	-0.41287693
118	0x3dd25cc3	0.10271599
119	0xbe0d9331	-0.1382568
120	0x3d555fa1	0.052093152
121	0xbed1d2df	-0.40981194
122	0xbe7eb180	-0.24872398
123	0xbdfafe05	-0.12255482
124	0xbe260f05	-0.16216667
125	0x3eb4c16e	0.35303825
126	0x3b8a8eba	0.00422844
127	0xbe3f3a54	-0.18674594
128	0x3d60f593	0.054921698
129	0x3ec59287	0.38588354
130	0xbd9558f2	-0.072923556
131	0xbe484e2d	-0.19561072
132	0xbd2e647b	-0.042576294
133	0x3e3c88f5	0.1841162
134	0x3c8f47b4	0.017490245
135	0xbe122ff5	-0.14276107
136	0x3dfe2c82	0.12410833
137	0x3db4f0ff	0.08835029
138	0xbe974273	-0.29542884
139	0xbe56339d	-0.20918126
140	0xbeb91602	-0.36149603
141	0x3dd1da99	0.10246772
142	0x3e5554b0	0.20833087
143	0xbeb585f2	-0.35453755
144	0xbe0982c0	-0.13428783
145	0xbe5beb6f	-0.2147653
146	0x3d2ddf67	0.04244938
147	0xbf1ae22b	-0.60501355
148	0x3e9308f8	0.2871778
149	0x3e67888b	0.22610681
150	0x3cfa26ea	0.030536134
151	0xbf08ce95	-0.5344022
152	0x3ec3582f	0.38153216
153	0x3d18d36a	0.037310995
154	0x3da10a8c	0.0786334
155	0x3d46aebf	0.048506495
156	0x3eb843ea	0.35989314
157	0xbf2fdb5b	-0.68694085
158	0x3ddeabdf	0.108726256
159	0x3e765f35	0.24059756
160	0x3da0c88e	0.07850753
161	0x3f104d45	0.56367904
162	0xbe6c8e47	-0.2310115
163	0xbed1634b	-0.40896067
164	0x3e2cddf7	0.16881548
165	0xbdeb5baa	-0.11492093
166	0xbe6c691a	-0.23086968
167	0x3f1b2e76	0.6061777
168	0xbe521132	-0.20514372
169	0xbe3e7c64	-0.18602139
170	0x3ed3c861	0.41363814
171	0xbe15e5dd	-0.14638467
172	0x3e74903b	0.23883145
173	0xbe447f8a	-0.19189277
174	0xbe22ef16	-0.15911517
175	0xbe508647	-0.20363723
176	0xbd781cc9	-0.060574327
177	0x3c35ab85	0.011088257
178	0xbe5514d5	-0.20808728
179	0x3ee5a24b	0.44850382
180	0x3ec6a0de	0.38794607
181	0x3d1e85a9	0.038701687
182	0xbf3f63f5	-0.747619
183	0x3dff90ea	0.12478812
184	0xbe51806d	-0.20459147
185	0x3ea7e76c	0.32793748
186	0x3e1f9fc2	0.15588287
187	0xbec377c7	-0.3817732
188	0xbef519c2	-0.47871214
189	0x3fd139a8	1.634572
190	0x3e3cf393	0.18452291
191	0x3ebdaa94	0.37044203
192	0x3f96d98f	1.1785144
193	0xbeb989f6	-0.36238068
194	0xbe452614	-0.19252807
195	0x3d337e52	0.04382164
196	0x402fa5c0	2.7444916
197	0x3cd48f67	0.025947286
198	0xbd889b92	-0.06670298
199	0xbe5b7d7b	-0.21434586
200	0x3e2ddc75	0.16978629
201	0x3e2b5034	0.16729814
202	0xbceb2cb2	-0.028707836
203	0xbe924910	-0.28571367
204	0xbe724534	-0.23659211
205	0xbe8c0ba8	-0.27352643
206	0x3ed2ae7e	0.41148752
207	0xbe4d426a	-0.20044866
208	0x3f9d1fe1	1.2275354
209	0x3e9142a0	0.28371143
210	0x3d9caecd	0.07650528
211	0xbd211c15	-0.03933342
212	0x3eb4a424	0.3528148
213	0x3e454e58	0.19268167
214	0x3f1ffb51	0.62492853
215	0xbeb7796c	-0.35834825
216	0x3c46c02e	0.01213078
217	0x3ed5c119	0.41748884
218	0x3ef12bd6	0.47103757
219	0xbeb94750	-0.3618722
220	0xbe53daae	-0.20688888
221	0xbedba133	-0.42896423
222	0x3eec2afc	0.46126544
223	0xbec5559d	-0.3854188
224	0xbd0c31f5	-0.03422733
225	0x3e9e1f68	0.30883336
226	0x3d361cbc	0.044460997
227	0xbda9ba9e	-0.082875475
228	0xbb0d886e	-0.002159621
229	0xbf155068	-0.58325815
230	0xbd085001	-0.033279423
231	0xbe9da6f1	-0.3079143
232	0x3ee30316	0.44338292
233	0x3bdebe15	0.006797562
234	0x3ec6bfd7	0.38818237
235	0x3f6486d4	0.8926823
236	0x3ef6c465	0.48196712
237	0xbeb1b689	-0.34709576
238	0xbd18b8c7	-0.037285592
239	0x3f16b9da	0.58877337
240	0xbe063f26	-0.13110027
241	0x3e52ca3e	0.20584962
242	0x3f23f604	0.64047265
243	0xbdb7793e	-0.08958672
244	0x3d35416b	0.04425184
245	0xbe5b6bd7	-0.21427856
246	0xbea65453	-0.3248621
247	0xbeac9f61	-0.33715346
248	0x3e56d9ab	0.20981471
249	0xbe7d3450	-0.24726987
250	0x3e5f1300	0.21784592
251	0xbe5173e8	-0.20454371
252	0x3ec6b01d	0.3880624
253	0x3f26e672	0.6519538
254	0xbeb5093c	-0.35358608
255	0x3e232991	0.15933825

mean.bias f4 [2]
0	0xbc8d99e3	-0.017285293
1	0xbd8b8ee0	-0.068143606

log_std.weight f4 [2, 256]
0	0xbf479522	-0.77961934
1	0xbe2bc656	-0.16774878
2	0xbd6232aa	-0.0552241
3	0x3f8c741f	1.0972937
4	0xbd8d8198	-0.06909484
5	0x3e08ceee	0.13360187
6	0xbcd383b9	-0.025819646
7	0xbe4dac5e	-0.20085284
8	0x3b097bf8	0.0020978432
9	0x3cd6c104	0.026215084
10	0xbe634a5b	-0.22196333
11	0x3e34a2ee	0.17640278
12	0xbdac8001	-0.08422852
13	0xbed8f465	-0.42373958
14	0xbe84cec8	-0.25939012
15	0x3e436e1a	0.19084969
16	0xbd6e3a6a	-0.058161177
17	0x3bb8299e	0.0056201955
18	0xbe73868b	-0.23781793
19	0xbc1a6b94	-0.009425063
20	0x3b9c50cd	0.0047703744
21	0x3cb02b37	0.021504981
22	0xbd77663a	-0.060400225
23	0xbea407da	-0.3203724
24	0xbd460b9c	-0.048350915
25	0xbd758b90	-0.05994755
26	0x3eb81912	0.35956627
27	0x3e7382d7	0.2378038
28	0x3c81944d	0.015817786
29	0x3e03a2ea	0.12855116
30	0xbcf2a1a7	-0.029618097
31	0xbe2ec8e6	-0.17068824
32	0xbec0d0d7	-0.37659332
33	0x3e115da5	0.14195879
34	0xbe1e0143	-0.15430169
35	0xbe6a8379	-0.22901715
36	0xbd447a7a	-0.047968365
37	0x3c82e3be	0.015977737
38	0xbd8facae	-0.07015358
39	0x3f48ae2f	0.78390783
40	0xbe0d3bb0	-0.137923
41	0x3d0bf756	0.034171425
42	0x3f304093	0.6884853
43	0xbe761b58	-0.24033868
44	0x3dabf6fc	0.08396718
45	0xbea19fd1	-0.31567243
46	0x3cb40974	0.021977164
47	0x3cc89c78	0.024488673
48	0xbe90fe6f	-0.28319117
49	0x3d27801a	0.04089365
50	0xbea0cfa7	-0.31408426
51	0x3efd7f9a	0.49511415
52	0x3f0b08d7	0.54310364
53	0xbddec675	-0.108776964
54	0xbcc8ab92	-0.024495874
55	0x3e2c1f57	0.1680883
56	0x3f6dd4fe	0.92903125
57	0x3ea93f92	0.33056313
58	0x3d150c62	0.036388762
59	0xbebace77	-0.36485645
60	0x3dd83d8f	0.10558616
61	0xbd543963	-0.05181254
62	0x3d04a054	0.032379463
63	0xbe31674a	-0.17324558
64	0xbe391552	-0.1807454
65	0x3dc1cb09	0.09462554
66	0xbec45b1c	-0.3835076
67	0x3f227e94	0.6347439
68	0x3ea97e75	0.33104292
69	0xbb878504	-0.0041357297
70	0xbe8650a0	-0.26233387
71	0xbe979161	-0.29603103
72	0x3e7cfad3	0.24705057
73	0xbe7ed8e8	-0.2488743
74	0xbe2ec918	-0.17068899
75	0x3e356685	0.1771489
76	0xbdae649d	-0.08515284
77	0x3dcb5022	0.099273935
78	0xbe8a10bb	-0.2696589
79	0x3b52a708	0.0032143015
80	0xbea67027	-0.3250744
81	0x3d838bda	0.06423159
82	0x3c87ea6d	0.016591275
83	0x3c96fa17	0.018429799
84	0xbe6daec4	-0.23211199
85	0x3fe0ac9c	1.7552676
86	0x3f12e028	0.57373285
87	0xbe370e9e	-0.1787667
88	0xbc6786bc	-0.014131244
89	0x3e9a49d5	0.30134454
90	0xbde35129	-0.110994644
91	0xbe7cb8bd	-0.24679847
92	0x3e0bb311	0.13642527
93	0xbe020b38	-0.12699592
94	0x3d09c628	0.033636242
95	0x3d3ce5a3	0.046117436
96	0x3e587a2c	0.21140355
97	0xbd0a13f7	-0.033710446
98	0xbcf4e14c	-0.029892586
99	0x3e2b1a2e	0.16709206
100	0x3cab1b62	0.02088708
101	0x3d1b1715	0.03786381
102	0x3eba5b2b	0.3639768
103	0xbcc05a82	-0.023480657
104	0x3eb18180	0.34669113
105	0xbe13edb3	-0.14446144
106	0x3e61712e	0.22015831
107	0x3e74e057	0.23913704
108	0x3d587e24	0.052854672
109	0x3e079a1f	0.13242386
110	0xbc88bfeb	-0.016693076
111	0x3e69e7cd	0.22842331
112	0xbf011962	-0.50429356
113	0xbf03a158	-0.51418066
114	0xbe565421	-0.2093053
115	0xbe419116	-0.18903002
116	0xbcb91f22	-0.022597853
117	0x3dd87e26	0.10570936
118	0xbe6bc0c0	-0.23022747
119	0xbebd8f45	-0.37023368
120	0xbc061efc	-0.008186098
121	0xbdc17e2e	-0.09447895
122	0xbd27af1e	-0.04093849
123	0x3cb278df	0.021786151
124	0xbdf8a21c	-0.12140295
125	0xbdb0050f	-0.08594715
126	0xbe01874f	-0.12649272
127	0xbdf7b5f7	-0.12095254
128	0xbe6410b9	-0.22272004
129	0x3beb27f5	0.007176394
130	0xbd96d9a5	-0.07365731
131	0xbd2b9ce8	-0.041897684
132	0xbebe1545	-0.37125602
133	0x3db05981	0.086108215
134	0x3ca483a3	0.0200823
135	0xbe9a59dd	-0.30146685
136	0xbea6a916	-0.32550877
137	0x3df1cb71	0.118063815
138	0xbdd0496f	-0.10170256
139	0xbeef86e8	-0.46782613
140	0x3eaac61b	0.33354267
141	0x3e8831e4	0.26600564
142	0xbd9f252a	-0.0777076
143	0x3ec00fd2	0.3751207
144	0xbeaa531e	-0.33266538
145	0xbe5b7050	-0.21429563
146	0xbd3e11fd	-0.046403874
147	0x3ecc4c77	0.39902088
148	0x3c80e1d0	0.015732676
149	0x3cabeb08	0.020986095
150	0xbd31cedf	-0.04341018
151	0xbebc8c9b	-0.36826023
152	0xbd836377	-0.06415456
153	0x3da47b81	0.08031369
154	0xbea0cd63	-0.31406698
155	0xbdb77a25	-0.08958844
156	0x3e5aa996	0.21353754
157	0x3d330d16	0.04371365
158	0x3dbd10f1	0.09231747
159	0xbe4e93df	-0.20173596
160	0xbe6ba190	-0.2301085
161	0xbd3d5934	-0.04622765
162	0x3dc7a1db	0.09747668
163	0x3e9f58ad	0.31122342
164	0xbd81d11c	-0.063387126
165	0xbf1251db	-0.5715615
166	0xbe03ef05	-0.12884147
167	0x3edc6f05	0.4305345
168	0xbb8856a8	-0.004160721
169	0xbda7725e	-0.08176111
170	0x3e3445da	0.17604771
171	0xbe5d36a8	-0.21602881
172	0x3b255d61	0.002523266
173	0x3d5b7788	0.05358079
174	0xbe3703fe	-0.17872617
175	0x3e3907ce	0.18069384
176	0xbd77b040	-0.06047082
177	0xbe881fe3	-0.26586828
178	0x3ea6d89c	0.32587135
179	0xbc65a685	-0.014016752
180	0xbea0cc4b	-0.31405863
181	0xbd617b9a	-0.055049516
182	0x3f1d3254	0.6140492
183	0xbe52c44f	-0.20582698
184	0x3ded4504	0.11585429
185	0x3e36c09e	0.17846915
186	0xbd958e3d	-0.073025204
187	0x3d3e394c	0.04644136
188	0x3f168ce1	0.58808714
189	0x3f0c664f	0.5484361
190	0xbe48efbb	-0.196227
191	0x3cfacba3	0.03061468
192	0x3ea2f85e	0.31830114
193	0x3eac3090	0.336308
194	0x3dce2d31	0.10067213
195	0x3d2f40e1	0.042786483
196	0x3f458698	0.771585
197	0x3c3c967c	0.011510488
198	0xbe0fb026	-0.14032039
199	0x3d8056d1	0.06266559
200	0xbe4da645	-0.20082958
201	0xbdef51e8	-0.11685544
202	0xbdf7a005	-0.12091068
203	0xbdfc8075	-0.12329189
204	0xbdcec04e	-0.10095273
205	0xbdc7265c	-0.09724113
206	0xbe443369	-0.19160236
207	0xbe244f79	-0.16045941
208	0x3e95e18d	0.29273644
209	0xbd2f8e7e	-0.0428605
210	0x3d64fc91	0.05590493
211	0x3d0c6ba9	0.03428236
212	0xbd31a822	-0.043373235
213	0x3d6f79b9	0.058465693
214	0xbcc0e968	-0.023548797
215	0xbec85178	-0.39124656
216	0xbea26ad7	-0.31722137
217	0x3dd7a44b	0.10529383
218	0xbe36cad5	-0.17850812
219	0xbddaa345	-0.106756724
220	0x3bca0cbd	0.0061660693
221	0x3e2400b6	0.16015896
222	0x3d91e33d	0.071234204
223	0x3dbfbd52	0.09362282
224	0xbd4c9656	-0.04994806
225	0x3e059d50	0.13048291
226	0x3e3dd688	0.18538868
227	0x3e3fa21b	0.18714182
228	0xbe8c9d12	-0.27463585
229	0x3a8e8222	0.0010872523
230	0xbe85b208	-0.2611239
231	0x3e101c68	0.14073336
232	0x3e8192b6	0.25307244
233	0xba2f8de6	-0.0006696865
234	0x3da979b3	0.082751654
235	0x3f01576c	0.5052402
236	0x3df477ab	0.11936887
237	0x3e0f438a	0.13990608
238	0xbd20e8fa	-0.039284684
239	0x3e46d2e9	0.19416393
240	0xbdfa7853	-0.12229981
241	0x3e7829de	0.24234721
242	0x3d46fd6a	0.04858152
243	0xbea9e304	-0.33181012
244	0xbc6aaed8	-0.014323913
245	0xbe8703c0	-0.2637005
246	0xbd601828	-0.054710537
247	0x3e0b27dd	0.13589425
248	0x3d03e8fa	0.032204606
249	0xbe228071	-0.15869309
250	0xbd239888	-0.039940387
251	0x3ce732e3	0.028222507
252	0xbe6ddbfb	-0.23228447
253	0x3df1edd0	0.11812937
254	0x3e0febeb	0.1405484
255	0x3e42fc9d	0.19041677

log_std.bias f4 [2]
0	0xbe31728b	-0.17328851
1	0xbe19ce3e	-0.15020081
