sac/SAC_LunarLander_ep300.pth (torch, 279784 bytes, 8 tensors)

fc1.weight f4 [256, 8]
-0.19330306 0.24917723 0.45692375 0.32806373 -0.27833432 -0.5392297 -0.2717724 0.2114028
-0.34632283 -0.002882867 -0.032744307 0.12768985 -0.6668838 -0.110220134 0.5313243 -0.2822956
0.029232055 0.12339436 0.31909 0.35048178 -1.0335394 -0.42341262 -0.27308834 0.13513638
0.18935329 -0.4119397 -0.29759708 0.18384676 0.53735274 0.434396 0.059524205 0.04372237
0.33744437 -0.04771645 -0.3140287 0.17568439 0.60939384 -0.49060187 -0.43846613 0.3429206
0.24488331 -0.21353394 0.5996933 -0.13587677 -0.33388472 0.28006193 0.255404 -0.3126729
-0.0030337644 0.019585159 -0.078221254 0.71150625 0.024237793 0.63317806 0.18706325 -0.2932424
0.1773282 0.42919657 0.21480593 -0.3293119 0.11158167 0.16567512 -0.00015476705 -0.25758752
-0.5079783 0.004673884 0.072712846 0.2548305 -0.34269175 -0.016458744 0.37638125 0.013110877
0.2123119 0.10651549 -0.07721707 -0.08955683 0.47263566 0.82311815 -0.10857387 -0.29077044
0.2990492 0.38580593 -0.057951402 0.3958042 0.467584 -0.027255734 -0.4280651 -0.32594496
-0.2978675 0.23812957 -0.15377009 0.34489337 0.24668726 0.35612354 -0.25726184 0.15000889
0.25370687 0.302558 0.2854669 0.103155114 -0.41138548 -0.1844136 -0.14237775 0.38541597
0.050994016 -0.11202427 0.5730828 0.01934404 -0.5646251 0.9660376 0.37072158 -0.5273232
-0.27405074 -0.41341886 -0.09957077 -0.40622857 0.13055061 0.57633805 -0.10803924 -0.49317247
0.2862369 -0.38142565 0.1416266 0.021371365 0.50530696 0.5529494 0.27008116 -0.3016613
0.06303027 0.17152303 0.22694792 0.66361403 -0.0438205 -0.15650119 -0.12183565 -0.15467969
0.10388462 -0.17790152 0.4323663 -0.22345127 0.63872004 0.47399014 -0.04588821 -0.21421328
-0.26204705 -0.047891658 -0.36615622 -0.4731658 -0.47341302 -0.007397553 0.24662088 -0.3445472
0.49058318 -0.23249285 0.15733157 0.3832722 -0.28424773 0.20508234 -0.74562365 -0.0148259085
-0.10185961 0.35499573 0.7456107 -0.15942237 -0.38198397 0.14917764 -0.3081079 -0.43284044
0.0714113 -0.50172305 0.2100676 0.047805827 0.08898215 0.030431049 0.05835167 0.3649472
-0.08401449 -0.06803353 0.20559542 0.5307584 -0.9495821 -0.07789153 0.019082567 -0.17305432
-0.015222537 -0.3317008 0.6319217 -0.26288018 -0.14104119 0.3414307 -0.3965031 0.15315932
0.26034635 0.2351642 -0.3992998 -0.19869909 -0.24597391 0.1774159 -0.1742732 -0.07739484
0.14686674 0.34483752 -0.10037647 -0.53464025 0.53623843 -0.28751147 0.22355737 -0.28237814
-0.07795211 -0.48545766 0.30134195 -0.26537338 -0.10397667 -0.2572981 -0.30072093 0.16895826
0.59143835 0.03156726 0.62956786 -0.47854418 0.00050456735 -0.12456326 0.024714613 -0.65735966
0.22865056 0.2792886 -0.37243587 -0.2688118 0.15566166 -0.21727407 0.0046766084 0.07232259
0.1762832 -0.10230876 -0.45503193 -0.23418659 0.3937926 0.1822616 0.45350426 0.22446404
0.4409324 -0.44257125 -0.05802719 -0.18122394 0.09591888 0.2991558 -0.15207505 -0.4395596
-0.019143831 0.33282605 -0.17094582 0.055168055 0.57224643 0.61111385 0.3901423 -0.10730006
00000000: 3df1 45be 5128 7f3e e9f1 e93e f8f7 a73e
00000010: d681 8ebe f50a 0abf c125 8bbe fa79 583e
00000020: 3a51 b1be 7bee 3cbb e51e 06bd 21c1 023e
00000030: e6b8 2abf 18bb e1bd df04 083f 0d89 90be
00000040: 1078 ef3c 2fb6 fc3d c45f a33e 5972 b33e
00000050: 054b 84bf 8ac9 d8be 3cd2 8bbe 3161 0a3e
00000060: d4e5 413e c3e9 d2be a55e 98be 5342 3c3e
00000070: f38f 093f 2769 de3e a7cf 733d 3a16 333d
00000080: 82c5 ac3e 5372 43bd 5fc8 a0be 9ce6 333e
00000090: 3c01 1c3f 2b30 fbbe a27e e0be 4a93 af3e
000000a0: b1c2 7a3e a4a8 5abe 8085 193f 4823 0bbe
000000b0: f0f2 aabe 4764 8f3e 50c4 823e aa16 a0be
000000c0: 1fd2 46bb 0e71 a03c 7732 a0bd 4625 363f
000000d0: 568e c63c f517 223f 828d 3f3e de23 96be
000000e0: 8695 353e a7bf db3e 16f6 5b3e 929b a8be
000000f0: ee84 e43d bda6 293e f748 22b9 83e2 83be
00000100: de0a 02bf 6127 993b 79ea 943d 2579 823e
00000110: 4b75 afbe 7dd4 86bc 0bb5 c03e 01cf 563c
00000120: 4a68 593e cb24 da3d fc23 9ebd 9269 b7bd
00000130: 4dfd f13e dfb7 523f fa5b debd dddf 94be
00000140: fa1c 993e 5b88 c53e 735e 6dbd d9a6 ca3e
00000150: 2c67 ef3e 6b47 dfbc 592b dbbe 42e2 a6be
00000160: 1782 98be 3dd8 733e e875 1dbe dd95 b03e
00000170: 969b 7c3e d355 b63e d3b7 83be ee9b 193e
00000180: dee5 813e e2e8 9a3e b828 923e fd42 d33d
00000190: 1ea1 d2be ebd6 3cbe 79cb 11be 3e55 c53e
000001a0: 1adf 503d fb6c e5bd 8eb5 123f 6477 9e3c
000001b0: 458b 10bf 3d4e 773f 38cf bd3e a7fe 06bf
000001c0: 6150 8cbe a3ab d3be c3eb cbbd 31fd cfbe
000001d0: 0faf 053e e48a 133f ad43 ddbd 1a81 fcbe
000001e0: a58d 923e 394a c3be 9006 113e 0013 af3c
000001f0: cc5b 013f 188e 0d3f 1448 8a3e 5a73 9abe
00000200: 0416 813d bca3 2f3e 0965 683e 9ce2 293f
00000210: 207d 33bd d941 20be f884 f9bd 5a64 1ebe
00000220: 76c1 d43d d12b 36be 1e5f dd3e 69d0 64be
00000230: 2883 233f d6ae f23e 47f5 3bbd ba5a 5bbe
00000240: 082b 86be 0b2a 44bd d478 bbbe ca42 f2be
00000250: 3163 f2be 2c67 f2bb 2f8a 7c3e 7e68 b0be
00000260: b82d fb3e 9b12 6ebe 871b 213e 413c c43e
00000270: eb88 91be 1b01 523e 31e1 3ebf 5ee8 72bc
00000280: c59b d0bd 00c2 b53e 58e0 3e3f 9e3f 23be
00000290: 6793 c3be 06c2 183e 52c0 9dbe 439d ddbe
000002a0: 1640 923d ec70 00bf f61b 573e 0bd0 433d
000002b0: 463c b63d 894a f93c 2902 6f3d 5cda ba3e
000002c0: ca0f acbd 2a55 8bbd 9b87 523e c8df 073f
000002d0: d017 73bf 9885 9fbd 0b53 9c3c 2735 31be
000002e0: f367 79bc b0d4 a9be 9fc5 213f 3b98 86be
000002f0: 1a6d 10be 01d0 ae3e 7402 cbbe ccd5 1c3e
00000300: 1e4c 853e e2ce 703e 0671 ccbe c677 4bbe
00000310: 96e0 7bbe 84ac 353e ac74 32be 3081 9ebd
00000320: 3c64 163e 8b8e b03e 2e92 cdbd 2fde 08bf
00000330: ec46 093f b434 93be 39ec 643e de93 90be
00000340: 5ba5 9fbd e88d f8be 7e49 9a3e 05df 87be
00000350: b8f1 d4bd 94bc 83be 18f8 99be 6503 2d3e
00000360: 8168 173f ac4c 013d 5c2b 213f be03 f5be
00000370: f144 043a 061b ffbd 4d76 ca3c b948 28bf
00000380: 5f23 6a3e eafe 8e3e eaaf bebe b3a1 89be
00000390: c565 1f3e 187d 5ebe 3c3e 993b de1d 943d
000003a0: 9583 343e 4187 d1bd f2f9 e8be 9cce 6fbe
000003b0: 2f9f c93e c9a2 3a3e b631 e83e e7d9 653e
000003c0: e4c1 e13e b398 e2be ebad 6dbd c592 39be
000003d0: 1e71 c43d f32a 993e 90b9 1bbe f50d e1be
000003e0: 86d3 9cbc 2d68 aa3e 6c0c 2fbe e6f7 613d
000003f0: be7e 123f f571 1c3f bbc0 c73e 22c0 dbbd

fc1.bias f4 [256]
-0.16398194 -0.04673587 0.034122575 0.09343522 0.29517767 -0.013297561 0.0746254 -0.39915034
-0.10473846 -0.37363172 0.08866109 -0.008276334 0.07870111 0.02575139 -0.27615425 -0.12803766
0.20286995 0.162895 0.142473 -0.067618154 -0.029848294 0.23881035 0.03004155 0.2826433
0.09443737 -0.25831413 -0.26709577 -0.09579344 -0.20602974 -0.18057491 -0.038976725 -0.112795234
0.2082998 0.023705507 -0.051016912 0.23113643 0.21247731 0.06781972 -0.012090179 -0.19055746
0.1689614 -0.3248261 0.06928618 0.07685709 0.10219361 0.22048679 0.3097028 -0.15444499
0.083227776 0.13165061 -0.26598415 -0.29167244 -0.21517171 0.05914071 -0.22545476 0.17470406
0.23135531 -0.026964838 -0.052471064 0.17504793 -0.018301602 -0.059812848 0.047408156 -0.15896915
-0.053449027 0.22503613 -0.052695613 0.049499664 -0.15807231 0.12912071 -0.08473937 -0.096146666
0.18873918 -0.007913576 -0.031158578 0.11781548 0.27699196 0.008327567 -0.016728126 0.014886743
0.14297538 -0.012738778 0.053958956 -0.20406632 0.043556876 0.098386675 0.24060544 0.07126833
-0.17828527 0.045773387 -0.29360312 -0.16596702 -0.2192439 0.086715795 -0.18264236 -0.107975736
-0.05085561 -0.04592654 0.020657282 -0.15633275 -0.14578566 0.060707532 0.1423842 0.24590549
0.2558322 -0.047421597 0.0785267 0.24315766 0.025547564 0.14091407 0.14036235 -0.07744315
-0.07007719 -0.21211971 0.032102987 -0.113019206 -0.116465926 0.020743525 0.10242052 -0.2805012
0.15510741 -0.15707074 0.32646474 0.023731207 -0.0015153516 0.13069825 0.19705786 0.018561404
0.07845354 -0.066252016 -0.090118535 -0.19159475 -0.18272004 -0.032010254 0.092029974 -0.31892905
0.19741279 0.062743545 0.2065575 0.033930648 -0.07791604 0.06737078 -0.04400006 -0.044531506
0.29228008 -0.16294537 -0.07751475 0.031243753 0.054314326 0.016527822 -0.2069076 -0.21594153
0.28285396 -0.07732883 -0.077671066 0.06133129 0.19506192 -0.141962 -0.09521736 0.28244796
0.037394907 0.25402656 0.14289078 0.13288599 -0.32915697 -0.17942724 0.020126441 -0.04996675
0.1995006 0.06683666 0.3367153 0.2481132 -0.2209106 0.06329982 0.116651475 -0.09886344
-0.03043615 0.0121950675 0.28152418 -0.26474166 0.03271503 0.011850601 -0.011584889 0.15002246
0.32621115 0.070847094 0.013760053 0.2089182 -0.012068204 0.16893648 0.012834376 -0.09826104
0.30584306 0.19776565 -0.22280805 -0.12386787 -0.060756017 0.12866426 0.27242547 0.19038686
0.12288834 0.17915186 0.28542992 0.22520806 0.14364403 0.06525952 -0.13956568 -0.11273504
0.043160405 -0.09304207 0.0438599 -0.07278451 -0.15139428 -0.18118116 0.12656932 0.03625761
0.042881873 -0.20428799 -0.087369695 0.042276546 -0.052764986 -0.22915192 -0.08533742 -0.1606937
0.20149769 0.13158448 0.29950854 0.022036122 0.18771252 0.20362346 0.18969047 -0.15601292
0.069170475 0.08017953 -0.015399572 -0.08296867 0.017234595 -0.14419706 -0.15677512 0.13071343
0.007022497 -0.029955395 0.10690259 0.31157112 0.13672335 0.1772466 0.24353577 -0.25954735
0.05551777 -0.21506332 0.10895815 -0.14463033 0.30454513 0.0047726557 0.045288738 0.007948348
00000000: e2ea 27be 1d6e 3fbd 1dc4 0b3d f75a bf3d
00000010: 8721 973e 03de 59bc 34d5 983d 6f5d ccbe
00000020: 1e81 d6bd a84c bfbe f293 b53d 7699 07bc
00000030: 0c2e a13d 94f4 d23c 1764 8dbe 4e1c 03be
00000040: 24bd 4f3e f2cd 263e 71e4 113e 637b 8abd
00000050: 6984 f4bc b38a 743e b219 f63c 9fb6 903e
00000060: 6168 c13d c041 84be c7c0 88be 5a2f c4bd
00000070: 76f9 52be a1e8 38be 0fa6 1fbd 3001 e7bd
00000080: 8b4c 553e 0d32 c23c 1cf7 50bd 07af 6c3e
00000090: a793 593e 11e5 8a3d e315 46bc 7f21 43be
000000a0: 3804 2d3e 9b4f a6be eae5 8d3d 4067 9d3d
000000b0: e24a d13d 4ac7 613e 5e91 9e3e d426 1ebe
000000c0: 5373 aa3d 6bcf 063e 132f 88be 1756 95be
000000d0: f955 5cbe 873d 723d 9ddd 66be 9fe5 323e
000000e0: 68e8 6c3e 5de5 dcbc e6eb 56bd c43f 333e
000000f0: 3eed 95bc 51fe 74bd 0e2f 423d cfc8 22be
00000100: 5eed 5abd df6f 663e 5bd7 57bd 29c0 4a3d
00000110: b5dd 21be 3838 043e d68b adbd 8be8 c4bd
00000120: d844 413e f2a7 01bc 4640 ffbc 3e49 f13d
00000130: e4d1 8d3e 5970 083c 6c09 89bc 87e7 733c
00000140: 2368 123e 4fb6 50bc 1104 5d3d c3f6 50be
00000150: b268 323d f47e c93d 4661 763e 21f5 913d
00000160: 6a90 36be e07c 3b3d 2653 96be 42f3 29be
00000170: 7981 60be 0d98 b13d 9906 3bbe 6222 ddbd
00000180: f94d 50bd 781d 3cbd 7639 a93c b115 20be
00000190: d648 15be 76a8 783d 2acd 113e a6ce 7b3e
000001a0: 70fc 823e 263d 42bd 9bd2 a03d 52fe 783e
000001b0: 2049 d13c c74b 103e 26bb 0f3e 849a 9ebd
000001c0: a184 8fbd e935 59be 6c7e 033d 9d76 e7bd
000001d0: b085 eebd 53ee a93c d9c1 d13d da9d 8fbe
000001e0: 7ad4 1e3e 27d7 20be 6326 a73e f367 c23c
000001f0: c39e c6ba c3d5 053e 89c9 493e 160e 983c
00000200: 40ac a03d 23af 87bd 1190 b8bd 6a31 44be
00000210: f61a 3bbe 2f1d 03bd 367a bc3d ab4a a3be
00000220: 9426 4a3e b07f 803d cf83 533e ddfa 0a3d
00000230: 7292 9fbd b1f9 893d 6839 34bd ab66 36bd
00000240: bca5 953e 27db 26be 0ec0 9ebd e6f2 ff3c
00000250: b378 5e3d 5b65 873c 96df 53be c71f 5dbe
00000260: 3cd2 903e 945e 9ebd 0212 9fbd 8536 7b3d
00000270: 50be 473e 7d5e 11be 5201 c3bd 059d 903e
00000280: 672b 193d c50f 823e f651 123e 4413 083e
00000290: 4387 a8be c6bb 37be 35e0 a43c efa9 4cbd
000002a0: e349 4c3e a9e1 883d f365 ac3e 6311 7e3e
000002b0: 6336 62be 56a3 813d f8e6 ee3d ea78 cabd
000002c0: 3c55 f9bc d2cd 473c f023 903e 388c 87be
000002d0: 3200 063d 0629 423c 8cce 3dbc 7d9f 193e
000002e0: 2605 a73e 4818 913d d871 613c a7ee 553e
000002f0: b7b9 45bc affd 2c3e 4647 523c 163d c9bd
00000300: 7697 9c3e 1483 4a3e cb27 64be 70ae fdbd
00000310: 4ddb 78bd 90c0 033e 5a7b 8b3e c6f4 423e
00000320: e2ac fb3d 9673 373e df23 923e f19c 663e
00000330: 6c17 133e c9a6 853d 4eea 0ebe a1e1 e6bd
00000340: f7c8 303d d78c bebd 70a6 333d 0c10 95bd
00000350: 1a07 1bbe 8e87 39be 639b 013e dc82 143d
00000360: e7a4 2f3d df30 51be e2ee b2bd 2c2a 2d3d
00000370: 1920 58bd cda6 6abe 63c5 aebd e48c 24be
00000380: 6955 4e3e 15be 063e 2f59 993e 1985 b43c
00000390: b637 403e ab82 503e 383e 423e dac1 1fbe
000003a0: 40a9 8d3d 2a35 a43d 7d4e 7cbc 7aeb a9bd
000003b0: 912f 8d3c 65a8 13be a889 20be bed9 053e
000003c0: f91c e63b 0465 f5bc bfef da3d 4086 9f3e
000003d0: 3501 0c3e 2280 353e 7161 793e 64e3 84be
000003e0: 9a66 633d 8f39 5cbe 7325 df3d f919 14be
000003f0: 57ed 9b3e f063 9c3b af80 393d ca39 023c

fc2.weight f4 [256, 256]
0.11122996 -0.4987604 -0.056813214 0.124598615 -0.04806008 0.108878635 -0.11110975 -0.047745008
-0.27531326 -0.59031475 0.044741187 0.004802029 -0.033197418 -0.025245866 -0.025803614 0.3933168
0.04446167 -4.2730106e-05 -0.006769781 0.25726575 0.07814259 0.119796455 -0.23353514 0.06038746
0.040442776 -0.18331483 0.4041902 0.06384346 -0.5225813 -0.29800552 0.20328724 0.02502549
-0.04154736 0.0630512 -0.031908147 0.03362414 0.14149217 -0.12561344 -0.01072684 0.13601698
0.018534195 0.14594346 -0.0038086693 0.14224835 -0.10301552 0.08242327 0.09057077 0.1003711
0.078163415 -0.08049934 0.06411958 -0.39037585 -0.13230804 -0.46224302 -0.0989418 -0.009188948
0.059102356 0.10509207 0.20975934 0.038237084 0.0036521086 0.04991859 -0.13227057 -0.36663058
-0.20729129 -0.26002574 -0.046324007 0.060167752 -0.29409987 0.039287906 0.35338584 -0.09516964
-0.035543077 0.048883304 0.12239484 0.073222905 0.015731903 0.051177714 0.070928395 -0.29837444
0.09577151 -0.18824074 0.033541955 0.03520537 0.05280436 0.084112026 0.055551372 0.025130915
-0.09676174 -0.05826491 -0.23887777 0.055979438 0.07276002 -0.06252125 0.11526108 -0.024995187
0.03439251 -0.24419215 -0.1920739 -0.5397256 -0.38728648 0.02801838 -0.016250111 -0.019324785
-0.07741848 0.03427502 -0.03336282 0.106544994 0.21288618 0.010842542 -0.027508605 -0.5281008
0.020611279 -0.4974184 -0.025793808 -0.12851138 -0.024624277 -0.11375048 -0.043072693 -0.4728764
-0.02077804 -0.3151649 -0.21978259 0.058617357 0.056052424 -0.11224789 0.1177374 -0.05874275
-0.06106139 -0.12545928 -0.04089585 0.019830761 0.16249312 -0.00021406451 -0.111642085 0.0809961
0.058568753 -0.08176717 0.052558232 0.36456385 -0.022613645 -0.30913764 -0.22494593 0.17376776
0.052691735 -0.106537856 0.034117725 0.074260026 0.12877616 -0.036203578 -0.4095713 0.28437158
0.059144393 -0.33586407 -0.2260993 -0.017954744 0.037906237 0.11207029 0.3190188 -0.0219753
0.053778533 -0.124336794 0.013156403 -0.117178746 0.051312543 0.091520056 -0.0036510108 0.11734363
-0.0881618 0.12900686 -0.011324043 -0.023256458 -0.027059333 -0.06741434 -0.040648647 0.014108108
-0.07578249 -0.1679379 0.05626342 0.013725241 -0.017136758 -0.3335077 0.050240647 -0.0009829876
0.05462129 -0.3121676 0.037420664 0.22587097 0.06439221 -0.0007408241 0.10836676 -0.2717001
0.05331317 0.064635396 0.10097511 0.20062253 -0.053534757 0.055928547 0.013559777 0.023728507
-0.1355374 -0.28270715 0.048463352 0.08099719 0.016212361 -0.089191414 -0.034629345 0.01823104
0.01382423 0.11063982 -0.48604792 0.19175057 -0.3334594 0.013659447 0.08631843 0.12570016
-0.02288399 0.07214596 0.050593592 -0.2130855 -0.40575945 -0.2489905 -0.20278478 -0.026445407
0.060256105 0.22716068 -0.1934727 -0.063332155 -0.011890612 0.043474615 0.115366064 -0.22716428
-0.21418132 0.012742119 -0.052282132 -0.17993265 0.017584683 0.05104957 -0.0039266474 0.10745149
0.008134578 0.092410445 -0.04757496 -0.067276426 -0.0067867087 -0.06000954 0.09732727 -0.11355261
-0.049449917 0.0777722 -0.31602445 -0.8903557 0.11255811 -0.20346318 -0.13984421 0.058670744
00000000: 89cc e33d 865d ffbe f9b4 68bd 8f2d ff3d
00000010: a5da 44bd c3fb de3d 828d e3bd 4590 43bd
00000020: dcf5 8cbe de1e 17bf 8942 373d 575a 9d3b
00000030: 04fa 07bd 6bd0 cebc 1a62 d3bc d260 c93e
00000040: 711d 363d 1a39 33b8 0ad5 ddbb 56b8 833e
00000050: 3909 a03d d857 f53d d623 6fbe d758 773d
00000060: 53a7 253d e2b6 3bbe 05f2 ce3e 5cc0 823d
00000070: e3c7 05bf 2e94 98be 882a 503e 4202 cd3c
00000080: 912d 2abd fd20 813d 1eb2 02bd 77b9 093d
00000090: 53e3 103e cfa0 00be a1bf 2fbc 0948 0b3e
000000a0: 06d5 973c 3472 153e de9a 79bb 8da9 113e
000000b0: cdf9 d2bd 88cd a83d 2b7d b93d 5d8f cd3d
000000c0: 2414 a03d d7dc a4bd 2051 833d 58df c7be
000000d0: c27b 07be 1eab ecbe 00a2 cabd 3e8d 16bc
000000e0: 5015 723d 833a d73d 27cb 563e 7d9e 1c3d
000000f0: 3758 6f3b 6f77 4c3d f071 07be 01b7 bbbe
00000100: 2b44 54be 1822 85be 3ebe 3dbd 7672 763d
00000110: 4294 96be 5bec 203d fdee b43e 4de8 c2bd
00000120: 9e95 11bd dc39 483d 25aa fa3d e4f5 953d
00000130: 31e0 803c b99f 513d e842 913d 89c4 98be
00000140: da23 c43d 2ec2 40be 4a63 093d 8233 103d
00000150: 6249 583d ed42 ac3d d689 633d 59df cd3c
00000160: 052b c6bd 30a7 6ebd 609c 74be b24a 653d
00000170: 3503 953d 240b 80bd 000e ec3d b5c2 ccbc
00000180: 29df 0c3d 820d 7abe 05af 44be 752b 0abf
00000190: 6a4a c6be cd86 e53c f41e 85bc 034f 9ebc
000001a0: 948d 9ebd f763 0c3d 74a7 08bd 4334 da3d
000001b0: d6fe 593e eba4 313c ba59 e1bc 9d31 07bf
000001c0: fcd8 a83c a0ad febe 894d d3bc 7d98 03be
000001d0: dab8 c9bc 03f6 e8bd fe6c 30bd db1c f2be
000001e0: b536 aabc 4b5d a1be b00e 61be c118 703d
000001f0: 3a97 653d 39e2 e5bd 4e20 f13d 3d9c 70bd
00000200: 821b 7abd 6678 00be 6882 27bd 1f74 a23c
00000210: 9964 263e 8176 60b9 9ba4 e4bd 49e1 a53d
00000220: cae5 6f3d 8c75 a7bd 4d47 573d 1da8 ba3e
00000230: 4040 b9bc 4a47 9ebe 3a58 66be 2df0 313e
00000240: 4ad3 573d 8530 dabd 07bf 0b3d a415 983d
00000250: e6dd 033e 344a 14bd 54b3 d1be 2799 913e
00000260: 6441 723d 60f6 abbe 9386 67be d415 93bc
00000270: 9243 1b3d 1c85 e53d 6f56 a33e 8b05 b4bc
00000280: e146 5c3d 4aa4 febd f48d 573c 69fb efbd
00000290: 1a2d 523d de6e bb3d cc45 6fbb db51 f03d
000002a0: 2c8e b4bd 601a 043e 7b88 39bc 5484 bebc
000002b0: 89ab ddbc 8810 8abd 327f 26bd b225 673c
000002c0: da33 9bbd eaf7 2bbe 7974 663d d5df 603c
000002d0: 6362 8cbc 85c1 aabe 23c9 4d3d 97d7 80ba
000002e0: 93ba 5f3d 6fd4 9fbe 6946 193d b84a 673e
000002f0: 10e0 833d dd33 42ba 64ef dd3d 471c 8bbe
00000300: e95e 5a3d 905f 843d 0acc ce3d fe6f 4d3e
00000310: 4347 5bbd 5515 653d d429 5e3c 4962 c23c
00000320: 51ca 0abe febe 90be 8281 463d dbe1 a53d
00000330: c9cf 843c fda9 b6bd 80d7 0dbd 4359 953c
00000340: 067f 623c 2197 e23d 46db f8be 435a 443e
00000350: 31bb aabe e0cb 5f3c b8c7 b03d 8bb7 003e
00000360: 3577 bbbc 43c1 933d 3a3b 4f3d 1633 5abe
00000370: b4bf cfbe 5ef7 7ebe d0a6 4fbe 0aa4 d8bc
00000380: 1bcf 763d cf9c 683e b51d 46be 4ab4 81bd
00000390: d7d0 42bc 7012 323d 0b45 ec3d c19d 68be
000003a0: 5952 5bbe 52c4 503c ca25 56bd 4440 38be
000003b0: c10d 903c 5b19 513d 1bab 80bb 870f dc3d
000003c0: e546 053c b041 bd3d f6dd 42bd 39c8 89bd
000003d0: 0a63 debb 90cc 75bd 8553 c73d 458e e8bd
000003e0: ff8b 4abd 0847 9f3d f5cd a1be 5aee 63bf
000003f0: de84 e63d a758 50be 5233 0fbe bc50 703d

fc2.bias f4 [256]
0.105408825 0.018225826 0.05231962 -0.01235363 0.036744766 0.012095324 0.021145426 -0.0372059
0.041603923 -0.06135845 0.06521553 -0.020575225 0.06511793 0.12579659 0.011686468 -0.06651075
-0.06057863 0.004056358 0.0657131 -0.05249139 -0.027506504 0.039752334 -0.01968116 0.075620696
0.057838026 -0.004785835 0.0087333545 0.054408398 0.046785057 0.064207226 -0.010772047 0.0059324717
0.05700278 -0.024607832 0.006856631 -0.017004974 0.00065037166 0.042678438 0.030891748 0.05899491
0.0892723 0.08327717 0.041318532 0.036341347 -0.029148271 0.034829527 0.02606631 0.048681762
-0.031914677 0.0063875434 -0.13033916 0.11055365 -0.10791396 -0.063278675 -0.0005912832 -0.05617867
0.023704277 -0.0053206095 0.012856933 0.062468566 0.032085102 0.0036142087 0.006205983 0.08436379
-0.012458177 -0.02512727 0.061049502 0.012029187 -0.15202753 0.006768337 0.012422992 0.00071839517
0.0039084516 0.062412962 -0.021258026 -0.061180614 0.092663415 0.0560989 0.05560243 0.056973226
-0.0010867731 0.007865909 0.05577057 0.049553543 0.017133554 0.101086214 -0.019842414 0.02039794
-0.012056625 0.09525342 0.038309556 0.07132849 -0.027556706 0.023233967 -0.0072393077 0.012709291
0.031586953 0.03713543 0.053541873 0.015731119 0.010794944 0.009045468 0.08570497 -0.032476235
0.060229294 0.0063320887 -0.038363513 0.01878117 -0.058670837 -0.027394537 0.014524735 0.041428037
-0.022787424 0.016825752 0.026806245 -0.01975667 -0.00045252257 0.08178559 0.05202828 0.055286456
-0.06406155 0.029615851 0.072711244 -0.033685103 -0.03861312 0.0035652108 0.07434799 0.01461658
0.105670296 0.051471543 -0.047225248 0.060937252 0.005882337 0.00071671157 0.018654276 0.041875884
-0.010974557 -0.00029167818 0.02799436 0.082387514 -0.079525694 0.06441759 0.0035306367 -0.10673698
0.039476104 0.051807325 -0.048531447 0.039268557 0.06286626 0.0824568 -0.057858806 0.055821497
-0.0057877554 0.0071712513 0.039973542 0.03796734 0.050839674 -0.08995376 0.0049656 -0.045752194
0.047979023 0.010656634 0.04529277 -0.025644375 0.015572655 -0.047960524 -0.043054957 0.04621125
0.010623328 0.06426862 -0.027367437 0.041896522 0.022664184 0.024826737 0.042785708 0.013594636
-0.014804142 0.105082765 -0.039766036 0.07888141 -0.07739778 -0.004906534 -0.005019516 0.046554282
0.07343354 0.013479138 0.052423067 -0.048057597 -0.020769594 0.02373428 0.07239292 -0.0082052965
-0.03228619 -0.044440504 0.050941575 -0.06698605 0.008520821 -0.002446289 0.06606238 0.049465958
0.042351805 0.03227466 0.048831932 0.055403706 -0.007621644 -0.0002634569 -0.02329749 0.074854985
0.05050721 0.027270915 0.03035091 -0.02501754 0.02819828 -0.031313382 0.011324913 0.09470991
-0.02313772 -0.04598654 -0.047943998 0.106297426 0.07609406 0.07330391 -0.09211044 0.032349378
-0.049554467 0.0563491 0.04512337 -0.08544496 0.057789173 -0.00059173704 0.0070300573 0.077161245
-0.0024892774 -0.025878074 -0.021908615 0.025947982 0.071664475 -0.006956593 -0.053031597 -0.02223553
0.047415104 0.02409317 -0.10139187 0.07470552 -0.018794255 0.104260966 0.10739276 0.019917604
0.04549972 -0.005969872 0.072345026 0.03202511 -0.037916552 -0.007014403 0.034500465 0.06192111
00000000: 95e0 d73d 544e 953c 194d 563d e166 4abc
00000010: ae81 163d 772b 463c 2c39 ad3c 3765 18bd
00000020: e068 2a3d 0053 7bbd b88f 853d 608d a8bc
00000030: 8d5c 853d d2d0 003e 9978 3f3c ca36 88bd
00000040: 4c21 78bd 32eb 843b 9794 863d 3601 57bd
00000050: 5255 e1bc 58d3 223d 623a a1bc 06df 9a3d
00000060: 91e7 6c3d 7ed2 9cbb 5816 0f3c 57db 5e3d
00000070: b0a1 3f3d 147f 833d 3d7d 30bc 2e65 c23b
00000080: bf7b 693d 5d96 c9bc 97ad e03b 044e 8bbc
00000090: b47d 2a3a 96cf 2e3d b110 fd3c a6a4 713d
000000a0: 65d4 b63d 398d aa3d 9f3d 293d aada 143d
000000b0: 5bc8 eebc 68a9 0e3d 0489 d53c 8766 473d
000000c0: f7b8 02bd 994e d13b a177 05be f469 e23d
000000d0: ff01 ddbd 4098 81bd 5800 1bba 9b1b 66bd
000000e0: 792f c23c 8258 aebb e3a5 523c 0adf 7f3d
000000f0: ab6b 033d 5cdc 6c3b 8f5b cb3b ecc6 ac3d
00000100: 621d 4cbc b4d7 cdbc 0b0f 7a3d 1116 453c
00000110: 1bad 1bbe edc8 dd3b ce89 4b3c af52 3c3a
00000120: 7812 803b bca4 7f3d 5025 aebc 8698 7abd
00000130: 51c6 bd3d f6c7 653d 60bf 633d c25c 693d
00000140: 0e72 8eba 03e0 003c ae6f 643d a8f8 4a3d
00000150: ab5b 8c3c 4a06 cf3d 8f8c a2bc 9519 a73c
00000160: 2789 45bc 3a14 c33d 7bea 1c3d ac14 923d
00000170: 9abe e1bc 2955 be3c b737 edbb a13a 503c
00000180: 5261 013d 521b 183d b94e 5b3d 8cde 803c
00000190: 47dd 303c 7133 143c 1686 af3d cd05 05bd
000001a0: feb2 763d 697d cf3b 0f23 1dbd f8da 993c
000001b0: d550 70bd 826a e0bc 27f9 6d3c 72b0 293d
000001c0: b1ac babc 29d6 893c c598 db3c bdd8 a1bc
000001d0: 8d40 edb9 347f a73d 9b1b 553d 0d74 623d
000001e0: b432 83bd f19c f23c a2e9 943d 64f9 09bd
000001f0: ca28 1ebd 50a6 693b c243 983d 617a 6f3c
00000200: ab69 d83d d3d3 523d 436f 41bd 5799 793d
00000210: 9fc0 c03b b3e1 3b3a dad0 983c 0c86 2b3d
00000220: a1ce 33bc 62ec 98b9 6e54 e53c c9ba a83d
00000230: 5ede a2bd 5fed 833d 4162 673b eb98 dabd
00000240: b2b1 213d eb33 543d e9c8 46bd 11d8 203d
00000250: 07c0 803d 1cdf a83d 5bfd 6cbd 15a5 643d
00000260: 36a7 bdbb d1fc ea3b 4cbb 233d a483 1b3d
00000270: 433d 503d ad39 b8bd 79b6 a23b a766 3bbd
00000280: a785 443d 2a99 2e3c e984 393d 2714 d2bc
00000290: 7324 7f3c 4172 44bd 655a 30bd 0248 3d3d
000002a0: 780d 2e3c 449f 833d ad31 e0bc b09b 2b3d
000002b0: 3daa b93c 7161 cb3c 1140 2f3d 09bc 5e3c
000002c0: 128d 72bc a235 d73d b6e1 22bd 948c a13d
000002d0: ba82 9ebd fec6 a0bb c17a a4bb b4af 3e3d
000002e0: 5364 963d 9ad7 5c3c 92b9 563d 0bd8 44bd
000002f0: ff24 aabc 656e c23c bd42 943d 826f 06bc
00000300: 863e 04bd 3f07 36bd 1da8 503d fb2f 89bd
00000310: ea9a 0b3c eb51 20bb b74b 873d d19c 4a3d
00000320: 1679 2d3d 6f32 043d fe03 483d ffee 623d
00000330: fcbe f9bb 9620 8ab9 61da bebc 924d 993d
00000340: a6e0 4e3d 4167 df3c 79a2 f83c 96f1 ccbc
00000350: 1400 e73c 7642 00bd 218c 393c 45f7 c13d
00000360: 518b bdbc 625c 3cbd ed60 44bd 77b2 d93d
00000370: 34d7 9b3d 5c20 963d 66a4 bcbd c880 043d
00000380: a0f9 4abd 50ce 663d 48d3 383d c4fd aebd
00000390: 57b4 6c3d cd1e 1bba 655c e63b b706 9e3d
000003a0: 2523 23bb 41fe d3bc b279 b3bc dd90 d43c
000003b0: d3c4 923d 22f4 e3bb a937 59bd 4927 b6bc
000003c0: 5736 423d 0a5f c53c 8aa6 cfbd 35ff 983d
000003d0: 69f6 99bc c686 d53d bcf0 db3d 3e2a a33c
000003e0: ea5d 3a3d eb9e c3bb a129 943d c32c 033d
000003f0: 634e 1bbd 14d9 e5bb 5c50 0d3d fda0 7d3d

mean.weight f4 [2, 256]
-0.24439722 0.044955574 -0.17690107 -1.3617913 0.17357446 0.300825 0.15848884 -0.44009846
-0.19385165 -0.027841873 0.058183014 -0.23604728 -0.09898212 -0.5195731 0.16117384 -0.07189767
-0.035713807 -0.029743562 -0.12007741 -0.036452513 0.07121768 -0.12621868 0.099101044 0.012306739
-0.21011718 -0.31319138 -0.25087062 0.47126082 -0.20211972 -0.08218414 0.056896973 0.35653132
-0.22123377 0.005362692 0.08653062 0.15670654 -0.03463559 0.04511704 -0.0878409 1.2575917
-0.098791465 -0.13606888 1.6559607 -0.113087066 0.011453825 0.016020553 0.036418866 0.023725267
0.083304964 0.14086999 0.5423373 0.4500925 -0.46844947 -0.44592842 -0.01059592 -0.24474704
1.3213859 -0.20722772 0.17240153 0.1641339 -0.33345732 -0.12669559 -0.27863207 0.12212415
-0.24031219 0.38937408 -0.02824997 0.5029559 -0.2542696 -0.24971944 -0.01710389 -0.25294077
-0.3670537 0.22229923 -0.36217213 -0.56722623 -0.105582744 0.30481917 -0.19551885 -0.095887095
-0.18547182 -0.08423567 -0.26546693 -0.8337301 -0.14662388 -2.3889244 -0.690278 0.0028853246
-0.19780071 -0.5334908 0.26092035 -0.0885555 0.1955614 0.21215974 -1.5589538 0.50313
0.15397893 0.19439608 0.024442164 -0.070922315 0.2852926 0.058202818 -0.35410795 0.0077198492
0.16017553 0.12171162 0.020006124 -0.1081945 -0.04691205 -0.2929877 -0.041587304 0.22901408
-0.2705433 -0.7203137 0.108137615 -0.10721101 -0.277604 -0.35012296 0.11760352 -0.1280013
0.053140257 -0.37049547 -0.27600014 -0.16563205 -0.16123872 0.39356077 0.0062601105 -0.23582461
-0.10178547 0.27975303 -0.106196105 -0.23842831 -0.022869838 0.18662433 0.0205477 -0.16759148
0.14734484 0.053688396 -0.2587783 -0.2388528 -0.36249188 0.06784045 0.22010083 -0.2934396
-0.12470127 -0.22846405 0.04422404 -0.5834133 0.2488049 0.2370591 0.030536134 -0.5346896
0.2900596 0.11613864 0.110680915 0.044825684 0.16833623 -0.5379592 0.04002781 0.20665014
0.11572934 0.4937501 -0.19273852 -0.42821622 0.08810687 -0.11628826 -0.32814407 0.4972186
-0.21510673 -0.1552972 0.41438285 -0.16886619 0.15776414 -0.19562005 -0.14858861 -0.124043964
-0.054550808 0.00950713 -0.04094879 0.18200527 0.36313868 0.040801894 -0.663188 0.143127
-0.12439841 0.28265935 0.23103975 -0.37351927 -0.32139018 0.9975036 0.17263967 0.19432512
0.2576978 -0.36522815 -0.14624351 0.04382164 1.1429739 0.028144721 -0.07560038 -0.120716766
0.16640857 0.19335745 0.0014376172 -0.32919583 -0.24523672 -0.23202066 0.40231195 -0.21202876
0.5396435 0.26675767 0.093160465 -0.03933342 0.2638825 0.22174858 0.39250603 -0.28588006
0.005587032 0.418298 0.30462033 -0.4067774 -0.14747225 -0.42767587 0.32205543 -0.3057633
-0.033493217 0.3129846 0.049632102 -0.06653421 0.00011416974 -0.6512055 -0.037393533 -0.23463076
0.432326 0.006797562 0.35317343 0.8767854 0.4432839 -0.30067948 -0.037285592 0.4250943
-0.13779536 0.17949015 0.70648354 -0.06897567 0.04425184 -0.3126689 -0.29106256 -0.25624123
0.24982525 -0.2008191 0.23948996 -0.12916592 0.4099497 0.49987152 -0.37933412 0.072953664
00000000: 4443 7abe 5623 383d 8e25 35be 2d4f aebf
00000010: 81bd 313e bc05 9a3e e64a 223e 9654 e1be
00000020: 0c81 46be a414 e4bc 5051 6e3d 61b6 71be
00000030: 23b7 cabd be02 05bf c10a 253e 163f 93bd
00000040: a448 12bd c5a8 f3bc 25eb f5bd 3b4f 15bd
00000050: 93da 913d 783f 01be 7df5 ca3d 34a2 493c
00000060: f528 57be 9f5a a0be 1d72 80be 1949 f13e
00000070: 79f8 4ebe 2950 a8bd cd0c 693d 468b b63e
00000080: 1b8b 62be 85b9 af3b f736 b13d ae77 203e
00000090: 0cde 0dbd a5cc 383d eee5 b3bd c4f8 a03f
000000a0: 2e53 cabd a455 0bbe 85f6 d33f 319a e7bd
000000b0: d3a8 3b3c 893d 833c f32b 153d 7e5b c23c
000000c0: cb9b aa3d 3940 103e 9ed6 0a3f 8672 e63e
000000d0: 9cd8 efbe bb50 e4be 829a 2dbc f89e 7abe
000000e0: 2c23 a93f 8133 54be 078a 303e b812 283e
000000f0: ebba aabe 7dbc 01be dda8 8ebe 3a1c fa3d
00000100: 6614 76be 0a5c c73e 7b6c e7bc b8c1 003f
00000110: a02f 82be 74b6 7fbe 751d 8cbc 7481 81be
00000120: 76ee bbbe 69a2 633e a06e b9be bd35 11bf
00000130: c43b d8bd 4211 9c3e 1836 48be 7460 c4bd
00000140: 53ec 3dbe c083 acbd 48eb 87be 566f 55bf
00000150: 9224 16be 23e4 18c0 0fb6 30bf b717 3d3b
00000160: 458c 4abe da92 08bf 5a97 853e 965c b5bd
00000170: 3f41 483e 6740 593e cc8b c7bf 21cd 003f
00000180: a7ac 1d3e c40f 473e ef3a c83c b83f 91bd
00000190: df11 923e 1466 6e3d a34d b5be caf6 fc3b
000001a0: 0e05 243e f143 f93d e2e3 a33c 1495 ddbd
000001b0: da26 40bd 7c02 96be 7357 2abd ab82 6a3e
000001c0: a784 8abe 7b66 38bf 4177 dd3d 7291 dbbd
000001d0: 1d22 8ebe 5143 b3be 1dda f03d c612 03be
000001e0: 99a9 593d 95b1 bdbe e44f 8dbe 739b 29be
000001f0: c31b 25be cc80 c93e 9d21 cd3b 027c 71be
00000200: e774 d0bd ca3b 8f3e 587d d9bd 8d26 74be
00000210: 8759 bbbc 731a 3f3e a653 a83c 1a9d 2bbe
00000220: 91e1 163e 5de8 5b3d 977e 84be d495 74be
00000230: 8998 b9be efef 8a3d 1d62 613e b73d 96be
00000240: 6163 ffbd 7bf2 69be 4424 353d 935a 15bf
00000250: b6c6 7e3e 9fbf 723e ea26 fa3c 6be1 08bf
00000260: b182 943e 18da ed3d adac e23d 239b 373d
00000270: 5560 2c3e b2b7 09bf 33f4 233d 189c 533e
00000280: 8103 ed3d d0cc fc3e 3f5d 45be 283f dbbe
00000290: 6071 b43d 8a28 eebd 8002 a8be 7093 fe3e
000002a0: f044 5cbe 3b06 1fbe fd29 d43e 42eb 2cbe
000002b0: ec8c 213e 9f50 48be 9d27 18be c30a febd
000002c0: ab70 5fbd cbc3 1b3c ebb9 27bd 975f 3a3e
000002d0: 50ed b93e e31f 273d b0c6 29bf e28f 123e
000002e0: 98c4 febd bab8 903e af95 6c3e eb3d bfbe
000002f0: 418d a4be 655c 7f3f 74c8 303e 2afd 463e
00000300: f7f0 833e 2fff babe dcc0 15be 527e 333d
00000310: f84c 923f c28f e63c 5fd4 9abd 5a3a f7bd
00000320: 0267 2a3e 7fff 453e 6e6e bc3a 5b8c a8be
00000330: 561f 7bbe d396 6dbe d5fb cd3e 111e 59be
00000340: 1426 0a3f 7694 883e eaca be3d 151c 21bd
00000350: 9b1b 873e 0f12 633e 8df6 c83e df5e 92be
00000360: 6c13 b73b 282b d63e 32f7 9b3e 2145 d0be
00000370: f702 17be 55f8 dabe 73e4 a43e 028d 9cbe
00000380: 2f30 09bd 843f a03e 084b 4b3d 1743 88bd
00000390: 6a6e ef38 67b5 26bf f629 19bd 0c43 70be
000003a0: d559 dd3e 15be de3b 26d3 b43e 0275 603f
000003b0: 1bf6 e23e a9f2 99be c7b8 18bd f6a5 d93e
000003c0: 3a1a 0dbe 44cc 373e 1bdc 343f 1e43 8dbd
000003d0: 6b41 353d 2316 a0be 2706 95be 0d32 83be
000003e0: 31d2 7f3e 86a3 4dbe db3c 753e 1244 04be
000003f0: ede4 d13e 29ef ff3e 1538 c2be bb68 953d

mean.bias f4 [2]
-0.011262965 -0.056085415
00000000: 4d88 38bc d2b9 65bd

log_std.weight f4 [2, 256]
-0.55775577 -0.12584053 -0.04217905 0.45090246 -0.0606431 0.038050264 0.028388718 -0.15907028
0.034032337 0.026215084 -0.15237935 0.08085041 -0.024481973 -0.13886136 -0.1309444 0.21540463
-0.058161177 -0.004306595 -0.1480523 -0.009425063 0.026969977 0.06053736 -0.14783996 -0.16361761
0.10788406 -0.008971627 0.47475964 0.2387988 0.04936092 0.01971533 -0.10726449 -0.13809659
0.05925505 0.09949635 -0.21471591 -0.23805319 -0.12408042 -0.035210982 -0.10537034 0.6746941
-0.32196707 0.14500119 0.42572424 -0.03619854 -0.08805879 0.10055252 0.021977164 0.024488673
-0.293266 0.07878273 -0.26358643 0.35022733 0.3259943 -0.071088396 -0.022397557 -0.049901232
0.5419177 0.36614266 -0.08268697 -0.40737134 0.11743993 -0.09557159 0.018765915 -0.18030459
-0.07605703 -0.029557064 -0.24490415 0.4418608 0.3841872 0.09256519 -0.29669273 -0.009263722
0.3116936 -0.20630197 -0.09862921 0.24102595 -0.13712728 0.08641109 -0.045390487 0.109154135
-0.1976807 0.14282481 -0.07739239 -0.044480257 -0.11739118 1.0565736 0.12882194 -0.24532029
0.054135565 0.11992877 -0.07414904 -0.095983736 0.0029663858 -0.050584048 0.19840363 0.22993767
-0.196518 0.13580133 0.04387944 0.09196989 -0.025731 0.03786381 0.22560933 -0.023480657
0.14778385 -0.1541952 0.16858526 0.2658466 0.052854672 0.118483245 -0.0029483982 0.26594248
-0.39553764 -0.19228084 0.011665561 -0.1545894 0.251955 0.10821075 -0.19965562 -0.030421041
-0.0021862658 0.11848694 0.16282427 0.13454345 -0.13072869 -0.098179854 -0.100226566 -0.19509335
-0.13718946 -0.118708305 -0.14448917 -0.10047937 -0.2421151 0.10958509 0.018700581 -0.20929511
-0.2962817 0.05480432 0.0685535 -0.41761106 0.25191963 0.27257803 -0.16070239 0.2964385
-0.33366683 -0.2584082 -0.047240634 0.30369708 -0.07120428 0.063220195 -0.04341018 -0.18670867
-0.22270955 0.0832653 -0.17127997 -0.16016605 0.032331355 0.22083877 0.065102525 -0.09426947
-0.20438658 0.013379506 0.0223541 0.30950797 0.100343145 -0.36315084 -0.093754604 0.31128067
0.074630916 0.060466353 0.210136 -0.17682113 -0.060032886 0.11342226 -0.22676995 0.30918822
-0.069974974 -0.14725944 -0.023483977 -0.10437652 -0.030677445 -0.055443536 0.14892024 -0.15448877
-0.20254247 -0.006283119 -0.10453108 0.006923448 0.29041588 0.60054886 -0.26392752 -0.026232136
0.068361625 0.40690234 0.1381241 0.042786483 0.4193552 0.011495879 -0.27666828 -0.0005929818
-0.17557919 -0.12019834 -0.14156282 -0.124481544 -0.10628622 0.017688395 -0.3372756 -0.081396244
0.2741268 -0.052343868 -0.08209711 0.03428236 -0.07379749 -0.05299807 -0.0421589 -0.08966754
-0.26901832 0.12646738 0.030217571 0.0063216905 0.1458139 0.2351707 0.08392158 -0.101575784
-0.049809016 0.18453486 0.18455525 0.15345293 -0.12064807 0.03862294 -0.26798138 0.15030552
0.17807661 -0.0006696865 0.13656282 0.11985709 0.19323952 0.27590975 -0.039284684 0.0027910708
-0.038955983 -0.1120059 0.07521925 -0.16426916 -0.014323913 -0.16416143 -0.052620593 0.19557895
0.18634878 -0.17311335 -0.007630948 0.0952469 -0.24036151 0.17147154 0.14539874 0.046087038
00000000: 15c9 0ebf 57dc 00be f1c3 2cbd b0dc e63e
00000010: e664 78bd 98da 1b3d 758f e83c 52e3 22be
00000020: 7e65 0b3d 04c1 d63c 5509 1cbe e694 a53d
00000030: 6b8e c8bc ac31 0ebe 4a16 06be 0893 5c3e
00000040: 6a3a 6ebd 561e 8dbb 069b 17be 946b 1abc
00000050: 24f0 dc3c 06f6 773d 5c63 17be 608b 27be
00000060: 51f2 dc3d bbfd 12bc b213 f33e ac87 743e
00000070: ad2e 4a3d 0b82 a13c 7cad dbbd 3169 0dbe
00000080: 6cb5 723d bec4 cb3d 7dde 5bbe 37c4 73be
00000090: e01d febd 6439 10bd 68cc d7bd c1b8 2c3f
000000a0: ded8 a4be 317b 143e 87f8 d93e ec44 14bd
000000b0: 2b58 b4bd 7bee cd3d 7409 b43c 789c c83c
000000c0: f626 96be d758 a13d cdf4 86be ff50 b33e
000000d0: bae8 a63e cb96 91bd 157b b7bc 3c65 4cbd
000000e0: 1ebb 0a3f 0d77 bb3e c957 a9bd fa92 d0be
000000f0: 5984 f03d 0abb c3bd faba 993c c4a1 38be
00000100: cac3 9bbd a821 f2bc 27c8 7abe 943b e23e
00000110: 2fb4 c43e d192 bd3d 1ce8 97be dec6 17bc
00000120: 4e96 9f3e d340 53be 1cfe c9bd 82cf 763e
00000130: 186b 0cbe 4cf8 b03d 60eb 39bd 348c df3d
00000140: cf6c 4abe ab40 123e e77f 9ebd ee30 36bd
00000150: c96a f0bd ce3d 873f e6e9 033e 3e35 7bbe
00000160: 41bd 5d3d 379d f53d 74db 97bd 1f93 c4bd
00000170: b267 423b 3831 4fbd 522a 4b3e c874 6b3e
00000180: 043c 49be 810f 0b3e edba 333d b65a bc3d
00000190: d1c9 d2bc 1517 1b3d 2206 673e 825a c0bc
000001a0: a654 173e 59e5 1dbe 9da1 2c3e 0c1d 883e
000001b0: 247e 583d 58a7 f23d ea39 41bb 9d29 883e
000001c0: e983 cabe 45e5 44be e920 3f3c af4c 1ebe
000001d0: 3f00 813e 999d dd3d 8672 4cbe 8c35 f9bc
000001e0: 7447 0fbb 48a9 f23d 68bb 263e c2c5 093e
000001f0: bedd 05be 8512 c9bd 9643 cdbd 8dc6 47be
00000200: 657b 0cbe 571d f3bd f8f4 13be 21c8 cdbd
00000210: 05ed 77be 266e e03d f631 993c 7551 56be
00000220: 3cb2 97be 7f7a 603d c765 8c3d 1ed1 d5be
00000230: 9cfb 803e 598f 8b3e 2b8f 24be c9c6 973e
00000240: 61d6 aabe 144e 84be 657f 41bd 2f7e 9b3e
00000250: 8dd3 91bd 9779 813d dfce 31bd 8f30 3fbe
00000260: f90d 64be ff86 aa3d 0464 2fbe 9202 24be
00000270: e26d 043d 8f23 623e 7954 853d 5a10 c1bd
00000280: b74a 51be b735 5b3c f21f b73c d477 9e3e
00000290: b580 cd3d e8ee b9be 6a02 c0bd 2e60 9f3e
000002a0: 18d8 983d 91ab 773d e42d 573e 9910 35be
000002b0: 0be5 75bd ee49 e83d 6236 68be eb4d 9e3e
000002c0: 0a4f 8fbd 2ecb 16be 7861 c0bc 5bc3 d5bd
000002d0: 444f fbbc c318 63bd 8c7e 183e 4e32 1ebe
000002e0: 4b67 4fbe 9fe2 cdbb 6414 d6bd 17de e23b
000002f0: 64b1 943e 92bd 193f 8221 87be c7e4 d6bc
00000300: 2e01 8c3d 8155 d03e 6770 0d3e e140 2f3d
00000310: bab5 d63e 3659 3c3c 77a7 8dbe 5672 1bba
00000320: 08cb 33be 8c2a f6bd d8f5 10be 2ef0 febd
00000330: 97ac d9bd 41e7 903c 63af acbe 13b3 a6bd
00000340: 595a 8c3e 8666 56bd 8822 a8bd a96b 0c3d
00000350: 2323 97bd 8114 59bd d0ae 2cbd 9da3 b7bd
00000360: c5bc 89be aa80 013e d78a f73c 2f26 cf3b
00000370: 3d50 153e 97d0 703e 14df ab3d f706 d0bd
00000380: 8a04 4cbd b5f6 3c3e 0dfc 3c3e c422 1d3e
00000390: 5616 f7bd 1733 1e3d db34 89be b1e9 193e
000003a0: b759 363e e68d 2fba 20d7 0b3e a277 f53d
000003b0: 95e0 453e 0b44 8d3e fae8 20bd 66ea 363b
000003c0: 4f90 1fbd 5963 e5bd 8d0c 9a3d 2d36 28be
000003d0: d8ae 6abc ef19 28be b188 57bd d945 483e
000003e0: 37d2 3e3e a044 31be 080d fabb cf10 c33d
000003f0: 5421 76be 3c96 2f3e 68e3 143e c3c5 3c3d

log_std.bias f4 [2]
-0.11979671 -0.09933159
00000000: fa57 f5bd 5c6e cbbd
