dqn/DQN_LunarLander_final.pth (torch, 279252 bytes, 6 tensors)

fc1.weight f4 [256, 8]
0.18592982 -0.37637985 -0.3199874 -0.6154889 -0.061418504 -0.049503345 0.12413634 0.10944089
0.015306134 0.31504205 0.06954956 0.4938136 -0.09991128 -0.46169743 -0.041418243 -0.30389792
-0.26785284 0.31002638 0.18678571 0.063055694 0.32117012 -0.41489223 0.4554831 0.03947876
0.34246632 -0.03765785 0.3215791 -0.06290033 -0.1887565 -0.5011305 0.22444625 0.3688239
-0.08379969 -0.82654333 -0.098710194 -0.45675316 0.06589415 0.45486394 -0.117968954 -0.2951469
0.2519712 0.27758837 0.28615758 0.40545636 -0.6863516 -0.05689627 0.039193965 -0.05107971
-0.3947016 0.25283077 -0.43517408 0.29901144 -0.09334302 0.37824017 0.28076825 0.09157202
0.007361856 0.042335976 0.34343657 0.09720262 -0.38191786 0.25048128 -0.20277573 0.447138
-0.13763013 -0.34905776 0.33410355 -0.018051527 -0.3630482 -0.4404379 0.16631319 0.06060455
-0.024285883 0.085699126 -0.3190885 -0.075410895 0.7708348 0.4752202 -0.044585437 0.04203796
-0.31221715 -0.0474523 -0.2630324 -0.010348258 0.27037516 0.22427921 0.31450674 0.01933221
-0.26573253 -0.2717669 -0.31409594 -0.29809403 0.3742274 0.3514277 -0.2627368 0.19982737
0.27474347 0.20277022 0.37776145 0.51266414 0.11092032 0.34078404 0.264223 0.07242721
0.28127897 -0.3590046 -0.2032396 -0.42174467 0.3141672 -0.0011810437 -0.095906 -0.17871046
-0.46409935 -0.13017379 -0.15715982 -0.57639843 0.30590776 -0.2657161 -0.46412298 0.3283993
0.3802565 0.17135571 0.19583866 0.01707089 -0.120681465 -0.2710688 -0.2463597 0.118533716
0.24001484 -0.59956706 0.38019767 0.23943554 -0.11220979 -0.3096947 0.054169368 -0.48947078
-0.028451804 -0.04250976 -0.014507861 0.09607362 -0.19250302 -0.39082217 -0.30268893 -0.28419468
0.027131544 0.22618203 -0.2682285 0.38715643 0.5209521 0.45251632 -0.16240877 -0.37295938
-0.031901658 0.19751586 -0.334793 -0.35973886 0.31845355 0.3526937 -0.14758208 0.24158551
-0.026761383 -0.03010228 -0.15177056 0.21391977 0.33489734 0.50766945 0.092040636 -0.60797054
0.25800976 -0.029369632 -0.20802131 0.3093914 0.4442263 0.49264553 0.27738547 0.15498959
0.27558288 -1.011259 0.14840443 -0.29107797 -0.49560738 -0.008022824 -0.03604044 0.11890012
-0.1995662 -0.5433949 -0.0969018 -0.232986 0.59478134 0.100750074 -0.13339506 0.044363104
-0.26784337 -0.07068553 0.28561518 -0.37602517 -0.998623 -0.2460695 0.19906142 -0.10697673
-0.24889079 -0.40261096 -0.3905044 -0.07263329 0.658392 0.2551855 -0.12855813 -0.14605075
0.3608962 0.12451289 0.3668055 0.05649434 -0.111854844 0.44503218 0.031568274 0.15662178
0.08419551 -0.0044062347 0.66773367 0.5226236 -0.06338189 0.38768104 0.048268452 0.4070264
0.49866793 0.12656695 -0.12771581 -0.26422524 0.79588825 -0.14142323 -0.25662082 -0.62064165
0.39007598 -0.48517448 0.598061 -0.1561546 -0.03856715 -0.19226104 -0.08547056 -0.06444969
-0.11444909 -0.09773382 0.39846143 -0.11050436 -0.0071238615 0.5446149 0.33862093 0.20535873
-0.25464982 -0.024835233 0.07883935 -0.05691873 -0.065268725 0.49019614 0.42404568 -0.26943934
00000000: 6364 3e3e dcb4 c0be 63d5 a3be ae90 1dbf
00000010: f891 7bbd 05c4 4abd 323b fe3d 8c22 e03d
00000020: 94c6 7a3c 314d a13e 0070 8e3d 23d5 fc3e
00000030: 499e ccbd 9b63 ecbe 2da6 29bd 8298 9bbe
00000040: 0224 89be c7bb 9e3e c144 3f3e 5823 813d
00000050: 6970 a43e c16c d4be 1535 e93e 7bb4 213d
00000060: bf57 af3e 1e3f 1abd 04a6 a43e e3d1 80bd
00000070: 6249 41be 174a 00bf 3dd5 653e 7cd6 bc3e
00000080: 2c9f abbd 5898 53bf 9228 cabd 8ddb e9be
00000090: 83f3 863d ede3 e83e b599 f1bd 7f1d 97be
000000a0: 5e02 813e 1020 8e3e 3f83 923e fa97 cf3e
000000b0: bdb4 2fbf 100c 69bd da89 203d f538 51bd
000000c0: 5416 cabe 0973 813e 23cf debe 0718 993e
000000d0: a02a bfbd b2a8 c13e dbc0 8f3e 1c8a bb3d
000000e0: b93b f13b 7d68 2d3d ebd6 af3e 2b12 c73d
000000f0: bd8a c3be 153f 803e 71a4 4fbe 46ef e43e
00000100: eaee 0cbe b3b7 b2be 9f0f ab3e cce0 93bc
00000110: 74e1 b9be 1481 e1be 014e 2a3e 7a3c 783d
00000120: 30f3 c6bc 0683 af3d 915f a3be 0771 9abd
00000130: 6e55 453f 1050 f33e 389f 36bd ff2f 2c3d
00000140: edda 9fbe 585d 42bd 2fac 86be bd8b 29bc
00000150: 9d6e 8a3e 73a9 653e 0707 a13e 955e 9e3c
00000160: 180e 88be 0825 8bbe 2fd1 a0be c89f 98be
00000170: bc9a bf3e 55ee b33e 7085 86be 8c9f 4c3e
00000180: 2dab 8c3e ffa2 4f3e f369 c13e f53d 033f
00000190: 312a e33d 3f7b ae3e 3d48 873e b854 943d
000001a0: cc03 903e 73cf b7be 0b1e 50be ebee d7be
000001b0: 86da a03e 40cd 9aba 5d6a c4bd e0ff 36be
000001c0: 6e9e edbe 474c 05be 81ee 20be d98e 13bf
000001d0: f19f 9c3e f10b 88be 87a1 edbe f423 a83e
000001e0: fbb0 c23e df77 2f3e ee89 483e 40d8 8b3c
000001f0: d827 f7bd 88c9 8abe b845 7cbe cec1 f23d
00000200: 73c6 753e 3a7d 19bf 45a9 c23e 972e 753e
00000210: 3fce e5bd 4e90 9ebe b3e0 5d3d ea9b fabe
00000220: c213 e9bc b71e 2ebd 61b2 6dbc 3fc2 c43d
00000230: 831f 45be d819 c8be 0bfa 9abe f781 91be
00000240: f942 de3c 439c 673e 3f55 89be 5e39 c63e
00000250: 1e5d 053f 38b0 e73e 7c4e 26be 88f4 bebe
00000260: 50ab 02bd 9941 4a3e fd69 abbe b12f b8be
00000270: 580c a33e 4594 b43e c21f 17be 3162 773e
00000280: b03a dbbc 0f99 f6bc be69 1bbe c90d 5b3e
00000290: aa77 ab3e a0f6 013f cd7f bc3d f5a3 1bbf
000002a0: db19 843e 9598 f0bc 8a03 55be 8d68 9e3e
000002b0: a171 e33e 093c fc3e 7805 8e3e 97b5 1e3e
000002c0: 3319 8d3e ef70 81bf 55f7 173e 2c08 95be
000002d0: 40c0 fdbe 2a72 03bc 249f 13bd e881 f33d
000002e0: 155b 4cbe ee1b 0bbf 7374 c6bd e293 6ebe
000002f0: 9743 183f 0e56 ce3d b798 08be 16b6 353d
00000300: c422 89be 93c3 90bd 273c 923e 5f86 c0be
00000310: c2a5 7fbf a5f9 7bbe c2d6 4b3e 9e16 dbbd
00000320: 3add 7ebe 0623 cebe 31f0 c7be c3c0 94bd
00000330: 618c 283f ada7 823e bea4 03be 548e 15be
00000340: 63c7 b83e 9d00 ff3d eecd bb3e 9c66 673d
00000350: 2714 e5bd 42db e33e bc4d 013d 7661 203e
00000360: b26e ac3d 2d62 90bb 98f0 2a3f a9ca 053f
00000370: 5dce 81bd 217e c63e 24b5 453d c465 d03e
00000380: 6751 ff3e c49a 013e efc7 02be 8848 87be
00000390: 55bf 4b3f 40d1 10be ce63 83be 5fe2 1ebf
000003a0: 0ab8 c73e ca68 f8be 871a 193f fee6 1fbe
000003b0: 96f8 1dbd 14e0 44be 300b afbd 33fe 83bd
000003c0: 4964 eabd ab28 c8bd 2303 cc3e 1c50 e2bd
000003d0: 486f e9bb e26b 0b3f b95f ad3e 8f49 523e
000003e0: 7661 82be 4273 cbbc 8676 a13d 9d23 69bd
000003f0: 9cab 85bd fdfa fa3e 841c d93e f4f3 89be

fc1.bias f4 [256]
0.33557937 0.14324392 0.2651675 -0.0030253401 0.05110698 0.15706196 0.079055086 -0.27012515
0.07087856 -0.044739474 -0.14390008 -0.09664799 -0.14230527 0.32042363 0.019054411 -0.0064450377
-0.18148571 -0.3432122 0.21335441 0.26993212 0.28969643 0.38730812 0.12936166 -0.14962335
-0.082407236 -0.19749923 -0.2098295 0.010867198 -0.25910822 -0.09667237 0.2332329 0.14072336
-0.10647141 -0.073079474 -0.044623412 -0.046463627 -0.1800274 -0.1140679 -0.19481453 0.37644273
-0.06935315 0.060590282 0.015872873 -0.021295177 -0.1534567 -0.18417701 -0.17874618 0.036723513
-0.21180286 0.22272022 0.24293092 0.07216318 -0.056962863 -0.17884308 0.18522377 -0.05608856
0.117354274 0.057802618 -0.17376718 -0.12324126 -0.19525297 -0.33282968 -0.099221915 0.012946765
-0.112716295 -0.14049701 0.22987935 -0.09021195 -0.25283423 0.24868713 -0.21746714 -0.092778005
-0.20047487 -0.067795485 0.019354427 0.26465398 -0.0634545 -0.18637356 0.14364167 -0.09148001
-0.04324857 0.31102327 -0.29594114 -0.05777397 0.27999035 -0.24053131 -0.06927794 -0.14753136
0.09533334 -0.10262997 -0.010767287 -0.012492151 0.3305506 -0.008595036 0.19429547 0.20896617
0.21043235 -0.27486432 -0.17836632 0.34435895 -0.31040156 0.3739417 -0.11959546 0.0172667
-0.092033535 0.18474725 0.2939657 -0.07527914 -0.121014014 0.18671146 0.3342714 0.103417136
0.21904075 -0.22562115 0.026618656 0.2468549 0.1478929 -0.18880011 0.1372182 -0.00057197834
0.33619916 0.15083303 0.008016357 0.028473683 0.35849306 -0.09845071 -0.11710345 -0.21877226
-0.12537308 0.046166647 0.4501251 -0.021869093 -0.16170293 0.078302875 -0.0048084324 -0.12970458
-0.12414184 -0.16319695 0.12334702 0.06288284 0.3799817 -0.26087064 -0.015981318 0.09353474
0.005715973 -0.33969435 -0.10784247 0.41831395 0.018777488 -0.19001493 0.03702006 0.033745527
0.24496514 0.21548416 0.023722304 0.35077128 0.00643714 0.18391533 -0.16484654 0.14466108
0.04666902 -0.012321274 0.35241312 0.3631485 -0.102993354 -0.13117985 0.3755538 0.15750243
-0.31260383 -0.20177759 0.014582189 -0.20609728 0.020569582 0.06435891 0.20331691 0.16199209
0.046895403 -0.03512146 -0.03564987 0.21206145 -0.0053530997 -0.15509316 0.36212832 0.10890399
0.03732983 0.048623003 -0.18971868 -0.26214385 0.30079406 -0.10153139 -0.010058412 0.13239244
0.48889285 -0.12072603 -0.14971717 0.041571815 0.2591286 0.21685089 -0.1112066 0.15277636
-0.116386205 0.30002916 0.43089902 -0.084781595 -0.24224332 0.198732 -0.14404906 0.23995905
-0.17091282 0.3689181 -0.030217515 -0.07725865 -0.027999533 -0.088817134 -0.23761386 -0.22942406
0.12481109 0.07449824 0.101094745 -0.16674425 0.101667255 0.34026432 -0.04020893 -0.047035683
0.3950013 -0.030190706 0.21220796 -0.04933779 -0.023991501 -0.039194077 0.24211681 0.033413727
0.32187024 0.41974363 -0.041790746 0.0091683995 0.22367075 -0.032227106 -0.0609632 0.4201566
0.019173097 0.13189468 0.16949157 -0.09747755 -0.049617942 -0.16114447 0.4634004 0.08205541
0.24198419 0.29586068 -0.08094853 -0.14788929 -0.09771132 0.3892591 -0.090614185 0.11100873
00000000: 0fd1 ab3e 89ae 123e 09c4 873e c944 46bb
00000010: 8d55 513d dad4 203e a2e7 a13d d84d 8abe
00000020: c728 913d bd40 37bd 8b5a 13be 62ef c5bd
00000030: 79b8 11be 910e a43e ff17 9c3c e530 d3bb
00000040: 64d7 39be 82b9 afbe 9479 5a3e 8b34 8a3e
00000050: 1753 943e 404d c63e 6277 043e dd36 19be
00000060: 20c5 a8bd 3d3d 4abe 8bdd 56be 550c 323c
00000070: d5a9 84be 2afc c5bd 9bd4 6e3e c919 103e
00000080: af0d dabd b1aa 95bd 0ac7 36bd a550 3ebd
00000090: 1a59 38be 6e9c e9bd 767d 47be 1abd c03e
000000a0: 0609 8ebd 842d 783d d407 823c 3973 aebc
000000b0: c123 1dbe e698 3cbe 3d09 37be 656b 163d
000000c0: d9e2 58be c510 643e e2c2 783e 4aca 933d
000000d0: e451 69bd a422 37be 4dab 3d3e 1ebd 65bd
000000e0: 7057 f03d 70c2 6c3d 06f0 31be ea65 fcbd
000000f0: 65f0 47be a768 aabe dc34 cbbd ab1e 543c
00000100: cdd7 e6bd 73de 0fbe 7e65 6b3e 0bc1 b8bd
00000110: 7d73 81be d7a7 7e3e b5af 5ebe 6502 bebd
00000120: 4949 4dbe 5cd8 8abd 2d8d 9e3c ba80 873e
00000130: 6ff4 81bd b6d8 3ebe cd16 133e df59 bbbd
00000140: 6a25 31bd 713e 9f3e 9985 97be 66a4 6cbd
00000150: e55a 8f3e d74d 76be 98e1 8dbd 7612 17be
00000160: 203e c33d a92f d2bd 4669 30bc e1ab 4cbc
00000170: ee3d a93e 32d2 0cbc 64f5 463e 3afb 553e
00000180: 947b 573e 04bb 8cbe a9a5 36be d14f b03e
00000190: f4ec 9ebe 4975 bf3e 77ee f4bd e572 8d3c
000001a0: 147c bcbd 622e 3d3e ac82 963e f32b 9abd
000001b0: 32d6 f7bd 4a31 3f3e 9f25 ab3e 5dcc d33d
000001c0: 384c 603e 3b09 67be 5e0f da3c 88c7 7c3e
000001d0: 3d71 173e d154 41be ee82 0c3e d1f0 15ba
000001e0: 4c22 ac3e f973 1a3e 0a57 033c a441 e93c
000001f0: 678c b73e 87a0 c9bd efd3 efbd d605 60be
00000200: cd61 00be 3d19 3d3d cc76 e63e d026 b3bc
00000210: 7495 25be 425d a03d 0e90 9dbb 47d1 04be
00000220: 143e febd 1a1d 27be 5d9d fc3d b8c8 803d
00000230: f68c c23e d690 85be 41eb 82bc 248f bf3d
00000240: 0f4d bb3b 6bec adbe 83dc dcbd 3f2d d63e
00000250: 3fd3 993c 4693 42be 59a2 173d c038 0a3d
00000260: 24d8 7a3e e1a7 5c3e 4755 c23c 4b98 b33e
00000270: a5ee d23b 4d54 3c3e 88cd 28be 0922 143e
00000280: 0428 3f3d 2bdf 49bc 7e6f b43e 9aee b93e
00000290: 2eee d2bd 0354 06be 9648 c03e 5148 213e
000002a0: 9c0d a0be c99e 4ebe 22ea 6e3c 2a0b 53be
000002b0: 8a81 a83c 9bce 833d 4f32 503e 41e1 253e
000002c0: 6515 403d 85db 0fbd 9905 12bd a326 593e
000002d0: 0e69 afbb bed0 1ebe e268 b93e 0e09 df3d
000002e0: 2ae7 183d ea28 473d 9d45 42be b837 86be
000002f0: ae01 9a3e b0ef cfbd 0acc 24bc e291 073e
00000300: 2a50 fa3e 353f f7bd 754f 19be 3547 2a3d
00000310: 81ac 843e 290e 5e3e 49c0 e3bd 6871 1c3e
00000320: e45b eebd 6c9d 993e cc9e dc3e f9a1 adbd
00000330: a20e 78be 6780 4b3e 9981 13be d3b7 753e
00000340: c503 2fbe d5e2 bc3e b98a f7bc c839 9ebd
00000350: 475f e5bc c2e5 b5bd 0c51 73be 24ee 6abe
00000360: f59c ff3d 8992 983d c30a cf3d 01bf 2abe
00000370: ec36 d03d 2037 ae3e 1eb2 24bd 7da8 40bd
00000380: 9c3d ca3e 8052 f7bc 0b4d 593e 6c16 4abd
00000390: d389 c4bc f889 20bd 78ed 773e d5dc 083d
000003a0: 2dcc a43e a3e8 d63e c62c 2bbd 0e37 163c
000003b0: f209 653e 9200 04bd 8cb4 79bd c41e d73e
000003c0: e610 9d3c 660f 073e 338f 2d3e 4fa2 c7bd
000003d0: 2f3c 4bbd 0e03 25be d142 ed3e ab0c a83d
000003e0: b4ca 773e 0d7b 973e 58c8 a5bd 4a70 17be
000003f0: df1c c8bd f84c c73e ee93 b9bd 8c58 e33d

fc2.weight f4 [256, 256]
-0.55353194 -0.23407483 0.14072934 -0.32338873 -0.28763685 -0.08589841 -0.2778537 0.1849134
-0.047526546 0.05872704 -0.054505102 -0.5697132 -0.122800685 -0.08888985 -0.4887569 -0.057748053
-0.028979115 0.007048316 -0.29650006 0.06024294 -0.12748057 0.050166026 -0.19786756 -0.21896411
0.19984585 -0.14970925 -0.30438003 0.19883707 -0.054876298 -0.138139 0.16397293 0.17710301
-0.1004538 -0.34155938 -0.2039162 -0.18439253 -0.31728533 0.09960152 0.18593852 -0.06000947
0.13751286 -0.0024678237 -0.26589787 -0.56461287 -0.40628415 0.14615266 -0.36741525 -0.2813106
0.21498677 0.1111459 0.098243736 0.062377907 -0.78493273 -0.044486348 0.17462361 0.22162805
-0.37328777 -0.34226358 0.09509737 -0.004635143 0.07402221 -0.31888345 -0.39324683 -0.2773827
0.006434175 -0.15545121 -0.071005285 -0.14027233 0.16873321 -0.26045242 0.024430867 -0.64731854
0.05789307 -0.011387317 0.034934636 0.28449383 -0.41813093 -0.32912022 -0.24032031 0.07709729
-0.05753923 -0.3734203 -0.36043233 -0.1745358 -0.7513499 -0.35420758 0.11076311 -0.21560687
-0.4712877 -0.12240614 -0.26381373 -0.6460896 -0.536666 -0.2833006 -0.13351396 -0.50668603
0.14405786 -0.11763595 -0.123017445 0.21537068 -0.035924807 -0.11609993 -0.21527721 0.53820664
-0.48687088 0.14932898 -0.3058368 -0.3542298 -0.503675 -0.09679531 0.21793883 -0.103772834
-0.14374287 -0.23806593 -0.557036 -0.06711938 -0.5603655 -0.26822916 0.04531109 0.052632216
0.20343514 -0.31376964 0.021847174 -0.24369162 -0.25655934 -0.1482049 -0.17612097 -0.0846088
-0.059003837 0.20012642 -0.58774424 -0.21998346 -0.03612292 -0.0474893 -0.2404411 -0.16757666
-0.32724437 0.11916963 -0.018500425 -0.29576352 0.19467747 -0.19309399 0.13919921 -0.6691083
-0.019426743 0.20686124 -0.45444256 0.1856362 0.21039672 -0.26858622 -0.0946054 0.50456893
0.16735426 0.13540965 -0.39022273 -0.62925875 0.2514185 -0.38830718 -0.29194492 0.025362546
-0.05943484 -0.37376347 0.16437146 0.1323328 0.14430049 -0.40221092 0.17463708 0.15642753
0.4021163 -0.2988093 0.6887085 0.20516197 -0.06358804 0.4224907 -0.14262512 0.1578218
-0.26282215 -0.23302269 -0.23389795 -0.16775651 0.46293414 0.1339463 -0.28231695 0.27154693
-0.52627486 0.2289345 -0.67881656 -0.91392225 0.21137704 0.20237742 -0.0411009 0.16103409
0.17443632 -0.1266043 0.005744213 0.5869816 -0.05736299 0.076687306 -0.025791476 0.1088
-0.5216226 -0.42541614 0.075132385 -0.19803245 0.20381504 -0.058573592 -0.112233534 0.030952813
-0.15438709 0.2482346 0.10943193 0.16776218 -0.1558772 0.1524903 -0.24524857 -0.8005023
0.21951322 0.15457606 -0.5185648 -0.18713221 -0.47499987 0.030642621 -0.4319743 -0.0329902
0.10335078 -0.22592875 -0.13064891 0.4090404 -0.26111192 -0.26270124 -0.5024725 0.28901112
0.29596776 0.28627434 -0.349152 -0.07421854 0.26409036 -0.23901427 -0.18011343 -0.16562699
0.2661513 0.20734178 -0.36444047 -0.013188378 -0.45769113 -0.14091405 -0.16381022 -0.3357238
0.046661366 0.21677683 -1.099424 -0.23621729 -0.14596957 0.020408701 -0.018961268 0.2822332
00000000: 45b4 0dbf 50b1 6fbe 5a1b 103e 3593 a5be
00000010: 2345 93be 81eb afbd d742 8ebe f059 3d3e
00000020: 32ab 42bd c48b 703d be40 5fbd b9d8 11bf
00000030: ed7e fbbd e20b b6bd 583e fabe 3989 6cbd
00000040: 9c65 edbc 8ff5 e63b dbce 97be 4dc1 763d
00000050: 448a 02be e47a 4d3d cb9d 4abe 2138 60be
00000060: 64a4 4c3e 624d 19be b3d7 9bbe f29b 4b3e
00000070: f8c5 60bd 4f74 0dbe 85e8 273e 7e5a 353e
00000080: b9ba cdbd dfe0 aebe 69cf 50be 65d1 3cbe
00000090: 3973 a2be e2fb cb3d ab66 3e3e 7dcc 75bd
000000a0: 2cd0 0c3e 36bb 21bb c423 88be 788a 10bf
000000b0: 7a04 d0be 0ba9 153e da1d bcbe f107 90be
000000c0: 7e25 5c3e 76a0 e33d 0334 c93d fa7f 7f3d
000000d0: 5af1 48bf 5137 36bd 88d0 323e 77f2 623e
000000e0: 931f bfbe 2c3d afbe 69c2 c23d 66e2 97bb
000000f0: f598 973d b144 a3be a657 c9be 1b05 8ebe
00000100: c6d5 d23b 9a2e 1fbe 386b 91bd 8da3 0fbe
00000110: 66c8 2c3e 055a 85be 3e23 c83c abb6 25bf
00000120: 4921 6d3d df91 3abc 9f17 0f3d 2da9 913e
00000130: 4215 d6be 7282 a8be 8716 76be 2fe5 9d3d
00000140: 41ae 6bbd f230 bfbe 968a b8be 83b9 32be
00000150: 7858 40bf b25a b5be c5d7 e23d 0cc8 5cbe
00000160: 9f4c f1be 12b0 fabd 9812 87be 2166 25bf
00000170: f162 09bf c70c 91be e2b7 08be 2db6 01bf
00000180: e783 133e 1eeb f0bd 92f0 fbbd 228a 5c3e
00000190: e425 13bd cdc5 edbd a171 5cbe e9c7 093f
000001a0: 2447 f9be b2e9 183e a496 9cbe 9c5d b5be
000001b0: d8f0 00bf 9f3c c6bd 5b2b 5f3e da86 d4bd
000001c0: 5531 13be 8ec7 73be e999 0ebf e375 89bd
000001d0: 1d74 0fbf 5555 89be 1f98 393d e194 573d
000001e0: 4d51 503e 6aa6 a0be d8f8 b23c 4c8a 79be
000001f0: bf5b 83be 06c3 17be 0e59 34be 6147 adbd
00000200: 02ae 71bd f1ed 4c3e 6876 16bf 5843 61be
00000210: a1f5 13bd 2484 42bd 3136 76be 3799 2bbe
00000220: 938c a7be 350f f43d 348e 97bc 516e 97be
00000230: 8859 473e 6eba 45be 3d8a 0e3e ae4a 2bbf
00000240: d524 9fbc 6fd3 533e b2ac e8be 6a17 3e3e
00000250: 3d72 573e 2284 89be 7ac0 c1bd 6e2b 013f
00000260: ea5e 2b3e d4a8 0a3e 46cb c7be 1a17 21bf
00000270: edb9 803e 33d0 c6be ce79 95be 1dc5 cf3c
00000280: f271 73bd ed5d bfbe fe50 283e 4082 073e
00000290: 82c3 133e 97ee cdbe 10d4 323e 8a2e 203e
000002a0: 30e2 cd3e 88fd 98be 334f 303f fb15 523e
000002b0: 723a 82bd b350 d83e 520c 12be 0a9c 213e
000002c0: a090 86be 809d 6ebe f282 6fbe 5dc8 2bbe
000002d0: b405 ed3e 3829 093e d98b 90be 3308 8b3e
000002e0: f3b9 06bf ce6d 6a3e ecc6 2dbf cff6 69bf
000002f0: 3973 583e 073c 4f3e 6b59 28bd 1fe6 243e
00000300: 6f9f 323e 8fa4 01be f339 bc3b 6d44 163f
00000310: 74f5 6abd 3c0e 9d3d a548 d3bc 89d2 de3d
00000320: 0f89 05bf 25d0 d9be 02df 993d 05c9 4abe
00000330: e4b4 503e ddea 6fbd b2da e5bd c190 fd3c
00000340: a617 1ebe 3631 7e3e d91d e03d d9c9 2b3e
00000350: 469e 1fbe 6b26 1c3e 7122 7bbe b8ed 4cbf
00000360: 13c8 603e 3049 1e3e aac0 04bf 969f 3fbe
00000370: 2f33 f3be 3c06 fb3c bc2b ddbe bb20 07bd
00000380: 93a9 d33d de59 67be d4c8 05be be6d d13e
00000390: 76b0 85be c780 86be 0aa2 00bf 44f9 933e
000003a0: 1689 973e 8d92 923e 0dc4 b2be e4ff 97bd
000003b0: da36 873e 28c0 74be a86f 38be 1f9a 29be
000003c0: fc44 883e 6751 543e f197 babe 1114 58bc
000003d0: 7e56 eabe c64b 10be debd 27be fde3 abbe
000003e0: fd1f 3f3d bffa 5d3e edb9 8cbf f2e2 71be
000003f0: 0c79 15be 2630 a73c a954 9bbc df80 903e

fc2.bias f4 [256]
0.1196591 -0.0028564911 -0.015778428 0.074158326 -0.09482902 -0.10255309 -0.075147726 -0.010961489
0.080166146 -0.050243188 -0.18488432 0.103410795 0.011234423 0.13032866 -0.000500244 -0.034669265
-0.033446718 0.053313103 0.07443272 -0.15260732 0.012177088 0.047014356 0.20521787 -0.14064105
-0.016999368 -0.06637367 0.02751744 -0.082706615 0.15870382 0.116367556 0.032360192 -0.06690321
-0.025797192 0.1968138 -0.10261866 -0.02061702 -0.08492224 0.049909133 0.05177801 0.11225667
-0.06693818 -0.036325756 0.08213656 -0.040163368 -0.103061564 -0.03804485 -0.028564543 0.22086021
0.09836331 0.0046953782 -0.09723218 -0.032932162 -0.019241434 0.06335532 -0.08775555 -0.10471192
0.15399005 -0.03365558 -0.053532604 0.0092332475 0.22104177 -0.030276064 0.0040647313 -0.036267623
0.007614001 0.09281392 -0.0281392 -0.07314637 -0.1100579 -0.08763037 -0.06694468 -0.003425224
-0.07801207 0.08855717 0.13149534 0.0019443012 0.1364361 0.06635716 0.23990288 -0.031596236
-0.0592125 0.0052827224 0.05090252 -0.027529614 -0.044041675 0.20471653 -0.1542998 -0.04952543
-0.06477675 -0.014431883 -0.08428665 0.15078256 0.06954937 -0.090085514 -0.057647217 -0.087532476
0.12794663 -0.05697747 -0.028286578 0.105945446 -0.10782187 0.042245843 0.041057218 0.00038675507
-0.05940412 -0.046514805 0.0028992246 -0.033810455 -0.055838495 0.007301021 -0.054254916 0.20177533
-0.034907866 0.0031980728 -0.09737218 -0.027765447 -0.043477867 -0.06388419 -0.055944648 0.06600319
0.19047022 -0.0276584 0.17228179 -0.008360617 0.10919704 0.008118467 -0.020568712 -0.027704945
0.081121765 0.02979973 0.18804078 0.031233419 -0.08400542 0.14496174 -0.10017735 -0.022923324
0.19633158 -0.08916264 -0.10621888 0.06931922 0.0032121518 -0.041414004 0.18619184 -0.016766893
0.131742 0.1737878 -0.076465406 0.092960976 -0.018080601 -0.03168161 -0.00091166474 -0.03744172
0.1190826 0.117446266 0.04929118 -0.016089031 -0.050296858 -0.060808543 -0.093509935 0.14087956
-0.075992525 -0.066637844 -0.036475286 -0.11026822 -0.10977605 -0.009186659 -0.078124546 0.14726608
-0.10175828 -0.0899912 -0.031032857 -0.08949688 0.09656224 -0.10842963 -0.0282556 -0.028992165
-0.039000053 -0.05113331 -0.122473694 -0.09500421 0.0040953513 -0.014108088 -0.114878856 0.14520067
-0.07303608 -0.043602653 -0.0590755 0.08135169 -0.122432016 -0.028358331 -0.057077583 0.03473406
0.069171175 -0.05700997 -0.19350569 -0.03368573 -0.07572994 -0.043141738 -0.09893215 -0.06789585
-0.025906242 -0.032168325 -0.008250261 0.042516686 0.04353146 -0.11262887 -0.055727445 0.07520742
0.10632935 0.10256862 -0.033239566 -0.12137399 -0.033637255 -0.009668551 -0.07733375 -0.01629126
0.12970473 -0.05387743 -0.047419608 -0.08754492 -0.062352948 0.08057398 -0.019797295 -0.09860571
-0.06293982 0.09340336 -0.08455089 -0.040485952 -0.051808324 -0.025056357 -0.1095112 0.029803263
0.052035876 -0.1088201 -0.050328173 -0.024970468 -0.044421457 -0.008952087 -0.042235207 0.13207708
-0.04165693 -0.033067293 -0.09665383 0.006130463 -0.06195362 0.003830485 0.022487286 0.018516194
0.043308407 -0.05444992 0.076215126 0.1944847 -0.09885553 -0.119627714 -0.12513661 -0.012074688
00000000: d50f f53d f833 3bbb c341 81bc 52e0 973d
00000010: b835 c2bd 5b07 d2bd 0de7 99bd d197 33bc
00000020: 262e a43d cdcb 4dbd 5152 3dbe 0ac9 d33d
00000030: 9610 383c e074 053e ce22 03ba 5c01 0ebd
00000040: 6dff 08bd d75e 5a3d 2f70 983d 1845 1cbe
00000050: 6982 473c 2092 403d a224 523e 3504 10be
00000060: 4242 8bbc ebee 87bd 416c e13c 1662 a9bd
00000070: 4183 223e 1d52 ee3d 1f8c 043d 8d04 89bd
00000080: a254 d3bc 8f89 493e bb29 d2bd 06e5 a8bc
00000090: b6eb adbd 856d 4c3d 2e15 543d d3e6 e53d
000000a0: e216 89bd 51ca 14bd 3637 a83d 5882 24bd
000000b0: f111 d3bd ebd4 1bbd 3000 eabc 2e29 623e
000000c0: b472 c93d b0db 993b aa21 c7bd e0e3 06bd
000000d0: 36a0 9dbc 6fc0 813d 2fb9 b3bd 3473 d6bd
000000e0: 91af 1d3e 6fda 09bd 0145 5bbd 0c47 173c
000000f0: c658 623e 8205 f8bc 7031 853b 5c8d 14bd
00000100: df7e f93b 3915 be3d 2e84 e6bc c4cd 95bd
00000110: 0966 e1bd 8d77 b3bd 4b1a 89bd b979 60bb
00000120: cbc4 9fbd 765d b53d b7a6 063e ecd7 fe3a
00000130: e8b5 0b3e 43e6 873d 1aa9 753e 0e6b 01bd
00000140: ce88 72bd b01a ad3b 297f 503d c985 e1bc
00000150: 0b65 34bd 36a1 513e c400 1ebe 2ddb 4abd
00000160: aca9 84bd b473 6cbc 7b9e acbd be66 1a3e
00000170: e66f 8e3d c17e b8bd 7d1f 6cbd 3a44 b3bd
00000180: 7104 033e 3561 69bd 41b9 e7bc edf9 d83d
00000190: b6d1 dcbd fa09 2d3d 9d2b 283d 63c5 ca39
000001a0: bc51 73bd 4f86 3ebd eb00 3e3b d57c 0abd
000001b0: e8b6 64bd 673d ef3b 673a 5ebd 319e 4e3e
000001c0: 8dfb 0ebd c296 513b 116b c7bd 5d74 e3bc
000001d0: d915 32bd b7d5 82bd 3726 65bd ae2c 873d
000001e0: a00a 433e de93 e2bc a36a 303e f8fa 08bc
000001f0: b3a2 df3d 5203 053c b77f a8bc 7bf5 e2bc
00000200: 2b23 a63d 901e f43c c38d 403e 3add ff3c
00000210: 090b acbd da70 143e c829 cdbd b2c9 bbbc
00000220: 250b 493e e79a b6bd 4989 d9bd 3cf7 8d3d
00000230: f782 523b bba1 29bd 13a9 3e3e b95a 89bc
00000240: 60e7 063e 6ef5 313e e599 9cbd 5362 be3d
00000250: c51d 94bc 93c4 01bd c9fc 6eba 7d5c 19bd
00000260: 94e1 f33d ab87 f03d 8ce5 493d 25cd 83bc
00000270: 1404 4ebd 6112 79bd 2382 bfbd bb42 103e
00000280: f8a1 9bbd 6c79 88bd 1c67 15bd 4ed4 e1bd
00000290: 44d2 e0bd a483 16bc c3ff 9fbd ebcc 163e
000002a0: a566 d0bd 4e4d b8bd 9e38 febc 244a b7bd
000002b0: 6cc2 c53d 5b10 debd 4a78 e7bc fa80 edbc
000002c0: 85be 1fbd 2971 51bd 7dd3 fabd 9191 c2bd
000002d0: 4c32 863b 9c25 67bc 9b45 ebbd 7caf 143e
000002e0: f193 95bd b298 32bd 27f9 71bd b79b a63d
000002f0: a3bd fabd bb4f e8bc 2fca 69bd 4d45 0e3d
00000300: 9ea9 8d3d 4983 69bd 5b26 46be 0cfa 09bd
00000310: 4c18 9bbd 64b5 30bd f09c cabd fb0c 8bbd
00000320: 5439 d4bc efc2 03bd 1a2c 07bc fa25 2e3d
00000330: 0b4e 323d f7a9 e6bd 7642 64bd 5906 9a3d
00000340: 34c3 d93d 7f0f d23d 3626 08bd ed92 f8bd
00000350: 38c7 09bd d868 1ebc 2861 9ebd 4075 85bc
00000360: 51d1 043e 94ae 5cbd 103b 42bd c04a b3bd
00000370: ce65 7fbd f903 a53d f02d a2bc caf1 c9bd
00000380: 98e6 80bd 434a bf3d 0429 adbd 99d4 25bd
00000390: f734 54bd fd42 cdbc 6847 e0bd f925 f43c
000003a0: 9223 553d 13dd debd ea24 4ebd de8e ccbc
000003b0: 46f3 35bd c6ab 12bc d3fe 2cbd 373f 073e
000003c0: 75a0 2abd 9271 07bd 71f2 c5bd 0de2 c83b
000003d0: 14c3 7dbd e008 7b3b 4237 b83c 46af 973c
000003e0: 2864 313d e106 5fbd ad16 9c3d ff26 473e
000003f0: c574 cabd 60ff f4bd d023 00be ead4 45bc

fc3.weight f4 [4, 256]
0.6821642 0.7464553 -0.23764543 0.27925277 -0.25831074 -0.19299392 -0.1633758 -0.18937565
0.7168638 -0.24549006 -0.07498685 0.63339204 -0.19300824 0.10196335 -0.1842473 -0.21552086
-0.26063368 0.016128838 0.53109306 -0.22061911 0.5041047 0.33032084 0.42085445 -0.18783875
-0.23746651 -0.19657297 -0.0063268985 -0.288801 0.42424336 0.49282885 -0.019901682 -0.2617364
-0.19768222 0.66453284 -0.18623348 -0.17338067 -0.22812173 0.50318825 0.6950236 -0.23528658
-0.23954509 0.3530604 0.21332704 -0.23433243 -0.1959629 -0.17849833 -0.2355009 0.45309967
0.720593 -0.0076060444 -0.18119732 -0.20386475 -0.23795746 0.72370315 -0.27033287 -0.2301868
0.37657022 -0.23023354 -0.1813934 -0.14613397 0.28213513 -0.1731414 -0.042625636 -0.15846601
-0.24315041 0.5449111 0.017384624 -0.22550537 -0.23370276 -0.15210901 -0.26123115 -0.1721525
-0.19133139 0.3879318 0.34319064 -0.07986225 0.6540331 0.7026022 0.3296944 -0.15949777
-0.1920081 -0.05074243 0.4856976 -0.2267987 -0.19390635 0.3701211 -0.18911874 -0.1757564
-0.21108116 -0.26070285 -0.18399204 0.46188137 0.7276588 -0.17197306 -0.2567066 -0.16121764
0.43136466 -0.26323098 -0.2675021 0.63834745 -0.18786688 0.40110555 -0.3589828 -0.22237712
-0.2745747 -0.25837365 -0.3272111 0.047964063 -0.32214883 -0.173554 -0.18256107 0.52895826
-0.25550982 -0.17781496 -0.20990883 0.028173827 0.027046926 -0.22400482 0.020815073 0.4637684
0.42726642 -0.19679837 0.30173057 -0.17455214 0.50134635 -0.15694565 -0.18623461 -0.2054387
0.39771128 -0.25377604 0.17305855 0.34556296 -0.24889474 0.588458 -0.21776369 -0.20006786
0.13774101 -0.20940429 -0.1768183 0.42560703 -0.22673546 -0.16979963 0.42676687 -0.21023925
0.44119155 0.3354064 -0.19912574 -0.12668557 -0.22994463 -0.1956503 -0.2545346 -0.24966826
0.4696916 0.24271616 0.41659996 -0.27119082 0.042534404 -0.15247983 -0.25977752 0.03733244
-0.21314725 -0.23447785 -0.28088674 -0.1775793 -0.17793146 -0.17105083 -0.13234828 0.325493
-0.26845977 -0.22848946 -0.20588766 -0.2682516 0.27321914 -0.18357323 -0.00071427226 -0.15972911
-0.25903022 -0.1950636 -0.17744577 -0.17156672 0.1546364 -0.16498916 -0.1710814 0.43492386
-0.16579644 -0.16914172 -0.30584314 0.44044042 0.08349999 -0.21425359 -0.2548486 0.4576009
0.5097039 -0.14719015 -0.20497093 -0.16715106 -0.19129725 -0.2140516 -0.19730778 -0.1585232
-0.27667215 -0.21746719 0.26033634 0.47010958 0.7539313 -0.22869627 -0.21646254 -0.052719835
0.44788444 -0.05870534 -0.019296622 -0.23662128 -0.18123135 -0.21460709 -0.24534865 -0.22872579
0.06925358 -0.26406005 -0.045175336 -0.23717436 -0.24498701 0.30868194 -0.19910473 -0.1583715
-0.18288162 0.45130587 -0.19293512 0.018387929 0.042973828 -0.23312207 -0.20663592 0.10956781
0.58155787 -0.16983613 -0.20628633 -0.23151746 0.11954336 -0.23742898 -0.08904657 0.68773866
-0.23393244 -0.18461981 -0.22759621 -0.21473426 -0.16153434 0.2469848 -0.058474932 0.20254464
0.0349817 -0.2304995 0.6787149 0.53146183 -0.21065524 -0.1946439 -0.22513518 -0.0637907
00000000: 50a2 2e3f b217 3f3f 5359 73be 38fa 8e3e
00000010: 4e41 84be 33a0 45be fc4b 27be b1eb 41be
00000020: 6384 373f bf61 7bbe b592 99bd fb25 223f
00000030: f4a3 45be 29d2 d03d 53ab 3cbe 80b1 5cbe
00000040: c771 85be a020 843c b7f5 073f fae9 61be
00000050: 010d 013f d01f a93e 3c7a d73e cd58 40be
00000060: 6c2a 73be 6d4a 49be df51 cfbb badd 93be
00000070: 6d36 d93e 1054 fc3e da08 a3bc 5002 86be
00000080: 356d 4abe d31e 2a3f fdb3 3ebe b48a 31be
00000090: be98 69be f2d0 003f 11ed 313f f7ee 70be
000000a0: 4f4b 75be 55c4 b43e 6772 5a3e d7f4 6fbe
000000b0: 80aa 48be 44c8 36be 2627 71be aefc e73e
000000c0: c878 383f 203c f9bb ca8b 39be ecc1 50be
000000d0: 1fab 73be 9c44 393f 1269 8abe 17b6 6bbe
000000e0: d0cd c03e 57c2 6bbe 31bf 39be 25a4 15be
000000f0: 0474 903e fb4b 31be 3898 2ebd ea44 22be
00000100: 6cfc 78be 4b7f 0b3f 336a 8e3c e1ea 66be
00000110: c74f 6fbe 77c2 1bbe 17c0 85be bf48 30be
00000120: 60ec 43be ff9e c63e afb6 af3e d28e a3bd
00000130: b76e 273f bddd 333f b4cd a83e 6253 23be
00000140: c59d 44be 4bd7 4fbd 5bad f83e eb3d 68be
00000150: 638f 46be 8380 bd3e 58a8 41be 7cf9 33be
00000160: a925 58be d87a 85be 6968 3cbe b77b ec3e
00000170: d947 3a3f b519 30be 0c6f 83be 3d16 25be
00000180: d4db dc3e 36c6 86be 09f6 88be bd6a 233f
00000190: 2d60 40be b55d cd3e 98cc b7be d4b6 63be
000001a0: 0e95 8cbe 8d49 84be 3788 a7be f775 443d
000001b0: b1f0 a4be 24b8 31be 4af1 3abe cf69 073f
000001c0: 2fd2 82be 2015 36be 57f2 56be cccc e63c
000001d0: 8491 dd3c 8561 65be 5f84 aa3c 0d73 ed3e
000001e0: aac2 da3e 8385 49be 6e7c 9a3e ccbd 32be
000001f0: 3c58 003f 5cb6 20be 49b4 3ebe 865e 52be
00000200: d0a0 cb3e efee 81be 4336 313e a1ed b03e
00000210: 43de 7ebe 2fa5 163f 72fd 5ebe 97de 4cbe
00000220: fb0b 0d3e 146e 56be db0f 35be 2ae9 d93e
00000230: 572d 68be f4df 2dbe 3081 da3e f548 57be
00000240: dce3 e13e 63ba ab3e 9ee7 4bbe ddb9 01be
00000250: 9b76 6bbe 8d58 48be 5c52 82be 09a9 7fbe
00000260: 6b7b f03e 968a 783e 974c d53e 86d9 8abe
00000270: 8e38 2e3d ac23 1cbe 8f01 85be e7e9 183d
00000280: 4643 5abe f61a 70be 63d0 8fbe 59d7 35be
00000290: aa33 36be f327 2fbe 4f86 07be 05a7 a63e
000002a0: 8f73 89be 24f9 69be 37d4 52be 4658 89be
000002b0: 61e3 8b3e 9ffa 3bbe 003e 3bba 0790 23be
000002c0: 9c9f 84be c1be 47be 58b4 35be 30af 2fbe
000002d0: 0159 1e3e ebf2 28be f62f 2fbe 57ae de3e
000002e0: 8bc6 29be 7d33 2dbe 7997 9cbe 6881 e13e
000002f0: 0b02 ab3d 4b65 5bbe 847b 82be aa4a ea3e
00000300: f47b 023f 04b9 16be e6e3 51be a629 2bbe
00000310: 6de3 43be 5830 5bbe 0d0b 4abe e853 22be
00000320: f9a7 8dbe b8af 5ebe ce4a 853e 34b2 f03e
00000330: a401 413f 5b2f 6abe 5ba8 5dbe c1f0 57bd
00000340: 1c51 e53e 0375 70bd f313 9ebc d94c 72be
00000350: b694 39be f6c1 5bbe ad3c 7bbe 1837 6abe
00000360: d2d4 8d3d e132 87be c609 39bd d6dd 72be
00000370: e0dd 7abe 8f0b 9e3e 1ce2 4bbe 232c 22be
00000380: 5245 3bbe 9011 e73e c990 45be 48a2 963c
00000390: 5305 303d 8db7 6ebe 5e98 53be 1765 e03d
000003a0: fae0 143f 86e9 2dbe b93c 53be ea12 6dbe
000003b0: 26d3 f43d 9520 73be 0c5e b6bd a40f 303f
000003c0: fc8b 6fbe fa0c 3dbe fb0e 69be 4ce3 5bbe
000003d0: 4269 25be 95e9 7c3e 6983 6fbd dd67 4f3e
000003e0: f948 0f3d 1008 6cbe 42c0 2d3f e20d 083f
000003f0: 02b6 57be bb50 47be d689 66be b3a4 82bd

fc3.bias f4 [4]
0.10465173 0.045431267 0.08221028 0.075520754
00000000: a553 d63d 2316 3a3d dd5d a83d a0aa 9a3d
